complete/reciprocal/state4.pt (torch, 10937 bytes, 9 tensors)

weight f4 [100, 1]
00000000: c4f6 553e b863 2d3e 7c0c 443f 9b9c 663f
00000010: 1450 25bf 8dd8 15bf 3c98 1fbf a582 7e3f
00000020: 77c2 06bf 2265 0d3f 4822 733e da23 ea3e
00000030: ec96 0c3f 5afa 0a3f 90b9 163f 262f 563f
00000040: 3fef 873e d5a3 1e3f 62c2 2ebf 7b14 54bf
00000050: 8d9a cbbe bcea 43bf 5f23 24bf 0ffd f23d
00000060: 52c4 593f d22a 0f3f 80f4 4bbd 2dab 103f
00000070: 50a2 1c3f c0db 1cbf ff85 5ebf 3972 773e
00000080: b07c a13d 8e99 f43d 786a 1d3e 4129 2cbd
00000090: 7da5 2d3f 87ca 45bf f04e 6f3f c806 283f
000000a0: 1a0c ddbe 55ce 1cbf f070 683f ffa9 f8be
000000b0: 400c 95be 4438 07bf 8f91 09bf 7d5e 8e3e
000000c0: bb62 b0be bf23 59bf 6225 2a3f 2c41 a03e
000000d0: 709e b5bd 70a8 6d3e b48c b7be 55ed f43e
000000e0: d8cc 09bf 3098 dabe 930f 073f 2257 18bf
000000f0: bafd a83e 37ed 7cbf 0d72 1ebf 0bdb 7d3f
00000100: 7603 73bf 482d 633f 8664 763f ce8b 333f
00000110: 526e 4c3f 5cc2 e2be 9950 383f 4ad8 64bf
00000120: 51b3 72bf 595b ee3e 3824 c93e d8aa 58be
00000130: 61c5 4a3f d262 2fbf b4bc 5fbf 4968 b6be
00000140: 1642 99bd 6004 713d b05a 95be ecf8 b53e
00000150: d4ea 473e c0c6 c93c 1d9a e33e b37d 7fbf
00000160: aa2f 5c3f 5bbb 583f 8428 42bf ec2a d7be
00000170: 79fb 4fbf 5b92 2c3f 942d cbbe fc2e 18bf
00000180: 2e37 a5bd 007b b73e 10e9 93bd 7df6 ea3e
0.20894915 0.16932571 0.7658155 0.9008271 -0.64575315 -0.58533555 -0.62341666 0.994181
-0.5264048 0.5523244 0.23743546 0.45730478 0.5491779 0.54288256 0.58876896 0.8366569
0.26549718 0.6196874 -0.68265355 -0.8284375 -0.3976635 -0.7653005 -0.6411647 0.11864673
0.85065186 0.55924714 -0.04979372 0.56511194 0.6118517 -0.6127281 -0.8692321 0.24164666
0.078851104 0.11943351 0.15372646 -0.04203153 0.6783064 -0.7726216 0.93479824 0.6563535
-0.43173295 -0.6125234 0.9079733 -0.48567197 -0.29110909 -0.5282023 -0.5373773 0.27806464
-0.34450325 -0.8482017 0.6646329 0.31299722 -0.0886811 0.23208785 -0.35849535 0.4783732
-0.5382819 -0.42694235 0.5275814 -0.59507954 0.33006078 -0.9879946 -0.6189278 0.9916236
-0.94927156 0.8874097 0.96247137 0.701352 0.79855835 -0.4428891 0.7199798 -0.8939253
-0.94804865 0.46554068 0.39285445 -0.21158922 0.79207426 -0.6851016 -0.87397313 -0.35626438
-0.07483308 0.058842063 -0.29170752 0.35541475 0.19523174 0.024630904 0.44453517 -0.99801177
0.8601023 0.8466088 -0.7584307 -0.42024934 -0.8124309 0.6741082 -0.3968321 -0.5944669
-0.08067165 0.3583603 -0.072221875 0.4589118

bias f4 [100]
00000000: 683a 233e 7222 743f a0b1 353f 60c9 b23e
00000010: 07f0 9fbd f22c 0abf f569 3e3f 3584 3bbe
00000020: d128 763e 154a 0cbf d0ba efbe 232f e9be
00000030: c0b5 34bf 262b 48bf 48f8 123f fb65 263e
00000040: bab7 303f 2e26 c4be c818 5ebf 0d01 06bf
00000050: 585a 6a3f e4f3 c73d a5ec 4c3f cc1f 5d3f
00000060: b99f c7be 615f 06bf c015 9cbe c244 87be
00000070: 5ab3 bd3e 5259 523f 5b74 073f d4e3 353e
00000080: 8815 fabe 782e 8abd 2802 10bf 51ca 1b3e
00000090: 6743 f93e 9fe3 dabd c0f3 24bf c31d 9d3e
000000a0: 1ae9 8d3e 5bb9 b6be cb1d 5d3f fe76 0d3f
000000b0: 76ac 25bf 9ef7 19bf 4aab 6b3f fe27 04be
000000c0: dd3e 01be ca27 d23d 6474 66bf 268f 3cbf
000000d0: e882 47bf aa7e 45bf 64b1 f63e f631 6c3f
000000e0: 636c 05bf ea2e 2bbf d7c9 a03e 4290 1fbf
000000f0: 1bfc 723f f9dd 21bf 3a66 98bd c6af c4be
00000100: 08e0 853e 9975 2b3f 69f8 0a3e 2fa0 0f3e
00000110: 5baa 02bc f41e 7cbf f72c 5abe ff5e 14bf
00000120: 57ed 243f dade 103d fa7a 14bc 081b 60be
00000130: 818f 24bd 2440 e63e 0912 6c3f 4c71 583f
00000140: 01df 6b3d 902d 93be b4fa 6dbf f218 24bf
00000150: 2b32 c3bd d683 2abf 75c2 2f3f c879 333f
00000160: 3a8d 79bf 84c7 613f 1dac 23bf ea22 0abf
00000170: 1a0e dcbe 2a08 a63e ef4b c8bc 2839 e4bd
00000180: d299 8cbd 9490 223f 940d a5be b416 8a3e
0.15940249 0.9536506 0.7097416 0.34919262 -0.078094535 -0.5397483 0.7438043 -0.18312152
0.24039008 -0.5480054 -0.46822214 -0.45543775 -0.7058983 -0.7819084 0.574101 0.1624984
0.69030344 -0.3831038 -0.86756563 -0.52345353 0.91544104 0.09763315 0.8004859 0.86376643
-0.38989046 -0.52489287 -0.30485344 -0.26419646 0.37050897 0.8216754 0.5291192 0.17762691
-0.48844552 -0.067471445 -0.5625329 0.15213896 0.48684236 -0.106879465 -0.64434433 0.3068677
0.27716905 -0.3568829 0.86373585 0.5525969 -0.6471628 -0.6014346 0.9205824 -0.12905881
-0.12621637 0.102614954 -0.9002135 -0.7365593 -0.7793412 -0.771464 0.48182213 0.92263734
-0.5211851 -0.6686846 0.31403992 -0.62329495 0.9491593 -0.6322933 -0.07441373 -0.38415354
0.26147485 0.66976315 0.13571323 0.14025949 -0.007975186 -0.9848473 -0.21306215 -0.5795745
0.6442465 0.035368778 -0.009062523 -0.21885312 -0.04017592 0.4497081 0.9221502 0.8454788
0.05758572 -0.287457 -0.9296067 -0.64100564 -0.09531053 -0.66607416 0.6865609 0.701077
-0.9748112 0.8819506 -0.639345 -0.53959525 -0.4297951 0.32428104 -0.02445027 -0.11143714
-0.068652764 0.6350186 -0.32236922 0.26970446

weight f4 [1, 100]
00000000: 7d8a 0abd bdb8 863d b91d 0d3e c3a7 653d
00000010: e65e d2bd ecde ccbd 95c7 a2bd 1da2 c83d
00000020: f20d eb3c fe18 593c 4cd2 c9bc 4435 a5bd
00000030: 6d9e a33d 17fe 6ebd 5150 883d 7d31 7a3c
00000040: e072 293e fd45 c5bc 2c21 09bd 6bef bd3d
00000050: 4bca 7f3d ac1e d3bd 9eaa bd3d a47e 863d
00000060: 9988 91bc 5bdb a93d 3dc8 59bd 4dda c5bd
00000070: cc95 f33c 7835 c3ba 3403 213d 62d2 71bd
00000080: 42ef 9cbd cf66 c1bd 850a 88bd bd5c 1b3c
00000090: 7362 2d3c 3513 02bc 74c7 d8bc 4cd8 cd3d
000000a0: e30c 11bc 14b7 a33d b89a 483d 50dd cabc
000000b0: e7af bb3d 30be 3dbd 64a8 8dbd 6d55 26bd
000000c0: 067a b0bd 569f b9ba a43a f33c 02e4 093d
000000d0: ec97 f3bc b263 c4bd 7af1 343c a0b3 283e
000000e0: 9e5d c1bd b014 1d3c 64de f33d 3f45 813d
000000f0: 8bab 8d3d 1ec3 a2bd 222d f5bd 6d61 9abc
00000100: 9c37 0fbe a16c 343d 5dc6 083e 6b99 bc3d
00000110: 9b12 8dbd f2f2 4d3d 17d3 363c f110 a03c
00000120: 1c37 d3bd 03be e53b ccf1 d83d 0c9e f6bc
00000130: 63a6 703d af80 a6bd 96a9 d6bd 431f ef3c
00000140: cf26 08bd 508d 57bc 7aaf 0a3d 598b 963d
00000150: 6736 0ebd e8e3 9e3c 19d3 343e 5949 abbd
00000160: 0966 ab3d cac2 9c3d afea 4d3c 272c b53d
00000170: 1ce6 6cbd 7f41 c63d 2948 9b3d f12b 81bd
00000180: 95c0 83bc 414e 313d 63a2 c23d fb91 ad3c
-0.03382348 0.06578205 0.1378087 0.056068193 -0.10272007 -0.100034565 -0.079482235 0.09796546
0.028693173 0.0132505875 -0.02463641 -0.080668 0.07989202 -0.058347788 0.06655944 0.015270588
0.16547728 -0.024081225 -0.0334789 0.09274181 0.06244878 -0.103085846 0.09261058 0.065671235
-0.01776533 0.08293792 -0.053169478 -0.09660778 0.029734515 -0.0014893254 0.039309695 -0.059038527
-0.07662822 -0.09443437 -0.066426314 0.00948256 0.010582554 -0.00793915 -0.026462294 0.10051021
-0.00885317 0.07993904 0.048975676 -0.024763733 0.0916441 -0.046323955 -0.069168836 -0.040608812
-0.08617024 -0.0014161866 0.029691048 0.03366471 -0.029735528 -0.09589328 0.011043901 0.16474771
-0.09441684 0.009587452 0.11907652 0.06312036 0.06917485 -0.07947372 -0.11971499 -0.018845284
-0.13986057 0.04404891 0.1335692 0.0920895 -0.06888314 0.05028052 0.011158726 0.019539328
-0.10313246 0.0070111766 0.10592994 -0.03010466 0.05875243 -0.08130013 -0.10481565 0.029189711
-0.033240136 -0.01315625 0.033858754 0.07350797 -0.03471985 0.019395784 0.17658652 -0.08363599
0.08369071 0.076543406 0.01256816 0.08846312 -0.057836637 0.09680461 0.07582123 -0.06307209
-0.016083041 0.04328752 0.09503629 0.021187773

train_data f4 [600, 1]
00000000: 0000 803f b90f da3e 98ef ef3e 03d8 a83e
00000010: b187 dfbe e459 bdbe 71ce 34bf 2e3d 61bf
00000020: a1ad 143f 6402 3dbf 1e2d 6cbf afe5 e03e
00000030: 8966 24bf 384c 853e 09be a43e c197 d43e
00000040: 8bd2 f83d dd22 c23d a50c 673e 283c 903e
00000050: aa86 0ebf 12b2 73bf 2564 673f ed32 b7bd
00000060: 6be8 383f 17f6 70bf 3b5a 583f 6c39 38bf
00000070: 9a91 ee3e 3574 5c3f 7805 303f 1998 6f3f
00000080: 7956 2f3f b76d db3e f318 33be 67a4 3bbf
00000090: 1e2d 6c3f 91b8 74be 1d12 97be dcd1 c2be
000000a0: 41ef 543f 2005 153e 0429 283e fe42 acbd
000000b0: 8eaa 213f 4391 533f 41ef 54bf 9eba 16bf
000000c0: 50ae 4abf e9ee b93c a34f 133f ad43 e23e
000000d0: 834a fe3d e89d babe 1cc1 17be 1c8b 6dbf
000000e0: 9c18 18bf a5f1 11bf 8673 263f a793 103f
000000f0: 3266 89be 1439 1d3e 4e0c 4cbf ca70 4e3e
00000100: ff93 ab3e bc02 d8bd 1847 70bf 16db 9b3d
00000110: 23a7 133d 9490 1dbf a5f1 113f 81a8 7fbe
00000120: 68f5 3abf 610f 3f3f 1146 9fbe 06e6 7b3f
00000130: 4e0c 4c3f 09d9 793f 1ae9 6ebf 808d 2a3f
00000140: d3f8 48be 81de 293f 0151 7f3f 3867 5a3f
00000150: 1010 753f 3559 07be 7663 31bf 3266 893e
00000160: 0a0f a4bc 3559 073e 9067 f5be 4533 523f
00000170: 086d 253e fafe ae3a 2af9 63bf 5543 47bf
00000180: 0cb1 223e d73c 46be 3f4d 563f c046 55bd
00000190: a793 10bf 3b5a 58bf 0429 28be 0136 aa3e
000001a0: 2706 66bf f318 333e 12b2 733f 935a f33d
000001b0: dd22 c2bd 3423 5dbf 67a4 3b3f 2271 693f
000001c0: 81de 29bf aa50 643e 1303 73bf 5ad8 433f
000001d0: 7956 2fbf 84d1 273f eb90 383e 0b60 a3be
000001e0: 3716 5b3f 399d 04be 0ccc 773f 54f2 47bf
000001f0: 92ee 1ebf e6fb bbbe 44e2 52bf 1146 9f3e
00000200: 03f3 7dbf 1b70 983e 0287 293d 8c23 f83e
00000210: ff93 abbe 9a76 19bf b752 063f 409e 553f
00000220: 4684 513f f469 b23e 4f5d 4b3f 1b70 98be
00000230: 6c39 383f 849b fd3e 1161 743f da2f c43e
00000240: e5aa bc3d be89 01bf 9c33 ed3e e166 3fbd
00000250: 2c80 8dbe 2b2f 8ebc 02a2 7ebf 2564 67bf
00000260: 9f0b 16bf 0d1d 773f 2549 123e 98d4 1abf
00000270: c339 d3be bbb1 d83e 1f7e 6bbf 721f 34bf
00000280: 8f16 76bd 1c8b 6d3f e459 bd3e aa50 64be
00000290: 3f4d 56bf b06c 0a3f b9f4 043f aba1 e3be
000002a0: 8a81 f93e 2c9b 623f bfda 00bf 3efc 56bf
000002b0: 9783 1bbf 4b19 4e3f 0287 29bd 863d fc3e
000002c0: 8380 28bf d9de 44bc 9209 f43e 1161 74bf
000002d0: 8d74 773e 37fb 853d 29a8 643f 9d69 173f
000002e0: f60b b1be ba60 593e 4240 54bf ad43 e2be
000002f0: acf2 e2bd ad79 0c3f b5cb dc3e 03f3 7d3f
00000300: 9d84 6c3e e74c 3bbe 39b8 59bf 0fa4 a03e
00000310: 30df 5fbf 6f2c 36bf 26b5 663f ceb4 4bbe
00000320: c5db d13e a1c8 693e 7eeb 2b3f e74c 3b3e
00000330: 9d84 6cbe 5543 473f afe5 e0be 4826 50bf
00000340: 933f 1ebf a36a e8bd 26b5 66bf f2c7 b3be
00000350: d3f8 483e 7512 323f a1ad 14bf 3cab 57bf
00000360: b61c 5cbe 7c49 2dbf 0444 7d3f 39b8 593f
00000370: e2b7 bebe 23c2 68bf 3e32 81be 2c80 8d3e
00000380: 0e53 a13d a642 11bf f75c 303e 298d 0fbe
00000390: b4b0 07bf 6be8 38bf 36c5 5b3f f60b b13e
000003a0: 3c90 823e 4c6a 4dbf 4b19 4ebf 8d74 77be
000003b0: 9bc7 183f 979e 70bc 3408 883e 9be2 edbd
000003c0: 0fa4 a0be fdf1 acbe 2413 683f 1fb4 95be
000003d0: a05c 153f 19ce 993e 9783 1b3f 8ffb 203f
000003e0: 4dbb 4c3f 979e 703c 8c23 f8be aa86 0e3f
000003f0: efd4 35be b47a dd3d 5b29 433f 6edb 36bf
1.0 0.4259012 0.46862483 0.32977304 -0.43658212 -0.36982644 -0.70627505 -0.8798398
0.58077437 -0.7383177 -0.92256343 0.43925235 -0.64218956 0.26034713 0.32176235 0.4152203
0.12149533 0.09479306 0.22563417 0.28170896 -0.5567423 -0.9519359 0.90387183 -0.0894526
0.7222964 -0.94125503 0.8451268 -0.7196262 0.4659546 0.8611482 0.68758345 0.9359146
0.6849132 0.42857143 -0.17489986 -0.73297733 0.92256343 -0.23898531 -0.29506007 -0.38050735
0.8317757 0.14552736 0.16421896 -0.08411215 0.6315087 0.82643527 -0.8317757 -0.58878505
-0.7917223 0.022696929 0.5754339 0.44192258 0.12416556 -0.36448598 -0.14819759 -0.9279039
-0.5941255 -0.57009345 0.65020025 0.564753 -0.2683578 0.15353805 -0.79706275 0.20160213
0.3351135 -0.105473965 -0.9385848 0.07610147 0.036048066 -0.61548734 0.57009345 -0.24966623
-0.7303071 0.7463284 -0.31108144 0.9839786 0.79706275 0.97596794 -0.93324435 0.6662216
-0.19626169 0.6635514 0.9973298 0.8531375 0.95727634 -0.13217624 -0.6929239 0.2683578
-0.020026702 0.13217624 -0.47930574 0.8210948 0.16154873 0.0013351135 -0.8905207 -0.77837116
0.1588785 -0.19359146 0.8371162 -0.052069426 -0.564753 -0.8451268 -0.16421896 0.33244327
-0.8985314 0.17489986 0.9519359 0.1188251 -0.09479306 -0.8638184 0.73297733 0.9118825
-0.6635514 0.22296396 -0.94926566 0.76502 -0.6849132 0.6555407 0.18024032 -0.31909212
0.8558077 -0.129506 0.96795726 -0.7810414 -0.6208278 -0.3671562 -0.82376504 0.31108144
-0.9919893 0.2977303 0.04138852 0.4846462 -0.3351135 -0.59946597 0.5246996 0.83444595
0.8184246 0.3484646 0.7943925 -0.2977303 0.7196262 0.49532712 0.9546061 0.38317758
0.09212283 -0.506008 0.46328437 -0.046728972 -0.2763685 -0.017356476 -0.99465954 -0.90387183
-0.5861148 0.965287 0.14285715 -0.6048064 -0.41255006 0.42323098 -0.9198932 -0.7036048
-0.060080107 0.9279039 0.36982644 -0.22296396 -0.8371162 0.54072094 0.5193592 -0.4445928
0.48731643 0.88518023 -0.5033378 -0.8397864 -0.60747665 0.80507344 -0.04138852 0.4926569
-0.65821093 -0.012016022 0.47663552 -0.9546061 0.24165554 0.06542056 0.8931909 0.5914553
-0.34579438 0.21228305 -0.8291055 -0.44192258 -0.11081442 0.5487316 0.43124166 0.9919893
0.23097463 -0.18291055 -0.85046726 0.31375167 -0.8744993 -0.7116155 0.9012016 -0.1989319
0.40987983 0.2283044 0.6715621 0.18291055 -0.23097463 0.77837116 -0.43925235 -0.8130841
-0.61815757 -0.11348464 -0.9012016 -0.35113484 0.19626169 0.69559413 -0.58077437 -0.8424566
-0.21495327 -0.67690253 0.9893191 0.85046726 -0.37249666 -0.9092123 -0.25233644 0.2763685
0.078771695 -0.5674232 0.17222963 -0.14018692 -0.53004 -0.7222964 0.85847795 0.34579438
0.25500667 -0.8024032 -0.80507344 -0.24165554 0.59679574 -0.014686248 0.26568758 -0.11615487
-0.31375167 -0.33778372 0.90654206 -0.29238984 0.5834446 0.30040053 0.60747665 0.6288385
0.799733 0.014686248 -0.4846462 0.5567423 -0.17757009 0.108144194 0.7623498 -0.71428573

train_targets f4 [600, 1]
00000000: 0000 803f 0445 1640 de91 0840 a812 4240
00000010: e197 12c0 dd0d 2dc0 863b b5bf 257b 91bf
00000020: 3965 dc3f fa5d adbf 6dbe 8abf bfb3 1140
00000030: 6e51 c7bf 5dd3 7540 92e7 4640 9322 1a40
00000040: 3bb1 0341 eac9 2841 8ed2 8d40 512f 6340
00000050: ace8 e5bf 7c76 86bf ed9c 8d3f 9ddd 32c1
00000060: 6b36 b13f 18fd 87bf e174 973f c1de b1bf
00000070: 395a 0940 86a3 943f c328 ba3f bec3 883f
00000080: 8fe2 ba3f 5555 1540 3bf6 b6c0 57a1 aebf
00000090: 6dbe 8a3f 42e6 85c0 ade7 58c0 4d32 28c0
000000a0: 3ce3 993f d1e3 db40 9edc c240 e438 3ec1
000000b0: 71b0 ca3f cfe1 9a3f 3ce3 99bf 9665 d9bf
000000c0: 40ac a1bf 3c3c 3042 db70 de3f 5ed2 1040
000000d0: 37dc 0041 f996 2fc0 8ded d7c0 01f2 89bf
000000e0: 5571 d7bf 4c86 e0bf c8dc c43f d3a5 e23f
000000f0: d17c 6ec0 da6a d040 f196 a0bf 7dba 9e40
00000100: e7fa 3e40 3ab2 17c1 2360 88bf e13e 5241
00000110: 09ed dd41 1df7 cfbf 4c86 e03f cf2b 80c0
00000120: cc44 afbf 9a81 ab3f e1bb 4dc0 8915 823f
00000130: f196 a03f df26 833f eb27 89bf d520 c03f
00000140: 310c a3c0 c3e6 c03f bb57 803f d008 963f
00000150: 73b6 853f dc19 f2c0 77b9 b8bf d17c 6e40
00000160: bcbb 47c2 dc19 f240 c686 05c0 b2e3 9b3f
00000170: 2815 c640 0040 3b44 73bc 8fbf 2b72 a4bf
00000180: 6969 c940 eb4b a5c0 e9e7 983f 1aa4 99c1
00000190: d3a5 e2bf e174 97bf 9edc c2c0 9983 4040
000001a0: 6674 8ebf 3bf6 b640 7c76 863f d5a6 0641
000001b0: eac9 28c1 e62d 94bf 57a1 ae3f 745e 8c3f
000001c0: c3e6 c0bf 5e85 8f40 50d7 86bf de50 a73f
000001d0: 8fe2 babf 3742 c33f 6e8a b140 ac91 48c0
000001e0: f990 953f c117 f7c0 bc3c 843f 3ee2 a3bf
000001f0: 252d cebf 0f50 2ec0 5562 9bbf e1bb 4d40
00000200: 9d08 81bf abf5 5640 534a c141 1b0e 0440
00000210: e7fa 3ec0 fd85 d5bf f9f2 f33f 2c65 993f
00000220: e665 9c3f b0a9 3740 2121 a13f abf5 56c0
00000230: c1de b13f 2235 0140 3316 863f 3e06 2740
00000240: 60ae 2d41 def5 fcbf e324 0a40 3333 abc1
00000250: 2b93 67c0 2776 66c2 f0af 80bf ed9c 8dbf
00000260: 2263 dabf 619a 843f 0000 e040 52a3 d3bf
00000270: f821 1bc0 b937 1740 8725 8bbf 99eb b5bf
00000280: d227 85c1 01f2 893f dd0d 2d40 5e85 8fc0
00000290: e9e7 98bf 93b8 ec3f 2475 f63f b3f3 0fc0
000002a0: de54 0340 739a 903f 694d febf 726b 98bf
000002b0: 2bb5 d2bf e1fd 9e3f 534a c1c1 69e8 0140
000002c0: 6f77 c2bf c771 a6c2 4646 0640 3316 86bf
000002d0: 7e6b 8440 4992 7441 724e 8f3f 546a d83f
000002e0: c214 39c0 fdbd 9640 1d62 9abf 5ed2 10c0
000002f0: b362 10c1 e543 e93f 9f68 1440 9d08 813f
00000300: 198b 8a40 ebf2 aec0 6881 96bf a4fb 4b40
00000310: 955e 92bf 57df b3bf 5808 8e3f ebdb a0c0
00000320: b124 1c40 eb29 8c40 b499 be3f ebf2 ae40
00000330: 198b 8ac0 2b72 a43f bfb3 11c0 e06c 9dbf
00000340: 2411 cfbf fdfc 0cc1 5808 8ebf 2344 36c0
00000350: 310c a340 ee03 b83f 3965 dcbf c6ef 97bf
00000360: 9cde 94c0 be18 bdbf c561 813f 6881 963f
00000370: 49d0 2bc0 fdc7 8cbf 2fa1 7dc0 2b93 6740
00000380: 5f1e 4b41 c894 e1bf 67cc b940 4444 e4c0
00000390: be7d f1bf 6b36 b1bf e119 953f c214 3940
000003a0: 4cf9 7a40 5385 9fbf e1fd 9ebf 7e6b 84c0
000003b0: 8f7a d63f 8c2e 88c2 69e2 7040 44bf 09c1
000003c0: a4fb 4bc0 6978 3dc0 2532 8d3f c7e2 5ac0
000003d0: 0163 db3f 840c 5540 2bb5 d23f c68c cb3f
000003e0: ad0d a03f 8c2e 8842 1b0e 04c0 ace8 e53f
000003f0: e535 b4c0 5cf3 1341 e5e6 a73f 3333 b3bf
1.0 2.3479624 2.133903 3.0323887 -2.29052 -2.7039711 -1.415879 -1.1365706
1.7218391 -1.3544304 -1.0839363 2.2765958 -1.5571725 3.8410256 3.107884 2.4083602
8.230769 10.549295 4.4319525 3.549763 -1.7961631 -1.0504909 1.1063515 -11.179105
1.3844732 -1.0624113 1.1832544 -1.3896104 2.1461318 1.1612403 1.454369 1.0684736
1.460039 2.3333333 -5.7175574 -1.3642987 1.0839363 -4.1843576 -3.3891404 -2.62807
1.2022471 6.8715596 6.089431 -11.888889 1.5835096 1.2100161 -1.2022471 -1.6984127
-1.2630692 44.058823 1.7378191 2.2628398 8.053763 -2.7435896 -6.747748 -1.0776979
-1.6831461 -1.7540984 1.5379877 1.7706856 -3.7263682 6.5130434 -1.2546064 4.9602647
2.9840639 -9.481012 -1.0654339 13.140351 27.74074 -1.6247288 1.7540984 -4.0053477
-1.369287 1.3398926 -3.2145922 1.0162822 1.2546064 1.0246238 -1.0715307 1.501002
-5.095238 1.5070423 1.0026773 1.1721439 1.0446304 -7.5656567 -1.4431599 3.7263682
-49.933334 7.5656567 -2.086351 1.2178862 6.1900826 749.0 -1.1229385 -1.2847341
6.2941175 -5.1655173 1.1945773 -19.205128 -1.7706856 -1.1832544 -6.089431 3.008032
-1.1129272 5.7175574 1.0504909 8.41573 -10.549295 -1.1576507 1.3642987 1.0966325
-1.5070423 4.48503 -1.0534458 1.3071554 -1.460039 1.5254582 5.548148 -3.133891
1.1684867 -7.7216496 1.0331035 -1.2803419 -1.6107527 -2.7236364 -1.2139384 3.2145922
-1.0080754 3.3587444 24.161291 2.063361 -2.9840639 -1.6681515 1.9058524 1.1984
1.2218597 2.869732 1.2588235 -3.3587444 1.3896104 2.018868 1.0475525 2.609756
10.855072 -1.9762533 2.1585014 -21.4 -3.6183574 -57.615383 -1.0053692 -1.1063515
-1.7061503 1.0359613 7.0 -1.6534216 -2.4239483 2.362776 -1.0870827 -1.4212524
-16.644444 1.0776979 2.7039711 -4.48503 -1.1945773 1.8493828 1.9254498 -2.2492492
2.052055 1.1297134 -1.9867374 -1.190779 -1.6461538 1.2421228 -24.161291 2.0298102
-1.5192698 -83.22222 2.0980392 -1.0475525 4.1381216 15.285714 1.1195815 1.6907449
-2.891892 4.710692 -1.2061192 -2.2628398 -9.0240965 1.8223845 2.3188856 1.0080754
4.3294797 -5.467153 -1.1758242 3.187234 -1.1435114 -1.4052533 1.1096296 -5.0268455
2.4397395 4.380117 1.4890656 5.467153 -4.3294797 1.2847341 -2.2765958 -1.2298851
-1.6177106 -8.811765 -1.1096296 -2.8479087 5.095238 1.4376199 -1.7218391 -1.1870048
-4.652174 -1.4773176 1.0107962 1.1758242 -2.6845877 -1.0998532 -3.9629629 3.6183574
12.694915 -1.762353 5.8062015 -7.133333 -1.8866498 -1.3844732 1.1648523 2.891892
3.9214659 -1.2462562 -1.2421228 -4.1381216 1.6756152 -68.09091 3.763819 -8.609196
-3.187234 -2.9604743 1.1030928 -3.4200914 1.7139589 3.328889 1.6461538 1.5902336
1.2504174 68.09091 -2.063361 1.7961631 -5.631579 9.246914 1.3117338 -1.4

test_data f4 [150, 1]
00000000: c842 0242 de5b 6540 7854 73c0 5571 d73f
00000010: 301b d440 252d ce3f 546a d8bf e2bb a6bf
00000020: f842 4a40 b124 1cc0 eb29 8cc0 da6a d0c0
00000030: 12ff adbf 5104 e7bf c683 0040 2360 883f
00000040: dc47 f03f c68c cbbf 9aac c53f 18df d0bf
00000050: 3c3c 30c2 67cc b9c0 89f5 8bbf 5efc a940
00000060: c842 02c2 9a62 29c0 a804 f93f 750a 913f
00000070: 9593 d4bf 77be bfc0 257e c63f fb2b 5340
00000080: 3b57 85bf 9366 2140 7a44 4540 e69e cec1
00000090: 69e8 01c0 4f23 6cc0 4ec1 0b40 abaa 0ec2
000000a0: 65c9 0440 c2fa 96bf ce2a 1dc0 db70 debf
000000b0: cdcc 1543 b7e2 30c0 ac91 4840 c94f b7bf
000000c0: 34bb f7bf 57de 2540 76d8 bdbf fa5d ad3f
000000d0: 9983 40c0 c683 00c0 840c 55c0 7a44 45c0
000000e0: 726b 983f b622 e83f 865e 3841 5385 9f3f
000000f0: 77b9 b83f ce2a 1d40 ad0d a0bf 2af2 a141
00000100: 5efc a9c0 fc6a ccbf ade7 5840 74e9 afbf
00000110: 557a dfbf 9bdf 833f 8bd5 6940 1c89 33c0
00000120: 6770 b93f d144 93bf 5dd3 75c0 e62d 943f
00000130: 2815 c6c0 1ac9 d1bf 4d32 2840 fb1c 6241
00000140: 6e51 c73f 09ed ddc1 fce3 34c0 152a 24c1
00000150: e5e6 a7bf 5888 b23f fbfa 6a41 0095 a53f
00000160: bc3c 84bf 14e5 aabf 7126 19c0 e767 eabf
00000170: 2c65 99bf 0f50 2e40 14ae ef41 9569 87c0
00000180: 4d59 8bc1 934e ed40 69bb 81bf e183 4f40
00000190: eb27 893f 7567 0dc0 e665 9cbf 5f1e 4bc1
000001a0: 380d 6140 619a 84bf 2016 a93f 43cb 823f
000001b0: 4a3e 0ec0 14e5 aa3f c94f b73f 8915 82bf
000001c0: 69e2 70c0 411f ac3f 49d0 2b40 1c89 3340
000001d0: c09b a7c0 0040 3bc4 4a3e 0e40 fce3 3440
000001e0: ef07 07c0 28af 1dc2 c117 f740 6770 b9bf
000001f0: 71b0 cabf c4b6 f23f aa49 aa3f 1e2b 90bf
00000200: 5038 a2bf 3ae7 5cc0 be7d f13f 77b9 e33f
00000210: 0000 e0c0 3252 20c0 8efa 7e41 6978 3d40
00000220: d227 8541 ee27 a6bf 039d b6bf 934e edc0
00000230: 86a3 94bf 3ba8 43c0 0abe ac3f 7126 1940
00000240: 8275 44c1 63c9 1f41 74e9 af3f b742 9140
00000250: 2532 8dbf 49ae c1bf
32.565216 3.5837321 -3.8020306 1.6831461 6.628319 1.6107527 -1.6907449 -1.3026087
3.1603374 -2.4397395 -4.380117 -6.5130434 -1.3593466 -1.8048192 2.0080428 1.0654339
1.877193 -1.5902336 1.5443299 -1.6318083 -44.058823 -5.8062015 -1.0934306 5.3120565
-32.565216 -2.6466432 1.9454546 1.1331316 -1.6607538 -5.992 1.5507246 3.2995594
-1.0417246 2.5218856 3.0823045 -25.827587 -2.0298102 -3.689655 2.1836734 -35.666668
2.0747921 -1.1795275 -2.4557376 -1.7378191 149.8 -2.7638376 3.133891 -1.4321223
-1.9354005 2.5916955 -1.4831684 1.3544304 -3.008032 -2.0080428 -3.328889 -3.0823045
1.190779 1.8135593 11.523077 1.2462562 1.4431599 2.4557376 -1.2504174 20.243244
-5.3120565 -1.5970149 3.3891404 -1.3743119 -1.7459208 1.0302614 3.6536586 -2.8052435
1.4487427 -1.1505376 -3.8410256 1.1576507 -6.1900826 -1.6389496 2.62807 14.132075
1.5571725 -27.74074 -2.826415 -10.260274 -1.3117338 1.3947859 14.686275 1.2936096
-1.0331035 -1.3351159 -2.3929713 -1.8312958 -1.1984 2.7236364 29.96 -4.2316384
-17.418604 7.4158416 -1.0135318 3.2424242 1.0715307 -2.2094395 -1.2218597 -12.694915
3.5164318 -1.0359613 1.3209877 1.021828 -2.2225518 1.3351159 1.4321223 -1.0162822
-3.763819 1.3447038 2.6845877 2.8052435 -5.2377625 -749.0 2.2225518 2.826415
-2.1098592 -39.42105 7.7216496 -1.4487427 -1.5835096 1.8962026 1.330373 -1.1263158
-1.2673435 -3.451613 1.8866498 1.7790974 -7.0 -2.5050168 15.936171 2.9604743
16.644444 -1.2980936 -1.4266666 -7.4158416 -1.1612403 -3.057143 1.3495495 2.3929713
-12.278688 9.986667 1.3743119 4.539394 -1.1030928 -1.5131313

0.weight f4 [100, 1]
00000000: c4f6 553e b863 2d3e 7c0c 443f 9b9c 663f
00000010: 1450 25bf 8dd8 15bf 3c98 1fbf a582 7e3f
00000020: 77c2 06bf 2265 0d3f 4822 733e da23 ea3e
00000030: ec96 0c3f 5afa 0a3f 90b9 163f 262f 563f
00000040: 3fef 873e d5a3 1e3f 62c2 2ebf 7b14 54bf
00000050: 8d9a cbbe bcea 43bf 5f23 24bf 0ffd f23d
00000060: 52c4 593f d22a 0f3f 80f4 4bbd 2dab 103f
00000070: 50a2 1c3f c0db 1cbf ff85 5ebf 3972 773e
00000080: b07c a13d 8e99 f43d 786a 1d3e 4129 2cbd
00000090: 7da5 2d3f 87ca 45bf f04e 6f3f c806 283f
000000a0: 1a0c ddbe 55ce 1cbf f070 683f ffa9 f8be
000000b0: 400c 95be 4438 07bf 8f91 09bf 7d5e 8e3e
000000c0: bb62 b0be bf23 59bf 6225 2a3f 2c41 a03e
000000d0: 709e b5bd 70a8 6d3e b48c b7be 55ed f43e
000000e0: d8cc 09bf 3098 dabe 930f 073f 2257 18bf
000000f0: bafd a83e 37ed 7cbf 0d72 1ebf 0bdb 7d3f
00000100: 7603 73bf 482d 633f 8664 763f ce8b 333f
00000110: 526e 4c3f 5cc2 e2be 9950 383f 4ad8 64bf
00000120: 51b3 72bf 595b ee3e 3824 c93e d8aa 58be
00000130: 61c5 4a3f d262 2fbf b4bc 5fbf 4968 b6be
00000140: 1642 99bd 6004 713d b05a 95be ecf8 b53e
00000150: d4ea 473e c0c6 c93c 1d9a e33e b37d 7fbf
00000160: aa2f 5c3f 5bbb 583f 8428 42bf ec2a d7be
00000170: 79fb 4fbf 5b92 2c3f 942d cbbe fc2e 18bf
00000180: 2e37 a5bd 007b b73e 10e9 93bd 7df6 ea3e
0.20894915 0.16932571 0.7658155 0.9008271 -0.64575315 -0.58533555 -0.62341666 0.994181
-0.5264048 0.5523244 0.23743546 0.45730478 0.5491779 0.54288256 0.58876896 0.8366569
0.26549718 0.6196874 -0.68265355 -0.8284375 -0.3976635 -0.7653005 -0.6411647 0.11864673
0.85065186 0.55924714 -0.04979372 0.56511194 0.6118517 -0.6127281 -0.8692321 0.24164666
0.078851104 0.11943351 0.15372646 -0.04203153 0.6783064 -0.7726216 0.93479824 0.6563535
-0.43173295 -0.6125234 0.9079733 -0.48567197 -0.29110909 -0.5282023 -0.5373773 0.27806464
-0.34450325 -0.8482017 0.6646329 0.31299722 -0.0886811 0.23208785 -0.35849535 0.4783732
-0.5382819 -0.42694235 0.5275814 -0.59507954 0.33006078 -0.9879946 -0.6189278 0.9916236
-0.94927156 0.8874097 0.96247137 0.701352 0.79855835 -0.4428891 0.7199798 -0.8939253
-0.94804865 0.46554068 0.39285445 -0.21158922 0.79207426 -0.6851016 -0.87397313 -0.35626438
-0.07483308 0.058842063 -0.29170752 0.35541475 0.19523174 0.024630904 0.44453517 -0.99801177
0.8601023 0.8466088 -0.7584307 -0.42024934 -0.8124309 0.6741082 -0.3968321 -0.5944669
-0.08067165 0.3583603 -0.072221875 0.4589118

0.bias f4 [100]
00000000: 683a 233e 7222 743f a0b1 353f 60c9 b23e
00000010: 07f0 9fbd f22c 0abf f569 3e3f 3584 3bbe
00000020: d128 763e 154a 0cbf d0ba efbe 232f e9be
00000030: c0b5 34bf 262b 48bf 48f8 123f fb65 263e
00000040: bab7 303f 2e26 c4be c818 5ebf 0d01 06bf
00000050: 585a 6a3f e4f3 c73d a5ec 4c3f cc1f 5d3f
00000060: b99f c7be 615f 06bf c015 9cbe c244 87be
00000070: 5ab3 bd3e 5259 523f 5b74 073f d4e3 353e
00000080: 8815 fabe 782e 8abd 2802 10bf 51ca 1b3e
00000090: 6743 f93e 9fe3 dabd c0f3 24bf c31d 9d3e
000000a0: 1ae9 8d3e 5bb9 b6be cb1d 5d3f fe76 0d3f
000000b0: 76ac 25bf 9ef7 19bf 4aab 6b3f fe27 04be
000000c0: dd3e 01be ca27 d23d 6474 66bf 268f 3cbf
000000d0: e882 47bf aa7e 45bf 64b1 f63e f631 6c3f
000000e0: 636c 05bf ea2e 2bbf d7c9 a03e 4290 1fbf
000000f0: 1bfc 723f f9dd 21bf 3a66 98bd c6af c4be
00000100: 08e0 853e 9975 2b3f 69f8 0a3e 2fa0 0f3e
00000110: 5baa 02bc f41e 7cbf f72c 5abe ff5e 14bf
00000120: 57ed 243f dade 103d fa7a 14bc 081b 60be
00000130: 818f 24bd 2440 e63e 0912 6c3f 4c71 583f
00000140: 01df 6b3d 902d 93be b4fa 6dbf f218 24bf
00000150: 2b32 c3bd d683 2abf 75c2 2f3f c879 333f
00000160: 3a8d 79bf 84c7 613f 1dac 23bf ea22 0abf
00000170: 1a0e dcbe 2a08 a63e ef4b c8bc 2839 e4bd
00000180: d299 8cbd 9490 223f 940d a5be b416 8a3e
0.15940249 0.9536506 0.7097416 0.34919262 -0.078094535 -0.5397483 0.7438043 -0.18312152
0.24039008 -0.5480054 -0.46822214 -0.45543775 -0.7058983 -0.7819084 0.574101 0.1624984
0.69030344 -0.3831038 -0.86756563 -0.52345353 0.91544104 0.09763315 0.8004859 0.86376643
-0.38989046 -0.52489287 -0.30485344 -0.26419646 0.37050897 0.8216754 0.5291192 0.17762691
-0.48844552 -0.067471445 -0.5625329 0.15213896 0.48684236 -0.106879465 -0.64434433 0.3068677
0.27716905 -0.3568829 0.86373585 0.5525969 -0.6471628 -0.6014346 0.9205824 -0.12905881
-0.12621637 0.102614954 -0.9002135 -0.7365593 -0.7793412 -0.771464 0.48182213 0.92263734
-0.5211851 -0.6686846 0.31403992 -0.62329495 0.9491593 -0.6322933 -0.07441373 -0.38415354
0.26147485 0.66976315 0.13571323 0.14025949 -0.007975186 -0.9848473 -0.21306215 -0.5795745
0.6442465 0.035368778 -0.009062523 -0.21885312 -0.04017592 0.4497081 0.9221502 0.8454788
0.05758572 -0.287457 -0.9296067 -0.64100564 -0.09531053 -0.66607416 0.6865609 0.701077
-0.9748112 0.8819506 -0.639345 -0.53959525 -0.4297951 0.32428104 -0.02445027 -0.11143714
-0.068652764 0.6350186 -0.32236922 0.26970446

2.weight f4 [1, 100]
00000000: 7d8a 0abd bdb8 863d b91d 0d3e c3a7 653d
00000010: e65e d2bd ecde ccbd 95c7 a2bd 1da2 c83d
00000020: f20d eb3c fe18 593c 4cd2 c9bc 4435 a5bd
00000030: 6d9e a33d 17fe 6ebd 5150 883d 7d31 7a3c
00000040: e072 293e fd45 c5bc 2c21 09bd 6bef bd3d
00000050: 4bca 7f3d ac1e d3bd 9eaa bd3d a47e 863d
00000060: 9988 91bc 5bdb a93d 3dc8 59bd 4dda c5bd
00000070: cc95 f33c 7835 c3ba 3403 213d 62d2 71bd
00000080: 42ef 9cbd cf66 c1bd 850a 88bd bd5c 1b3c
00000090: 7362 2d3c 3513 02bc 74c7 d8bc 4cd8 cd3d
000000a0: e30c 11bc 14b7 a33d b89a 483d 50dd cabc
000000b0: e7af bb3d 30be 3dbd 64a8 8dbd 6d55 26bd
000000c0: 067a b0bd 569f b9ba a43a f33c 02e4 093d
000000d0: ec97 f3bc b263 c4bd 7af1 343c a0b3 283e
000000e0: 9e5d c1bd b014 1d3c 64de f33d 3f45 813d
000000f0: 8bab 8d3d 1ec3 a2bd 222d f5bd 6d61 9abc
00000100: 9c37 0fbe a16c 343d 5dc6 083e 6b99 bc3d
00000110: 9b12 8dbd f2f2 4d3d 17d3 363c f110 a03c
00000120: 1c37 d3bd 03be e53b ccf1 d83d 0c9e f6bc
00000130: 63a6 703d af80 a6bd 96a9 d6bd 431f ef3c
00000140: cf26 08bd 508d 57bc 7aaf 0a3d 598b 963d
00000150: 6736 0ebd e8e3 9e3c 19d3 343e 5949 abbd
00000160: 0966 ab3d cac2 9c3d afea 4d3c 272c b53d
00000170: 1ce6 6cbd 7f41 c63d 2948 9b3d f12b 81bd
00000180: 95c0 83bc 414e 313d 63a2 c23d fb91 ad3c
-0.03382348 0.06578205 0.1378087 0.056068193 -0.10272007 -0.100034565 -0.079482235 0.09796546
0.028693173 0.0132505875 -0.02463641 -0.080668 0.07989202 -0.058347788 0.06655944 0.015270588
0.16547728 -0.024081225 -0.0334789 0.09274181 0.06244878 -0.103085846 0.09261058 0.065671235
-0.01776533 0.08293792 -0.053169478 -0.09660778 0.029734515 -0.0014893254 0.039309695 -0.059038527
-0.07662822 -0.09443437 -0.066426314 0.00948256 0.010582554 -0.00793915 -0.026462294 0.10051021
-0.00885317 0.07993904 0.048975676 -0.024763733 0.0916441 -0.046323955 -0.069168836 -0.040608812
-0.08617024 -0.0014161866 0.029691048 0.03366471 -0.029735528 -0.09589328 0.011043901 0.16474771
-0.09441684 0.009587452 0.11907652 0.06312036 0.06917485 -0.07947372 -0.11971499 -0.018845284
-0.13986057 0.04404891 0.1335692 0.0920895 -0.06888314 0.05028052 0.011158726 0.019539328
-0.10313246 0.0070111766 0.10592994 -0.03010466 0.05875243 -0.08130013 -0.10481565 0.029189711
-0.033240136 -0.01315625 0.033858754 0.07350797 -0.03471985 0.019395784 0.17658652 -0.08363599
0.08369071 0.076543406 0.01256816 0.08846312 -0.057836637 0.09680461 0.07582123 -0.06307209
-0.016083041 0.04328752 0.09503629 0.021187773
