complete/reciprocal/state1.pt (torch, 10937 bytes, 9 tensors)

weight f4 [100, 1]
0.21123521 0.903494 -0.6562158 0.0049671773 -0.23519349 -0.753937 0.6002573 -0.80471265
0.3229128 0.908224 0.7119454 -0.08138758 0.2466389 0.14582406 0.5538176 -0.7744076
-0.21072567 -0.739515 0.1121872 0.53627294 -0.7743464 -0.8615718 0.661449 -0.91738313
-0.6127891 0.13225433 0.21235394 -0.10236752 -0.83149153 -0.928603 -0.50560725 0.5707659
0.41206157 -0.9105734 0.29988658 -0.4300387 0.5458687 -0.25179464 -0.6242352 0.4471383
-0.116551995 -0.3957969 0.07178751 -0.60395455 -0.9443339 -0.47154975 -0.04745388 -0.002156973
0.57683206 0.64253163 0.7457491 -0.62807435 -0.12949932 -0.07613325 -0.84914136 0.4141152
0.81477946 0.58213115 0.8828825 -0.7129245 0.49690905 0.5061821 0.2892364 -0.8769492
0.6510797 0.5725715 -0.49329445 0.025641905 -0.9481644 -0.31014752 0.81785995 -0.7698148
0.86212707 0.574422 0.34569448 0.8685839 0.115697265 0.5422915 -0.61499065 0.5771722
0.11782398 -0.060584188 0.45541245 0.86490417 -0.59998304 -0.35677418 -0.11502997 -0.41945958
0.94853985 -0.52647436 -0.68247604 0.40083376 -0.074756265 -0.7060697 0.7213632 -0.91733587
0.44743478 0.5365921 -0.48830417 0.13942242
00000000: 0b4e 583e 624b 673f c2fd 27bf b4c3 a23b
00000010: 90d6 70be 0402 41bf 76aa 193f a601 4ebf
00000020: d454 a53e 5e81 683f 0e42 363f 88ae a6bd
00000030: e88e 7c3e e752 153e fdc6 0d3f 943f 46bf
00000040: 78c8 57be db50 3dbf 67c2 e53d 2f49 093f
00000050: 913b 46bf f88f 5cbf b954 293f 9fd9 6abf
00000060: bfdf 1cbf ae6d 073e 5073 593e 10a6 d1bd
00000070: a1dc 54bf edb8 6dbf 7a6f 01bf b71d 123f
00000080: bcf9 d23e 571b 69bf bc8a 993e 082e dcbe
00000090: 0dbe 0b3f 3aeb 80be e1cd 1fbf 50ef e43e
000000a0: d0b2 eebd e4a5 cabe 5405 933d c49c 1abf
000000b0: debf 71bf f86e f1be 005f 42bd 005c 0dbb
000000c0: 44ab 133f f47c 243f 6ae9 3e3f 7bc9 20bf
000000d0: 789b 04be c0eb 9bbd 5461 59bf e806 d43e
000000e0: 6395 503f 8c06 153f 9604 623f 3882 36bf
000000f0: dd6a fe3e 2695 013f cb16 943e be7f 60bf
00000100: 29ad 263f 0c94 123f 1791 fcbe f90e d23c
00000110: e7ba 72bf a8cb 9ebe 455f 513f 9512 45bf
00000120: 5cb4 5c3f 520d 133f defe b03e 845b 5e3f
00000130: b0f2 ec3d 9ed3 0a3f 0770 1dbf 8fc1 133f
00000140: b34d f13d 2027 78bd d22b e93e 5c6a 5d3f
00000150: 7d98 19bf 1bab b6be d594 ebbd 68c3 d6be
00000160: 82d3 723f 06c7 06bf c0b6 2ebf 153a cd3e
00000170: d019 99bd fcc0 34bf 42ab 383f 86d6 6abf
00000180: 2c16 e53e 1a5e 093f 0103 fabe c0c4 0e3e

bias f4 [100]
0.68223566 -0.37520275 -0.9737282 0.76016176 -0.890916 -0.60780376 0.73917437 -0.95444393
0.14726171 0.7182017 -0.8454366 0.10600056 -0.86338544 0.7646319 0.49205446 -0.8433025
-0.1335103 0.48475382 0.3041236 0.1481958 0.24754421 -0.97181296 -0.15869837 0.29891235
0.6721895 0.37198833 -0.3788979 -0.1953156 -0.18335451 -0.028197845 -0.30290654 -0.10166747
0.04968565 0.42835388 -0.95869327 -0.72698283 0.7086751 0.41430286 -0.5722687 -0.94294035
-0.9415997 -0.62503064 0.22027677 -0.08176907 0.1687655 -0.7120849 -0.19376731 -0.5746887
-0.85148466 0.36823994 -0.69291085 0.09108661 0.5750546 -0.78051984 -0.889676 -0.84500325
0.69361407 0.47672603 0.5314612 0.11399315 0.6616088 -0.74151254 -0.22542149 0.613916
-0.5715647 -0.657771 0.18355235 0.00181929 -0.16199349 0.39554402 0.69666815 0.3761576
-0.47422653 0.6413448 0.11753796 0.29451075 -0.7941725 -0.86047304 0.25776795 0.15405172
0.020343475 -0.51361394 -0.2189673 -0.6463452 0.57065415 0.24828278 0.38780138 0.15310092
0.11374349 0.23746 -0.04927661 0.23109992 -0.089493036 0.5255819 -0.15713742 -0.19868316
-0.0026195906 0.5893627 0.09757199 -0.23551738
00000000: ffa6 2e3f 931a c0be 4046 79bf f699 423f
00000010: 1213 64bf 0799 1bbf 883a 3d3f 7056 74bf
00000020: c6cb 163e 11dc 373f 886e 58bf d216 d93d
00000030: d406 5dbf ebbe 433f 90ee fb3e ace2 57bf
00000040: edb6 08be a731 f83e 17b6 9b3e a4c0 173e
00000050: 3b7c 7d3e bcc8 78bf d381 22be 0a0b 993e
00000060: 9c14 2c3f 4175 be3e e8fe c1be d000 48be
00000070: 49c1 3bbe 2bff e6bc 9116 9bbe 0937 d0bd
00000080: 2e83 4b3d 3351 db3e ec6c 75bf 8c1b 3abf
00000090: bb6b 353f 811f d43e 3480 12bf 8a64 71bf
000000a0: ae0c 71bf 0202 20bf 3c90 613e 8b76 a7bd
000000b0: ddd0 2c3e 324b 36bf f06a 46be cc1e 13bf
000000c0: e6fa 59bf f289 bc3e 9b62 31bf 9e8b ba3d
000000d0: c736 133f 26d0 47bf cec1 63bf 2252 58bf
000000e0: b190 313f 6f15 f43e d70d 083f 3e75 e93d
000000f0: 325f 293f c4d3 3dbf e4d4 66be 9929 1d3f
00000100: 1052 12bf ae63 28bf 26f5 3b3e 3e75 ee3a
00000110: 9fe1 25be bf84 ca3e d858 323f bb97 c03e
00000120: d2cd f2be 2c2f 243f beb7 f03d 1dca 963e
00000130: e44e 4bbf f647 5cbf 29fa 833e bcbf 1d3e
00000140: 5ca7 a63c 347c 03bf f738 60be e176 25bf
00000150: 6416 123f d73d 7e3e e78d c63e 7dc6 1c3e
00000160: 59f2 e83d b728 733e 45d6 49bd 75a5 6c3e
00000170: 2048 b7bd 898c 063f a2e8 20be 9973 4bbe
00000180: 70ad 2bbb 79e0 163f d3d3 c73d 782b 71be

weight f4 [1, 100]
-0.06842635 -0.060796194 -0.016777143 -0.0012370284 0.054446615 -0.03128197 0.032250103 -0.030051276
0.12888485 0.19548976 -0.063194364 0.03750384 0.053587697 -0.10312672 0.028371833 -0.0062905103
0.039889656 -0.20015186 0.012932496 0.15472594 -0.20586585 -0.031592503 0.0005819174 -0.19677614
-0.14497659 0.032052774 0.09351941 -0.083315685 0.173789 0.06764565 -0.03931292 0.07689389
0.0729184 -0.26484394 -0.095325805 0.0020753592 0.0015847568 -0.11935722 0.0949129 -0.007791139
0.05080738 0.048253335 0.053515315 0.07102209 -0.19486396 -0.03762863 0.050033666 0.07086437
0.027627654 0.18252096 -0.068587616 -0.042152535 -0.03431244 0.045792885 0.069748394 -0.032067552
0.048626386 0.07061777 0.14821093 -0.1346466 0.10080588 0.04685753 -0.003907383 -0.22470923
0.07658816 -0.08579767 -0.15974808 -0.008012137 0.011265237 -0.1251493 0.07569019 -0.26362494
0.044486005 0.14097038 0.11152649 0.17881177 0.045497157 0.063599624 -0.103401676 0.19313024
0.05041166 0.02856075 -0.057289273 -0.07567887 -0.21699224 -0.07528047 0.012063119 -0.07086055
0.23203814 -0.20026556 0.098556094 0.07118963 -0.0071771517 -0.17609237 0.07985756 0.07870919
0.075653404 0.03070757 -0.11746749 0.028981782
00000000: 1d23 8cbd 6e05 79bd 3870 89bc c923 a2ba
00000010: 6a03 5f3d 8621 00bd af18 043d 182e f6bc
00000020: 64fa 033e 782e 483e 0c6c 81bd a09d 193d
00000030: c67e 5b3d 1a34 d3bd 0c6c e83c a020 cebb
00000040: 5663 233d 9cf4 4cbe d2e2 533c 7a70 1e3e
00000050: 7fce 52be 2467 01bd d18b 183a af7f 49be
00000060: be74 14be c549 033d 1b87 bf3d 6aa1 aabd
00000070: bef5 313e cd89 8a3d 9606 21bd 8b7a 9d3d
00000080: 3e56 953d a099 87be 2d3a c3bd c002 083b
00000090: 9db7 cf3a 8f71 f4bd b261 c23d d04c ffbb
000000a0: 661b 503d 4aa5 453d e032 5b3d 0874 913d
000000b0: 6b8a 47be 7a20 1abd 1af0 4c3d 5721 913d
000000c0: 6453 e23c c6e6 3a3e aa77 8cbd 23a8 2cbd
000000d0: 338b 0cbd 5291 3b3d 3fd8 8e3d 4459 03bd
000000e0: 762c 473d 0da0 903d 9bc4 173e cce0 09be
000000f0: 5073 ce3d aeed 3f3d 8109 80bb 2d1a 66be
00000100: 41da 9c3d b0b6 afbd 0095 23be 5745 03bc
00000110: d491 383c 2327 00be 7503 9b3d d9f9 86be
00000120: f536 363d 8a5a 103e 0068 e43d 6f1a 373e
00000130: 3a5b 3a3d 8540 823d 42c4 d3bd efc3 453e
00000140: 757c 4e3d 3cf8 e93c 28a8 6abd 86fd 9abd
00000150: 3733 5ebe a62c 9abd 63a4 453c 561f 91bd
00000160: 689b 6d3e 6a12 4dbe c7d7 c93d decb 913d
00000170: 502e ebbb 8f51 34be 5c8c a33d 4932 a13d
00000180: 2cf0 9a3d 718e fb3c cc92 f0bd 346b ed3c

train_data f4 [600, 1]
-0.5540721 -0.6742323 -0.7276369 -0.27903873 0.95727634 0.5834446 -0.88518023 0.46328437
-0.6849132 -0.72496665 -0.3164219 -0.18024032 -0.20961282 0.3164219 0.78638184 -0.12416556
0.6555407 0.79706275 -0.16955942 -0.73564756 -0.07343124 -0.7543391 0.5380507 -0.7036048
-0.55941254 -0.8024032 -0.47129506 0.82376504 0.94926566 -0.5113485 -0.20694259 0.69559413
0.9092123 -0.4846462 -0.8531375 -0.917223 0.76502 0.7570093 0.80507344 0.46061414
0.7757009 -0.44726303 -0.29506007 0.9359146 -0.9786382 0.8424566 0.24432577 -0.8104139
0.48731643 -0.47930574 -0.20427236 0.8184246 -0.9813084 -0.56208277 0.564753 -0.58878505
0.7436582 0.85046726 0.20427236 -0.7917223 -0.80774367 -0.92523366 0.033377837 -0.7303071
0.27903873 -0.5754339 0.4072096 0.86648864 -0.8210948 -0.009345794 0.2176235 -0.45794392
-0.6128171 0.73564756 0.31909212 -0.5380507 0.7463284 -0.078771695 0.90654206 0.41255006
-0.59679574 0.025367156 -0.04138852 -0.060080107 -0.8184246 0.014686248 -0.6048064 -0.14819759
-0.4659546 -0.33778372 0.94392526 -0.69559413 -0.9546061 0.9786382 0.67957276 -0.82643527
0.03871829 -0.188251 -0.4445928 0.22296396 0.68758345 -0.036048066 -0.40987983 0.47930574
0.7943925 0.24165554 0.6742323 0.29238984 0.8638184 -0.3938585 0.7837116 0.45794392
-0.1188251 0.11081442 -0.27102804 0.9118825 0.90387183 0.30574098 -0.23898531 -0.44993323
-0.682243 -0.7196262 -0.8424566 -0.6555407 0.86915886 0.5754339 -0.94926566 0.41789052
-0.36448598 -0.33244327 0.40186915 0.08678237 -0.0013351135 0.44192258 -0.7516689 0.799733
-0.10280374 -0.8130841 -0.9599466 -0.36181575 0.63951933 0.6208278 0.50867826 0.92256343
-0.49532712 0.1188251 -0.74899864 0.17489986 0.4152203 0.78905207 -0.5727637 0.8985314
0.14018692 -0.9385848 -0.50867826 -0.32176235 0.84779704 0.43658212 -0.3751669 0.2763685
0.965287 -0.8638184 -0.77837116 -0.44192258 0.9012016 0.105473965 -0.18291055 -0.24432577
-0.7730307 0.049399197 -0.48197597 -0.46061414 0.623498 -0.18558078 0.15086782 0.14552736
-0.48731643 0.38050735 0.44726303 -0.5460614 0.506008 0.99465954 0.9973298 0.7917223
0.58878505 0.6288385 -0.8397864 0.43124166 -0.70627505 -0.9305741 0.8798398 -0.34312415
-0.86915886 -0.11348464 -0.9198932 0.6048064 -0.5006676 -0.054739654 -0.6315087 0.51668894
-0.8371162 -0.07076102 0.9198932 0.3084112 -0.38317758 0.77837116 -0.8905207 -0.41789052
-0.4152203 -0.86648864 -0.53271025 -0.13217624 0.3858478 0.3351135 -0.14018692 0.72496665
-0.29238984 0.9839786 0.31375167 0.5353805 -0.105473965 0.0894526 -0.65020025 -0.9626168
0.40453938 -0.57009345 0.47129506 0.20160213 -0.24966623 -0.5193592 -0.46328437 -0.06809079
0.18558078 0.92523366 -0.31909212 0.81575435 0.6128171 -0.40186915 0.14819759 -0.08411215
0.8531375 0.022696929 -0.66088116 -0.5273698 0.5220294 -0.96795726 -0.2683578 0.8291055
0.11348464 0.7036048 -0.51668894 0.078771695 -0.28170896 0.5567423 0.9813084 0.5113485
00000000: abd7 0dbf 7d9a 2cbf 6946 3abf 2ade 8ebe
00000010: 1010 753f a05c 153f 2c9b 62bf 9c33 ed3e
00000020: 7956 2fbf 6a97 39bf 0d02 a2be eb90 38be
00000030: bea4 56be 0d02 a23e 5250 493f 834a febd
00000040: 84d1 273f 4e0c 4c3f fca0 2dbe 6653 3cbf
00000050: 1e63 96bd 5e1c 41bf b1bd 093f 721f 34bf
00000060: a935 0fbf 4c6a 4dbf 964d f1be 44e2 523f
00000070: 1303 733f bce7 02bf c2e8 53be 7512 323f
00000080: 23c2 683f 8c23 f8be 3867 5abf 20cf 6abf
00000090: 5ad8 433f 5dcb 413f 4b19 4e3f 9ed5 eb3e
000000a0: 5694 463f a9ff e4be 1d12 97be 1998 6f3f
000000b0: 0888 7abf 3cab 573f 8930 7a3e 4977 4fbf
000000c0: 8a81 f93e 9067 f5be c62c 51be 4684 513f
000000d0: 0737 7bbf a8e4 0fbf a793 103f 9eba 16bf
000000e0: 6260 3e3f 39b8 593f c62c 513e 50ae 4abf
000000f0: 4ac8 4ebf 1ddc 6cbf 33b7 083d 68f5 3abf
00000100: 2ade 8e3e a34f 13bf c77d d03e 33d2 5d3f
00000110: 4533 52bf 1a1f 19bc b2d8 5e3e a077 eabe
00000120: 95e1 1cbf 6653 3c3f 0b60 a33e b1bd 09bf
00000130: 610f 3f3f 0e53 a1bd 2413 683f c339 d33e
00000140: 9bc7 18bf c8ce cf3c 0287 29bd 8f16 76bd
00000150: 4684 51bf 979e 703c 98d4 1abf 1cc1 17be
00000160: 9a91 eebe fdf1 acbe 16a5 713f 7512 32bf
00000170: 1161 74bf 0888 7a3f 7bf8 2d3f 4391 53bf
00000180: 1297 1e3d dfc4 40be aba1 e3be aa50 643e
00000190: 7805 303f 23a7 13bd c5db d1be 9067 f53e
000001a0: 4f5d 4b3f 8d74 773e 7d9a 2c3f 1fb4 953e
000001b0: 3423 5d3f d2a7 c9be 53a1 483f a077 ea3e
000001c0: 935a f3bd acf2 e23d 30c4 8abe 2271 693f
000001d0: 2564 673f 158a 9c3e 91b8 74be a65d e6be
000001e0: 7aa7 2ebf 6c39 38bf 3cab 57bf 84d1 27bf
000001f0: 3281 5e3f a34f 133f 1303 73bf bff5 d53e
00000200: e89d babe 0136 aabe cbc1 cd3e f5ba b13d
00000210: fafe aeba ad43 e23e 5f6d 40bf 4dbb 4c3f
00000220: c48a d2bd 4826 50bf 0fbf 75bf ea3f b9be
00000230: 8ab7 233f 92ee 1e3f bd38 023f 1e2d 6c3f
00000240: 849b fdbe 935a f33d 60be 3fbf f318 333e
00000250: c197 d43e 51ff 493f a4a0 12bf 2706 663f
00000260: 298d 0f3e 1847 70bf bd38 02bf 09be a4be
00000270: 3a09 593f b187 df3e e015 c0be 2c80 8d3e
00000280: 0d1d 773f 3423 5dbf 5543 47bf ad43 e2be
00000290: 26b5 663f bc02 d83d e74c 3bbe 8930 7abe
000002a0: 57e5 45bf d056 4a3d 8ec5 f6be 9ed5 ebbe
000002b0: 919d 1f3f e308 3ebe 187d 1a3e 2005 153e
000002c0: 8a81 f9be dcd1 c23e a9ff e43e aeca 0bbf
000002d0: be89 013f 02a2 7e3f 0151 7f3f 50ae 4a3f
000002e0: 9eba 163f 8ffb 203f 3efc 56bf b5cb dc3e
000002f0: 71ce 34bf 1b3a 6ebf 2e3d 613f f8ad afbe
00000300: 3281 5ebf a36a e8bd 1f7e 6bbf 98d4 1a3f
00000310: c02b 00bf b036 60bd 8eaa 21bf ba45 043f
00000320: 3f4d 56bf 27eb 90bd 1f7e 6b3f 13e8 9d3e
00000330: da2f c4be 5543 473f 2af9 63bf bff5 d5be
00000340: c197 d4be 33d2 5dbf b35f 08bf 3559 07be
00000350: d88d c53e ff93 ab3e 298d 0fbe 6a97 393f
00000360: 1fb4 95be 06e6 7b3f 0fa4 a03e b20e 093f
00000370: bc02 d8bd ed32 b73d 8673 26bf 0e6e 76bf
00000380: c91f cf3e a5f1 11bf 964d f13e ca70 4e3e
00000390: 81a8 7fbe b9f4 04bf 9c33 edbe 2f73 8bbd
000003a0: e308 3e3e 1ddc 6c3f 0b60 a3be 47d5 503f
000003b0: 95e1 1c3f cbc1 cdbe 1cc1 173e fe42 acbd
000003c0: 3867 5a3f e9ee b93c 822f 29bf b501 07bf
000003d0: b8a3 053f 0ccc 77bf 3266 89be 4240 543f
000003e0: a36a e83d 721f 343f ba45 04bf 0e53 a13d
000003f0: 283c 90be aa86 0e3f 0737 7b3f bce7 023f

train_targets f4 [600, 1]
-1.8048192 -1.4831684 -1.3743119 -3.5837321 1.0446304 1.7139589 -1.1297134 2.1585014
-1.460039 -1.3793739 -3.1603374 -5.548148 -4.7707005 3.1603374 1.2716469 -8.053763
1.5254582 1.2546064 -5.897638 -1.3593466 -13.618182 -1.3256637 1.8585608 -1.4212524
-1.7875896 -1.2462562 -2.121813 1.2139384 1.0534458 -1.9556136 -4.832258 1.4376199
1.0998532 -2.063361 -1.1721439 -1.0902475 1.3071554 1.3209877 1.2421228 2.1710145
1.2891567 -2.235821 -3.3891404 1.0684736 -1.021828 1.1870048 4.092896 -1.2339374
2.052055 -2.086351 -4.895425 1.2218597 -1.0190476 -1.7790974 1.7706856 -1.6984127
1.3447038 1.1758242 4.895425 -1.2630692 -1.2380165 -1.080808 29.96 -1.369287
3.5837321 -1.7378191 2.4557376 1.1540833 -1.2178862 -107.0 4.595092 -2.1836734
-1.6318083 1.3593466 3.133891 -1.8585608 1.3398926 -12.694915 1.1030928 2.4239483
-1.6756152 39.42105 -24.161291 -16.644444 -1.2218597 68.09091 -1.6534216 -6.747748
-2.1461318 -2.9604743 1.0594059 -1.4376199 -1.0475525 1.021828 1.4715128 -1.2100161
25.827587 -5.3120565 -2.2492492 4.48503 1.454369 -27.74074 -2.4397395 2.086351
1.2588235 4.1381216 1.4831684 3.4200914 1.1576507 -2.538983 1.2759795 2.1836734
-8.41573 9.0240965 -3.689655 1.0966325 1.1063515 3.2707424 -4.1843576 -2.2225518
-1.4657534 -1.3896104 -1.1870048 -1.5254582 1.1505376 1.7378191 -1.0534458 2.3929713
-2.7435896 -3.008032 2.488372 11.523077 -749.0 2.2628398 -1.330373 1.2504174
-9.727273 -1.2298851 -1.0417246 -2.7638376 1.5636743 1.6107527 1.9658793 1.0839363
-2.018868 8.41573 -1.3351159 5.7175574 2.4083602 1.2673435 -1.7459208 1.1129272
7.133333 -1.0654339 -1.9658793 -3.107884 1.1795275 2.29052 -2.6654804 3.6183574
1.0359613 -1.1576507 -1.2847341 -2.2628398 1.1096296 9.481012 -5.467153 -4.092896
-1.2936096 20.243244 -2.0747921 -2.1710145 1.6038544 -5.3884892 6.628319 6.8715596
-2.052055 2.62807 2.235821 -1.8312958 1.9762533 1.0053692 1.0026773 1.2630692
1.6984127 1.5902336 -1.190779 2.3188856 -1.415879 -1.0746055 1.1365706 -2.914397
-1.1505376 -8.811765 -1.0870827 1.6534216 -1.9973333 -18.268293 -1.5835096 1.9354005
-1.1945773 -14.132075 1.0870827 3.2424242 -2.609756 1.2847341 -1.1229385 -2.3929713
-2.4083602 -1.1540833 -1.877193 -7.5656567 2.5916955 2.9840639 -7.133333 1.3793739
-3.4200914 1.0162822 3.187234 1.8678304 -9.481012 11.179105 -1.5379877 -1.0388349
2.4719472 -1.7540984 2.121813 4.9602647 -4.0053477 -1.9254498 -2.1585014 -14.686275
5.3884892 1.080808 -3.133891 1.2258593 1.6318083 -2.488372 6.747748 -11.888889
1.1721439 44.058823 -1.5131313 -1.8962026 1.915601 -1.0331035 -3.7263682 1.2061192
8.811765 1.4212524 -1.9354005 12.694915 -3.549763 1.7961631 1.0190476 1.9556136
00000000: 5104 e7bf 76d8 bdbf 74e9 afbf de5b 65c0
00000010: 73b6 853f 0163 db3f 739a 90bf e324 0a40
00000020: 8fe2 babf 538f b0bf f842 4ac0 6e8a b1c0
00000030: 94a9 98c0 f842 4a40 53c5 a23f 37dc 00c1
00000040: 3742 c33f f196 a03f 73b9 bcc0 12ff adbf
00000050: 13e4 59c1 59af a9bf 52e5 ed3f 99eb b5bf
00000060: bccf e4bf 5385 9fbf c9cb 07c0 5562 9b3f
00000070: 50d7 863f 8c51 fabf dca1 9ac0 ee03 b83f
00000080: fdc7 8c3f 1b0e 04c0 d008 96bf 3b8d 8bbf
00000090: de50 a73f 2016 a93f e1fd 9e3f e7f1 0a40
000000a0: 1603 a53f b117 0fc0 ade7 58c0 bec3 883f
000000b0: 43cb 82bf c6ef 973f 01f9 8240 a9f1 9dbf
000000c0: de54 0340 c686 05c0 52a7 9cc0 e665 9c3f
000000d0: 2770 82bf 77b9 e3bf d3a5 e23f 9665 d9bf
000000e0: 411f ac3f 6881 963f 52a7 9c40 40ac a1bf
000000f0: 5377 9ebf eb57 8abf 14ae ef41 cc44 afbf
00000100: de5b 6540 db70 debf ce2a 1d40 00b9 933f
00000110: b2e3 9bbf 0000 d6c2 fe0a 9340 4ec1 0bc0
00000120: 18df d0bf 12ff ad3f ac91 4840 52e5 edbf
00000130: 9a81 ab3f 5f1e 4bc1 2532 8d3f f821 1b40
00000140: 8f7a d6bf 28af 1d42 534a c1c1 d227 85c1
00000150: e665 9cbf 8c2e 8842 52a3 d3bf 8ded d7c0
00000160: 395a 09c0 6978 3dc0 9d9a 873f ee03 b8bf
00000170: 3316 86bf 43cb 823f 885a bc3f cfe1 9abf
00000180: e69e ce41 5efc a9c0 b3f3 0fc0 5e85 8f40
00000190: c328 ba3f 09ed ddc1 b124 1cc0 c686 0540
000001a0: 2121 a13f 7e6b 8440 76d8 bd3f c7e2 5a40
000001b0: e62d 943f b37e 22c0 4c53 a33f 4ec1 0b40
000001c0: d5a6 06c1 b362 1041 4f23 6cc0 745e 8c3f
000001d0: ed9c 8d3f d853 5140 42e6 85c0 4a3e 0ec0
000001e0: cf9d bbbf c1de b1bf c6ef 97bf 3742 c3bf
000001f0: d144 933f db70 de3f 50d7 86bf 7126 1940
00000200: f996 2fc0 9983 40c0 7d41 1f40 865e 3841
00000210: 0040 3bc4 5ed2 1040 aa49 aabf ad0d a03f
00000220: e9a2 1bc1 e06c 9dbf 3b57 85bf b7e2 30c0
00000230: 7b26 c83f 252d ce3f efa1 fb3f 6dbe 8a3f
00000240: 2235 01c0 d5a6 0641 14e5 aabf 3bf6 b640
00000250: 9322 1a40 5038 a23f 557a dfbf 6674 8e3f
00000260: 4444 e440 2360 88bf efa1 fbbf 92e7 46c0
00000270: c2fa 963f e197 1240 3b97 2ac0 2b93 6740
00000280: 619a 843f e62d 94bf 2b72 a4bf 5ed2 10c0
00000290: 5808 8e3f 3ab2 1741 ebf2 aec0 01f9 82c0
000002a0: 0095 a5bf 2af2 a141 65c9 04c0 e7f1 0ac0
000002b0: 1a4b cd3f 816e acc0 301b d440 d1e3 db40
000002c0: de54 03c0 4d32 2840 b117 0f40 e767 eabf
000002d0: def5 fc3f f0af 803f bb57 803f 40ac a13f
000002e0: 9665 d93f c68c cb3f 726b 98bf 9f68 1440
000002f0: 863b b5bf ac8c 89bf 257b 913f 7b85 3ac0
00000300: d144 93bf fdfc 0cc1 8725 8bbf 52a3 d33f
00000310: 9ea8 ffbf 7725 92c1 71b0 cabf 34bb f73f
00000320: e9e7 98bf fb1c 62c1 8725 8b3f e183 4f40
00000330: 3e06 27c0 2b72 a43f 73bc 8fbf 7126 19c0
00000340: 9322 1ac0 00b9 93bf dc47 f0bf dc19 f2c0
00000350: 57de 2540 e7fa 3e40 4444 e4c0 538f b03f
00000360: c7e2 5ac0 8915 823f a4fb 4b40 1115 ef3f
00000370: 3ab2 17c1 9ddd 3241 c8dc c4bf 8bf8 84bf
00000380: 6234 1e40 4c86 e0bf c9cb 0740 7dba 9e40
00000390: cf2b 80c0 2475 f6bf e324 0ac0 fbfa 6ac1
000003a0: 816e ac40 eb57 8a3f ac91 48c0 f5e8 9c3f
000003b0: 18df d03f 7d41 1fc0 8ded d740 e438 3ec1
000003c0: d008 963f 3c3c 3042 49ae c1bf c4b6 f2bf
000003d0: 6a32 f53f bc3c 84bf d17c 6ec0 1d62 9a3f
000003e0: fdfc 0c41 99eb b53f 34bb f7bf 5f1e 4b41
000003f0: 512f 63c0 ace8 e53f 2770 823f 8c51 fa3f

test_data f4 [150, 1]
-1.8223845 1.6831461 2.826415 1.8048192 -2.3046155 -20.243244 35.666668 1.0624113
-1.7961631 2.891892 1.0246238 1.6607538 5.992 -8.230769 2.556314 5.467153
5.8062015 1.5131313 2.3479624 1.0388349 7.7216496 1.460039 -29.96 1.2980936
1.0564175 -1.1331316 1.5702306 -1.3844732 1.8312958 1.2462562 3.483721 -2.362776
1.0715307 -1.2588235 1.5970149 5.3120565 1.4321223 1.2803419 5.897638 -7.7216496
-1.4105462 2.3333333 -1.5702306 -1.5507246 249.66667 -2.3777778 4.28 2.1461318
1.7218391 3.763819 3.5164318 -1.0966325 -1.1365706 4.710692 2.2225518 -2.1098592
2.3046155 -1.4266666 13.140351 22.69697 -1.5571725 1.1470138 -6.089431 -4.48503
-3.187234 -1.0934306 1.6681515 2.7843866 1.5835096 1.3844732 1.7540984 -1.0715307
1.0776979 2.2765958 -1.2061192 -1.0 1.4773176 1.9254498 4.539394 24.161291
3.2995594 -3.3587444 2.5218856 -1.3447038 1.5379877 -1.1832544 6.1900826 -1.3947859
-1.5970149 1.0331035 8.053763 -1.2759795 -6.4017096 1.0746055 -1.6389496 1.5192698
-35.666668 -2.29052 1.0654339 -1.0684736 -19.205128 1.0934306 3.9214659 -7.0
1.7459208 -1.1030928 -1.3071554 -2.2094395 2.018868 -1.4 8.230769 -1.2673435
-2.891892 -5.1655173 -1.1129272 -2.4719472 -1.6681515 1.2936096 -2.5050168 149.8
-1.1400304 -4.4319525 3.328889 1.6247288 -12.278688 -3.8410256 -1.3026087 1.2339374
-1.4715128 1.4890656 -3.6183574 2.6654804 1.9058524 2.573883 -3.6536586 -1.2716469
10.855072 -1.6038544 1.3163445 -4.3294797 -21.4 -10.260274 -8.609196 2.4397395
1.8223845 6.5130434 -1.2421228 -2.0298102 -3.483721 -2.196481
00000000: e543 e9bf 5571 d73f fce3 3440 5104 e73f
00000010: d27e 13c0 2af2 a1c1 abaa 0e42 18fd 873f
00000020: ace8 e5bf c214 3940 df26 833f 9593 d43f
00000030: 77be bf40 3bb1 03c1 a69a 2340 ebf2 ae40
00000040: 67cc b940 49ae c13f 0445 1640 8bf8 843f
00000050: c117 f740 8fe2 ba3f 14ae efc1 ee27 a63f
00000060: b038 873f 750a 91bf 51fd c83f 6b36 b1bf
00000070: e767 ea3f 5385 9f3f 49f5 5e40 b937 17c0
00000080: eb27 893f 2121 a1bf fc6a cc3f 5efc a940
00000090: c94f b73f 3ee2 a33f 73b9 bc40 c117 f7c0
000000a0: c78c b4bf 5555 1540 51fd c8bf 257e c6bf
000000b0: abaa 7943 832d 18c0 c3f5 8840 395a 0940
000000c0: 3965 dc3f 69e2 7040 380d 6140 745e 8cbf
000000d0: 257b 91bf fdbd 9640 4a3e 0e40 ef07 07c0
000000e0: d27e 1340 039d b6bf e13e 5241 6593 b541
000000f0: 6e51 c7bf 59d1 923f 9edc c2c0 5e85 8fc0
00000100: a4fb 4bc0 89f5 8bbf fd85 d53f 6433 3240
00000110: 71b0 ca3f 6b36 b13f 4c86 e03f eb27 89bf
00000120: 01f2 893f bfb3 1140 1d62 9abf 0000 80bf
00000130: be18 bd3f 2475 f63f b742 9140 534a c141
00000140: fb2b 5340 abf5 56c0 9366 2140 411f acbf
00000150: c8dc c43f e174 97bf 2815 c640 5888 b2bf
00000160: fc6a ccbf bc3c 843f 37dc 0041 4c53 a3bf
00000170: ceda ccc0 ac8c 893f 1ac9 d1bf 6f77 c23f
00000180: abaa 0ec2 e197 12c0 2360 883f bec3 88bf
00000190: 1aa4 99c1 89f5 8b3f 4cf9 7a40 0000 e0c0
000001a0: 557a df3f 2532 8dbf de50 a7bf 7567 0dc0
000001b0: 2235 0140 3333 b3bf 3bb1 0341 5038 a2bf
000001c0: c214 39c0 eb4b a5c0 6674 8ebf 6234 1ec0
000001d0: fd85 d5bf 0095 a53f 3252 20c0 cdcc 1543
000001e0: 84ec 91bf 8ed2 8dc0 840c 5540 1df7 cf3f
000001f0: 8275 44c1 5dd3 75c0 e2bb a6bf a9f1 9d3f
00000200: 885a bcbf b499 be3f 2b93 67c0 3b97 2a40
00000210: f9f2 f33f 80ba 2440 8bd5 69c0 53c5 a2bf
00000220: 60ae 2d41 1a4b cdbf fa7d a83f 198b 8ac0
00000230: 3333 abc1 152a 24c1 44bf 09c1 b124 1c40
00000240: e543 e93f da6a d040 e1fd 9ebf 69e8 01c0
00000250: 49f5 5ec0 2593 0cc0

0.weight f4 [100, 1]
0.21123521 0.903494 -0.6562158 0.0049671773 -0.23519349 -0.753937 0.6002573 -0.80471265
0.3229128 0.908224 0.7119454 -0.08138758 0.2466389 0.14582406 0.5538176 -0.7744076
-0.21072567 -0.739515 0.1121872 0.53627294 -0.7743464 -0.8615718 0.661449 -0.91738313
-0.6127891 0.13225433 0.21235394 -0.10236752 -0.83149153 -0.928603 -0.50560725 0.5707659
0.41206157 -0.9105734 0.29988658 -0.4300387 0.5458687 -0.25179464 -0.6242352 0.4471383
-0.116551995 -0.3957969 0.07178751 -0.60395455 -0.9443339 -0.47154975 -0.04745388 -0.002156973
0.57683206 0.64253163 0.7457491 -0.62807435 -0.12949932 -0.07613325 -0.84914136 0.4141152
0.81477946 0.58213115 0.8828825 -0.7129245 0.49690905 0.5061821 0.2892364 -0.8769492
0.6510797 0.5725715 -0.49329445 0.025641905 -0.9481644 -0.31014752 0.81785995 -0.7698148
0.86212707 0.574422 0.34569448 0.8685839 0.115697265 0.5422915 -0.61499065 0.5771722
0.11782398 -0.060584188 0.45541245 0.86490417 -0.59998304 -0.35677418 -0.11502997 -0.41945958
0.94853985 -0.52647436 -0.68247604 0.40083376 -0.074756265 -0.7060697 0.7213632 -0.91733587
0.44743478 0.5365921 -0.48830417 0.13942242
00000000: 0b4e 583e 624b 673f c2fd 27bf b4c3 a23b
00000010: 90d6 70be 0402 41bf 76aa 193f a601 4ebf
00000020: d454 a53e 5e81 683f 0e42 363f 88ae a6bd
00000030: e88e 7c3e e752 153e fdc6 0d3f 943f 46bf
00000040: 78c8 57be db50 3dbf 67c2 e53d 2f49 093f
00000050: 913b 46bf f88f 5cbf b954 293f 9fd9 6abf
00000060: bfdf 1cbf ae6d 073e 5073 593e 10a6 d1bd
00000070: a1dc 54bf edb8 6dbf 7a6f 01bf b71d 123f
00000080: bcf9 d23e 571b 69bf bc8a 993e 082e dcbe
00000090: 0dbe 0b3f 3aeb 80be e1cd 1fbf 50ef e43e
000000a0: d0b2 eebd e4a5 cabe 5405 933d c49c 1abf
000000b0: debf 71bf f86e f1be 005f 42bd 005c 0dbb
000000c0: 44ab 133f f47c 243f 6ae9 3e3f 7bc9 20bf
000000d0: 789b 04be c0eb 9bbd 5461 59bf e806 d43e
000000e0: 6395 503f 8c06 153f 9604 623f 3882 36bf
000000f0: dd6a fe3e 2695 013f cb16 943e be7f 60bf
00000100: 29ad 263f 0c94 123f 1791 fcbe f90e d23c
00000110: e7ba 72bf a8cb 9ebe 455f 513f 9512 45bf
00000120: 5cb4 5c3f 520d 133f defe b03e 845b 5e3f
00000130: b0f2 ec3d 9ed3 0a3f 0770 1dbf 8fc1 133f
00000140: b34d f13d 2027 78bd d22b e93e 5c6a 5d3f
00000150: 7d98 19bf 1bab b6be d594 ebbd 68c3 d6be
00000160: 82d3 723f 06c7 06bf c0b6 2ebf 153a cd3e
00000170: d019 99bd fcc0 34bf 42ab 383f 86d6 6abf
00000180: 2c16 e53e 1a5e 093f 0103 fabe c0c4 0e3e

0.bias f4 [100]
0.68223566 -0.37520275 -0.9737282 0.76016176 -0.890916 -0.60780376 0.73917437 -0.95444393
0.14726171 0.7182017 -0.8454366 0.10600056 -0.86338544 0.7646319 0.49205446 -0.8433025
-0.1335103 0.48475382 0.3041236 0.1481958 0.24754421 -0.97181296 -0.15869837 0.29891235
0.6721895 0.37198833 -0.3788979 -0.1953156 -0.18335451 -0.028197845 -0.30290654 -0.10166747
0.04968565 0.42835388 -0.95869327 -0.72698283 0.7086751 0.41430286 -0.5722687 -0.94294035
-0.9415997 -0.62503064 0.22027677 -0.08176907 0.1687655 -0.7120849 -0.19376731 -0.5746887
-0.85148466 0.36823994 -0.69291085 0.09108661 0.5750546 -0.78051984 -0.889676 -0.84500325
0.69361407 0.47672603 0.5314612 0.11399315 0.6616088 -0.74151254 -0.22542149 0.613916
-0.5715647 -0.657771 0.18355235 0.00181929 -0.16199349 0.39554402 0.69666815 0.3761576
-0.47422653 0.6413448 0.11753796 0.29451075 -0.7941725 -0.86047304 0.25776795 0.15405172
0.020343475 -0.51361394 -0.2189673 -0.6463452 0.57065415 0.24828278 0.38780138 0.15310092
0.11374349 0.23746 -0.04927661 0.23109992 -0.089493036 0.5255819 -0.15713742 -0.19868316
-0.0026195906 0.5893627 0.09757199 -0.23551738
00000000: ffa6 2e3f 931a c0be 4046 79bf f699 423f
00000010: 1213 64bf 0799 1bbf 883a 3d3f 7056 74bf
00000020: c6cb 163e 11dc 373f 886e 58bf d216 d93d
00000030: d406 5dbf ebbe 433f 90ee fb3e ace2 57bf
00000040: edb6 08be a731 f83e 17b6 9b3e a4c0 173e
00000050: 3b7c 7d3e bcc8 78bf d381 22be 0a0b 993e
00000060: 9c14 2c3f 4175 be3e e8fe c1be d000 48be
00000070: 49c1 3bbe 2bff e6bc 9116 9bbe 0937 d0bd
00000080: 2e83 4b3d 3351 db3e ec6c 75bf 8c1b 3abf
00000090: bb6b 353f 811f d43e 3480 12bf 8a64 71bf
000000a0: ae0c 71bf 0202 20bf 3c90 613e 8b76 a7bd
000000b0: ddd0 2c3e 324b 36bf f06a 46be cc1e 13bf
000000c0: e6fa 59bf f289 bc3e 9b62 31bf 9e8b ba3d
000000d0: c736 133f 26d0 47bf cec1 63bf 2252 58bf
000000e0: b190 313f 6f15 f43e d70d 083f 3e75 e93d
000000f0: 325f 293f c4d3 3dbf e4d4 66be 9929 1d3f
00000100: 1052 12bf ae63 28bf 26f5 3b3e 3e75 ee3a
00000110: 9fe1 25be bf84 ca3e d858 323f bb97 c03e
00000120: d2cd f2be 2c2f 243f beb7 f03d 1dca 963e
00000130: e44e 4bbf f647 5cbf 29fa 833e bcbf 1d3e
00000140: 5ca7 a63c 347c 03bf f738 60be e176 25bf
00000150: 6416 123f d73d 7e3e e78d c63e 7dc6 1c3e
00000160: 59f2 e83d b728 733e 45d6 49bd 75a5 6c3e
00000170: 2048 b7bd 898c 063f a2e8 20be 9973 4bbe
00000180: 70ad 2bbb 79e0 163f d3d3 c73d 782b 71be

2.weight f4 [1, 100]
-0.06842635 -0.060796194 -0.016777143 -0.0012370284 0.054446615 -0.03128197 0.032250103 -0.030051276
0.12888485 0.19548976 -0.063194364 0.03750384 0.053587697 -0.10312672 0.028371833 -0.0062905103
0.039889656 -0.20015186 0.012932496 0.15472594 -0.20586585 -0.031592503 0.0005819174 -0.19677614
-0.14497659 0.032052774 0.09351941 -0.083315685 0.173789 0.06764565 -0.03931292 0.07689389
0.0729184 -0.26484394 -0.095325805 0.0020753592 0.0015847568 -0.11935722 0.0949129 -0.007791139
0.05080738 0.048253335 0.053515315 0.07102209 -0.19486396 -0.03762863 0.050033666 0.07086437
0.027627654 0.18252096 -0.068587616 -0.042152535 -0.03431244 0.045792885 0.069748394 -0.032067552
0.048626386 0.07061777 0.14821093 -0.1346466 0.10080588 0.04685753 -0.003907383 -0.22470923
0.07658816 -0.08579767 -0.15974808 -0.008012137 0.011265237 -0.1251493 0.07569019 -0.26362494
0.044486005 0.14097038 0.11152649 0.17881177 0.045497157 0.063599624 -0.103401676 0.19313024
0.05041166 0.02856075 -0.057289273 -0.07567887 -0.21699224 -0.07528047 0.012063119 -0.07086055
0.23203814 -0.20026556 0.098556094 0.07118963 -0.0071771517 -0.17609237 0.07985756 0.07870919
0.075653404 0.03070757 -0.11746749 0.028981782
00000000: 1d23 8cbd 6e05 79bd 3870 89bc c923 a2ba
00000010: 6a03 5f3d 8621 00bd af18 043d 182e f6bc
00000020: 64fa 033e 782e 483e 0c6c 81bd a09d 193d
00000030: c67e 5b3d 1a34 d3bd 0c6c e83c a020 cebb
00000040: 5663 233d 9cf4 4cbe d2e2 533c 7a70 1e3e
00000050: 7fce 52be 2467 01bd d18b 183a af7f 49be
00000060: be74 14be c549 033d 1b87 bf3d 6aa1 aabd
00000070: bef5 313e cd89 8a3d 9606 21bd 8b7a 9d3d
00000080: 3e56 953d a099 87be 2d3a c3bd c002 083b
00000090: 9db7 cf3a 8f71 f4bd b261 c23d d04c ffbb
000000a0: 661b 503d 4aa5 453d e032 5b3d 0874 913d
000000b0: 6b8a 47be 7a20 1abd 1af0 4c3d 5721 913d
000000c0: 6453 e23c c6e6 3a3e aa77 8cbd 23a8 2cbd
000000d0: 338b 0cbd 5291 3b3d 3fd8 8e3d 4459 03bd
000000e0: 762c 473d 0da0 903d 9bc4 173e cce0 09be
000000f0: 5073 ce3d aeed 3f3d 8109 80bb 2d1a 66be
00000100: 41da 9c3d b0b6 afbd 0095 23be 5745 03bc
00000110: d491 383c 2327 00be 7503 9b3d d9f9 86be
00000120: f536 363d 8a5a 103e 0068 e43d 6f1a 373e
00000130: 3a5b 3a3d 8540 823d 42c4 d3bd efc3 453e
00000140: 757c 4e3d 3cf8 e93c 28a8 6abd 86fd 9abd
00000150: 3733 5ebe a62c 9abd 63a4 453c 561f 91bd
00000160: 689b 6d3e 6a12 4dbe c7d7 c93d decb 913d
00000170: 502e ebbb 8f51 34be 5c8c a33d 4932 a13d
00000180: 2cf0 9a3d 718e fb3c cc92 f0bd 346b ed3c
