complete/reciprocal/state9.pt (torch, 10937 bytes, 9 tensors)

weight f4 [100, 1]
000000 6f 02 a8 c0 3d 1b e6 40 f1 c2 aa c0 04 b9 e5 be
       -5.250297 7.190825 -5.3362966 -0.44867718
000010 f5 b6 38 40 80 16 58 c1 9b 20 3a c1 2d c4 48 41
       2.8861668 -13.505493 -11.63296 12.5478945
000020 60 f1 a4 bd f7 90 0f 41 b9 4a 83 c0 7e 5b 92 bf
       -0.08053851 8.972892 -4.1028714 -1.1434171
000030 a0 cb 71 be 71 f0 5c 40 8a f1 08 41 00 65 43 3e
       -0.23612833 3.4521754 8.5589695 0.19081497
000040 ea ad 05 41 86 8a 30 41 f4 3a 2c 41 9d 92 24 40
       8.3549595 11.033819 10.764393 2.5714486
000050 97 d4 5a 3d 49 1a ac be ca a7 4f 41 2f 31 5c c1
       0.053425398 -0.33613804 12.978464 -13.762008
000060 64 97 a9 40 a0 7c 2b 41 79 98 d1 c0 2e 40 df 40
       5.2997303 10.717926 -6.5498624 6.9765844
000070 e9 1f 06 41 70 2e 39 41 34 f4 f5 3e f4 aa f7 3f
       8.382791 11.573837 0.48037875 1.9349046
000080 48 5c 2d 41 88 af 61 bf 6d 5e bf 40 f8 7a 1d bf
       10.83503 -0.88158464 5.9802766 -0.6151576
000090 88 84 0c 41 e0 18 53 bd 26 5a 6e c0 74 2b af 3f
       8.782356 -0.051537395 -3.7242522 1.3685136
0000a0 2b fc d2 40 43 22 05 41 a0 ec 3e 41 8d 6d ec c0
       6.593282 8.320865 11.93277 -7.388373
0000b0 c1 d6 b5 c0 34 8c 32 3f 49 d4 1b bf e0 ec d3 c0
       -5.682465 0.69745183 -0.60870796 -6.6226654
0000c0 20 cd 01 3e 5a aa 90 bf c7 a9 64 41 a0 39 0e c0
       0.12675905 -1.1301987 14.29145 -2.2222672
0000d0 e0 ac b2 bd 5c 20 f9 40 98 75 51 41 43 cd c6 bf
       -0.087243795 7.7852 13.091209 -1.5531391
0000e0 46 3d 94 40 fc 22 ab 3e 43 59 16 bf 08 60 19 be
       4.6324797 0.33425128 -0.5872995 -0.1497804
0000f0 7f 1b 37 c1 ff 27 8a be 7d a6 1e be 41 d0 7d be
       -11.444213 -0.2698364 -0.15493198 -0.24786474
000100 5d a9 3b 40 c0 bb 31 bd 38 8e 0f be 2c e2 2d bf
       2.932212 -0.043391943 -0.14019096 -0.67923236
000110 76 e4 e7 40 40 3c ff bc e2 39 02 be 45 66 0a 41
       7.2466383 -0.03115666 -0.12717393 8.649968
000120 96 b6 4c 41 0a a4 8d c1 8a 16 a8 c0 b7 45 6f c0
       12.794577 -17.705097 -5.2527514 -3.73863
000130 82 ef ee 40 c7 5a 95 3f 0c cb af be ca 29 18 3f
       7.466737 1.1668328 -0.343346 0.59438765
000140 00 64 16 41 d3 53 01 41 f9 ef 00 c1 44 69 4a c1
       9.399414 8.082965 -8.058587 -12.6507
000150 e5 0f 62 3f 31 20 4a c0 70 86 d0 be 68 ce 09 c0
       0.88305503 -3.1582148 -0.40727568 -2.153223
000160 c8 bc a7 3e ab 5d 63 c1 67 e7 c4 40 80 67 71 c0
       0.32761216 -14.210368 6.1532474 -3.7719421
000170 38 50 de be 6d 49 05 bf c5 78 10 40 c2 04 32 c0
       -0.43420577 -0.52065164 2.2573712 -2.7815404
000180 20 8e 1c c1 ec 78 19 3f c0 9e e6 be 69 38 10 40
       -9.7846985 0.5995014 -0.45042992 2.253443

bias f4 [100]
000000 dd 97 1c 3e f5 0f 7c 3e 78 28 1f 3e 86 57 34 bf
       0.15292306 0.24615462 0.15542781 -0.7044605
000010 31 57 ca 3d 93 67 c9 3e e4 7a ad 3e 34 ec db 3e
       0.09879912 0.39336833 0.3388282 0.42953646
000020 18 42 50 be e3 43 9d 3e b5 1a 2f be fc 23 42 bd
       -0.20337713 0.30715856 -0.17100032 -0.0473976
000030 76 9a 77 bf a9 4c bb bd 7f f5 97 bf 8a fd 65 bf
       -0.96720064 -0.09145481 -1.1871794 -0.89839995
000040 0e 4b 69 be e9 62 c1 3e 10 aa bc 3e 0a 06 91 bd
       -0.22782537 0.37770775 0.36848497 -0.0708123
000050 1b 18 5b bd 6e 68 20 3c 2f 78 e3 3e db 3a cd 3e
       -0.053489786 0.009790523 0.4442763 0.40083966
000060 8c a1 18 be 80 d9 bb 3e 8e 5a 43 3e 00 d3 48 be
       -0.14905375 0.36689377 0.19077513 -0.1961174
000070 23 ec 92 3e f8 d9 ca 3e b6 72 35 bf 59 dc f1 be
       0.28695783 0.39619422 -0.7087816 -0.47238424
000080 07 e7 bd 3e 9d 59 d2 3c ce b2 2b be cc 58 24 bf
       0.37090322 0.025677497 -0.16767427 -0.64197993
000090 e5 2e 7b be e4 fd 9b be 04 28 de 3d 42 e2 3f 3d
       -0.24529608 -0.3046714 0.10847476 0.046846636
0000a0 1b a5 3f be 5e d6 91 3e 7d 24 d1 3e c5 5c 5c 3e
       -0.18715326 0.28483862 0.4084815 0.21519764
0000b0 90 7b 29 3e 26 69 6b bf 91 3d 91 3c 4e d9 8c be
       0.16551042 -0.9195732 0.017729552 -0.2750954
0000c0 3c 27 c9 be d9 d5 06 3d 60 7b fa 3e a6 8f 84 3d
       -0.39287746 0.032918785 0.48922253 0.06472711
0000d0 60 63 2f be 05 f9 f2 bf 38 72 e5 3e 07 4b 39 3d
       -0.17127752 -1.8982245 0.44813704 0.045237567
0000e0 9d f8 01 be 84 6a 64 bf e1 21 8c 3c 1a a9 38 bf
       -0.12692495 -0.8922503 0.017105998 -0.7213303
0000f0 72 aa aa 3e 6c 30 8a be d3 b1 1e be 0c 91 ec 3b
       0.33333164 -0.26990068 -0.15497522 0.0072194394
000100 ac 91 cd 3d 4c 6a 0e bf 5c 5a a7 be 6a 11 a2 3c
       0.1003755 -0.55630946 -0.32686126 0.019783694
000110 e5 04 7e 3e 1c d6 14 bf 96 3e 02 be 74 d4 6b be
       0.24806555 -0.58139205 -0.12719187 -0.23030263
000120 11 3f e0 3e 28 04 04 3f 88 aa 1c 3e 85 03 df 3d
       0.43798116 0.5156884 0.15299428 0.10889343
000130 0b de 82 3e 4a 9b 23 3d 02 d9 23 3c f4 da 3a bf
       0.2556003 0.039943017 0.010000469 -0.72990346
000140 98 bd a4 3e 43 0b 6a be 0a 5a 70 3e 46 c4 fa be
       0.321759 -0.22855859 0.23471847 -0.4897787
000150 eb a1 f7 3c 19 64 bc 3d 20 5b 42 3c 43 71 80 3d
       0.030228576 0.091987796 0.011862546 0.06271603
000160 08 38 3b bf a1 ea d3 3e 40 b1 57 3e 2f 00 e1 3d
       -0.7313237 0.41389945 0.2106371 0.10986363
000170 7c 50 e8 be d0 75 78 3c d7 41 9e 3d 1f ec a5 3d
       -0.45373905 0.015164807 0.07727402 0.08101677
000180 d3 ea 91 3e 84 ed 6f bf 48 7b 46 bf 39 a9 75 bd
       0.2849947 -0.93721795 -0.7753186 -0.059975836

weight f4 [1, 100]
000000 7c 4c 24 bf 4b 69 64 3f 5b fd 26 bf df 3e a1 3d
       -0.64179206 0.89223164 -0.6523034 0.0787332
000010 c2 5a b7 3e b2 50 d3 bf 2d 04 b6 bf 9b 49 c7 3f
       0.3581143 -1.6509001 -1.4220024 1.5569338
000020 6f 03 b3 bd 58 82 8e 3f 49 98 71 40 92 2b 88 3f
       -0.08740889 1.1133528 3.7749197 1.0638297
000030 2f e7 b4 3d 33 36 2d c0 60 4c e3 40 ee 8b 95 bd
       0.08833157 -2.706433 7.103073 -0.0730208
000040 50 c6 d0 c0 9d 3d af 3f 3f f6 aa 3f 71 0a 01 c0
       -6.524208 1.3690678 1.3356398 -2.0162623
000050 d7 7c 8a 3d 2e 4d 28 bd 51 20 ce 3f 1f 54 d7 bf
       0.067620926 -0.04108923 1.6103612 -1.6822547
000060 64 9d 84 c0 46 39 aa 3f 54 f7 4c bf 1e be ad c0
       -4.1442127 1.3298728 -0.8006489 -5.4294577
000070 01 23 85 3f 53 d1 b7 3f f1 ee 9f 3d 50 48 bd 3f
       1.0401307 1.4360756 0.07809246 1.4787693
000080 71 15 ac 3f 61 b3 dc bd 62 e4 95 c0 53 68 a2 3d
       1.3444043 -0.10776401 -4.6841288 0.079300545
000090 30 1c dc c0 70 e8 5a bd 79 16 e9 be 16 e1 2d 3e
       -6.878441 -0.053444326 -0.45524958 0.16980395
0000a0 e7 40 a4 c0 33 27 84 3f c1 84 bd 3f b7 34 67 bf
       -5.1329226 1.0324463 1.4806138 -0.9031481
0000b0 81 d2 31 bf 07 6a bd 3d 27 63 98 bd 09 03 c5 40
       -0.6946183 0.09248739 -0.07440787 6.1566205
0000c0 2e 2b 90 bd 52 78 0d be a9 fa e2 3f 76 15 8b be
       -0.07039486 -0.1381543 1.7732745 -0.2716481
0000d0 59 0b c6 3d 65 b8 ca 40 c2 ea cf 3f 16 69 42 be
       0.09670133 6.335009 1.6243517 -0.189854
0000e0 d3 6a 67 c0 00 43 c5 3c 17 07 93 bd 6d 02 21 bd
       -3.615895 0.0240798 -0.07179087 -0.039308954
0000f0 36 10 b3 bf 34 c8 bd bd b1 e6 cb bd 00 35 f8 bc
       -1.3989322 -0.09266701 -0.0995611 -0.03029871
000100 ab 47 ba 3e 20 40 cc 3b b2 64 21 3d e6 0a aa bd
       0.36382803 0.0062332302 0.03940267 -0.0830286
000110 28 2f 66 3f 20 8f b1 3c db 0e 6c bd ab ae d8 c0
       0.89915705 0.021674693 -0.057631355 -6.771322
000120 b9 34 cb 3f 24 83 0a c0 23 60 24 bf c3 fc e9 be
       1.5875465 -2.1642542 -0.64209193 -0.45700654
000130 19 2d 6d 3f 4f 41 14 3e fe e8 2b bd 98 a3 98 bc
       0.9264694 0.14478038 -0.041970246 -0.018632695
000140 6f 48 95 3f ce 06 ca c0 ad 2d 7c bf a6 11 3c 41
       1.166273 -6.3133307 -0.98507196 11.754309
000150 a7 65 e0 3d 46 a9 c5 be 5b eb 4b bd 3f c3 86 be
       0.10956889 -0.38605708 -0.049785 -0.26320836
000160 40 ad e4 ba 01 58 de bf 2d 74 43 3f 77 12 ec be
       -0.0017446652 -1.7370607 0.76349145 -0.46107838
000170 21 c8 b5 3d bd 57 82 bd 71 68 8f 3e 3c 16 ae be
       0.08876062 -0.06364391 0.2800937 -0.34001338
000180 e2 18 99 bf d2 02 51 3d 14 e7 80 bd ba fc e1 bf
       -1.1960719 0.05102808 -0.06294075 -1.7655251

train_data f4 [600, 1]
000000 aa 86 0e 3f 1e 63 96 bd 01 36 aa 3e 16 a5 71 3f
       0.5567423 -0.07343124 0.33244327 0.94392526
000010 ca 70 4e be 1e 2d 6c 3f 9f 0b 16 bf 7f 3c 2b 3f
       -0.20160213 0.92256343 -0.5861148 0.66889185
000020 11 61 74 bf 8d 74 77 be 35 59 07 3e db 80 43 be
       -0.9546061 -0.24165554 0.13217624 -0.19092123
000030 2c 80 8d 3e 27 06 66 bf 13 e8 9d 3e 06 e6 7b bf
       0.2763685 -0.8985314 0.3084112 -0.9839786
000040 a7 ae e5 3c 52 50 49 bf 94 ab f2 be 4e 0c 4c 3f
       0.028037382 -0.78638184 -0.4739653 0.79706275
000050 bb b1 d8 be fa fe ae 3a a2 fe 13 3f ce b4 4b be
       -0.42323098 0.0013351135 0.57810414 -0.1989319
000060 02 87 29 bd 56 94 46 3f 1d 12 97 3e be 89 01 3f
       -0.04138852 0.7757009 0.29506007 0.506008
000070 b1 87 df 3e 98 ef ef 3e dd 22 c2 3d bf da 00 bf
       0.43658212 0.46862483 0.09479306 -0.5033378
000080 22 71 69 3f 3f 4d 56 3f 0b 7b 78 3f 40 9e 55 bf
       0.9118825 0.8371162 0.9706275 -0.83444595
000090 b9 0f da be ae 94 61 be 89 30 7a 3e 81 a8 7f 3e
       -0.4259012 -0.22029373 0.24432577 0.24966623
0000a0 2f 73 8b bd 54 f2 47 3f 03 f3 7d 3f bc 02 d8 bd
       -0.06809079 0.7810414 0.9919893 -0.105473965
0000b0 12 97 1e bd af 1b 0b bf b1 bd 09 bf 81 de 29 3f
       -0.03871829 -0.54339117 -0.5380507 0.6635514
0000c0 1b 3a 6e 3f dd 22 c2 bd 18 47 70 3f 16 db 9b 3d
       0.9305741 -0.09479306 0.9385848 0.07610147
0000d0 71 ce 34 bf 3d e1 01 be 96 32 1c bf f8 ad af be
       -0.70627505 -0.12683578 -0.6101469 -0.34312415
0000e0 f5 ba b1 bd e0 15 c0 3e 64 02 3d 3f 34 23 5d bf
       -0.08678237 0.3751669 0.7383177 -0.8638184
0000f0 a0 5c 15 bf bc 02 d8 3d bb 96 03 bf 09 be a4 be
       -0.5834446 0.105473965 -0.5140187 -0.32176235
000100 1e 63 96 3d 33 d2 5d 3f b1 87 df be 8e aa 21 3f
       0.07343124 0.86648864 -0.43658212 0.6315087
000110 92 09 f4 3e bf f5 d5 be 38 67 5a bf c4 8a d2 3d
       0.47663552 -0.41789052 -0.8531375 0.10280374
000120 00 00 80 3f 74 c1 32 3f e5 aa bc bd 06 cb a6 3d
       1.0 0.69826436 -0.09212283 0.081441924
000130 2e 3d 61 bf 29 a8 64 3f 15 54 72 bf f7 5c 30 be
       -0.8798398 0.8931909 -0.9465955 -0.17222963
000140 29 8d 0f be 9a 76 19 bf 3b 5a 58 3f e3 08 3e be
       -0.14018692 -0.59946597 0.8451268 -0.18558078
000150 2a de 8e be 84 9b fd be ba 45 04 bf a8 e4 0f 3f
       -0.27903873 -0.49532712 -0.51668894 0.56208277
000160 ad 43 e2 be 61 0f 3f 3f 32 66 89 be b4 b0 07 bf
       -0.44192258 0.7463284 -0.2683578 -0.53004
000170 a4 bb e7 3e 1b 70 98 be b3 5f 08 bf 5f 6d 40 bf
       0.45260346 -0.2977303 -0.53271025 -0.7516689
000180 f4 69 b2 3e 40 9e 55 3f 10 10 75 bf cf 05 cb be
       0.3484646 0.83444595 -0.95727634 -0.3965287
000190 8f fb 20 bf b7 6d db 3e 81 a8 7f be 4b 19 4e 3f
       -0.6288385 0.42857143 -0.24966623 0.80507344
0001a0 05 95 7c bf a2 19 e9 be e6 fb bb 3e 05 7a a7 3e
       -0.98664886 -0.4552737 0.3671562 0.3271028
0001b0 51 ff 49 3f d9 de 44 3c e4 59 bd be 16 db 9b bd
       0.78905207 0.012016022 -0.36982644 -0.07610147
0001c0 25 64 67 3f 08 88 7a bf c4 8a d2 bd ae 94 61 3e
       0.90387183 -0.9786382 -0.10280374 0.22029373
0001d0 3f 4d 56 bf ff 93 ab 3e 83 80 28 3f e8 9d ba 3e
       -0.8371162 0.3351135 0.65821093 0.36448598
0001e0 99 25 1a bf 0a 2a 79 bf d9 de 44 bc 19 98 6f 3f
       -0.6021362 -0.9732977 -0.012016022 0.9359146
0001f0 09 d9 79 bf af 1b 0b 3f d0 56 4a bd b3 5f 08 3f
       -0.97596794 0.54339117 -0.049399197 0.53271025
000200 d6 eb c6 be e9 ee b9 3c 88 df fa be d5 9a c7 bd
       -0.38851804 0.022696929 -0.48998666 -0.09746329
000210 1d 12 97 be c2 e8 53 be 7c 49 2d bf b4 b0 07 3f
       -0.29506007 -0.20694259 -0.67690253 0.53004
000220 38 67 5a 3f 17 f6 70 3f 88 df fa 3e fa fe ae ba
       0.8531375 0.94125503 0.48998666 -0.0013351135
000230 36 c5 5b 3f cd 63 cc 3e e5 aa bc 3d 54 f2 47 bf
       0.85847795 0.39919892 0.09212283 -0.7810414
000240 8d 74 77 3e 63 b1 3d bf 07 37 7b bf 99 40 6f 3e
       0.24165554 -0.74098796 -0.9813084 0.23364486
000250 b8 be da 3b f4 69 b2 be 88 15 25 bf 1a 1f 19 3c
       0.0066755675 -0.3484646 -0.6448598 0.009345794
000260 7e eb 2b bf 00 e5 2a 3e 14 39 1d be 46 84 51 3f
       -0.6715621 0.16688919 -0.15353805 0.8184246
000270 a6 5d e6 3e 8b 08 23 3f cb c1 cd be 99 40 6f be
       0.44993323 0.6368491 -0.40186915 -0.23364486
000280 9d 84 6c 3e bf f5 d5 3e 1a e9 6e 3f 33 b7 08 3d
       0.23097463 0.41789052 0.93324435 0.033377837
000290 d2 a7 c9 be b6 1c 5c 3e 2e 3d 61 3f a3 6a e8 3d
       -0.3938585 0.21495327 0.8798398 0.11348464
0002a0 f3 18 33 be 91 9d 1f bf ec e1 b7 be 00 e5 2a be
       -0.17489986 -0.623498 -0.35914552 -0.16688919
0002b0 1f b4 95 be a5 f1 11 3f 1c 8b 6d bf 7d 9a 2c 3f
       -0.29238984 0.57009345 -0.9279039 0.6742323
0002c0 57 e5 45 bf c2 e8 53 3e 5d cb 41 bf 00 00 80 bf
       -0.7730307 0.20694259 -0.7570093 -1.0
0002d0 0e 6e 76 3f 96 4d f1 3e 3e fc 56 bf 2d d1 0c be
       0.9626168 0.47129506 -0.8397864 -0.13751669
0002e0 a0 77 ea be c7 7d d0 be ac 28 0d 3f 39 b8 59 bf
       -0.45794392 -0.4072096 0.55140185 -0.85046726
0002f0 c0 46 55 3d 2c 9b 62 bf 37 16 5b bf 35 59 07 be
       0.052069426 -0.88518023 -0.8558077 -0.13217624
000300 98 d4 1a bf ba 45 04 3f 4d bb 4c bf 3a 09 59 bf
       -0.6048064 0.51668894 -0.799733 -0.84779704
000310 96 4d f1 be 27 eb 90 bd 60 be 3f 3f 32 81 5e 3f
       -0.47129506 -0.07076102 0.74899864 0.86915886
000320 0a 0f a4 bc ce b4 4b 3e 44 e2 52 3f 72 1f 34 3f
       -0.020026702 0.1989319 0.82376504 0.7036048
000330 9a 91 ee 3e f5 ba b1 3d 59 87 44 bf 1b 3a 6e bf
       0.4659546 0.08678237 -0.76769024 -0.9305741
000340 2a f9 63 bf 82 f9 fe be a4 bb e7 be 33 d2 5d bf
       -0.8905207 -0.49799734 -0.45260346 -0.86648864
000350 da 2f c4 3e 9e ba 16 3f 93 3f 1e 3f 8a 81 f9 3e
       0.38317758 0.58878505 0.61815757 0.48731643
000360 9d 69 17 bf c8 ce cf 3c b7 52 06 3f b2 0e 09 3f
       -0.5914553 0.025367156 0.5246996 0.5353805
000370 d2 a7 c9 3e e2 b7 be be 36 aa 86 be 2c 9b 62 3f
       0.3938585 -0.37249666 -0.26301736 0.88518023
000380 5c 7a 42 3f 7a a7 2e 3f 3f 83 80 3d 2d ec 61 3f
       0.75967956 0.682243 0.06275033 0.88251
000390 8a 81 f9 be a7 93 10 bf f8 ad af 3e 9b c7 18 bf
       -0.48731643 -0.564753 0.34312415 -0.59679574
0003a0 27 06 66 3f 0e 53 a1 3d 0b 60 a3 3e d3 f8 48 be
       0.8985314 0.078771695 0.31909212 -0.19626169
0003b0 ff 93 ab be c0 2b 00 3f 13 03 73 3f 20 cf 6a 3f
       -0.3351135 0.5006676 0.94926566 0.917223
0003c0 7a a7 2e bf 5b 29 43 3f 0d 02 a2 be 28 57 65 3f
       -0.682243 0.7623498 -0.3164219 0.89586115
0003d0 85 ec 7c 3e f0 25 b5 be 26 9a 91 be dc d1 c2 3e
       0.246996 -0.35380507 -0.28437918 0.38050735
0003e0 78 05 30 3f 82 2f 29 bf aa 86 0e bf 8c 23 f8 3e
       0.68758345 -0.66088116 -0.5567423 0.4846462
0003f0 6d 8a 37 3f 69 46 3a bf a5 0c 67 3e 1a e9 6e bf
       0.71695596 -0.7276369 0.22563417 -0.93324435

train_targets f4 [600, 1]
000000 ac e8 e5 3f 13 e4 59 c1 99 83 40 40 9d 9a 87 3f
       1.7961631 -13.618182 3.008032 1.0594059
000010 7d ba 9e c0 6d be 8a 3f 22 63 da bf 7d 5c bf 3f
       -4.9602647 1.0839363 -1.7061503 1.49501
000020 33 16 86 bf 7e 6b 84 c0 dc 19 f2 40 c0 9b a7 c0
       -1.0475525 -4.1381216 7.5656567 -5.2377625
000030 2b 93 67 40 66 74 8e bf e1 83 4f 40 89 15 82 bf
       3.6183574 -1.1129272 3.2424242 -1.0162822
000040 ab aa 0e 42 53 c5 a2 bf ef 07 07 c0 f1 96 a0 3f
       35.666668 -1.2716469 -2.1098592 1.2546064
000050 b9 37 17 c0 00 40 3b 44 d4 69 dd 3f eb db a0 c0
       -2.362776 749.0 1.7297921 -5.0268455
000060 53 4a c1 c1 16 03 a5 3f ad e7 58 40 de f5 fc 3f
       -24.161291 1.2891567 3.3891404 1.9762533
000070 e1 97 12 40 de 91 08 40 ea c9 28 41 69 4d fe bf
       2.29052 2.133903 10.549295 -1.9867374
000080 74 5e 8c 3f e9 e7 98 3f 9b df 83 3f 2c 65 99 bf
       1.0966325 1.1945773 1.0302614 -1.1984
000090 04 45 16 c0 b7 42 91 c0 01 f9 82 40 cf 2b 80 40
       -2.3479624 -4.539394 4.092896 4.0053477
0000a0 fb fa 6a c1 3e e2 a3 3f 9d 08 81 3f 3a b2 17 c1
       -14.686275 1.2803419 1.0080754 -9.481012
0000b0 e6 9e ce c1 c8 8e eb bf 52 e5 ed bf c3 e6 c0 3f
       -25.827587 -1.8402948 -1.8585608 1.5070423
0000c0 ac 8c 89 3f ea c9 28 c1 23 60 88 3f e1 3e 52 41
       1.0746055 -10.549295 1.0654339 13.140351
0000d0 86 3b b5 bf 74 4b fc c0 1a c9 d1 bf 7b 85 3a c0
       -1.415879 -7.8842106 -1.6389496 -2.914397
0000e0 86 5e 38 c1 3b 97 2a 40 fa 5d ad 3f e6 2d 94 bf
       -11.523077 2.6654804 1.3544304 -1.1576507
0000f0 01 63 db bf 3a b2 17 41 a8 04 f9 bf 92 e7 46 c0
       -1.7139589 9.481012 -1.9454546 -3.107884
000100 13 e4 59 41 00 b9 93 3f e1 97 12 c0 71 b0 ca 3f
       13.618182 1.1540833 -2.29052 1.5835096
000110 46 46 06 40 71 26 19 c0 d0 08 96 bf e9 a2 1b 41
       2.0980392 -2.3929713 -1.1721439 9.727273
000120 00 00 80 3f c9 4f b7 3f 60 ae 2d c1 82 75 44 41
       1.0 1.4321223 -10.855072 12.278688
000130 25 7b 91 bf 72 4e 8f 3f b0 38 87 bf 67 cc b9 c0
       -1.1365706 1.1195815 -1.0564175 -5.8062015
000140 44 44 e4 c0 fd 85 d5 bf e1 74 97 3f 81 6e ac c0
       -7.133333 -1.6681515 1.1832544 -5.3884892
000150 de 5b 65 c0 22 35 01 c0 34 bb f7 bf 77 b9 e3 3f
       -3.5837321 -2.018868 -1.9354005 1.7790974
000160 5e d2 10 c0 9a 81 ab 3f d1 7c 6e c0 be 7d f1 bf
       -2.2628398 1.3398926 -3.7263682 -1.8866498
000170 75 67 0d 40 ab f5 56 c0 dc 47 f0 bf aa 49 aa bf
       2.2094395 -3.3587444 -1.877193 -1.330373
000180 b0 a9 37 40 2c 65 99 3f 73 b6 85 bf 93 66 21 c0
       2.869732 1.1984 -1.0446304 -2.5218856
000190 c6 8c cb bf 55 55 15 40 cf 2b 80 c0 e1 fd 9e 3f
       -1.5902336 2.3333333 -4.0053477 1.2421228
0001a0 69 bb 81 bf 25 93 0c c0 0f 50 2e 40 3b a8 43 40
       -1.0135318 -2.196481 2.7236364 3.057143
0001b0 50 38 a2 3f c7 71 a6 42 dd 0d 2d c0 e1 3e 52 c1
       1.2673435 83.22222 -2.7039711 -13.140351
0001c0 ed 9c 8d 3f 43 cb 82 bf e9 a2 1b c1 b7 42 91 40
       1.1063515 -1.021828 -9.727273 4.539394
0001d0 e9 e7 98 bf e7 fa 3e 40 6f 77 c2 3f f9 96 2f 40
       -1.1945773 2.9840639 1.5192698 2.7435896
0001e0 95 93 d4 bf fc 82 83 bf c7 71 a6 c2 be c3 88 3f
       -1.6607538 -1.0274348 -83.22222 1.0684736
0001f0 df 26 83 bf c8 8e eb 3f 2a f2 a1 c1 dc 47 f0 3f
       -1.0246238 1.8402948 -20.243244 1.877193
000200 80 ba 24 c0 3c 3c 30 42 a5 9d 02 c0 15 2a 24 c1
       -2.573883 44.058823 -2.0408719 -10.260274
000210 ad e7 58 c0 dc a1 9a c0 be 18 bd bf be 7d f1 3f
       -3.3891404 -4.832258 -1.4773176 1.8866498
000220 d0 08 96 3f 18 fd 87 3f a5 9d 02 40 00 40 3b c4
       1.1721439 1.0624113 2.0408719 -749.0
000230 e1 19 95 3f 32 52 20 40 60 ae 2d 41 3e e2 a3 bf
       1.1648523 2.5050168 10.855072 -1.2803419
000240 7e 6b 84 40 0a be ac bf 27 70 82 bf c3 f5 88 40
       4.1381216 -1.3495495 -1.0190476 4.28
000250 cd cc 15 43 b0 a9 37 c0 25 7e c6 bf 00 00 d6 42
       149.8 -2.869732 -1.5507246 107.0
000260 b4 99 be bf 77 be bf 40 da 6a d0 c0 e6 65 9c 3f
       -1.4890656 5.992 -6.5130434 1.2218597
000270 4a 3e 0e 40 51 fd c8 3f 7d 41 1f c0 c3 f5 88 c0
       2.2225518 1.5702306 -2.488372 -4.28
000280 19 8b 8a 40 71 26 19 40 eb 27 89 3f 14 ae ef 41
       4.3294797 2.3929713 1.0715307 29.96
000290 b3 7e 22 c0 9c de 94 40 25 7b 91 3f fd fc 0c 41
       -2.538983 4.652174 1.1365706 8.811765
0002a0 3b f6 b6 c0 1a 4b cd bf 64 33 32 c0 77 be bf c0
       -5.7175574 -1.6038544 -2.7843866 -5.992
0002b0 c7 e2 5a c0 4c 86 e0 3f 01 f2 89 bf 76 d8 bd 3f
       -3.4200914 1.7540984 -1.0776979 1.4831684
0002c0 00 95 a5 bf dc a1 9a 40 20 16 a9 bf 00 00 80 bf
       -1.2936096 4.832258 -1.3209877 -1.0
0002d0 8b f8 84 3f c9 cb 07 40 72 6b 98 bf f4 b2 e8 c0
       1.0388349 2.121813 -1.190779 -7.271845
0002e0 4e c1 0b c0 ce 2a 1d c0 b6 22 e8 3f 68 81 96 bf
       -2.1836734 -2.4557376 1.8135593 -1.1758242
0002f0 1a a4 99 41 73 9a 90 bf f9 90 95 bf dc 19 f2 c0
       19.205128 -1.1297134 -1.1684867 -7.5656567
000300 52 a3 d3 bf 34 bb f7 3f ad 0d a0 bf c2 fa 96 bf
       -1.6534216 1.9354005 -1.2504174 -1.1795275
000310 c9 cb 07 c0 fb 1c 62 c1 14 e5 aa 3f d1 44 93 3f
       -2.121813 -14.132075 1.3351159 1.1505376
000320 bc bb 47 c2 eb db a0 40 55 62 9b 3f 99 eb b5 3f
       -49.933334 5.0268455 1.2139384 1.4212524
000330 39 5a 09 40 86 5e 38 41 e2 bb a6 bf ac 8c 89 bf
       2.1461318 11.523077 -1.3026087 -1.0746055
000340 73 bc 8f bf c6 83 00 c0 75 67 0d c0 00 b9 93 bf
       -1.1229385 -2.0080428 -2.2094395 -1.1540833
000350 3e 06 27 40 96 65 d9 3f 24 11 cf 3f de 54 03 40
       2.609756 1.6984127 1.6177106 2.052055
000360 54 6a d8 bf 28 af 1d 42 f9 f2 f3 3f 11 15 ef 3f
       -1.6907449 39.42105 1.9058524 1.8678304
000370 b3 7e 22 40 49 d0 2b c0 78 54 73 c0 73 9a 90 3f
       2.538983 -2.6845877 -3.8020306 1.1297134
000380 fa 7d a8 3f cf 9d bb 3f 8e fa 7e 41 75 0a 91 3f
       1.3163445 1.4657534 15.936171 1.1331316
000390 de 54 03 c0 d3 a5 e2 bf 7b 85 3a 40 8f 7a d6 bf
       -2.052055 -1.7706856 2.914397 -1.6756152
0003a0 66 74 8e 3f 5f 1e 4b 41 ac 91 48 40 31 0c a3 c0
       1.1129272 12.694915 3.133891 -5.095238
0003b0 e7 fa 3e c0 9e a8 ff 3f 50 d7 86 3f 3b 8d 8b 3f
       -2.9840639 1.9973333 1.0534458 1.0902475
0003c0 cf 9d bb bf e5 e6 a7 3f f8 42 4a c0 19 e1 8e 3f
       -1.4657534 1.3117338 -3.1603374 1.1162444
0003d0 88 8e 81 40 fc e3 34 c0 38 0d 61 c0 4d 32 28 40
       4.048649 -2.826415 -3.5164318 2.62807
0003e0 c3 28 ba 3f 49 ae c1 bf ac e8 e5 bf 1b 0e 04 40
       1.454369 -1.5131313 -1.7961631 2.063361
0003f0 58 88 b2 3f 74 e9 af bf 8e d2 8d 40 eb 27 89 bf
       1.3947859 -1.3743119 4.4319525 -1.0715307

test_data f4 [150, 1]
000000 f0 af 80 3f 94 a9 98 c0 40 ac a1 3f 49 f5 5e 40
       1.0053692 -4.7707005 1.2630692 3.483721
000010 f0 af 80 bf 93 22 1a c0 3b f6 b6 40 00 00 d6 c2
       -1.0053692 -2.4083602 5.7175574 -107.0
000020 ee 27 a6 3f 14 e5 aa bf 81 6e ac 40 01 63 db 3f
       1.2980936 -1.3351159 5.3884892 1.7139589
000030 b7 e2 30 40 4d 59 8b 41 2f a1 7d 40 24 75 f6 bf
       2.7638376 17.418604 3.9629629 -1.9254498
000040 4d 59 8b c1 ab aa 79 43 22 35 01 40 5e 85 8f 40
       -17.418604 249.66667 2.018868 4.48503
000050 77 b9 b8 3f 8e fa 7e c1 7a 44 45 40 fd 85 d5 3f
       1.4431599 -15.936171 3.0823045 1.6681515
000060 ee 03 b8 bf 25 2d ce bf c8 94 e1 bf db 70 de 3f
       -1.4376199 -1.6107527 -1.762353 1.7378191
000070 1e 2b 90 bf e0 6c 9d bf 86 a3 94 3f b3 62 10 c1
       -1.1263158 -1.2298851 1.1612403 -9.0240965
000080 4e c1 0b 40 49 ae c1 3f 94 a9 98 40 de 91 08 c0
       2.1836734 1.5131313 4.7707005 -2.133903
000090 51 2f 63 40 74 5e 8c bf 27 76 66 c2 c1 de b1 3f
       3.549763 -1.0966325 -57.615383 1.3896104
0000a0 9e a8 ff bf bc 3c 84 bf fe 0a 93 40 88 8e 81 c0
       -1.9973333 -1.0331035 4.595092 -4.048649
0000b0 58 08 8e 3f a4 fb 4b 40 69 4d fe 3f ce 2a 1d 40
       1.1096296 3.187234 1.9867374 2.4557376
0000c0 bf b3 11 40 cc 44 af bf 33 33 b3 3f 8f e2 ba 3f
       2.2765958 -1.369287 1.4 1.460039
0000d0 1a 4b cd 3f 9f 68 14 c0 28 15 c6 c0 8b d5 69 40
       1.6038544 -2.3188856 -6.1900826 3.6536586
0000e0 63 c9 1f 41 03 9d b6 3f 53 4a c1 41 d8 53 51 c0
       9.986667 1.4266666 24.161291 -3.2707424
0000f0 78 54 73 40 eb 29 8c c0 d1 7c 6e 40 9f 68 14 40
       3.8020306 -4.380117 3.7263682 2.3188856
000100 9d 9a 87 bf 52 a3 d3 3f 50 d7 86 bf a8 12 42 40
       -1.0594059 1.6534216 -1.0534458 3.0323887
000110 39 5a 09 c0 8b d5 69 c0 d1 e3 db 40 a4 fb 4b c0
       -2.1461318 -3.6536586 6.8715596 -3.187234
000120 2b 72 a4 bf e7 f1 0a 40 3c e3 99 3f 9d dd 32 41
       -1.2847341 2.1710145 1.2022471 11.179105
000130 33 16 86 3f 57 df b3 3f 15 2a 24 41 ed 9c 8d bf
       1.0475525 1.4052533 10.260274 -1.1063515
000140 64 33 32 40 86 a3 94 bf 9e dc c2 c0 21 21 a1 bf
       2.7843866 -1.1612403 -6.089431 -1.2588235
000150 87 25 8b 3f ab aa 0e c2 a8 12 42 c0 e7 f1 0a c0
       1.0870827 -35.666668 -3.0323887 -2.1710145
000160 ab aa 79 c3 76 d8 bd bf b0 38 87 3f 41 1f ac 3f
       -249.66667 -1.4831684 1.0564175 1.3447038
000170 99 83 40 c0 c8 94 e1 3f cf e1 9a bf 69 bb 81 3f
       -3.008032 1.762353 -1.2100161 1.0135318
000180 18 df d0 3f 67 70 b9 bf 0a be ac 3f d1 44 93 bf
       1.6318083 -1.4487427 1.3495495 -1.1505376
000190 69 e8 01 c0 cd cc 15 c3 a6 9a 23 40 9a 62 29 40
       -2.0298102 -149.8 2.556314 2.6466432
0001a0 2b b5 d2 3f f8 42 4a 40 c9 4f b7 bf 46 46 06 c0
       1.6461538 3.1603374 -1.4321223 -2.0980392
0001b0 6e 8a b1 c0 f8 21 1b c0 80 ba 24 40 c7 e2 5a 40
       -5.548148 -2.4239483 2.573883 3.4200914
0001c0 b2 e3 9b bf 2f a1 7d c0 c8 dc c4 bf 9a ac c5 bf
       -1.2178862 -3.9629629 -1.5379877 -1.5443299
0001d0 c3 28 ba bf ce da cc c0 53 85 9f bf 7d ba 9e 40
       -1.454369 -6.4017096 -1.2462562 4.9602647
0001e0 31 0c a3 40 1c 89 33 c0 c1 17 f7 c0 69 e2 70 40
       5.095238 -2.8052435 -7.7216496 3.763819
0001f0 23 44 36 40 57 de 25 40 55 7a df bf 20 16 a9 3f
       2.8479087 2.5916955 -1.7459208 1.3209877
000200 27 70 82 3f 68 81 96 3f 50 38 a2 bf 59 d1 92 bf
       1.0190476 1.1758242 -1.2673435 -1.1470138
000210 f8 21 1b 40 99 eb b5 bf fb 1c 62 41 25 93 0c 40
       2.4239483 -1.4212524 14.132075 2.196481
000220 42 e6 85 c0 fd c7 8c 3f c1 17 f7 40 a9 f1 9d bf
       -4.1843576 1.0998532 7.7216496 -1.2339374
000230 fb 2b 53 c0 fc 6a cc bf 2b 72 a4 3f 84 0c 55 40
       -3.2995594 -1.5970149 1.2847341 3.328889
000240 30 1b d4 40 16 03 a5 bf 63 c9 1f c1 de 50 a7 3f
       6.628319 -1.2891567 -9.986667 1.3071554
000250 52 a7 9c c0 84 ec 91 3f
       -4.895425 1.1400304

0.weight f4 [100, 1]
000000 6f 02 a8 c0 3d 1b e6 40 f1 c2 aa c0 04 b9 e5 be
       -5.250297 7.190825 -5.3362966 -0.44867718
000010 f5 b6 38 40 80 16 58 c1 9b 20 3a c1 2d c4 48 41
       2.8861668 -13.505493 -11.63296 12.5478945
000020 60 f1 a4 bd f7 90 0f 41 b9 4a 83 c0 7e 5b 92 bf
       -0.08053851 8.972892 -4.1028714 -1.1434171
000030 a0 cb 71 be 71 f0 5c 40 8a f1 08 41 00 65 43 3e
       -0.23612833 3.4521754 8.5589695 0.19081497
000040 ea ad 05 41 86 8a 30 41 f4 3a 2c 41 9d 92 24 40
       8.3549595 11.033819 10.764393 2.5714486
000050 97 d4 5a 3d 49 1a ac be ca a7 4f 41 2f 31 5c c1
       0.053425398 -0.33613804 12.978464 -13.762008
000060 64 97 a9 40 a0 7c 2b 41 79 98 d1 c0 2e 40 df 40
       5.2997303 10.717926 -6.5498624 6.9765844
000070 e9 1f 06 41 70 2e 39 41 34 f4 f5 3e f4 aa f7 3f
       8.382791 11.573837 0.48037875 1.9349046
000080 48 5c 2d 41 88 af 61 bf 6d 5e bf 40 f8 7a 1d bf
       10.83503 -0.88158464 5.9802766 -0.6151576
000090 88 84 0c 41 e0 18 53 bd 26 5a 6e c0 74 2b af 3f
       8.782356 -0.051537395 -3.7242522 1.3685136
0000a0 2b fc d2 40 43 22 05 41 a0 ec 3e 41 8d 6d ec c0
       6.593282 8.320865 11.93277 -7.388373
0000b0 c1 d6 b5 c0 34 8c 32 3f 49 d4 1b bf e0 ec d3 c0
       -5.682465 0.69745183 -0.60870796 -6.6226654
0000c0 20 cd 01 3e 5a aa 90 bf c7 a9 64 41 a0 39 0e c0
       0.12675905 -1.1301987 14.29145 -2.2222672
0000d0 e0 ac b2 bd 5c 20 f9 40 98 75 51 41 43 cd c6 bf
       -0.087243795 7.7852 13.091209 -1.5531391
0000e0 46 3d 94 40 fc 22 ab 3e 43 59 16 bf 08 60 19 be
       4.6324797 0.33425128 -0.5872995 -0.1497804
0000f0 7f 1b 37 c1 ff 27 8a be 7d a6 1e be 41 d0 7d be
       -11.444213 -0.2698364 -0.15493198 -0.24786474
000100 5d a9 3b 40 c0 bb 31 bd 38 8e 0f be 2c e2 2d bf
       2.932212 -0.043391943 -0.14019096 -0.67923236
000110 76 e4 e7 40 40 3c ff bc e2 39 02 be 45 66 0a 41
       7.2466383 -0.03115666 -0.12717393 8.649968
000120 96 b6 4c 41 0a a4 8d c1 8a 16 a8 c0 b7 45 6f c0
       12.794577 -17.705097 -5.2527514 -3.73863
000130 82 ef ee 40 c7 5a 95 3f 0c cb af be ca 29 18 3f
       7.466737 1.1668328 -0.343346 0.59438765
000140 00 64 16 41 d3 53 01 41 f9 ef 00 c1 44 69 4a c1
       9.399414 8.082965 -8.058587 -12.6507
000150 e5 0f 62 3f 31 20 4a c0 70 86 d0 be 68 ce 09 c0
       0.88305503 -3.1582148 -0.40727568 -2.153223
000160 c8 bc a7 3e ab 5d 63 c1 67 e7 c4 40 80 67 71 c0
       0.32761216 -14.210368 6.1532474 -3.7719421
000170 38 50 de be 6d 49 05 bf c5 78 10 40 c2 04 32 c0
       -0.43420577 -0.52065164 2.2573712 -2.7815404
000180 20 8e 1c c1 ec 78 19 3f c0 9e e6 be 69 38 10 40
       -9.7846985 0.5995014 -0.45042992 2.253443

0.bias f4 [100]
000000 dd 97 1c 3e f5 0f 7c 3e 78 28 1f 3e 86 57 34 bf
       0.15292306 0.24615462 0.15542781 -0.7044605
000010 31 57 ca 3d 93 67 c9 3e e4 7a ad 3e 34 ec db 3e
       0.09879912 0.39336833 0.3388282 0.42953646
000020 18 42 50 be e3 43 9d 3e b5 1a 2f be fc 23 42 bd
       -0.20337713 0.30715856 -0.17100032 -0.0473976
000030 76 9a 77 bf a9 4c bb bd 7f f5 97 bf 8a fd 65 bf
       -0.96720064 -0.09145481 -1.1871794 -0.89839995
000040 0e 4b 69 be e9 62 c1 3e 10 aa bc 3e 0a 06 91 bd
       -0.22782537 0.37770775 0.36848497 -0.0708123
000050 1b 18 5b bd 6e 68 20 3c 2f 78 e3 3e db 3a cd 3e
       -0.053489786 0.009790523 0.4442763 0.40083966
000060 8c a1 18 be 80 d9 bb 3e 8e 5a 43 3e 00 d3 48 be
       -0.14905375 0.36689377 0.19077513 -0.1961174
000070 23 ec 92 3e f8 d9 ca 3e b6 72 35 bf 59 dc f1 be
       0.28695783 0.39619422 -0.7087816 -0.47238424
000080 07 e7 bd 3e 9d 59 d2 3c ce b2 2b be cc 58 24 bf
       0.37090322 0.025677497 -0.16767427 -0.64197993
000090 e5 2e 7b be e4 fd 9b be 04 28 de 3d 42 e2 3f 3d
       -0.24529608 -0.3046714 0.10847476 0.046846636
0000a0 1b a5 3f be 5e d6 91 3e 7d 24 d1 3e c5 5c 5c 3e
       -0.18715326 0.28483862 0.4084815 0.21519764
0000b0 90 7b 29 3e 26 69 6b bf 91 3d 91 3c 4e d9 8c be
       0.16551042 -0.9195732 0.017729552 -0.2750954
0000c0 3c 27 c9 be d9 d5 06 3d 60 7b fa 3e a6 8f 84 3d
       -0.39287746 0.032918785 0.48922253 0.06472711
0000d0 60 63 2f be 05 f9 f2 bf 38 72 e5 3e 07 4b 39 3d
       -0.17127752 -1.8982245 0.44813704 0.045237567
0000e0 9d f8 01 be 84 6a 64 bf e1 21 8c 3c 1a a9 38 bf
       -0.12692495 -0.8922503 0.017105998 -0.7213303
0000f0 72 aa aa 3e 6c 30 8a be d3 b1 1e be 0c 91 ec 3b
       0.33333164 -0.26990068 -0.15497522 0.0072194394
000100 ac 91 cd 3d 4c 6a 0e bf 5c 5a a7 be 6a 11 a2 3c
       0.1003755 -0.55630946 -0.32686126 0.019783694
000110 e5 04 7e 3e 1c d6 14 bf 96 3e 02 be 74 d4 6b be
       0.24806555 -0.58139205 -0.12719187 -0.23030263
000120 11 3f e0 3e 28 04 04 3f 88 aa 1c 3e 85 03 df 3d
       0.43798116 0.5156884 0.15299428 0.10889343
000130 0b de 82 3e 4a 9b 23 3d 02 d9 23 3c f4 da 3a bf
       0.2556003 0.039943017 0.010000469 -0.72990346
000140 98 bd a4 3e 43 0b 6a be 0a 5a 70 3e 46 c4 fa be
       0.321759 -0.22855859 0.23471847 -0.4897787
000150 eb a1 f7 3c 19 64 bc 3d 20 5b 42 3c 43 71 80 3d
       0.030228576 0.091987796 0.011862546 0.06271603
000160 08 38 3b bf a1 ea d3 3e 40 b1 57 3e 2f 00 e1 3d
       -0.7313237 0.41389945 0.2106371 0.10986363
000170 7c 50 e8 be d0 75 78 3c d7 41 9e 3d 1f ec a5 3d
       -0.45373905 0.015164807 0.07727402 0.08101677
000180 d3 ea 91 3e 84 ed 6f bf 48 7b 46 bf 39 a9 75 bd
       0.2849947 -0.93721795 -0.7753186 -0.059975836

2.weight f4 [1, 100]
000000 7c 4c 24 bf 4b 69 64 3f 5b fd 26 bf df 3e a1 3d
       -0.64179206 0.89223164 -0.6523034 0.0787332
000010 c2 5a b7 3e b2 50 d3 bf 2d 04 b6 bf 9b 49 c7 3f
       0.3581143 -1.6509001 -1.4220024 1.5569338
000020 6f 03 b3 bd 58 82 8e 3f 49 98 71 40 92 2b 88 3f
       -0.08740889 1.1133528 3.7749197 1.0638297
000030 2f e7 b4 3d 33 36 2d c0 60 4c e3 40 ee 8b 95 bd
       0.08833157 -2.706433 7.103073 -0.0730208
000040 50 c6 d0 c0 9d 3d af 3f 3f f6 aa 3f 71 0a 01 c0
       -6.524208 1.3690678 1.3356398 -2.0162623
000050 d7 7c 8a 3d 2e 4d 28 bd 51 20 ce 3f 1f 54 d7 bf
       0.067620926 -0.04108923 1.6103612 -1.6822547
000060 64 9d 84 c0 46 39 aa 3f 54 f7 4c bf 1e be ad c0
       -4.1442127 1.3298728 -0.8006489 -5.4294577
000070 01 23 85 3f 53 d1 b7 3f f1 ee 9f 3d 50 48 bd 3f
       1.0401307 1.4360756 0.07809246 1.4787693
000080 71 15 ac 3f 61 b3 dc bd 62 e4 95 c0 53 68 a2 3d
       1.3444043 -0.10776401 -4.6841288 0.079300545
000090 30 1c dc c0 70 e8 5a bd 79 16 e9 be 16 e1 2d 3e
       -6.878441 -0.053444326 -0.45524958 0.16980395
0000a0 e7 40 a4 c0 33 27 84 3f c1 84 bd 3f b7 34 67 bf
       -5.1329226 1.0324463 1.4806138 -0.9031481
0000b0 81 d2 31 bf 07 6a bd 3d 27 63 98 bd 09 03 c5 40
       -0.6946183 0.09248739 -0.07440787 6.1566205
0000c0 2e 2b 90 bd 52 78 0d be a9 fa e2 3f 76 15 8b be
       -0.07039486 -0.1381543 1.7732745 -0.2716481
0000d0 59 0b c6 3d 65 b8 ca 40 c2 ea cf 3f 16 69 42 be
       0.09670133 6.335009 1.6243517 -0.189854
0000e0 d3 6a 67 c0 00 43 c5 3c 17 07 93 bd 6d 02 21 bd
       -3.615895 0.0240798 -0.07179087 -0.039308954
0000f0 36 10 b3 bf 34 c8 bd bd b1 e6 cb bd 00 35 f8 bc
       -1.3989322 -0.09266701 -0.0995611 -0.03029871
000100 ab 47 ba 3e 20 40 cc 3b b2 64 21 3d e6 0a aa bd
       0.36382803 0.0062332302 0.03940267 -0.0830286
000110 28 2f 66 3f 20 8f b1 3c db 0e 6c bd ab ae d8 c0
       0.89915705 0.021674693 -0.057631355 -6.771322
000120 b9 34 cb 3f 24 83 0a c0 23 60 24 bf c3 fc e9 be
       1.5875465 -2.1642542 -0.64209193 -0.45700654
000130 19 2d 6d 3f 4f 41 14 3e fe e8 2b bd 98 a3 98 bc
       0.9264694 0.14478038 -0.041970246 -0.018632695
000140 6f 48 95 3f ce 06 ca c0 ad 2d 7c bf a6 11 3c 41
       1.166273 -6.3133307 -0.98507196 11.754309
000150 a7 65 e0 3d 46 a9 c5 be 5b eb 4b bd 3f c3 86 be
       0.10956889 -0.38605708 -0.049785 -0.26320836
000160 40 ad e4 ba 01 58 de bf 2d 74 43 3f 77 12 ec be
       -0.0017446652 -1.7370607 0.76349145 -0.46107838
000170 21 c8 b5 3d bd 57 82 bd 71 68 8f 3e 3c 16 ae be
       0.08876062 -0.06364391 0.2800937 -0.34001338
000180 e2 18 99 bf d2 02 51 3d 14 e7 80 bd ba fc e1 bf
       -1.1960719 0.05102808 -0.06294075 -1.7655251
