complete/reciprocal/state8.pt (torch, 10937 bytes, 9 tensors)

weight f4 [100, 1]
00000000: 2cd2 3d41 b076 363e ff97 5241 e740 0ebf
00000010: 0227 8140 c0ba eb3d 0526 2dc1 1548 1f40
00000020: 94ad b9be bc1a bdbe c03b 263f c0b0 1cc1
00000030: eca9 223f c6f1 25c1 30eb 28bf 3234 bb3f
00000040: b8c0 023e 5198 3940 935a 043f 2dc1 e6c0
00000050: 8ee1 4441 9b09 c340 5815 17c1 8073 c3bd
00000060: 60ab 553d ecf2 4ebf d9a5 a440 da06 b940
00000070: 390b dec0 1ea3 95c0 7807 d4bf 3084 8ebd
00000080: d497 f5be 8495 cfbe a72f 0bc0 3435 48c0
00000090: 1101 6c41 d16c 0141 9ce0 1ec1 7f43 98bf
000000a0: 97e7 6140 6020 7341 202e 83be 9048 c83e
000000b0: 50c6 3840 b6bf 94c0 c060 3f3e 481a 5dbf
000000c0: c914 0841 f617 a440 0d82 4bc0 ebd5 7540
000000d0: af09 3dc1 b662 ff3f 34f6 c63e 50f0 c640
000000e0: 5c3d 80be a5b9 8840 2179 b040 9f77 db40
000000f0: 809c 55bc 2f64 0440 419f 46c1 3e07 2dc1
00000100: d137 de40 78ea 8140 acaa 16bf 8bab 9e40
00000110: ae25 50c0 2413 35c1 5a8d 2d3f 208c 8bbd
00000120: e431 07c1 72e6 4dbf 06b8 6441 bfe9 78c0
00000130: ecd7 87be 6459 0ebf dca4 0cc1 0a60 2540
00000140: d039 ddc0 b295 1f41 2f87 90be d027 94bd
00000150: 19f6 3b41 a282 2e40 8b5e 0841 a27c c3c0
00000160: 8029 463c 4823 44c0 e221 4a41 675e e440
00000170: 8756 dfc0 3804 af40 bfa4 5a40 51ac 49c1
00000180: e022 c840 b535 0c41 b377 f340 94a9 ddbf
11.8638115 0.17818713 13.162108 -0.55567783 4.0360117 0.11510229 -10.821782 2.4887745
-0.36265242 -0.3693446 0.6493492 -9.793152 0.6354053 -10.371527 -0.6598387 1.4625304
0.12768829 2.8999217 0.51700705 -7.211081 12.305067 6.0949225 -9.442711 -0.09543514
0.05216539 -0.8083942 5.145245 5.7820864 -6.93887 -4.676162 -1.6564779 -0.069588065
-0.47967398 -0.4054376 -2.1747835 -3.1282473 14.75026 8.0890665 -9.929836 -1.1895598
3.5297601 15.195404 -0.25621128 0.3911786 2.887104 -4.648402 0.18689251 -0.86368227
8.5050745 5.127925 -3.1798127 3.8411815 -11.814864 1.9951999 0.38859713 6.216835
-0.25046813 4.2726617 5.5147862 6.858352 -0.013037801 2.0686147 -12.41388 -10.814268
6.9443135 4.0598717 -0.58854175 4.9584403 -3.2522998 -11.317173 0.6779381 -0.06813836
-8.44968 -0.80429757 14.294928 -3.8892667 -0.26531923 -0.5560515 -8.790249 2.5839868
-6.913307 9.974047 -0.28228137 -0.07234156 11.747582 2.7267232 8.523082 -6.108964
0.012094855 -3.0646534 12.633272 7.1365237 -6.9793124 5.469265 3.4163053 -12.604569
6.254257 8.763112 7.6083617 -1.7317376

bias f4 [100]
00000000: fc9c c73e 06c9 46bf 2f75 dd3e 8cbc 813c
00000010: 9fd0 073e 523c 78bf e9e9 9d3e 8a7f a73d
00000020: d09f 56bf a080 d1be 9c1a 63bf 27e7 8e3e
00000030: 92aa 22bf b69f babe 4c97 3bbf 69dc 443d
00000040: 75c2 02be f6b2 d3bd 812e 8b3c 7373 523e
00000050: 9909 cf3e 5019 4d3e 33ca 893e e0f4 7dbe
00000060: 7e3e 15bf 55bd bc3c 5ce5 38be 8737 53be
00000070: a281 4a3e 9478 083e 785f 413d 300b 18be
00000080: 1434 26bf c025 54bf 02e1 7d3d 59b1 e2bd
00000090: df2d f83e ca5c 93be d7e5 903e a8dd 0a3d
000000a0: f18e ed3d 2dab ff3e fc9e d8be 88c3 46bf
000000b0: 784e c23d 0ca9 073e 6647 4fbf f9a5 c93c
000000c0: ce19 8f3e fa8e 2c3e ea99 b93d 3f42 013e
000000d0: 8b67 ac3e 4f3e 8fbd 60e9 2bbf 1219 5abe
000000e0: 14dd b5be 4ec7 0f3e 2cc5 43be fcc9 663e
000000f0: 3c17 87be ab38 8b3d 2125 b53e c1cd 9d3e
00000100: eda1 77be 289e 083e 20e3 7dbf 657e 33be
00000110: 23d5 bd3d 5924 a53e b012 76bf 205c 45bf
00000120: 632d 8ebe 7dc8 bb3c 9984 f03e dc02 e33d
00000130: 4ee1 22bf cef4 56bf bc44 803e 3243 b6bd
00000140: 99c2 493e 34d1 a73e a1cf 033c 3c09 9abe
00000150: 5da8 c53e 4383 b73d 8467 8f3e 2649 323e
00000160: 802b 2bbf a340 debd 418f d43e c77e 7fbe
00000170: b6af 4b3e 7b0b 383e 41ec e53d 87ed b73e
00000180: f675 523e 48b5 edbf 8403 803e 8c28 4a3d
0.38986957 -0.7765049 0.43253466 0.015836976 0.13263176 -0.9696704 0.30842522 0.08178623
-0.83837605 -0.40918446 -0.8871248 0.2791073 -0.6354152 -0.36449975 -0.73277736 0.048061762
-0.12769492 -0.103368685 0.016989948 0.20551853 0.4043701 0.20029187 0.26912078 -0.24800444
-0.5829848 0.0230395 -0.18056244 -0.20626651 0.19776013 0.13327247 0.047210187 -0.14848018
-0.64923215 -0.828701 0.061982162 -0.11068983 0.48472497 -0.2878173 0.28300354 0.033902794
0.115995295 0.49935284 -0.42308795 -0.77642107 0.09487623 0.1324808 -0.8096832 0.024615275
0.27949375 0.16851416 0.0906256 0.12622927 0.33672747 -0.06994306 -0.67152977 -0.21298626
-0.35520232 0.14040872 -0.19118184 0.22537988 -0.26384914 0.06797918 0.3537989 0.3082104
-0.24182864 0.13341582 -0.9917469 -0.17528684 0.09269168 0.32254294 -0.96122265 -0.77093697
-0.27769002 0.022922749 0.46976164 0.1108453 -0.6362504 -0.8396729 0.2505244 -0.08899535
0.1970314 0.32776797 0.008045108 -0.3008517 0.38605013 0.08960583 0.28008664 0.17410716
-0.6686325 -0.10852172 0.41515544 -0.24950705 0.19891247 0.1797313 0.112267025 0.35923406
0.20552811 -1.8570948 0.25002682 0.049355075

weight f4 [1, 100]
00000000: 1fd5 ae3f fdf8 34bd 0af7 c13f b444 80bd
00000010: 89e8 ed3e 5af7 603d 5420 9cbf 42b4 923e
00000020: 76ec 663d 6cc9 a93c 1b5c b6bd 3449 8dbf
00000030: 89f2 d8bc 04cc 1641 b363 37bd 0a6c 2c3e
00000040: 893b 9b3d 9e3d 25c0 76ce 733d a611 50bf
00000050: be55 b53f 1ca3 333f ee3a 88bf efd9 b4bd
00000060: 8da8 5fbd 6a9a babd 4653 96c0 8aa0 aac0
00000070: e636 48bf 22ed 06bf 2c2f 3fbe ad56 bcbd
00000080: 13ae 9a3d e278 5b3d 5801 7bbe 1e83 3440
00000090: 805e d93f 47d2 eec0 f941 8fbf 584b 09be
000000a0: 1611 d03e c6ed df3f fda5 c03d fdb8 993d
000000b0: 462f aa3e fd1f 06bf 4c08 e0bc 9a5d c7bd
000000c0: f6ab 7a3f eb22 173f 1f80 b7be 846c e23e
000000d0: 1374 aabf 562f e9bf 3d6c b9bd a64b b7c0
000000e0: 0829 bf3c bddb fb3e 3166 a1c0 5223 4a3f
000000f0: dd91 1fbd 1ce0 733e 4f18 b3bf 8004 9cbf
00000100: 1ca4 ccc0 a550 ef3e de01 8bbd 92e0 92c0
00000110: 14af bbbe ed45 a3bf d86f 2ebc 1e0b 92bd
00000120: a35e f540 57a8 b9bd b8a8 d23f 1771 e0be
00000130: 00f7 843c 41c3 993d 27a2 7dbf 6308 14c0
00000140: 137a 47bf defb 923f be51 02bd 7e04 0a3d
00000150: 921e ad3f 0dbb a03e 0434 7b3f 9444 30bf
00000160: 4328 b43d 02bd 3040 ec2b ba3f 15c8 d2c0
00000170: 9861 49bf 6532 213f 2a61 c93e afd8 b5bf
00000180: 5455 383f 22e1 0741 303e 603f bdde 47be
1.3658789 -0.044182766 1.5153515 -0.06263104 0.46466473 0.054923393 -1.2197366 0.2865315
0.05637785 0.020725928 -0.089042865 -1.1037965 -0.026482837 9.4248085 -0.044772815 0.16838089
0.07579715 -2.5818858 0.05952307 -0.8127693 1.4166791 0.7017076 -1.0642984 -0.0883063
-0.054604102 -0.091114834 -4.697665 -5.332097 -0.7820877 -0.52705586 -0.18670338 -0.091962196
0.07552733 0.05358208 -0.24512231 2.8205028 1.6981964 -7.4631686 -1.1192008 -0.13407648
0.40638036 1.7494438 0.0940666 0.07505987 0.33239192 -0.5239256 -0.027347706 -0.0973465
0.9791864 0.59037656 -0.35839936 0.44223416 -1.3316673 -1.8217571 -0.09053848 -5.7279844
0.023334995 0.49191085 -5.0437245 0.78960145 -0.038957465 0.2381596 -1.3991793 -1.2188873
-6.395033 0.46741214 -0.067874655 -4.5899134 -0.36657012 -1.2755715 -0.010646783 -0.07131027
7.6678023 -0.090653114 1.6457739 -0.4383628 0.01623106 0.07507945 -0.9907555 -2.313012
-0.77920645 1.1483114 -0.031816237 0.03369569 1.3524954 0.31392708 0.98126245 -0.6885464
0.08796742 2.7615361 1.4544654 -6.586924 -0.7866454 0.6296752 0.39331943 -1.4206752
0.720052 8.492464 0.8759489 -0.19518562

train_data f4 [600, 1]
00000000: c197 d43e e2b7 bebe 95fc 71be b4b0 07bf
00000010: 13e8 9dbe 29a8 64bf 2e22 8cbe e5aa bcbd
00000020: 37fb 85bd b61c 5cbe a8e4 0f3f d6eb c6be
00000030: 8380 28bf 0595 7c3f 4dbb 4c3f 1f7e 6b3f
00000040: 1439 1d3e 0429 283e 00e5 2a3e 4dbb 4cbf
00000050: 63b1 3dbf 7956 2fbf 81de 29bf a50c 67be
00000060: cd63 ccbe 3130 5fbf 4c6a 4dbf 10f5 1f3e
00000070: b752 06bf 6a97 39bf 95e1 1cbf 2f8e 60bf
00000080: 5250 493f d3f8 48be 7c49 2dbf 4ac8 4e3f
00000090: 5ad8 433f 71ce 34bf 283c 903e bbb1 d83e
000000a0: ac28 0d3f bc02 d8bd 84d1 27bf a05c 153f
000000b0: 2b2f 8ebc 1ddc 6c3f cc12 cd3d 5543 47bf
000000c0: 1b3a 6e3f 2156 943e 9a76 193f 57e5 45bf
000000d0: 1f7e 6bbf 26b5 66bf 8d74 77be b187 df3e
000000e0: b20e 09bf aa86 0e3f 2b2f 8e3c b06c 0a3f
000000f0: 2e3d 61bf 5987 44bf a5f1 113f bce7 02bf
00000100: 5dcb 41bf 33d2 5dbf 2005 15be d88d c5be
00000110: 9925 1abf 54f2 473f 7eeb 2b3f bd38 023f
00000120: 23c2 683f 9c33 ed3e 086d 253e 1297 1e3d
00000130: ee83 b6be 2b4a 63bf 8ec5 f63e 81de 293f
00000140: ac28 0dbf 95e1 1c3f 8930 7a3e 0a0f a4bc
00000150: 0151 7f3f d73c 46be fafe aeba 7805 303f
00000160: 8b08 23bf c8ce cfbc cc12 cdbd 269a 913e
00000170: 68f5 3abf 933f 1e3f 1146 9fbe 1303 733f
00000180: ad79 0cbf d73c 463e a34f 133f 30c4 8a3e
00000190: 92ee 1e3f b35f 083f 19ce 99be 4ac8 4ebf
000001a0: 94ab f23e 82f9 febe 610f 3fbf e308 3e3e
000001b0: 0ccc 77bf da2f c4be b90f da3e 74c1 323f
000001c0: db80 433e 2413 68bf 3aee 83be 39b8 59bf
000001d0: 29a8 643f 67a4 3bbf a935 0f3f cbc1 cd3e
000001e0: 8c23 f83e b06c 0abf 9f26 6bbd 4f5d 4bbf
000001f0: 3b5a 583f 09d9 793f 2549 123e ceb4 4bbe
00000200: be89 013f 9be2 edbd 8c59 223f e308 3ebe
00000210: 057a a73e 8a81 f9be fdf1 acbe b9f4 04bf
00000220: 2dd1 0c3e fafe ae3a 1303 73bf 057a a7be
00000230: 4b19 4e3f fca0 2dbe aa50 643e 4826 50bf
00000240: c91f cf3e 95fc 713e eb90 38be 30df 5fbf
00000250: 6260 3e3f 44e2 52bf de73 c1be 4391 533f
00000260: 0e53 a13d 384c 853e 610f 3f3f bb96 03bf
00000270: b501 07bf 6946 3abf 23a7 13bd 09be a4be
00000280: 16a5 71bf 1e63 963d d59a c73d 7bf8 2d3f
00000290: c62c 51be 721f 343f d59a c7bd 1fb4 95be
000002a0: 51ff 493f ece1 b73e ff93 abbe 98d4 1abf
000002b0: 36c5 5bbf aba1 e33e 0595 7cbf 98ef ef3e
000002c0: b47a dd3d 0136 aabe 6be8 383f 409e 553f
000002d0: 3c90 823e 2c80 8dbe 3cab 57bf 8ffb 20bf
000002e0: 5694 46bf 1297 1ebd 7aa7 2e3f 9067 f53e
000002f0: fdf1 ac3e 84d1 273f 721f 34bf db80 43be
00000300: 1554 72bf 1161 743f 0151 7fbf a36a e8bd
00000310: bc02 d83d ca70 4e3e fb4f ae3e 5dcb 413f
00000320: 2ade 8ebe 2857 65bf fe42 acbd ee83 b63e
00000330: 8815 253f a077 eabe fe42 ac3d 878e fb3c
00000340: c77d d0be 03f3 7dbf 9940 6f3e 2f8e 603f
00000350: b1bd 093f 47d5 503f 3559 073e b5cb dcbe
00000360: 74c1 32bf a793 103f 5e1c 413f a793 10bf
00000370: 0a2a 793f dfc4 40be 0b7b 78bf 1161 74bf
00000380: dd22 c23d 0737 7b3f 9d84 6c3e 3574 5c3f
00000390: 2c9b 623f 02a2 7ebf 81a8 7f3e 298d 0f3e
000003a0: abd7 0dbf 1998 6fbf b501 073f 3efc 56bf
000003b0: 2dec 61bf 3574 5cbf c02b 003f a219 e9be
000003c0: acf2 e2bd 33d2 5d3f 60be 3f3f 1b70 98be
000003d0: 2706 66bf 9940 6fbe 935a f33d 0d02 a2be
000003e0: 4977 4f3f 6f2c 36bf b5cb dc3e 0000 803f
000003f0: aba1 e3be 87c4 253f 2af9 63bf cd63 cc3e
0.4152203 -0.37249666 -0.23631509 -0.53004 -0.3084112 -0.8931909 -0.27369827 -0.09212283
-0.06542056 -0.21495327 0.56208277 -0.38851804 -0.65821093 0.98664886 0.799733 0.9198932
0.15353805 0.16421896 0.16688919 -0.799733 -0.74098796 -0.6849132 -0.6635514 -0.22563417
-0.39919892 -0.8718291 -0.8024032 0.15620828 -0.5246996 -0.72496665 -0.6128171 -0.87716955
0.78638184 -0.19626169 -0.67690253 0.80774367 0.76502 -0.70627505 0.28170896 0.42323098
0.55140185 -0.105473965 -0.6555407 0.5834446 -0.017356476 0.92523366 0.10013351 -0.77837116
0.9305741 0.2897196 0.59946597 -0.7730307 -0.9198932 -0.9012016 -0.24165554 0.43658212
-0.5353805 0.5567423 0.017356476 0.54072094 -0.8798398 -0.76769024 0.57009345 -0.5113485
-0.7570093 -0.86648864 -0.14552736 -0.3858478 -0.6021362 0.7810414 0.6715621 0.50867826
0.9092123 0.46328437 0.16154873 0.03871829 -0.3564753 -0.88785046 0.48197597 0.6635514
-0.55140185 0.6128171 0.24432577 -0.020026702 0.9973298 -0.19359146 -0.0013351135 0.68758345
-0.6368491 -0.025367156 -0.10013351 0.28437918 -0.7303071 0.61815757 -0.31108144 0.94926566
-0.5487316 0.19359146 0.5754339 0.27102804 0.6208278 0.53271025 -0.30040053 -0.80774367
0.4739653 -0.49799734 -0.7463284 0.18558078 -0.96795726 -0.38317758 0.4259012 0.69826436
0.19092123 -0.90654206 -0.2576769 -0.85046726 0.8931909 -0.73297733 0.55941254 0.40186915
0.4846462 -0.54072094 -0.05740988 -0.7943925 0.8451268 0.97596794 0.14285715 -0.1989319
0.506008 -0.11615487 0.6341789 -0.18558078 0.3271028 -0.48731643 -0.33778372 -0.5193592
0.13751669 0.0013351135 -0.94926566 -0.3271028 0.80507344 -0.16955942 0.22296396 -0.8130841
0.40453938 0.23631509 -0.18024032 -0.8744993 0.7436582 -0.82376504 -0.37783712 0.82643527
0.078771695 0.26034713 0.7463284 -0.5140187 -0.5273698 -0.7276369 -0.036048066 -0.32176235
-0.94392526 0.07343124 0.09746329 0.67957276 -0.20427236 0.7036048 -0.09746329 -0.29238984
0.78905207 0.35914552 -0.3351135 -0.6048064 -0.85847795 0.4445928 -0.98664886 0.46862483
0.108144194 -0.33244327 0.7222964 0.83444595 0.25500667 -0.2763685 -0.8424566 -0.6288385
-0.7757009 -0.03871829 0.682243 0.47930574 0.33778372 0.6555407 -0.7036048 -0.19092123
-0.9465955 0.9546061 -0.9973298 -0.11348464 0.105473965 0.20160213 0.34045395 0.7570093
-0.27903873 -0.89586115 -0.08411215 0.3564753 0.6448598 -0.45794392 0.08411215 0.03070761
-0.4072096 -0.9919893 0.23364486 0.87716955 0.5380507 0.81575435 0.13217624 -0.43124166
-0.69826436 0.564753 0.7543391 -0.564753 0.9732977 -0.188251 -0.9706275 -0.9546061
0.09479306 0.9813084 0.23097463 0.8611482 0.88518023 -0.99465954 0.24966623 0.14018692
-0.5540721 -0.9359146 0.5273698 -0.8397864 -0.88251 -0.8611482 0.5006676 -0.4552737
-0.11081442 0.86648864 0.74899864 -0.2977303 -0.8985314 -0.23364486 0.1188251 -0.3164219
0.8104139 -0.7116155 0.43124166 1.0 -0.4445928 0.64753 -0.8905207 0.39919892

train_targets f4 [600, 1]
00000000: 9322 1a40 49d0 2bc0 9569 87c0 be7d f1bf
00000010: e183 4fc0 724e 8fbf 8bd5 69c0 60ae 2dc1
00000020: 4992 74c1 9cde 94c0 77b9 e33f 80ba 24c0
00000030: 6f77 c2bf 69bb 813f ad0d a03f 8725 8b3f
00000040: da6a d040 9edc c240 77be bf40 ad0d a0bf
00000050: 0abe acbf 8fe2 babf c3e6 c0bf 8ed2 8dc0
00000060: 3252 20c0 59d1 92bf 5385 9fbf ceda cc40
00000070: f9f2 f3bf 538f b0bf 18df d0bf 84ec 91bf
00000080: 53c5 a23f 310c a3c0 be18 bdbf 5377 9e3f
00000090: de50 a73f 863b b5bf 512f 6340 b937 1740
000000a0: b622 e83f 3ab2 17c1 3742 c3bf 0163 db3f
000000b0: 2776 66c2 eb57 8a3f 63c9 1f41 2b72 a4bf
000000c0: ac8c 893f 3ae7 5c40 fd85 d53f 0095 a5bf
000000d0: 8725 8bbf 5808 8ebf 7e6b 84c0 e197 1240
000000e0: 1115 efbf ace8 e53f 2776 6642 93b8 ec3f
000000f0: 257b 91bf e2bb a6bf 4c86 e03f 8c51 fabf
00000100: 2016 a9bf 00b9 93bf d1e3 dbc0 57de 25c0
00000110: 9593 d4bf 3ee2 a33f b499 be3f efa1 fb3f
00000120: fdc7 8c3f e324 0a40 2815 c640 e69e ce41
00000130: 1c89 33c0 1e2b 90bf 65c9 0440 c3e6 c03f
00000140: b622 e8bf 18df d03f 01f9 8240 bcbb 47c2
00000150: bb57 803f eb4b a5c0 0040 3bc4 c328 ba3f
00000160: 51fd c8bf 28af 1dc2 63c9 1fc1 380d 6140
00000170: cc44 afbf 2411 cf3f e1bb 4dc0 50d7 863f
00000180: e543 e9bf eb4b a540 db70 de3f 4f23 6c40
00000190: 252d ce3f dc47 f03f 840c 55c0 5377 9ebf
000001a0: ef07 0740 c683 00c0 9a81 abbf 816e ac40
000001b0: bc3c 84bf 3e06 27c0 0445 1640 c94f b73f
000001c0: c09b a740 2532 8dbf 815f 78c0 6881 96bf
000001d0: 724e 8f3f 57a1 aebf bccf e43f 7d41 1f40
000001e0: 1b0e 0440 93b8 ecbf 4d59 8bc1 2121 a1bf
000001f0: e174 973f df26 833f 0000 e040 ebdb a0c0
00000200: def5 fc3f 44bf 09c1 f6d5 c93f 816e acc0
00000210: 3ba8 4340 de54 03c0 6978 3dc0 2475 f6bf
00000220: f4b2 e840 0040 3b44 50d7 86bf 3ba8 43c0
00000230: e1fd 9e3f 73b9 bcc0 5e85 8f40 e06c 9dbf
00000240: 6234 1e40 9569 8740 6e8a b1c0 955e 92bf
00000250: 411f ac3f 5562 9bbf 9a62 29c0 cfe1 9a3f
00000260: 5f1e 4b41 5dd3 7540 9a81 ab3f a804 f9bf
00000270: c4b6 f2bf 74e9 afbf 09ed ddc1 92e7 46c0
00000280: 9d9a 87bf 13e4 5941 152a 2441 885a bc3f
00000290: 52a7 9cc0 99eb b53f 152a 24c1 c7e2 5ac0
000002a0: 5038 a23f 6433 3240 e7fa 3ec0 52a3 d3bf
000002b0: e119 95bf b3f3 0f40 69bb 81bf de91 0840
000002c0: 5cf3 1341 9983 40c0 6b36 b13f 2c65 993f
000002d0: 4cf9 7a40 2b93 67c0 c6ef 97bf c68c cbbf
000002e0: 1603 a5bf e69e cec1 cf9d bb3f c686 0540
000002f0: 6978 3d40 3742 c33f 99eb b5bf c09b a7c0
00000300: b038 87bf 3316 863f bb57 80bf fdfc 0cc1
00000310: 3ab2 1741 7dba 9e40 fcfb 3b40 2016 a93f
00000320: de5b 65c0 19e1 8ebf e438 3ec1 1c89 3340
00000330: 257e c63f 4ec1 0bc0 e438 3e41 c842 0242
00000340: ce2a 1dc0 9d08 81bf c3f5 8840 84ec 913f
00000350: 52e5 ed3f f5e8 9c3f dc19 f240 9f68 14c0
00000360: c94f b7bf d3a5 e23f 59af a93f d3a5 e2bf
00000370: fc82 833f 5efc a9c0 9bdf 83bf 3316 86bf
00000380: eac9 2841 2770 823f 198b 8a40 86a3 943f
00000390: 739a 903f f0af 80bf cf2b 8040 4444 e440
000003a0: 5104 e7bf bec3 88bf c4b6 f23f 726b 98bf
000003b0: 750a 91bf 86a3 94bf 9ea8 ff3f 2593 0cc0
000003c0: b362 10c1 00b9 933f 14e5 aa3f abf5 56c0
000003d0: 6674 8ebf c3f5 88c0 d5a6 0641 f842 4ac0
000003e0: a9f1 9d3f 57df b3bf 9f68 1440 0000 803f
000003f0: b3f3 0fc0 9aac c53f 73bc 8fbf 3252 2040
2.4083602 -2.6845877 -4.2316384 -1.8866498 -3.2424242 -1.1195815 -3.6536586 -10.855072
-15.285714 -4.652174 1.7790974 -2.573883 -1.5192698 1.0135318 1.2504174 1.0870827
6.5130434 6.089431 5.992 -1.2504174 -1.3495495 -1.460039 -1.5070423 -4.4319525
-2.5050168 -1.1470138 -1.2462562 6.4017096 -1.9058524 -1.3793739 -1.6318083 -1.1400304
1.2716469 -5.095238 -1.4773176 1.2380165 1.3071554 -1.415879 3.549763 2.362776
1.8135593 -9.481012 -1.5254582 1.7139589 -57.615383 1.080808 9.986667 -1.2847341
1.0746055 3.451613 1.6681515 -1.2936096 -1.0870827 -1.1096296 -4.1381216 2.29052
-1.8678304 1.7961631 57.615383 1.8493828 -1.1365706 -1.3026087 1.7540984 -1.9556136
-1.3209877 -1.1540833 -6.8715596 -2.5916955 -1.6607538 1.2803419 1.4890656 1.9658793
1.0998532 2.1585014 6.1900826 25.827587 -2.8052435 -1.1263158 2.0747921 1.5070423
-1.8135593 1.6318083 4.092896 -49.933334 1.0026773 -5.1655173 -749.0 1.454369
-1.5702306 -39.42105 -9.986667 3.5164318 -1.369287 1.6177106 -3.2145922 1.0534458
-1.8223845 5.1655173 1.7378191 3.689655 1.6107527 1.877193 -3.328889 -1.2380165
2.1098592 -2.0080428 -1.3398926 5.3884892 -1.0331035 -2.609756 2.3479624 1.4321223
5.2377625 -1.1030928 -3.880829 -1.1758242 1.1195815 -1.3642987 1.7875896 2.488372
2.063361 -1.8493828 -17.418604 -1.2588235 1.1832544 1.0246238 7.0 -5.0268455
1.9762533 -8.609196 1.5768421 -5.3884892 3.057143 -2.052055 -2.9604743 -1.9254498
7.271845 749.0 -1.0534458 -3.057143 1.2421228 -5.897638 4.48503 -1.2298851
2.4719472 4.2316384 -5.548148 -1.1435114 1.3447038 -1.2139384 -2.6466432 1.2100161
12.694915 3.8410256 1.3398926 -1.9454546 -1.8962026 -1.3743119 -27.74074 -3.107884
-1.0594059 13.618182 10.260274 1.4715128 -4.895425 1.4212524 -10.260274 -3.4200914
1.2673435 2.7843866 -2.9840639 -1.6534216 -1.1648523 2.2492492 -1.0135318 2.133903
9.246914 -3.008032 1.3844732 1.1984 3.9214659 -3.6183574 -1.1870048 -1.5902336
-1.2891567 -25.827587 1.4657534 2.086351 2.9604743 1.5254582 -1.4212524 -5.2377625
-1.0564175 1.0475525 -1.0026773 -8.811765 9.481012 4.9602647 2.937255 1.3209877
-3.5837321 -1.1162444 -11.888889 2.8052435 1.5507246 -2.1836734 11.888889 32.565216
-2.4557376 -1.0080754 4.28 1.1400304 1.8585608 1.2258593 7.5656567 -2.3188856
-1.4321223 1.7706856 1.3256637 -1.7706856 1.0274348 -5.3120565 -1.0302614 -1.0475525
10.549295 1.0190476 4.3294797 1.1612403 1.1297134 -1.0053692 4.0053477 7.133333
-1.8048192 -1.0684736 1.8962026 -1.190779 -1.1331316 -1.1612403 1.9973333 -2.196481
-9.0240965 1.1540833 1.3351159 -3.3587444 -1.1129272 -4.28 8.41573 -3.1603374
1.2339374 -1.4052533 2.3188856 1.0 -2.2492492 1.5443299 -1.1229385 2.5050168

test_data f4 [150, 1]
00000000: d5a6 06c1 52e5 edbf b2e3 9b3f 1b0e 04c0
00000010: b37e 2240 6e51 c7bf e767 eabf 865e 38c1
00000020: e7fa 3e40 619a 84bf b37e 22c0 d520 c03f
00000030: 8efa 7ec1 815f 7840 fdfc 0c41 3b97 2a40
00000040: 2360 88bf 69e2 70c0 3e06 2740 252d cebf
00000050: 934e edc0 3ce3 993f c78c b43f 3bf6 b640
00000060: 2235 01c0 e13e 5241 b742 91c0 9366 21c0
00000070: 4cf9 7ac0 71b0 cabf 7b85 3ac0 694d febf
00000080: 744b fcc0 6234 1ec0 4a3e 0ec0 2263 da3f
00000090: 9665 d93f 694d fe3f c88e ebbf ef07 07c0
000000a0: 2344 3640 01f2 893f 2bb5 d23f 59d1 923f
000000b0: fdc7 8cbf 69e8 01c0 3b57 853f a4fb 4bc0
000000c0: ebf2 ae40 6a32 f53f e7f1 0a40 c771 a642
000000d0: b117 0fc0 def5 fcbf 0095 a53f 14e5 aabf
000000e0: ce2a 1d40 cdcc 15c3 a59d 02c0 3b8d 8bbf
000000f0: 77b9 b8bf 4f23 6cc0 74e9 af3f c214 39c0
00000100: c561 81bf f990 953f 1115 ef3f 619a 843f
00000110: 739a 90bf 9322 1ac0 e62d 943f 5efc a940
00000120: 42e6 85c0 e183 4f40 d469 dd3f b7e2 3040
00000130: c117 f7c0 49ae c1bf f196 a0bf bec3 883f
00000140: d144 93bf 1e2b 903f 4c53 a3bf e9a2 1bc1
00000150: 6dbe 8abf 6f77 c23f ed9c 8dbf 71b0 ca3f
00000160: 89f5 8b3f 7725 9241 fdbd 96c0 1ac9 d1bf
00000170: 8ded d740 5e85 8fc0 2af2 a1c1 e119 953f
00000180: 411f acbf fc82 83bf 37dc 0041 3c3c 3042
00000190: d144 933f 12ff ad3f abf5 5640 e7f1 0ac0
000001a0: 12ff adbf c214 3940 73bc 8f3f 6e51 c73f
000001b0: 8efa 7e41 73b6 85bf fb1c 62c1 57df b33f
000001c0: 5555 1540 5888 b2bf 3b97 2ac0 a69a 2340
000001d0: aa49 aa3f 3bb1 0341 534a c1c1 eb29 8c40
000001e0: d008 963f 6593 b5c1 0f50 2e40 5385 9f3f
000001f0: 5571 d73f eb57 8abf c68c cb3f 34bb f7bf
00000200: a812 42c0 c7e2 5a40 cfe1 9abf e9e7 98bf
00000210: 9366 2140 c88e eb3f 0445 16c0 e9a2 1b41
00000220: 3ae7 5cc0 0abe ac3f fe0a 93c0 fa5d adbf
00000230: d853 51c0 1aa4 99c1 92e7 4640 01f9 82c0
00000240: 2121 a13f 6b36 b1bf 2411 cfbf 6593 b541
00000250: be18 bd3f 3b57 85bf
-8.41573 -1.8585608 1.2178862 -2.063361 2.538983 -1.5571725 -1.8312958 -11.523077
2.9840639 -1.0359613 -2.538983 1.501002 -15.936171 3.880829 8.811765 2.6654804
-1.0654339 -3.763819 2.609756 -1.6107527 -7.4158416 1.2022471 1.4105462 5.7175574
-2.018868 13.140351 -4.539394 -2.5218856 -3.9214659 -1.5835096 -2.914397 -1.9867374
-7.8842106 -2.4719472 -2.2225518 1.7061503 1.6984127 1.9867374 -1.8402948 -2.1098592
2.8479087 1.0776979 1.6461538 1.1470138 -1.0998532 -2.0298102 1.0417246 -3.187234
5.467153 1.915601 2.1710145 83.22222 -2.235821 -1.9762533 1.2936096 -1.3351159
2.4557376 -149.8 -2.0408719 -1.0902475 -1.4431599 -3.689655 1.3743119 -2.891892
-1.0107962 1.1684867 1.8678304 1.0359613 -1.1297134 -2.4083602 1.1576507 5.3120565
-4.1843576 3.2424242 1.7297921 2.7638376 -7.7216496 -1.5131313 -1.2546064 1.0684736
-1.1505376 1.1263158 -1.2759795 -9.727273 -1.0839363 1.5192698 -1.1063515 1.5835096
1.0934306 18.268293 -4.710692 -1.6389496 6.747748 -4.48503 -20.243244 1.1648523
-1.3447038 -1.0274348 8.053763 44.058823 1.1505376 1.3593466 3.3587444 -2.1710145
-1.3593466 2.891892 1.1229385 1.5571725 15.936171 -1.0446304 -14.132075 1.4052533
2.3333333 -1.3947859 -2.6654804 2.556314 1.330373 8.230769 -24.161291 4.380117
1.1721439 -22.69697 2.7236364 1.2462562 1.6831461 -1.080808 1.5902336 -1.9354005
-3.0323887 3.4200914 -1.2100161 -1.1945773 2.5218856 1.8402948 -2.3479624 9.727273
-3.451613 1.3495495 -4.595092 -1.3544304 -3.2707424 -19.205128 3.107884 -4.092896
1.2588235 -1.3844732 -1.6177106 22.69697 1.4773176 -1.0417246

0.weight f4 [100, 1]
00000000: 2cd2 3d41 b076 363e ff97 5241 e740 0ebf
00000010: 0227 8140 c0ba eb3d 0526 2dc1 1548 1f40
00000020: 94ad b9be bc1a bdbe c03b 263f c0b0 1cc1
00000030: eca9 223f c6f1 25c1 30eb 28bf 3234 bb3f
00000040: b8c0 023e 5198 3940 935a 043f 2dc1 e6c0
00000050: 8ee1 4441 9b09 c340 5815 17c1 8073 c3bd
00000060: 60ab 553d ecf2 4ebf d9a5 a440 da06 b940
00000070: 390b dec0 1ea3 95c0 7807 d4bf 3084 8ebd
00000080: d497 f5be 8495 cfbe a72f 0bc0 3435 48c0
00000090: 1101 6c41 d16c 0141 9ce0 1ec1 7f43 98bf
000000a0: 97e7 6140 6020 7341 202e 83be 9048 c83e
000000b0: 50c6 3840 b6bf 94c0 c060 3f3e 481a 5dbf
000000c0: c914 0841 f617 a440 0d82 4bc0 ebd5 7540
000000d0: af09 3dc1 b662 ff3f 34f6 c63e 50f0 c640
000000e0: 5c3d 80be a5b9 8840 2179 b040 9f77 db40
000000f0: 809c 55bc 2f64 0440 419f 46c1 3e07 2dc1
00000100: d137 de40 78ea 8140 acaa 16bf 8bab 9e40
00000110: ae25 50c0 2413 35c1 5a8d 2d3f 208c 8bbd
00000120: e431 07c1 72e6 4dbf 06b8 6441 bfe9 78c0
00000130: ecd7 87be 6459 0ebf dca4 0cc1 0a60 2540
00000140: d039 ddc0 b295 1f41 2f87 90be d027 94bd
00000150: 19f6 3b41 a282 2e40 8b5e 0841 a27c c3c0
00000160: 8029 463c 4823 44c0 e221 4a41 675e e440
00000170: 8756 dfc0 3804 af40 bfa4 5a40 51ac 49c1
00000180: e022 c840 b535 0c41 b377 f340 94a9 ddbf
11.8638115 0.17818713 13.162108 -0.55567783 4.0360117 0.11510229 -10.821782 2.4887745
-0.36265242 -0.3693446 0.6493492 -9.793152 0.6354053 -10.371527 -0.6598387 1.4625304
0.12768829 2.8999217 0.51700705 -7.211081 12.305067 6.0949225 -9.442711 -0.09543514
0.05216539 -0.8083942 5.145245 5.7820864 -6.93887 -4.676162 -1.6564779 -0.069588065
-0.47967398 -0.4054376 -2.1747835 -3.1282473 14.75026 8.0890665 -9.929836 -1.1895598
3.5297601 15.195404 -0.25621128 0.3911786 2.887104 -4.648402 0.18689251 -0.86368227
8.5050745 5.127925 -3.1798127 3.8411815 -11.814864 1.9951999 0.38859713 6.216835
-0.25046813 4.2726617 5.5147862 6.858352 -0.013037801 2.0686147 -12.41388 -10.814268
6.9443135 4.0598717 -0.58854175 4.9584403 -3.2522998 -11.317173 0.6779381 -0.06813836
-8.44968 -0.80429757 14.294928 -3.8892667 -0.26531923 -0.5560515 -8.790249 2.5839868
-6.913307 9.974047 -0.28228137 -0.07234156 11.747582 2.7267232 8.523082 -6.108964
0.012094855 -3.0646534 12.633272 7.1365237 -6.9793124 5.469265 3.4163053 -12.604569
6.254257 8.763112 7.6083617 -1.7317376

0.bias f4 [100]
00000000: fc9c c73e 06c9 46bf 2f75 dd3e 8cbc 813c
00000010: 9fd0 073e 523c 78bf e9e9 9d3e 8a7f a73d
00000020: d09f 56bf a080 d1be 9c1a 63bf 27e7 8e3e
00000030: 92aa 22bf b69f babe 4c97 3bbf 69dc 443d
00000040: 75c2 02be f6b2 d3bd 812e 8b3c 7373 523e
00000050: 9909 cf3e 5019 4d3e 33ca 893e e0f4 7dbe
00000060: 7e3e 15bf 55bd bc3c 5ce5 38be 8737 53be
00000070: a281 4a3e 9478 083e 785f 413d 300b 18be
00000080: 1434 26bf c025 54bf 02e1 7d3d 59b1 e2bd
00000090: df2d f83e ca5c 93be d7e5 903e a8dd 0a3d
000000a0: f18e ed3d 2dab ff3e fc9e d8be 88c3 46bf
000000b0: 784e c23d 0ca9 073e 6647 4fbf f9a5 c93c
000000c0: ce19 8f3e fa8e 2c3e ea99 b93d 3f42 013e
000000d0: 8b67 ac3e 4f3e 8fbd 60e9 2bbf 1219 5abe
000000e0: 14dd b5be 4ec7 0f3e 2cc5 43be fcc9 663e
000000f0: 3c17 87be ab38 8b3d 2125 b53e c1cd 9d3e
00000100: eda1 77be 289e 083e 20e3 7dbf 657e 33be
00000110: 23d5 bd3d 5924 a53e b012 76bf 205c 45bf
00000120: 632d 8ebe 7dc8 bb3c 9984 f03e dc02 e33d
00000130: 4ee1 22bf cef4 56bf bc44 803e 3243 b6bd
00000140: 99c2 493e 34d1 a73e a1cf 033c 3c09 9abe
00000150: 5da8 c53e 4383 b73d 8467 8f3e 2649 323e
00000160: 802b 2bbf a340 debd 418f d43e c77e 7fbe
00000170: b6af 4b3e 7b0b 383e 41ec e53d 87ed b73e
00000180: f675 523e 48b5 edbf 8403 803e 8c28 4a3d
0.38986957 -0.7765049 0.43253466 0.015836976 0.13263176 -0.9696704 0.30842522 0.08178623
-0.83837605 -0.40918446 -0.8871248 0.2791073 -0.6354152 -0.36449975 -0.73277736 0.048061762
-0.12769492 -0.103368685 0.016989948 0.20551853 0.4043701 0.20029187 0.26912078 -0.24800444
-0.5829848 0.0230395 -0.18056244 -0.20626651 0.19776013 0.13327247 0.047210187 -0.14848018
-0.64923215 -0.828701 0.061982162 -0.11068983 0.48472497 -0.2878173 0.28300354 0.033902794
0.115995295 0.49935284 -0.42308795 -0.77642107 0.09487623 0.1324808 -0.8096832 0.024615275
0.27949375 0.16851416 0.0906256 0.12622927 0.33672747 -0.06994306 -0.67152977 -0.21298626
-0.35520232 0.14040872 -0.19118184 0.22537988 -0.26384914 0.06797918 0.3537989 0.3082104
-0.24182864 0.13341582 -0.9917469 -0.17528684 0.09269168 0.32254294 -0.96122265 -0.77093697
-0.27769002 0.022922749 0.46976164 0.1108453 -0.6362504 -0.8396729 0.2505244 -0.08899535
0.1970314 0.32776797 0.008045108 -0.3008517 0.38605013 0.08960583 0.28008664 0.17410716
-0.6686325 -0.10852172 0.41515544 -0.24950705 0.19891247 0.1797313 0.112267025 0.35923406
0.20552811 -1.8570948 0.25002682 0.049355075

2.weight f4 [1, 100]
00000000: 1fd5 ae3f fdf8 34bd 0af7 c13f b444 80bd
00000010: 89e8 ed3e 5af7 603d 5420 9cbf 42b4 923e
00000020: 76ec 663d 6cc9 a93c 1b5c b6bd 3449 8dbf
00000030: 89f2 d8bc 04cc 1641 b363 37bd 0a6c 2c3e
00000040: 893b 9b3d 9e3d 25c0 76ce 733d a611 50bf
00000050: be55 b53f 1ca3 333f ee3a 88bf efd9 b4bd
00000060: 8da8 5fbd 6a9a babd 4653 96c0 8aa0 aac0
00000070: e636 48bf 22ed 06bf 2c2f 3fbe ad56 bcbd
00000080: 13ae 9a3d e278 5b3d 5801 7bbe 1e83 3440
00000090: 805e d93f 47d2 eec0 f941 8fbf 584b 09be
000000a0: 1611 d03e c6ed df3f fda5 c03d fdb8 993d
000000b0: 462f aa3e fd1f 06bf 4c08 e0bc 9a5d c7bd
000000c0: f6ab 7a3f eb22 173f 1f80 b7be 846c e23e
000000d0: 1374 aabf 562f e9bf 3d6c b9bd a64b b7c0
000000e0: 0829 bf3c bddb fb3e 3166 a1c0 5223 4a3f
000000f0: dd91 1fbd 1ce0 733e 4f18 b3bf 8004 9cbf
00000100: 1ca4 ccc0 a550 ef3e de01 8bbd 92e0 92c0
00000110: 14af bbbe ed45 a3bf d86f 2ebc 1e0b 92bd
00000120: a35e f540 57a8 b9bd b8a8 d23f 1771 e0be
00000130: 00f7 843c 41c3 993d 27a2 7dbf 6308 14c0
00000140: 137a 47bf defb 923f be51 02bd 7e04 0a3d
00000150: 921e ad3f 0dbb a03e 0434 7b3f 9444 30bf
00000160: 4328 b43d 02bd 3040 ec2b ba3f 15c8 d2c0
00000170: 9861 49bf 6532 213f 2a61 c93e afd8 b5bf
00000180: 5455 383f 22e1 0741 303e 603f bdde 47be
1.3658789 -0.044182766 1.5153515 -0.06263104 0.46466473 0.054923393 -1.2197366 0.2865315
0.05637785 0.020725928 -0.089042865 -1.1037965 -0.026482837 9.4248085 -0.044772815 0.16838089
0.07579715 -2.5818858 0.05952307 -0.8127693 1.4166791 0.7017076 -1.0642984 -0.0883063
-0.054604102 -0.091114834 -4.697665 -5.332097 -0.7820877 -0.52705586 -0.18670338 -0.091962196
0.07552733 0.05358208 -0.24512231 2.8205028 1.6981964 -7.4631686 -1.1192008 -0.13407648
0.40638036 1.7494438 0.0940666 0.07505987 0.33239192 -0.5239256 -0.027347706 -0.0973465
0.9791864 0.59037656 -0.35839936 0.44223416 -1.3316673 -1.8217571 -0.09053848 -5.7279844
0.023334995 0.49191085 -5.0437245 0.78960145 -0.038957465 0.2381596 -1.3991793 -1.2188873
-6.395033 0.46741214 -0.067874655 -4.5899134 -0.36657012 -1.2755715 -0.010646783 -0.07131027
7.6678023 -0.090653114 1.6457739 -0.4383628 0.01623106 0.07507945 -0.9907555 -2.313012
-0.77920645 1.1483114 -0.031816237 0.03369569 1.3524954 0.31392708 0.98126245 -0.6885464
0.08796742 2.7615361 1.4544654 -6.586924 -0.7866454 0.6296752 0.39331943 -1.4206752
0.720052 8.492464 0.8759489 -0.19518562
