complete/reciprocal/state7.pt (torch, 10937 bytes, 9 tensors)

weight f4 [100, 1]
-0.16013145 0.95545876 -0.55895126 0.18211569 -0.06518555 -0.35034302 -0.68219554 0.98011565
-0.6508165 0.6280558 -0.2655826 0.962245 -0.5847973 0.18549016 -0.21416295 -0.21727765
-0.31349027 -0.22687541 -0.84998924 -0.12820625 0.4125174 0.7350457 0.19976206 0.7800167
0.13757944 0.42590752 -0.14718878 -0.9934518 -0.04376483 0.51414454 0.47370923 -0.15208423
0.6169754 -0.16244976 0.27686596 -0.4529833 0.8446754 0.57133746 -0.8283142 0.61284757
0.21680932 -0.6339971 0.77668804 -0.0926607 -0.25326726 0.98700213 -0.7172095 0.3120805
0.34462938 0.1539427 -0.94066197 0.25570402 -0.17130405 -0.87614256 -0.12209678 -0.6593343
0.8098486 -0.9189657 -0.8687759 0.95454913 -0.18781757 -0.6669743 -0.3647693 0.6385916
0.29337347 -0.89912975 -0.072538376 0.52215505 0.060105965 0.6523782 -0.4545726 -0.48647663
0.4965189 -0.17552829 0.71564984 0.41297346 0.6368581 0.29988095 0.7108159 0.63262683
-0.015308738 -0.15658502 -0.6339058 -0.18263197 0.31863835 -0.05307577 0.6773967 0.97578055
0.035133094 0.38957086 -0.5604759 0.37413672 -0.51795465 0.7183354 -0.6403313 0.32966995
-0.05670309 0.24650306 -0.1253134 -0.06177771
00000000: 80f9 23be f298 743f 6e17 0fbf 897c 3a3e
00000010: 0080 85bd 2960 b3be 5ea4 2ebf dce8 7a3f
00000020: e99b 26bf 44c8 203f 71fa 87be b055 763f
00000030: 47b5 15bf 22f1 3d3e 884d 5bbe 087e 5ebe
00000040: cc81 a0be 0752 68be e598 59bf 8048 03be
00000050: 7b35 d33e f42b 3c3f 6d8e 4c3e 2daf 473f
00000060: a0e1 0c3e 8d10 da3e a8b8 16be db52 7ebf
00000070: c042 33bd fa9e 033f 048a f23e f8bb 1bbe
00000080: 1af2 1d3f 3b59 26be 60c1 8d3e 6ded e7be
00000090: a63c 583f 2c43 123f 660c 54bf 94e3 1c3f
000000a0: 4303 5e3e a24d 22bf 07d5 463f e5c4 bdbd
000000b0: 3fac 81be 2cac 7c3f 0b9b 37bf 04c9 9f3e
000000c0: 4373 b03e 28a3 1d3e 39cf 70bf a3eb 823e
000000d0: 546a 2fbe e14a 60bf e00d fabd 22ca 28bf
000000e0: 3d52 4f3f 5641 6bbf 1968 5ebf 555d 743f
000000f0: 4053 40be d4be 2abf 0bc3 babe bd7a 233f
00000100: 0c35 963e 5e2d 66bf 008f 94bd f4ab 053f
00000110: ac31 763d 4202 273f bdbd e8be 7713 f9be
00000120: ba37 fe3e b0bd 33be d434 373f 4271 d33e
00000130: 2209 233f ff89 993e 08f8 353f d5f3 213f
00000140: 80d1 7abc d357 20be a747 22bf e003 3bbe
00000150: 9124 a33e fb65 59bd df69 2d3f c1cc 793f
00000160: b8e7 0f3d d575 c73e 597b 0fbf d98e bf3e
00000170: ad98 04bf d4e4 373f c1ec 23bf 80ca a83e
00000180: 8041 68bd 4c6b 7c3e 2852 00be a00a 7dbd

bias f4 [100]
-0.23297524 0.27338254 0.39091635 -0.118091635 -0.63225245 0.65950024 -0.8404447 -0.13037133
0.9874102 -0.3873379 0.967407 -0.9769721 0.78579634 0.28935727 -0.37232113 -0.7661352
-0.6946467 0.10308932 0.5412916 -0.6044637 -0.24297065 0.24201412 0.52289957 0.05058212
-0.8900857 0.54785705 -0.27417958 -0.36497048 -0.23372328 0.52434886 -0.6685095 -0.64167476
0.9475882 0.7665113 -0.15069357 0.6405817 -0.8583449 0.9170516 0.6409818 -0.85969186
0.078484066 0.013807944 -0.27136904 0.71839064 0.10293902 -0.6379416 -0.6104845 0.6208938
-0.19482547 -0.77490115 0.90125924 0.24402677 0.8192721 0.046416983 -0.6751466 -0.3791412
0.5536606 -0.076089464 -0.26368013 0.22557865 0.7583789 -0.39382982 0.9149288 0.08578246
-0.51342154 -0.83068585 -0.15177584 0.22935675 0.6730951 -0.3429284 0.7560631 0.038846843
0.28185293 -0.7626294 0.11685789 -0.01649579 -0.7066965 0.6314304 0.41536435 0.8288898
-0.6090958 0.9604811 0.8073622 -0.61249864 0.3687726 0.50711644 -0.42819634 0.30712104
0.78327626 -0.0638447 0.4151786 0.20219803 0.044613253 0.80422896 -0.28017196 -0.41389906
-0.25226223 -0.06624349 -0.76999354 -0.87830186
00000000: 1091 6ebe ccf8 8b3e 3026 c83e 07da f1bd
00000010: 4cdb 21bf 02d5 283f 6227 57bf 1080 05be
00000020: eac6 7c3f 2751 c6be fca7 773f d81a 7abf
00000030: f329 493f a326 943e e0a0 bebe 7021 44bf
00000040: 5ed4 31bf 7e20 d33d 1692 0a3f 22be 1abf
00000050: 4ccd 78be 8dd2 773e bfdc 053f 322f 4f3d
00000060: a8dc 63bf 5c40 0c3f 4461 8cbe 69dd babe
00000070: 2855 6fbe ba3b 063f 7023 2bbf cc44 24bf
00000080: 2495 723f 163a 443f 6a4f 1abe 2afd 233f
00000090: 7ebc 5bbf e5c3 6a3f 6217 243f c414 5cbf
000000a0: 41bc a03d b73a 623c e2f0 8abe 73e8 373f
000000b0: b1d1 d23d 2450 23bf b648 1cbf e5f2 1e3f
000000c0: 5480 47be ec5f 46bf edb8 663f 27e2 793e
000000d0: d1bb 513f bc1f 3e3d 68d6 2cbf cc1e c2be
000000e0: b3bc 0d3f cbd4 9bbd 1501 87be 17fe 663e
000000f0: 1f25 423f 10a4 c9be c638 6a3f b7ae af3d
00000100: 986f 03bf d4a7 54bf 206b 1bbe 7fdc 6a3e
00000110: f64f 2c3f 5094 afbe 5a8d 413f de1d 1f3d
00000120: 074f 903e ae3b 43bf 3053 ef3d 2e22 87bc
00000130: 10ea 34bf 6ca5 213f a3aa d43e 1f32 543f
00000140: b4ed 1bbf 17e2 753f 4aaf 4e3f b6cc 1cbf
00000150: c3cf bc3e 62d2 013f 8d3c dbbe f83e 9d3e
00000160: cb84 483f 03c1 82bd 4a92 d43e 000d 4f3e
00000170: 63bc 363d f3e1 4d3f b372 8fbe 94ea d3be
00000180: 8428 81be abaa 87bd 4c1e 45bf 64d8 60bf

weight f4 [1, 100]
0.036426492 0.03225555 -0.034476016 0.077904515 -0.060114503 -0.06601203 -0.049237706 0.08023402
-0.22978061 -0.0131858215 -0.12122896 0.033203103 -0.032320566 -0.00025042336 0.09496566 -0.07067829
0.08381594 0.064741 -0.16910546 -0.059033286 0.043951176 -0.020824105 0.0038477771 0.011650831
-0.047725618 -0.03233957 -0.068692446 -0.03424122 0.0019329041 -0.0350637 0.08881486 0.03257128
0.059042793 -0.061676297 0.021350345 -0.071000956 0.012178339 0.0587468 -0.10158658 -0.0013116822
-0.06347875 0.023948517 0.023723101 -0.025594775 -0.119111046 0.08665956 0.015034578 0.048778296
-0.08309346 -0.04906521 -0.20879935 -0.041033726 -0.082595296 -0.01040941 0.087100066 -0.050880205
0.0714543 0.04799819 0.018910743 0.110979274 -0.09523823 0.055128735 -0.20352767 0.09847967
0.0019122213 0.06797271 -0.074637115 -0.0026691202 0.016253207 0.09186951 -0.16139935 -0.01730957
0.0029661956 0.023846231 0.081595734 0.10434428 -0.027061775 -0.035222705 0.02408139 -0.021555673
0.0050174147 -0.022730403 -0.056805145 0.042896934 -0.047626667 -0.13845132 -0.01397615 0.03373635
0.005162283 -0.025595011 0.0037051903 -0.030763352 0.064751714 0.07428539 0.09932014 -0.09041289
0.03901408 -0.031336684 0.07642036 -0.00096064806
00000000: f233 153d 651e 043d b936 0dbd 678c 9f3d
00000010: a03a 76bd 5131 87bd 7aad 49bd bc51 a43d
00000020: 9c4b 6bbe 5809 58bc e446 f8bd faff 073d
00000030: 9262 04bd 414b 83b9 5b7d c23d c8bf 90bd
00000040: b1a7 ab3d ee96 843d fb29 2dbe e3cc 71bd
00000050: 2606 343d 5097 aabc fd2a 7c3b 21e3 3e3c
00000060: f07b 43bd 7f76 04bd a0ae 8cbd 8640 0cbd
00000070: 8059 fd3a f49e 0fbd 91e4 b53d 7669 053d
00000080: dbd6 713d 49a0 7cbd ebe6 ae3c f368 91bd
00000090: a887 473c 7ca0 703d a00c d0bd c0ec abba
000000a0: 2601 82bd ae2f c43c f356 c23c 22ac d1bc
000000b0: 7ef0 f3bd 917a b13d 9753 763c c0cb 473d
000000c0: e72c aabd 9af8 48bd 7fcf 55be fb12 28bd
000000d0: b927 a9bd 3b8c 2abc 8561 b23d c367 50bd
000000e0: a256 923d c099 443d b4ea 9a3c 1a49 e33d
000000f0: 430c c3bd abce 613d 8f69 50be b6af c93d
00000100: 80a3 fa3a 4735 8b3d 58db 98bd 68ec 2ebb
00000110: 7225 853c 1526 bc3d df45 25be cdcc 8dbc
00000120: 8164 423b 2c59 c33c aa1b a73d 74b2 d53d
00000130: a8b0 ddbc af45 10bd 5646 c53c 8695 b0bc
00000140: 2069 a43b 1c35 babc 83ac 68bd b2b4 2f3d
00000150: 2e14 43bd 2fc6 0dbe 39fc 64bc 202f 0a3d
00000160: 5e28 a93b a1ac d1bc c7d2 723b 6d03 fcbc
00000170: 8c9c 843d f022 983d 5c68 cb3d 652a b9bd
00000180: 3acd 1f3d e55a 00bd 4782 9c3d 00d4 7bba

train_data f4 [600, 1]
0.97596794 0.7570093 0.5246996 -0.8291055 0.54072094 -0.8130841 0.44192258 0.5540721
0.2283044 -0.8985314 0.9973298 0.9546061 0.03871829 0.32443258 -0.53271025 -0.13751669
-0.82376504 -0.38050735 -0.5193592 -0.5727637 0.21495327 -0.03070761 -0.965287 0.8291055
0.40186915 -0.49532712 -0.4739653 -0.8558077 -0.5567423 0.017356476 0.9198932 -0.7436582
-0.45260346 0.009345794 0.0066755675 -0.89586115 -0.05740988 0.4152203 -0.5487316 0.9092123
0.39118826 0.2977303 -0.4072096 -0.33244327 0.9279039 -0.43124166 0.05740988 -0.8210948
0.06809079 0.76769024 0.0040053404 0.5353805 0.9305741 -0.20694259 -0.012016022 0.91455275
-0.62616825 -0.022696929 -0.7222964 0.033377837 -0.32443258 0.59946597 -0.13217624 0.623498
0.7623498 0.43925235 -0.37783712 -0.19359146 -0.246996 -0.3751669 -0.06809079 0.108144194
0.69826436 0.41789052 -0.14018692 -0.8611482 -0.71428573 0.77036047 0.4659546 0.25500667
0.23364486 0.92523366 -0.82643527 0.19626169 0.16154873 0.16688919 0.75967956 0.30307075
-0.43658212 -0.34045395 0.3164219 -0.42056075 0.6715621 -0.88251 0.8611482 -0.9519359
0.4072096 -0.12683578 0.22029373 -0.18558078 -0.6929239 0.6635514 -0.9813084 -0.74098796
0.25233644 -0.020026702 0.049399197 0.9519359 -0.3564753 0.1588785 -0.27102804 0.79706275
-0.5380507 -0.6341789 0.3271028 -0.4552737 0.8531375 -0.3164219 -0.5540721 -0.025367156
0.48197597 0.8317757 0.3351135 0.5220294 -0.11615487 0.799733 -0.2283044 0.45794392
-0.41255006 -0.18291055 0.7543391 -0.38851804 0.29238984 -0.80774367 -0.30040053 0.2870494
0.48998666 0.07343124 0.11081442 0.4846462 -0.21495327 0.53271025 0.81575435 0.5193592
0.025367156 0.8558077 -0.5834446 -0.16955942 0.41255006 -0.6368491 0.6929239 -0.95727634
-0.7303071 -0.7383177 0.21228305 -0.78905207 0.34312415 0.85046726 -0.20961282 0.58878505
0.23097463 0.57810414 -0.5033378 0.59679574 0.80507344 -0.4445928 0.8744993 0.6101469
0.50867826 -0.55140185 -0.16154873 -0.23364486 -0.15620828 0.47663552 0.54339117 0.5273698
-0.19626169 0.506008 -0.80507344 -0.48731643 -0.6635514 0.28437918 0.57009345 0.18558078
0.054739654 -0.5246996 0.37783712 0.12683578 0.3084112 -0.07343124 0.70627505 -0.76769024
0.46061414 0.3564753 -0.1989319 0.014686248 -0.0013351135 -0.7543391 0.11348464 -0.40987983
-0.20427236 -0.24165554 -0.90654206 0.6902537 0.6555407 -0.73564756 0.6849132 0.13751669
-0.4659546 -0.6849132 -0.009345794 -0.32176235 0.4739653 0.965287 -0.83444595 0.27369827
0.6368491 0.48731643 -0.6742323 -0.34312415 -0.58077437 0.55941254 -0.14552736 0.8798398
-0.33778372 0.94125503 0.6208278 0.44726303 0.34579438 -0.88518023 -0.078771695 0.61548734
0.1188251 -0.23097463 -0.67957276 -0.94125503 -0.6021362 -0.64218956 0.67690253 0.31108144
0.14285715 -0.15353805 0.49532712 -0.54072094 0.9385848 0.5941255 0.32977304 0.6448598
-0.19092123 0.38317758 0.6528705 -0.682243 0.2576769 0.9599466 0.33244327 0.06275033
00000000: 09d9 793f 5dcb 413f b752 063f 4240 54bf
00000010: b06c 0a3f 4826 50bf ad43 e23e abd7 0d3f
00000020: a1c8 693e 2706 66bf 0151 7f3f 1161 743f
00000030: 1297 1e3d 071c a63e b35f 08bf 2dd1 0cbe
00000040: 44e2 52bf dcd1 c2be b9f4 04bf a4a0 12bf
00000050: b61c 5c3e 878e fbbc 0d1d 77bf 4240 543f
00000060: cbc1 cd3e 849b fdbe 94ab f2be 3716 5bbf
00000070: aa86 0ebf 2b2f 8e3c 1f7e 6b3f 6260 3ebf
00000080: a4bb e7be 1a1f 193c b8be da3b 2857 65bf
00000090: 9f26 6bbd c197 d43e ad79 0cbf 23c2 683f
000000a0: d449 c83e 1b70 983e c77d d0be 0136 aabe
000000b0: 1c8b 6d3f b5cb dcbe 9f26 6b3d 4533 52bf
000000c0: 2f73 8b3d 5987 443f 3b3f 833b b20e 093f
000000d0: 1b3a 6e3f c2e8 53be d9de 44bc 2120 6a3f
000000e0: 904c 20bf e9ee b9bc 6be8 38bf 33b7 083d
000000f0: 071c a6be 9a76 193f 3559 07be 919d 1f3f
00000100: 5b29 433f afe5 e03e de73 c1be d73c 46be
00000110: 85ec 7cbe e015 c0be 2f73 8bbd b47a dd3d
00000120: 74c1 323f bff5 d53e 298d 0fbe 3574 5cbf
00000130: 6edb 36bf 5836 453f 9a91 ee3e 3c90 823e
00000140: 9940 6f3e 1ddc 6c3f 4391 53bf d3f8 483e
00000150: 086d 253e 00e5 2a3e 5c7a 423f 172c 9b3e
00000160: b187 dfbe fb4f aebe 0d02 a23e bd53 d7be
00000170: 7eeb 2b3f 2dec 61bf 3574 5c3f 12b2 73bf
00000180: c77d d03e 3de1 01be ae94 613e e308 3ebe
00000190: 7663 31bf 81de 293f 0737 7bbf 63b1 3dbf
000001a0: 3e32 813e 0a0f a4bc d056 4a3d 12b2 733f
000001b0: ee83 b6be 0cb1 223e 30c4 8abe 4e0c 4c3f
000001c0: b1bd 09bf 8c59 22bf 057a a73e a219 e9be
000001d0: 3867 5a3f 0d02 a2be abd7 0dbf c8ce cfbc
000001e0: 8ec5 f63e 41ef 543f ff93 ab3e b8a3 053f
000001f0: 9be2 edbd 4dbb 4c3f a1c8 69be a077 ea3e
00000200: c339 d3be e74c 3bbe 5e1c 413f d6eb c6be
00000210: 1fb4 953e 4ac8 4ebf 19ce 99be 24f8 923e
00000220: 88df fa3e 1e63 963d acf2 e23d 8c23 f83e
00000230: b61c 5cbe b35f 083f 47d5 503f b9f4 043f
00000240: c8ce cf3c 3716 5b3f a05c 15bf fca0 2dbe
00000250: c339 d33e 8b08 23bf 7663 313f 1010 75bf
00000260: 68f5 3abf 6402 3dbf ba60 593e 51ff 49bf
00000270: f8ad af3e 39b8 593f bea4 56be 9eba 163f
00000280: 9d84 6c3e a2fe 133f bfda 00bf 9bc7 183f
00000290: 4b19 4e3f aba1 e3be 30df 5f3f 9632 1c3f
000002a0: bd38 023f ac28 0dbf 086d 25be 9940 6fbe
000002b0: 10f5 1fbe 9209 f43e af1b 0b3f b501 073f
000002c0: d3f8 48be be89 013f 4b19 4ebf 8a81 f9be
000002d0: 81de 29bf 269a 913e a5f1 113f e308 3e3e
000002e0: b036 603d b752 06bf de73 c13e 3de1 013e
000002f0: 13e8 9d3e 1e63 96bd 71ce 343f 5987 44bf
00000300: 9ed5 eb3e ee83 b63e ceb4 4bbe 979e 703c
00000310: fafe aeba 5e1c 41bf a36a e83d c5db d1be
00000320: c62c 51be 8d74 77be 2413 68bf 77b4 303f
00000330: 84d1 273f 6653 3cbf 7956 2f3f 2dd1 0c3e
00000340: 9a91 eebe 7956 2fbf 1a1f 19bc 09be a4be
00000350: 94ab f23e 0d1d 773f 409e 55bf 2e22 8c3e
00000360: 8b08 233f 8a81 f93e 7d9a 2cbf f8ad afbe
00000370: a1ad 14bf a935 0f3f 2005 15be 2e3d 613f
00000380: fdf1 acbe 17f6 703f 92ee 1e3f a9ff e43e
00000390: f60b b13e 2c9b 62bf 0e53 a1bd 9490 1d3f
000003a0: 935a f33d 9d84 6cbe 7bf8 2dbf 17f6 70bf
000003b0: 9925 1abf 8966 24bf 7c49 2d3f 1146 9f3e
000003c0: 2549 123e 1439 1dbe 849b fd3e b06c 0abf
000003d0: 1847 703f 9c18 183f 03d8 a83e 8815 253f
000003e0: db80 43be da2f c43e 8522 273f 7aa7 2ebf
000003f0: 3aee 833e 0fbf 753f 0136 aa3e 3f83 803d

train_targets f4 [600, 1]
1.0246238 1.3209877 1.9058524 -1.2061192 1.8493828 -1.2298851 2.2628398 1.8048192
4.380117 -1.1129272 1.0026773 1.0475525 25.827587 3.0823045 -1.877193 -7.271845
-1.2139384 -2.62807 -1.9254498 -1.7459208 4.652174 -32.565216 -1.0359613 1.2061192
2.488372 -2.018868 -2.1098592 -1.1684867 -1.7961631 57.615383 1.0870827 -1.3447038
-2.2094395 107.0 149.8 -1.1162444 -17.418604 2.4083602 -1.8223845 1.0998532
2.556314 3.3587444 -2.4557376 -3.008032 1.0776979 -2.3188856 17.418604 -1.2178862
14.686275 1.3026087 249.66667 1.8678304 1.0746055 -4.832258 -83.22222 1.0934306
-1.5970149 -44.058823 -1.3844732 29.96 -3.0823045 1.6681515 -7.5656567 1.6038544
1.3117338 2.2765958 -2.6466432 -5.1655173 -4.048649 -2.6654804 -14.686275 9.246914
1.4321223 2.3929713 -7.133333 -1.1612403 -1.4 1.2980936 2.1461318 3.9214659
4.28 1.080808 -1.2100161 5.095238 6.1900826 5.992 1.3163445 3.2995594
-2.29052 -2.937255 3.1603374 -2.3777778 1.4890656 -1.1331316 1.1612403 -1.0504909
2.4557376 -7.8842106 4.539394 -5.3884892 -1.4431599 1.5070423 -1.0190476 -1.3495495
3.9629629 -49.933334 20.243244 1.0504909 -2.8052435 6.2941175 -3.689655 1.2546064
-1.8585608 -1.5768421 3.057143 -2.196481 1.1721439 -3.1603374 -1.8048192 -39.42105
2.0747921 1.2022471 2.9840639 1.915601 -8.609196 1.2504174 -4.380117 2.1836734
-2.4239483 -5.467153 1.3256637 -2.573883 3.4200914 -1.2380165 -3.328889 3.483721
2.0408719 13.618182 9.0240965 2.063361 -4.652174 1.877193 1.2258593 1.9254498
39.42105 1.1684867 -1.7139589 -5.897638 2.4239483 -1.5702306 1.4431599 -1.0446304
-1.369287 -1.3544304 4.710692 -1.2673435 2.914397 1.1758242 -4.7707005 1.6984127
4.3294797 1.7297921 -1.9867374 1.6756152 1.2421228 -2.2492492 1.1435114 1.6389496
1.9658793 -1.8135593 -6.1900826 -4.28 -6.4017096 2.0980392 1.8402948 1.8962026
-5.095238 1.9762533 -1.2421228 -2.052055 -1.5070423 3.5164318 1.7540984 5.3884892
18.268293 -1.9058524 2.6466432 7.8842106 3.2424242 -13.618182 1.415879 -1.3026087
2.1710145 2.8052435 -5.0268455 68.09091 -749.0 -1.3256637 8.811765 -2.4397395
-4.895425 -4.1381216 -1.1030928 1.4487427 1.5254582 -1.3593466 1.460039 7.271845
-2.1461318 -1.460039 -107.0 -3.107884 2.1098592 1.0359613 -1.1984 3.6536586
1.5702306 2.052055 -1.4831684 -2.914397 -1.7218391 1.7875896 -6.8715596 1.1365706
-2.9604743 1.0624113 1.6107527 2.235821 2.891892 -1.1297134 -12.694915 1.6247288
8.41573 -4.3294797 -1.4715128 -1.0624113 -1.6607538 -1.5571725 1.4773176 3.2145922
7.0 -6.5130434 2.018868 -1.8493828 1.0654339 1.6831461 3.0323887 1.5507246
-5.2377625 2.609756 1.5316974 -1.4657534 3.880829 1.0417246 3.008032 15.936171
00000000: df26 833f 2016 a93f f9f2 f33f 1d62 9abf
00000010: 93b8 ec3f e06c 9dbf 5ed2 1040 5104 e73f
00000020: eb29 8c40 6674 8ebf bb57 803f 3316 863f
00000030: e69e ce41 7a44 4540 dc47 f0bf f4b2 e8c0
00000040: 5562 9bbf 4d32 28c0 2475 f6bf 557a dfbf
00000050: 9cde 9440 c842 02c2 619a 84bf 1d62 9a3f
00000060: 7d41 1f40 2235 01c0 ef07 07c0 f990 95bf
00000070: ace8 e5bf 2776 6642 8725 8b3f 411f acbf
00000080: 7567 0dc0 0000 d642 cdcc 1543 19e1 8ebf
00000090: 4d59 8bc1 9322 1a40 e543 e9bf fdc7 8c3f
000000a0: a69a 2340 abf5 5640 ce2a 1dc0 9983 40c0
000000b0: 01f2 893f 9f68 14c0 4d59 8b41 b2e3 9bbf
000000c0: fbfa 6a41 e2bb a63f abaa 7943 1115 ef3f
000000d0: ac8c 893f dca1 9ac0 c771 a6c2 89f5 8b3f
000000e0: fc6a ccbf 3c3c 30c2 6b36 b1bf 14ae ef41
000000f0: 7a44 45c0 fd85 d53f dc19 f2c0 1a4b cd3f
00000100: e5e6 a73f bfb3 1140 9a62 29c0 eb4b a5c0
00000110: 888e 81c0 3b97 2ac0 fbfa 6ac1 5cf3 1341
00000120: c94f b73f 7126 1940 4444 e4c0 86a3 94bf
00000130: 3333 b3bf ee27 a63f 395a 0940 4cf9 7a40
00000140: c3f5 8840 eb57 8a3f cfe1 9abf 310c a340
00000150: 2815 c640 77be bf40 fa7d a83f fb2b 5340
00000160: e197 12c0 fcfb 3bc0 f842 4a40 832d 18c0
00000170: b499 be3f 750a 91bf 86a3 943f 7c76 86bf
00000180: ce2a 1d40 744b fcc0 b742 9140 816e acc0
00000190: 77b9 b8bf c3e6 c03f 2770 82bf 0abe acbf
000001a0: 2fa1 7d40 bcbb 47c2 2af2 a141 7c76 863f
000001b0: 1c89 33c0 6969 c940 4f23 6cc0 f196 a03f
000001c0: 52e5 edbf f6d5 c9bf 3ba8 4340 2593 0cc0
000001d0: d008 963f f842 4ac0 5104 e7bf 28af 1dc2
000001e0: 65c9 0440 3ce3 993f e7fa 3e40 6a32 f53f
000001f0: 44bf 09c1 ad0d a03f eb29 8cc0 4ec1 0b40
00000200: f821 1bc0 ebf2 aec0 59af a93f 80ba 24c0
00000210: c7e2 5a40 5377 9ebf 840c 55c0 49f5 5e40
00000220: a59d 0240 13e4 5941 b362 1041 1b0e 0440
00000230: 9cde 94c0 dc47 f03f f5e8 9c3f 2475 f63f
00000240: 28af 1d42 f990 953f 0163 dbbf 73b9 bcc0
00000250: f821 1b40 51fd c8bf 77b9 b83f 73b6 85bf
00000260: cc44 afbf fa5d adbf fdbd 9640 5038 a2bf
00000270: 7b85 3a40 6881 963f 94a9 98c0 9665 d93f
00000280: 198b 8a40 d469 dd3f 694d febf 8f7a d63f
00000290: e1fd 9e3f b3f3 0fc0 955e 923f 1ac9 d13f
000002a0: efa1 fb3f b622 e8bf 2815 c6c0 c3f5 88c0
000002b0: ceda ccc0 4646 0640 c88e eb3f c4b6 f23f
000002c0: 310c a3c0 def5 fc3f e1fd 9ebf de54 03c0
000002d0: c3e6 c0bf 380d 6140 4c86 e03f 816e ac40
000002e0: 7725 9241 f9f2 f3bf 9a62 2940 744b fc40
000002f0: e183 4f40 13e4 59c1 863b b53f e2bb a6bf
00000300: e7f1 0a40 1c89 3340 ebdb a0c0 8c2e 8842
00000310: 0040 3bc4 59af a9bf fdfc 0c41 b124 1cc0
00000320: 52a7 9cc0 7e6b 84c0 2532 8dbf 6770 b93f
00000330: 3742 c33f 12ff adbf 8fe2 ba3f f4b2 e840
00000340: 395a 09c0 8fe2 babf 0000 d6c2 92e7 46c0
00000350: ef07 0740 619a 843f 2c65 99bf 8bd5 6940
00000360: 51fd c83f de54 0340 76d8 bdbf 7b85 3ac0
00000370: 3965 dcbf bccf e43f d1e3 dbc0 257b 913f
00000380: 6978 3dc0 18fd 873f 252d ce3f b117 0f40
00000390: c214 3940 739a 90bf 5f1e 4bc1 1df7 cf3f
000003a0: d5a6 0641 198b 8ac0 885a bcbf 18fd 87bf
000003b0: 9593 d4bf 6e51 c7bf be18 bd3f e1bb 4d40
000003c0: 0000 e040 da6a d0c0 2235 0140 93b8 ecbf
000003d0: 2360 883f 5571 d73f a812 4240 257e c63f
000003e0: c09b a7c0 3e06 2740 a90e c43f cf9d bbbf
000003f0: 815f 7840 3b57 853f 9983 4040 8efa 7e41

test_data f4 [150, 1]
7.7216496 -1.330373 -1.1721439 2.826415 -1.1063515 -7.4158416 -3.880829 -1.6389496
-4.4319525 1.1832544 -1.1795275 -1.8678304 6.089431 1.49501 2.196481 -1.0388349
2.7843866 -1.0534458 4.092896 -2.0080428 -11.888889 -1.1229385 1.2936096 10.260274
-1.0902475 -1.0966325 -1.1400304 2.4397395 2.869732 -10.549295 9.986667 -3.763819
-1.2504174 -14.132075 -3.2145922 -1.0162822 1.6607538 5.0268455 -1.0246238 3.8020306
1.0715307 -1.5636743 1.0564175 12.278688 1.6534216 1.7378191 1.3593466 -1.915601
1.5902336 -57.615383 1.4657534 2.9604743 1.3896104 -1.6831461 -1.1832544 749.0
2.5218856 -4.092896 -3.8410256 -2.2765958 11.888889 2.538983 -2.9840639 -1.9556136
4.2316384 5.1655173 -1.5835096 19.205128 -3.057143 -1.7875896 -2.3333333 -1.0475525
-21.4 6.4017096 -1.021828 1.0302614 -2.3929713 -20.243244 1.5192698 -4.48503
3.549763 1.3351159 -3.451613 5.8062015 -2.5218856 -3.8020306 -1.2462562 49.933334
3.133891 35.666668 83.22222 1.1162444 5.631579 -1.1576507 2.8479087 -19.205128
-2.1585014 -1.4773176 3.451613 -1.0870827 -2.7843866 2.3777778 2.0080428 -1.1096296
1.4 -3.5837321 1.2139384 -2.3046155 -2.6845877 2.2225518 -3.6536586 1.2891567
-3.2707424 27.74074 -3.187234 -1.4376199 3.3891404 2.1585014 1.2588235 1.8312958
-1.0934306 1.9556136 -1.3896104 3.763819 -1.2258593 1.1297134 1.2380165 -2.556314
3.6183574 2.4719472 -1.2716469 -29.96 2.0298102 -3.6183574 -7.7216496 -2.1836734
4.0053477 6.5130434 3.328889 1.2759795 5.2377625 -6.628319 -1.0331035 -1.0107962
-1.0715307 1.8135593 -11.179105 1.0107962 -2.0408719 -1.1365706
00000000: c117 f740 aa49 aabf d008 96bf fce3 3440
00000010: ed9c 8dbf 934e edc0 815f 78c0 1ac9 d1bf
00000020: 8ed2 8dc0 e174 973f c2fa 96bf 1115 efbf
00000030: 9edc c240 7d5c bf3f 2593 0c40 8bf8 84bf
00000040: 6433 3240 50d7 86bf 01f9 8240 c683 00c0
00000050: e438 3ec1 73bc 8fbf 0095 a53f 152a 2441
00000060: 3b8d 8bbf 745e 8cbf 84ec 91bf b124 1c40
00000070: b0a9 3740 eac9 28c1 63c9 1f41 69e2 70c0
00000080: ad0d a0bf fb1c 62c1 e1bb 4dc0 8915 82bf
00000090: 9593 d43f ebdb a040 df26 83bf 7854 7340
000000a0: eb27 893f 7b26 c8bf b038 873f 8275 4441
000000b0: 52a3 d33f db70 de3f 12ff ad3f 6a32 f5bf
000000c0: c68c cb3f 2776 66c2 cf9d bb3f 6978 3d40
000000d0: c1de b13f 5571 d7bf e174 97bf 0040 3b44
000000e0: 9366 2140 01f9 82c0 5dd3 75c0 bfb3 11c0
000000f0: e438 3e41 b37e 2240 e7fa 3ec0 8c51 fabf
00000100: 9569 8740 eb4b a540 71b0 cabf 1aa4 9941
00000110: 3ba8 43c0 bccf e4bf 5555 15c0 3316 86bf
00000120: 3333 abc1 ceda cc40 43cb 82bf 9bdf 833f
00000130: 7126 19c0 2af2 a1c1 6f77 c23f 5e85 8fc0
00000140: 512f 6340 14e5 aa3f 3ae7 5cc0 67cc b940
00000150: 9366 21c0 7854 73c0 5385 9fbf bcbb 4742
00000160: ac91 4840 abaa 0e42 c771 a642 19e1 8e3f
00000170: e535 b440 e62d 94bf 2344 3640 1aa4 99c1
00000180: e324 0ac0 be18 bdbf 3ae7 5c40 8725 8bbf
00000190: 6433 32c0 832d 1840 c683 0040 5808 8ebf
000001a0: 3333 b33f de5b 65c0 5562 9b3f d27e 13c0
000001b0: 49d0 2bc0 4a3e 0e40 8bd5 69c0 1603 a53f
000001c0: d853 51c0 09ed dd41 a4fb 4bc0 ee03 b8bf
000001d0: ade7 5840 e324 0a40 2121 a13f e767 ea3f
000001e0: 89f5 8bbf 8c51 fa3f c1de b1bf 69e2 7040
000001f0: f5e8 9cbf 739a 903f 5377 9e3f a69a 23c0
00000200: 2b93 6740 6234 1e40 53c5 a2bf 14ae efc1
00000210: 69e8 0140 2b93 67c0 c117 f7c0 4ec1 0bc0
00000220: cf2b 8040 da6a d040 840c 5540 4c53 a33f
00000230: c09b a740 301b d4c0 bc3c 84bf c561 81bf
00000240: eb27 89bf b622 e83f 9ddd 32c1 c561 813f
00000250: a59d 02c0 257b 91bf

0.weight f4 [100, 1]
-0.16013145 0.95545876 -0.55895126 0.18211569 -0.06518555 -0.35034302 -0.68219554 0.98011565
-0.6508165 0.6280558 -0.2655826 0.962245 -0.5847973 0.18549016 -0.21416295 -0.21727765
-0.31349027 -0.22687541 -0.84998924 -0.12820625 0.4125174 0.7350457 0.19976206 0.7800167
0.13757944 0.42590752 -0.14718878 -0.9934518 -0.04376483 0.51414454 0.47370923 -0.15208423
0.6169754 -0.16244976 0.27686596 -0.4529833 0.8446754 0.57133746 -0.8283142 0.61284757
0.21680932 -0.6339971 0.77668804 -0.0926607 -0.25326726 0.98700213 -0.7172095 0.3120805
0.34462938 0.1539427 -0.94066197 0.25570402 -0.17130405 -0.87614256 -0.12209678 -0.6593343
0.8098486 -0.9189657 -0.8687759 0.95454913 -0.18781757 -0.6669743 -0.3647693 0.6385916
0.29337347 -0.89912975 -0.072538376 0.52215505 0.060105965 0.6523782 -0.4545726 -0.48647663
0.4965189 -0.17552829 0.71564984 0.41297346 0.6368581 0.29988095 0.7108159 0.63262683
-0.015308738 -0.15658502 -0.6339058 -0.18263197 0.31863835 -0.05307577 0.6773967 0.97578055
0.035133094 0.38957086 -0.5604759 0.37413672 -0.51795465 0.7183354 -0.6403313 0.32966995
-0.05670309 0.24650306 -0.1253134 -0.06177771
00000000: 80f9 23be f298 743f 6e17 0fbf 897c 3a3e
00000010: 0080 85bd 2960 b3be 5ea4 2ebf dce8 7a3f
00000020: e99b 26bf 44c8 203f 71fa 87be b055 763f
00000030: 47b5 15bf 22f1 3d3e 884d 5bbe 087e 5ebe
00000040: cc81 a0be 0752 68be e598 59bf 8048 03be
00000050: 7b35 d33e f42b 3c3f 6d8e 4c3e 2daf 473f
00000060: a0e1 0c3e 8d10 da3e a8b8 16be db52 7ebf
00000070: c042 33bd fa9e 033f 048a f23e f8bb 1bbe
00000080: 1af2 1d3f 3b59 26be 60c1 8d3e 6ded e7be
00000090: a63c 583f 2c43 123f 660c 54bf 94e3 1c3f
000000a0: 4303 5e3e a24d 22bf 07d5 463f e5c4 bdbd
000000b0: 3fac 81be 2cac 7c3f 0b9b 37bf 04c9 9f3e
000000c0: 4373 b03e 28a3 1d3e 39cf 70bf a3eb 823e
000000d0: 546a 2fbe e14a 60bf e00d fabd 22ca 28bf
000000e0: 3d52 4f3f 5641 6bbf 1968 5ebf 555d 743f
000000f0: 4053 40be d4be 2abf 0bc3 babe bd7a 233f
00000100: 0c35 963e 5e2d 66bf 008f 94bd f4ab 053f
00000110: ac31 763d 4202 273f bdbd e8be 7713 f9be
00000120: ba37 fe3e b0bd 33be d434 373f 4271 d33e
00000130: 2209 233f ff89 993e 08f8 353f d5f3 213f
00000140: 80d1 7abc d357 20be a747 22bf e003 3bbe
00000150: 9124 a33e fb65 59bd df69 2d3f c1cc 793f
00000160: b8e7 0f3d d575 c73e 597b 0fbf d98e bf3e
00000170: ad98 04bf d4e4 373f c1ec 23bf 80ca a83e
00000180: 8041 68bd 4c6b 7c3e 2852 00be a00a 7dbd

0.bias f4 [100]
-0.23297524 0.27338254 0.39091635 -0.118091635 -0.63225245 0.65950024 -0.8404447 -0.13037133
0.9874102 -0.3873379 0.967407 -0.9769721 0.78579634 0.28935727 -0.37232113 -0.7661352
-0.6946467 0.10308932 0.5412916 -0.6044637 -0.24297065 0.24201412 0.52289957 0.05058212
-0.8900857 0.54785705 -0.27417958 -0.36497048 -0.23372328 0.52434886 -0.6685095 -0.64167476
0.9475882 0.7665113 -0.15069357 0.6405817 -0.8583449 0.9170516 0.6409818 -0.85969186
0.078484066 0.013807944 -0.27136904 0.71839064 0.10293902 -0.6379416 -0.6104845 0.6208938
-0.19482547 -0.77490115 0.90125924 0.24402677 0.8192721 0.046416983 -0.6751466 -0.3791412
0.5536606 -0.076089464 -0.26368013 0.22557865 0.7583789 -0.39382982 0.9149288 0.08578246
-0.51342154 -0.83068585 -0.15177584 0.22935675 0.6730951 -0.3429284 0.7560631 0.038846843
0.28185293 -0.7626294 0.11685789 -0.01649579 -0.7066965 0.6314304 0.41536435 0.8288898
-0.6090958 0.9604811 0.8073622 -0.61249864 0.3687726 0.50711644 -0.42819634 0.30712104
0.78327626 -0.0638447 0.4151786 0.20219803 0.044613253 0.80422896 -0.28017196 -0.41389906
-0.25226223 -0.06624349 -0.76999354 -0.87830186
00000000: 1091 6ebe ccf8 8b3e 3026 c83e 07da f1bd
00000010: 4cdb 21bf 02d5 283f 6227 57bf 1080 05be
00000020: eac6 7c3f 2751 c6be fca7 773f d81a 7abf
00000030: f329 493f a326 943e e0a0 bebe 7021 44bf
00000040: 5ed4 31bf 7e20 d33d 1692 0a3f 22be 1abf
00000050: 4ccd 78be 8dd2 773e bfdc 053f 322f 4f3d
00000060: a8dc 63bf 5c40 0c3f 4461 8cbe 69dd babe
00000070: 2855 6fbe ba3b 063f 7023 2bbf cc44 24bf
00000080: 2495 723f 163a 443f 6a4f 1abe 2afd 233f
00000090: 7ebc 5bbf e5c3 6a3f 6217 243f c414 5cbf
000000a0: 41bc a03d b73a 623c e2f0 8abe 73e8 373f
000000b0: b1d1 d23d 2450 23bf b648 1cbf e5f2 1e3f
000000c0: 5480 47be ec5f 46bf edb8 663f 27e2 793e
000000d0: d1bb 513f bc1f 3e3d 68d6 2cbf cc1e c2be
000000e0: b3bc 0d3f cbd4 9bbd 1501 87be 17fe 663e
000000f0: 1f25 423f 10a4 c9be c638 6a3f b7ae af3d
00000100: 986f 03bf d4a7 54bf 206b 1bbe 7fdc 6a3e
00000110: f64f 2c3f 5094 afbe 5a8d 413f de1d 1f3d
00000120: 074f 903e ae3b 43bf 3053 ef3d 2e22 87bc
00000130: 10ea 34bf 6ca5 213f a3aa d43e 1f32 543f
00000140: b4ed 1bbf 17e2 753f 4aaf 4e3f b6cc 1cbf
00000150: c3cf bc3e 62d2 013f 8d3c dbbe f83e 9d3e
00000160: cb84 483f 03c1 82bd 4a92 d43e 000d 4f3e
00000170: 63bc 363d f3e1 4d3f b372 8fbe 94ea d3be
00000180: 8428 81be abaa 87bd 4c1e 45bf 64d8 60bf

2.weight f4 [1, 100]
0.036426492 0.03225555 -0.034476016 0.077904515 -0.060114503 -0.06601203 -0.049237706 0.08023402
-0.22978061 -0.0131858215 -0.12122896 0.033203103 -0.032320566 -0.00025042336 0.09496566 -0.07067829
0.08381594 0.064741 -0.16910546 -0.059033286 0.043951176 -0.020824105 0.0038477771 0.011650831
-0.047725618 -0.03233957 -0.068692446 -0.03424122 0.0019329041 -0.0350637 0.08881486 0.03257128
0.059042793 -0.061676297 0.021350345 -0.071000956 0.012178339 0.0587468 -0.10158658 -0.0013116822
-0.06347875 0.023948517 0.023723101 -0.025594775 -0.119111046 0.08665956 0.015034578 0.048778296
-0.08309346 -0.04906521 -0.20879935 -0.041033726 -0.082595296 -0.01040941 0.087100066 -0.050880205
0.0714543 0.04799819 0.018910743 0.110979274 -0.09523823 0.055128735 -0.20352767 0.09847967
0.0019122213 0.06797271 -0.074637115 -0.0026691202 0.016253207 0.09186951 -0.16139935 -0.01730957
0.0029661956 0.023846231 0.081595734 0.10434428 -0.027061775 -0.035222705 0.02408139 -0.021555673
0.0050174147 -0.022730403 -0.056805145 0.042896934 -0.047626667 -0.13845132 -0.01397615 0.03373635
0.005162283 -0.025595011 0.0037051903 -0.030763352 0.064751714 0.07428539 0.09932014 -0.09041289
0.03901408 -0.031336684 0.07642036 -0.00096064806
00000000: f233 153d 651e 043d b936 0dbd 678c 9f3d
00000010: a03a 76bd 5131 87bd 7aad 49bd bc51 a43d
00000020: 9c4b 6bbe 5809 58bc e446 f8bd faff 073d
00000030: 9262 04bd 414b 83b9 5b7d c23d c8bf 90bd
00000040: b1a7 ab3d ee96 843d fb29 2dbe e3cc 71bd
00000050: 2606 343d 5097 aabc fd2a 7c3b 21e3 3e3c
00000060: f07b 43bd 7f76 04bd a0ae 8cbd 8640 0cbd
00000070: 8059 fd3a f49e 0fbd 91e4 b53d 7669 053d
00000080: dbd6 713d 49a0 7cbd ebe6 ae3c f368 91bd
00000090: a887 473c 7ca0 703d a00c d0bd c0ec abba
000000a0: 2601 82bd ae2f c43c f356 c23c 22ac d1bc
000000b0: 7ef0 f3bd 917a b13d 9753 763c c0cb 473d
000000c0: e72c aabd 9af8 48bd 7fcf 55be fb12 28bd
000000d0: b927 a9bd 3b8c 2abc 8561 b23d c367 50bd
000000e0: a256 923d c099 443d b4ea 9a3c 1a49 e33d
000000f0: 430c c3bd abce 613d 8f69 50be b6af c93d
00000100: 80a3 fa3a 4735 8b3d 58db 98bd 68ec 2ebb
00000110: 7225 853c 1526 bc3d df45 25be cdcc 8dbc
00000120: 8164 423b 2c59 c33c aa1b a73d 74b2 d53d
00000130: a8b0 ddbc af45 10bd 5646 c53c 8695 b0bc
00000140: 2069 a43b 1c35 babc 83ac 68bd b2b4 2f3d
00000150: 2e14 43bd 2fc6 0dbe 39fc 64bc 202f 0a3d
00000160: 5e28 a93b a1ac d1bc c7d2 723b 6d03 fcbc
00000170: 8c9c 843d f022 983d 5c68 cb3d 652a b9bd
00000180: 3acd 1f3d e55a 00bd 4782 9c3d 00d4 7bba
