complete/reciprocal/state5.pt (torch, 10937 bytes, 9 tensors)

weight f4 [100, 1]
0	0xc0a9d30d	-5.307013
1	0xbd97387c	-0.073838204
2	0xc0f91158	-7.783367
3	0x40d1684d	6.543982
4	0x408498d3	4.1436553
5	0x4105d8b8	8.36541
6	0xc15f0aa1	-13.940095
7	0xc0f03100	-7.5059814
8	0xc111f5a9	-9.122476
9	0x40d49d4b	6.644201
10	0x40f229b2	7.5675898
11	0x40a00c43	5.001497
12	0x40503e95	3.2538197
13	0xc0dee20a	-6.9650927
14	0xbf0ceb32	-0.5504638
15	0x3ec58ecc	0.38585508
16	0xbea4ad10	-0.32163286
17	0xc13bbf45	-11.734197
18	0x409add5b	4.839521
19	0xc131384d	-11.076245
20	0x4193710a	18.430195
21	0x410166fb	8.087642
22	0xc0ea303e	-7.318389
23	0x3f597aaf	0.84952825
24	0xc11cd157	-9.801108
25	0x3fb2cc22	1.3968546
26	0x410494d6	8.286337
27	0x3f4a65a8	0.79061365
28	0x4105b9e1	8.357881
29	0x410e5736	8.896292
30	0x413eeb6d	11.932477
31	0x3e55b6b8	0.20870483
32	0x4021d3ea	2.5285592
33	0x3eabdce8	0.33566976
34	0xbc965980	-0.018353224
35	0xc0f00c59	-7.5015073
36	0xc116c1b3	-9.42229
37	0x3d541ce0	0.05178535
38	0x3f93fa9e	1.1560857
39	0x40c12b57	6.0365405
40	0x41aa2d14	21.27201
41	0xc1683b79	-14.51452
42	0xc0fbe682	-7.871888
43	0xc1572dfe	-13.448729
44	0xc175811b	-15.34402
45	0x416c86be	14.782896
46	0x3fcc9581	1.5983125
47	0x40881a60	4.2532196
48	0x40713f00	3.7694702
49	0xbef4d800	-0.47821045
50	0x417c51dd	15.769986
51	0x405578a1	3.3354876
52	0xc0b6e164	-5.7150135
53	0xc18c6b84	-17.552498
54	0xc0c56e8a	-6.1697435
55	0xc0263e17	-2.5975397
56	0x40f3af2d	7.615134
57	0xbed81c04	-0.42208874
58	0x4130cdfb	11.050288
59	0x40423ecc	3.0350828
60	0xc11a6af6	-9.6511135
61	0xc0530745	-3.2973187
62	0xbf1a6330	-0.603076
63	0x3e772b08	0.24137509
64	0x40c4a32c	6.1449184
65	0xc0f35f0a	-7.6053514
66	0xbe88e380	-0.2673607
67	0x40fa2df4	7.8181095
68	0xc1189877	-9.537223
69	0xbf291c94	-0.6605923
70	0xbe8f037c	-0.27932346
71	0xc1279e83	-10.476199
72	0x3f2c21ac	0.6723888
73	0xc06a0a6d	-3.6568863
74	0x4024c3cb	2.5744503
75	0x3d8b8e50	0.06814253
76	0x41837e45	16.436655
77	0xc0954b3e	-4.665435
78	0x41870be9	16.880816
79	0x411cb9b1	9.795335
80	0xc0ea34bf	-7.3189387
81	0x4048990a	3.1343408
82	0xbd92a8d0	-0.07161105
83	0xc0b410ce	-5.6270514
84	0x4069c09c	3.652381
85	0x3ea47568	0.32120824
86	0x40a77072	5.232476
87	0x4157a276	13.477163
88	0x417b86db	15.720424
89	0xc0ec42d6	-7.3831587
90	0xbfcaaf14	-1.583468
91	0xc0a949d2	-5.2902613
92	0x414e4d7e	12.893919
93	0x3fe68fac	1.8012595
94	0xbddee420	-0.10883355
95	0x419a80a2	19.312809
96	0xc0f87cd3	-7.7652373
97	0xc113d867	-9.240333
98	0xbeea8044	-0.45800984
99	0xbd2c58e0	-0.042076945

bias f4 [100]
0	0xbdea8edb	-0.11453029
1	0x3b5532ce	0.0032531503
2	0xbf80061d	-1.0001866
3	0xbe9de368	-0.3083756
4	0xbe492147	-0.196416
5	0xbecbb4bb	-0.39786324
6	0x3f1d3a30	0.6141691
7	0x3ea95113	0.33069667
8	0x3ecdc7d7	0.40191528
9	0x3de71ffc	0.112853974
10	0x3e039f77	0.128538
11	0xbe736561	-0.23769142
12	0x3d625fe0	0.055267215
13	0xbe219737	-0.1578034
14	0x3cc6acad	0.02425226
15	0xbf3171e2	-0.69314396
16	0xbf6ff602	-0.93734753
17	0x3f0458fa	0.5169827
18	0x3da858d3	0.08220067
19	0xbff88a19	-1.9417144
20	0x3ea04735	0.31304327
21	0xbec48efc	-0.38390338
22	0x3ea515bd	0.32243147
23	0xbd2580ad	-0.040405918
24	0x3edd16c8	0.43181443
25	0x3cc25d27	0.02372606
26	0xbec7ce11	-0.39024404
27	0xbf66cb0e	-0.90153587
28	0xbff5f7df	-1.9216269
29	0x3e1abbb4	0.15110666
30	0x3e4f8a9e	0.20267722
31	0xbf571936	-0.84022844
32	0x3d2fea8a	0.042948283
33	0xbf4a291a	-0.78968966
34	0xbe10aef8	-0.14129245
35	0x3ea93730	0.33049917
36	0xbe5f59b1	-0.21811558
37	0xbf0daaf8	-0.55339
38	0xbd5fa7d1	-0.0546034
39	0xbe92dab5	-0.28682485
40	0x3eb8fdee	0.36131233
41	0x3f23b4bb	0.6394765
42	0xbe2f39e6	-0.1711193
43	0x3f17af6d	0.59252053
44	0x3f2d0fd6	0.6760229
45	0x3e808f33	0.25109252
46	0x3cde6529	0.027147846
47	0xbe4f3d88	-0.20238316
48	0xbe378828	-0.17923033
49	0xbf2b50b0	-0.66919994
50	0x3e8924c6	0.26785868
51	0x3d680e84	0.05665447
52	0x3e80eabe	0.25179094
53	0x3f45f86a	0.77332175
54	0xbe04e739	-0.1297883
55	0x3dea605d	0.11444161
56	0x3e047327	0.12934552
57	0xbf32d4de	-0.6985606
58	0x3e40327e	0.18769261
59	0x3d532807	0.051551845
60	0x3ed9b47f	0.4252052
61	0xbd94c632	-0.07264365
62	0xbf537ed2	-0.8261539
63	0xbeb7f694	-0.35930312
64	0xbe94b191	-0.29041722
65	0xbe283ed0	-0.16430211
66	0xbf324b90	-0.6964655
67	0xbebd4433	-0.36966094
68	0x3ed722e1	0.42018798
69	0xbf578c0a	-0.8419806
70	0xbed60944	-0.41803944
71	0x3eec513b	0.46155724
72	0xbf6ba672	-0.9205085
73	0x3e24fb3e	0.16111466
74	0xbdf9e130	-0.12201154
75	0xbea2d1a8	-0.3180058
76	0x3e8ef0d8	0.27918124
77	0x3e527b56	0.20554861
78	0x3e92cdc1	0.28672603
79	0x3e2a5ede	0.16637751
80	0x3ea518f0	0.32245588
81	0xbe18a443	-0.14906411
82	0xbe5bdce8	-0.21470988
83	0xbe03bd1a	-0.12865105
84	0xbe31a6ae	-0.1734874
85	0xbf74e570	-0.95662594
86	0xbe7e7f84	-0.24853331
87	0x3e6a6871	0.22891404
88	0x3e88b661	0.26701644
89	0xbe1dce39	-0.15410699
90	0x3d8ee082	0.06976415
91	0x3e6eabd9	0.23307742
92	0x3e604368	0.21900713
93	0xbdaf6988	-0.0856505
94	0xbf5292fe	-0.8225554
95	0x3ea7f3fb	0.3280333
96	0x3eaf2a2c	0.34211862
97	0xbe52dc91	-0.20591952
98	0xbf136f80	-0.5759201
99	0xbec6c000	-0.3881836

weight f4 [1, 100]
0	0x407c7d86	3.9451613
1	0xbc04f05c	-0.008113947
2	0xc0c0052f	-6.000633
3	0xc0ac4b69	-5.3842053
4	0xc05a4a60	-3.4107895
5	0xc0dc2ef6	-6.8807325
6	0xbfc41387	-1.5318459
7	0xbf532726	-0.8248161
8	0xbf80502a	-1.0024464
9	0x3f3336a3	0.70005244
10	0x3f4c1ea6	0.79734266
11	0xc0839f95	-4.11323
12	0x3eaf87a9	0.34283188
13	0x40a762dd	5.2308183
14	0xbd77c3b5	-0.060489375
15	0xbba0ee60	-0.004911229
16	0xbd292820	-0.04129803
17	0xbfa50c86	-1.2894447
18	0x3f028946	0.5099071
19	0xc107c689	-8.4859705
20	0x3ff88efa	1.9418633
21	0xc0d4ed92	-6.6540003
22	0xbf4de014	-0.8042004
23	0xbf326659	-0.6968742
24	0xbf89dbc4	-1.0770192
25	0x3e16b57c	0.14717668
26	0xc0da3824	-6.819353
27	0xbcbd4f20	-0.023109019
28	0x40e4ae10	7.146248
29	0x3f6ff56d	0.93733865
30	0x3fa0ed34	1.2572389
31	0xbd08251a	-0.033238508
32	0x3e8867c5	0.2664167
33	0x3daac23f	0.08337831
34	0xbd1075f6	-0.035268746
35	0xbf5306e9	-0.8243242
36	0x40e25386	7.0726957
37	0xbd50a440	-0.05093789
38	0xbf751fa1	-0.95751387
39	0xc09dd372	-4.932061
40	0x400f7122	2.24128
41	0xbfcc27e0	-1.5949669
42	0x40bd3626	5.91286
43	0xbfbd2a2b	-1.4778494
44	0xbfd7d2c8	-1.68612
45	0x3fc75e84	1.5575719
46	0x3e2c71c6	0.16840276
47	0xc05d3887	-3.4565752
48	0xc042bd46	-3.0428023
49	0xbda62253	-0.081120156
50	0x3fd4ae61	1.6615716
51	0x3eb3ef7e	0.35143656
52	0xbf20c53d	-0.6280096
53	0xbff6e2e6	-1.9287994
54	0x40933512	4.6002283
55	0xbe9224d6	-0.2854373
56	0x3f4d66ea	0.8023516
57	0x3c4e9e30	0.012610957
58	0x3f950761	1.1642877
59	0x3ea3bacb	0.3197845
60	0xbf87bfac	-1.0605369
61	0x401dc5b3	2.4651916
62	0xbd94c5bd	-0.07264278
63	0x3dbde3d3	0.0927197
64	0xc0a1ad2f	-5.0523906
65	0x40b65a3e	5.698516
66	0xbd844ac8	-0.06459576
67	0xc0cda8d6	-6.42686
68	0xbf8625a0	-1.0480232
69	0xbd3debda	-0.046367504
70	0x3d78d492	0.060749598
71	0xbf935aad	-1.1512047
72	0xbd74404a	-0.059631623
73	0xbecdbf01	-0.40184787
74	0xc007257b	-2.1116626
75	0x3d22ff76	0.039794408
76	0x3fddac16	1.7318141
77	0xbf033e92	-0.5126735
78	0x3fe3a987	1.7786111
79	0x3f841ab6	1.0320652
80	0xbf4de41d	-0.804262
81	0xc0242aa3	-2.5651023
82	0xbc86f808	-0.016475692
83	0x4085ae53	4.17753
84	0xc040c16e	-3.011806
85	0xbd67bd53	-0.056577038
86	0xc088d48b	-4.275945
87	0x3fb5c260	1.4199944
88	0x3fd4033c	1.6563487
89	0x40b10bb4	5.5326786
90	0xbe322e10	-0.17400384
91	0xbf14d26e	-0.5813359
92	0x3fade4ac	1.358541
93	0xbfbdf59f	-1.4840583
94	0x3c9a5f18	0.018844172
95	0x40023b17	2.0348566
96	0xbf5a7218	-0.85330343
97	0x40de13a8	6.9398994
98	0x3d1e6ca2	0.03867782
99	0x3d3bf2ca	0.04588584

train_data f4 [600, 1]
0	0xbf32c174	-0.69826436
1	0x3f14ada1	0.58077437
2	0xbf0dd7ab	-0.5540721
3	0x3f771d0d	0.965287
4	0x3f30b477	0.6902537
5	0xbf41cb5d	-0.7570093
6	0xbf0652b7	-0.5246996
7	0xbea3600b	-0.31909212
8	0x3f246689	0.64218956
9	0xbe5ed8b2	-0.2176235
10	0x3e2ae500	0.16688919
11	0xbe8c222e	-0.27369827
12	0x3d96631e	0.07343124
13	0xbef8238c	-0.4846462
14	0xbe71fc95	-0.23631509
15	0x3dbcaae5	0.09212283
16	0x3e74b891	0.23898531
17	0x3f0bcaae	0.5460614
18	0xbce5aea7	-0.028037382
19	0xbd4a56d0	-0.049399197
20	0x3f43295b	0.7623498
21	0x3f04f4b9	0.5193592
22	0x3f6f9819	0.9359146
23	0x3f5b1637	0.8558077
24	0x3f085fb3	0.53271025
25	0xbf7c9505	-0.98664886
26	0x3f3ba467	0.73297733
27	0xbe2ae500	-0.16688919
28	0x3ebbfbe6	0.3671562
29	0x3e463cd7	0.19359146
30	0x3f61ec2d	0.88251
31	0xbe6450aa	-0.22296396
32	0x3ce5aea7	0.028037382
33	0x3f18189c	0.5941255
34	0x3f357d70	0.7089453
35	0xbef14d96	-0.47129506
36	0xbf4d6a4c	-0.8024032
37	0x3de86aa3	0.11348464
38	0x3f5e8132	0.86915886
39	0x3f134fa3	0.5754339
40	0xbf474355	-0.77837116
41	0x3d9bdb16	0.07610147
42	0x3e35d4ef	0.17757009
43	0x3ee919a2	0.4552737
44	0x3e53e8c2	0.20694259
45	0xbe903c28	-0.28170896
46	0x3f7f5101	0.9973298
47	0x3f1a2599	0.6021362
48	0x3e97121d	0.29506007
49	0x3d80833f	0.06275033
50	0xbeacf1fd	-0.33778372
51	0x3e01e13d	0.12683578
52	0x3f16ba9e	0.58878505
53	0xbf5e8132	-0.86915886
54	0x3f68c223	0.9092123
55	0xbe5960ba	-0.21228305
56	0xbe670ca5	-0.22563417
57	0x3eea77a0	0.45794392
58	0x3df35a93	0.1188251
59	0xbf23b78a	-0.63951933
60	0xbda6cb06	-0.081441924
61	0x3f629b2c	0.88518023
62	0xbc8e2f2b	-0.017356476
63	0x3ef9818a	0.48731643
64	0x3f0e86aa	0.5567423
65	0xbd96631e	-0.07343124
66	0xbed07dc7	-0.4072096
67	0x3f787b0b	0.9706275
68	0x3eb683ee	0.3564753
69	0xbf49ff51	-0.78905207
70	0xbebd59e4	-0.36982644
71	0xbe7a3089	-0.24432577
72	0xbea0a40f	-0.31375167
73	0x3f09bdb1	0.5380507
74	0x3f0189be	0.506008
75	0xbe48f8d3	-0.19626169
76	0x3f32c174	0.69826436
77	0xbee919a2	-0.4552737
78	0x3f7a8808	0.9786382
79	0x3f697122	0.9118825
80	0x3eacf1fd	0.33778372
81	0x3d76168f	0.060080107
82	0x3eb525f0	0.35380507
83	0x3f4aae50	0.7917223
84	0xbd85fb37	-0.06542056
85	0x3ea77a05	0.3271028
86	0x3edccbb5	0.43124166
87	0x3f6acf20	0.917223
88	0x3f0a6cb0	0.54072094
89	0x3f02e7bc	0.5113485
90	0xbf71a516	-0.94392526
91	0x3ca40f0a	0.020026702
92	0xbf79d909	-0.97596794
93	0xbe8d802c	-0.2763685
94	0x3f766e0e	0.9626168
95	0xbe3318f3	-0.17489986
96	0x3d8b732f	0.06809079
97	0x3e0f8d29	0.14018692
98	0xbf3a4669	-0.7276369
99	0x3e3890eb	0.18024032
100	0x3f730313	0.94926566
101	0x3ee3a1ab	0.4445928
102	0x3d6b269f	0.05740988
103	0x3df8d28b	0.12149533
104	0xbf6e3a1b	-0.9305741
105	0xbf6ee91a	-0.93324435
106	0xbf660627	-0.8985314
107	0x3eda0fb9	0.4259012
108	0x3ed1dbc5	0.40987983
109	0xbdb732ed	-0.0894526
110	0xbe880834	-0.26568758
111	0x3ec9a7d2	0.3938585
112	0x3f2a8d80	0.6662216
113	0xbeae4ffb	-0.34045395
114	0x3f0c79ad	0.5487316
115	0x3eed339c	0.46328437
116	0xbde86aa3	-0.11348464
117	0xbf1d9094	-0.61548734
118	0x3dc79ad5	0.09746329
119	0x3efd9b84	0.49532712
120	0x3ed497c1	0.4152203
121	0xbf357d70	-0.7089453
122	0x3f5c7435	0.8611482
123	0x3f427a5c	0.75967956
124	0x3ec6ebd6	0.38851804
125	0x3f316376	0.6929239
126	0xbf730313	-0.94926566
127	0x3d3f66e1	0.046728972
128	0xbe5c1cb6	-0.21495327
129	0x3ef6c58e	0.48197597
130	0xbf27d184	-0.6555407
131	0x3f3a4669	0.7276369
132	0xbe9de813	-0.3084112
133	0x3e6194ae	0.22029373
134	0x3f79d909	0.97596794
135	0x3e82903c	0.25500667
136	0x3f56fc3e	0.8397864
137	0xbef2ab94	-0.4739653
138	0xbcb9eee9	-0.022696929
139	0xbe282904	-0.16421896
140	0x3f12a0a4	0.5727637
141	0xbe124925	-0.14285715
142	0xbebeb7e2	-0.37249666
143	0x3f292f82	0.66088116
144	0xbedb6db7	-0.42857143
145	0xbd3476f1	-0.044058744
146	0xbf0189be	-0.506008
147	0xbd08b733	-0.033377837
148	0x3d13a723	0.036048066
149	0xbf544042	-0.8291055
150	0x3f4b5d4f	0.7943925
151	0xbf2df87b	-0.67957276
152	0xbee243ad	-0.44192258
153	0xbb833f3b	-0.0040053404
154	0x3f36db6e	0.71428573
155	0x3ec173de	0.37783712
156	0x3f469456	0.7757009
157	0xbda1530e	-0.078771695
158	0x3f75bf0f	0.9599466
159	0xbf5dd233	-0.86648864
160	0x3f3f0f61	0.7463284
161	0x3f4d6a4c	0.8024032
162	0x3e880834	0.26568758
163	0xbdd28ac4	-0.10280374
164	0x3f5fdf30	0.8744993
165	0x3f23b78a	0.63951933
166	0xbf1142a6	-0.5674232
167	0xbf453658	-0.77036047
168	0xbf0fe4a8	-0.56208277
169	0x3f6b7e1f	0.9198932
170	0x3f13fea2	0.57810414
171	0xbecdc1cb	-0.40186915
172	0x3f090eb2	0.5353805
173	0xbef56790	-0.47930574
174	0x3ee0e5af	0.43925235
175	0xbf02e7bc	-0.5113485
176	0xbdb1baf5	-0.08678237
177	0xbf4f7749	-0.8104139
178	0xbd90eb27	-0.07076102
179	0x3aaefefa	0.0013351135
180	0xbe4380db	-0.19092123
181	0xbecf1fc9	-0.40453938
182	0xbd76168f	-0.060080107
183	0xbe74b891	-0.23898531
184	0x3db1baf5	0.08678237
185	0xbf50d547	-0.81575435
186	0xbf3d0264	-0.7383177
187	0xbc709e97	-0.014686248
188	0x3e5c1cb6	0.21495327
189	0x3f002bc0	0.5006676
190	0x3f38e86b	0.7222964
191	0xbe98701b	-0.2977303
192	0xbf090eb2	-0.5353805
193	0x3e92f824	0.2870494
194	0x3e903c28	0.28170896
195	0x3f272285	0.6528705
196	0x3d6036b0	0.054739654
197	0xbf411c5e	-0.7543391
198	0x3f7ea202	0.99465954
199	0xbe305cf7	-0.17222963
200	0x3efef982	0.49799734
201	0x3f39976a	0.72496665
202	0xbf39976a	-0.72496665
203	0x3ee65da6	0.44993323
204	0x3e1d3914	0.15353805
205	0xbf766e0e	-0.9626168
206	0x3f1ce195	0.6128171
207	0xbeb269f4	-0.3484646
208	0xbf11f1a5	-0.57009345
209	0xbf63f92a	-0.8905207
210	0xbe69c8a1	-0.2283044
211	0xbf09bdb1	-0.5380507
212	0xbf59b839	-0.85046726
213	0x3f337073	0.7009346
214	0x3f251588	0.6448598
215	0xbf523345	-0.8210948
216	0xbf502648	-0.8130841
217	0x3e99ce19	0.30040053
218	0xbec849d4	-0.39118826
219	0xbf341f72	-0.7036048
220	0xbd3f66e1	-0.046728972
221	0x3f0dd7ab	0.5540721
222	0x3efadf88	0.48998666
223	0xbf1e3f93	-0.61815757
224	0xbdac42fe	-0.08411215
225	0x3eb7e1ec	0.35914552
226	0x3e8ede2a	0.27903873
227	0x3f5a6738	0.8531375
228	0xbdf8d28b	-0.12149533
229	0xbf38e86b	-0.7222964
230	0xbf4aae50	-0.7917223
231	0xbeb93fea	-0.36181575
232	0xbf04f4b9	-0.5193592
233	0x3f66b526	0.9012016
234	0xbeafadf8	-0.34312415
235	0x3e95b41f	0.29238984
236	0xbf427a5c	-0.75967956
237	0x3f495052	0.78638184
238	0xbddd7ab4	-0.108144194
239	0x3f70f617	0.94125503
240	0xbed1dbc5	-0.40987983
241	0xbe92f824	-0.2870494
242	0xbccfcec8	-0.025367156
243	0xbf66b526	-0.9012016
244	0x3f3fbe60	0.74899864
245	0xbea2020d	-0.3164219
246	0x3ef8238c	0.4846462
247	0xbf5c7435	-0.8611482
248	0xbf6acf20	-0.917223
249	0x3f77cc0c	0.96795726
250	0x3f20fb8f	0.6288385
251	0xbf629b2c	-0.88518023
252	0xbeab93ff	-0.3351135
253	0xbf251588	-0.6448598
254	0x3e8c222e	0.27369827
255	0xbf59093a	-0.84779704

train_targets f4 [600, 1]
0	0xbfb74fc9	-1.4321223
1	0x3fdc6539	1.7218391
2	0xbfe70451	-1.8048192
3	0x3f849a61	1.0359613
4	0x3fb97067	1.4487427
5	0xbfa91620	-1.3209877
6	0xbff3f2f9	-1.9058524
7	0xc04891ac	-3.133891
8	0x3fc7516e	1.5571725
9	0xc0930afe	-4.595092
10	0x40bfbe77	5.992
11	0xc069d58b	-3.6536586
12	0x4159e413	13.618182
13	0xc0040e1b	-2.063361
14	0xc0876995	-4.2316384
15	0x412dae60	10.855072
16	0x4085e642	4.1843576
17	0x3fea67e7	1.8312958
18	0xc20eaaab	-35.666668
19	0xc1a1f22a	-20.243244
20	0x3fa7e6e5	1.3117338
21	0x3ff67524	1.9254498
22	0x3f88c3be	1.0684736
23	0x3f9590f9	1.1684867
24	0x3ff047dc	1.877193
25	0xbf81bb69	-1.0135318
26	0x3faea157	1.3642987
27	0xc0bfbe77	-5.992
28	0x402e500f	2.7236364
29	0x40a54beb	5.1655173
30	0x3f910a75	1.1331316
31	0xc08f855e	-4.48503
32	0x420eaaab	35.666668
33	0x3fd77155	1.6831461
34	0x3fb48cc7	1.4105462
35	0xc007cbc9	-2.121813
36	0xbf9f8553	-1.2462562
37	0x410cfcfd	8.811765
38	0x3f9344d1	1.1505376
39	0x3fde70db	1.7378191
40	0xbfa4722b	-1.2847341
41	0x41523ee1	13.140351
42	0x40b435e5	5.631579
43	0x400c9325	2.196481
44	0x409aa1dc	4.832258
45	0xc0632f51	-3.549763
46	0x3f8057bb	1.0026773
47	0x3fd49395	1.6607538
48	0x4058e7ad	3.3891404
49	0x417efa8e	15.936171
50	0xc03d7869	-2.9604743
51	0x40fc4b74	7.8842106
52	0x3fd96596	1.6984127
53	0xbf9344d1	-1.1505376
54	0x3f8cc7fd	1.0998532
55	0xc096bdfd	-4.710692
56	0xc08dd28e	-4.4319525
57	0x400bc14e	2.1836734
58	0x4106a6d5	8.41573
59	0xbfc8267b	-1.5636743
60	0xc1447582	-12.278688
61	0x3f909a73	1.1297134
62	0xc2667627	-57.615383
63	0x400354de	2.052055
64	0x3fe5e8ac	1.7961631
65	0xc159e413	-13.618182
66	0xc01d2ace	-2.4557376
67	0x3f83df9b	1.0302614
68	0x4033891c	2.8052435
69	0xbfa23850	-1.2673435
70	0xc02d0ddd	-2.7039711
71	0xc082f901	-4.092896
72	0xc04bfba4	-3.187234
73	0x3fede552	1.8585608
74	0x3ffcf5de	1.9762533
75	0xc0a30c31	-5.095238
76	0x3fb74fc9	1.4321223
77	0xc00c9325	-2.196481
78	0x3f82cb43	1.021828
79	0x3f8c5e74	1.0966325
80	0x403d7869	2.9604743
81	0x418527d2	16.644444
82	0x4034e3fc	2.826415
83	0x3fa1ac40	1.2630692
84	0xc1749249	-15.285714
85	0x4043a83b	3.057143
86	0x4014689f	2.3188856
87	0x3f8b8d3b	1.0902475
88	0x3fecb893	1.8493828
89	0x3ffa518c	1.9556136
90	0xbf879a9d	-1.0594059
91	0x4247bbbc	49.933334
92	0xbf8326df	-1.0246238
93	0xc067932b	-3.6183574
94	0x3f84f88b	1.0388349
95	0xc0b6f63b	-5.7175574
96	0x416afafb	14.686275
97	0x40e44444	7.133333
98	0xbfafe974	-1.3743119
99	0x40b18a6e	5.548148
100	0x3f86d750	1.0534458
101	0x400ff3b3	2.2492492
102	0x418b594d	17.418604
103	0x4103b13b	8.230769
104	0xbf898cac	-1.0746055
105	0xbf8927eb	-1.0715307
106	0xbf8e7466	-1.1129272
107	0x40164504	2.3479624
108	0x401c24b1	2.4397395
109	0xc132dd9d	-11.179105
110	0xc070e269	-3.763819
111	0x40227eb3	2.538983
112	0x3fc020d5	1.501002
113	0xc03bfbfc	-2.937255
114	0x3fe943e5	1.8223845
115	0x400a24e3	2.1585014
116	0xc10cfcfd	-8.811765
117	0xbfcff71d	-1.6247288
118	0x41242a15	10.260274
119	0x40013522	2.018868
120	0x401a2293	2.4083602
121	0xbfb48cc7	-1.4105462
122	0x3f94a386	1.1612403
123	0x3fa87dfa	1.3163445
124	0x4024ba80	2.573883
125	0x3fb8b977	1.4431599
126	0xbf86d750	-1.0534458
127	0x41ab3333	21.4
128	0xc094de9c	-4.652174
129	0x4004c965	2.0747921
130	0xbfc34237	-1.5254582
131	0x3fafe974	1.3743119
132	0xc04f83e1	-3.2424242
133	0x409142b7	4.539394
134	0x3f8326df	1.0246238
135	0x407af94c	3.9214659
136	0x3f986b72	1.190779
137	0xc00707ef	-2.1098592
138	0xc2303c3c	-44.058823
139	0xc0c2dc9e	-6.089431
140	0x3fdf7a55	1.7459208
141	0xc0e00000	-7.0
142	0xc02bd049	-2.6845877
143	0x3fc1ae49	1.5131313
144	0xc0155555	-2.3333333
145	0xc1b59365	-22.69697
146	0xbffcf5de	-1.9762533
147	0xc1efae14	-29.96
148	0x41dded09	27.74074
149	0xbf9a621d	-1.2061192
150	0x3fa12121	1.2588235
151	0xbfbc5a88	-1.4715128
152	0xc010d25e	-2.2628398
153	0xc379aaab	-249.66667
154	0x3fb33333	1.4
155	0x4029629a	2.6466432
156	0x3fa50316	1.2891567
157	0xc14b1e5f	-12.694915
158	0x3f85573b	1.0417246
159	0xbf93b900	-1.1540833
160	0x3fab819a	1.3398926
161	0x3f9f8553	1.2462562
162	0x4070e269	3.763819
163	0xc11ba2e9	-9.727273
164	0x3f925e95	1.1435114
165	0x3fc8267b	1.5636743
166	0xbfe194c8	-1.762353
167	0xbfa627ee	-1.2980936
168	0xbfe3b977	-1.7790974
169	0x3f8b2587	1.0870827
170	0x3fdd69d4	1.7297921
171	0xc01f417d	-2.488372
172	0x3fef1511	1.8678304
173	0xc00586c6	-2.086351
174	0x4011b3bf	2.2765958
175	0xbffa518c	-1.9556136
176	0xc1385e86	-11.523077
177	0xbf9df1a9	-1.2339374
178	0xc1621cfb	-14.132075
179	0x443b4000	749.0
180	0xc0a79bc0	-5.2377625
181	0xc01e3462	-2.4719472
182	0xc18527d2	-16.644444
183	0xc085e642	-4.1843576
184	0x41385e86	11.523077
185	0xbf9ce8f5	-1.2258593
186	0xbfad5dfa	-1.3544304
187	0xc2882e8c	-68.09091
188	0x4094de9c	4.652174
189	0x3fffa89e	1.9973333
190	0x3fb1366b	1.3844732
191	0xc056f5ab	-3.3587444
192	0xbfef1511	-1.8678304
193	0x405ef549	3.483721
194	0x40632f51	3.549763
195	0x3fc40ea9	1.5316974
196	0x41922577	18.268293
197	0xbfa9af59	-1.3256637
198	0x3f80aff0	1.0053692
199	0xc0b9cc67	-5.8062015
200	0x400083c6	2.0080428
201	0x3fb08f53	1.3793739
202	0xbfb08f53	-1.3793739
203	0x400e3e4a	2.2225518
204	0x40d06ada	6.5130434
205	0xbf84f88b	-1.0388349
206	0x3fd0df18	1.6318083
207	0xc037a9b0	-2.869732
208	0xbfe0864c	-1.7540984
209	0xbf8fbc73	-1.1229385
210	0xc08c29eb	-4.380117
211	0xbfede552	-1.8585608
212	0xbf968168	-1.1758242
213	0x3fb69d03	1.4266666
214	0x3fc67e25	1.5507246
215	0xbf9be3b2	-1.2178862
216	0xbf9d6ce0	-1.2298851
217	0x40550c84	3.328889
218	0xc0239aa6	-2.556314
219	0xbfb5eb99	-1.4212524
220	0xc1ab3333	-21.4
221	0x3fe70451	1.8048192
222	0x40029da5	2.0408719
223	0xbfcf1124	-1.6177106
224	0xc13e38e4	-11.888889
225	0x40323364	2.7843866
226	0x40655bde	3.5837321
227	0x3f9608d0	1.1721439
228	0xc103b13b	-8.230769
229	0xbfb1366b	-1.3844732
230	0xbfa1ac40	-1.2630692
231	0xc030e2b7	-2.7638376
232	0xbff67524	-1.9254498
233	0x3f8e0858	1.1096296
234	0xc03a857b	-2.914397
235	0x405ae2c7	3.4200914
236	0xbfa87dfa	-1.3163445
237	0x3fa2c553	1.2716469
238	0xc113f35c	-9.246914
239	0x3f87fd18	1.0624113
240	0xc01c24b1	-2.4397395
241	0xc05ef549	-3.483721
242	0xc21daf28	-39.42105
243	0xbf8e0858	-1.1096296
244	0x3faae514	1.3351159
245	0xc04a42f8	-3.1603374
246	0x40040e1b	2.063361
247	0xbf94a386	-1.1612403
248	0xbf8b8d3b	-1.0902475
249	0x3f843cbc	1.0331035
250	0x3fcb8cc6	1.5902336
251	0xbf909a73	-1.1297134
252	0xc03efae7	-2.9840639
253	0xbfc67e25	-1.5507246
254	0x4069d58b	3.6536586
255	0xbf96fac2	-1.1795275

test_data f4 [150, 1]
0	0xc0227eb3	-2.538983
1	0x3f96fac2	1.1795275
2	0x3f9d6ce0	1.2298851
3	0x3fbdd876	1.4831684
4	0x3fbe99b4	1.4890656
5	0x400af1e7	2.1710145
6	0xc199a41a	-19.205128
7	0x404891ac	3.133891
8	0x3faf44cc	1.369287
9	0xbf83df9b	-1.0302614
10	0x40532bfb	3.2995594
11	0x3f886023	1.0654339
12	0xbfffa89e	-1.9973333
13	0x3ff2b6c4	1.8962026
14	0xc01a2293	-2.4083602
15	0xbfdc6539	-1.7218391
16	0xc0b435e5	-5.631579
17	0xc0d41b30	-6.628319
18	0x408dd28e	4.4319525
19	0x40876995	4.2316384
20	0x40a79bc0	5.2377625
21	0xc0408399	-3.008032
22	0x4199a41a	19.205128
23	0x40216693	2.5218856
24	0x42667627	57.615383
25	0x40ccdace	6.4017096
26	0x3f9ce8f5	1.2258593
27	0x3fa6bbe2	1.3026087
28	0x3f81bb69	1.0135318
29	0x3fa4722b	1.2847341
30	0xbf99e33c	-1.2022471
31	0x3f9774e1	1.1832544
32	0xbfb33333	-1.4
33	0x403efae7	2.9840639
34	0x4010d25e	2.2628398
35	0x3f86767c	1.0504909
36	0xc05ce73a	-3.451613
37	0x3f9c65e6	1.2218597
38	0x3fac1f41	1.3447038
39	0x3f902b1e	1.1263158
40	0xbfb53b86	-1.415879
41	0x3f800000	1.0
42	0xbfa2c553	-1.2716469
43	0xbfac1f41	-1.3447038
44	0xc0064646	-2.0980392
45	0xc00083c6	-2.0080428
46	0x3fa59500	1.2936096
47	0x401737b9	2.362776
48	0x3f9efde1	1.2421228
49	0x3fd3a352	1.6534216
50	0xbf9efde1	-1.2421228
51	0x42a671c7	83.22222
52	0x4045447a	3.0823045
53	0x40c96969	6.2941175
54	0xbf9ae1cf	-1.2100161
55	0x42303c3c	44.058823
56	0xbf9e7753	-1.2380165
57	0x3f8927eb	1.0715307
58	0xbfb97067	-1.4487427
59	0x408a8b19	4.3294797
60	0xbff2b6c4	-1.8962026
61	0xbfcd4b1a	-1.6038544
62	0xbf86767c	-1.0504909
63	0xc20242c8	-32.565216
64	0x4315cccd	149.8
65	0xbfa59500	-1.2936096
66	0x3fc2776f	1.5192698
67	0x3fd86a54	1.6907449
68	0xc12dae60	-10.855072
69	0xbfd49395	-1.6607538
70	0x3ffba1ef	1.9658793
71	0xc029629a	-2.6466432
72	0xbfc2776f	-1.5192698
73	0x41ce9ee6	25.827587
74	0x404dbbe1	3.2145922
75	0xc01b21f8	-2.4239483
76	0xbfc40ea9	-1.5316974
77	0x41b59365	22.69697
78	0xc0ed4e93	-7.4158416
79	0xc09aa1dc	-4.832258
80	0xc0b18a6e	-5.548148
81	0xc0dbe3d1	-6.8715596
82	0xc09ca752	-4.895425
83	0x40b6f63b	5.7175574
84	0x3f9be3b2	1.2178862
85	0x41749249	15.285714
86	0xbff17dbe	-1.8866498
87	0x400586c6	2.086351
88	0x406c234f	3.689655
89	0x3fba28c3	1.454369
90	0xbfb3df57	-1.4052533
91	0x40e8b2f4	7.271845
92	0xc0532bfb	-3.2995594
93	0x3fcff71d	1.6247288
94	0x3fcf1124	1.6177106
95	0xbff904a8	-1.9454546
96	0x3f99652c	1.1984
97	0xbfd3a352	-1.6534216
98	0xbf97efc6	-1.1870048
99	0x403bfbfc	2.937255
100	0x411062b3	9.0240965
101	0xbfacbe0a	-1.3495495
102	0x40bcb973	5.897638
103	0x40c61528	6.1900826
104	0xc0a0dbeb	-5.0268455
105	0xc05153d8	-3.2707424
106	0x40095a39	2.1461318
107	0xc06e7cd1	-3.7263682
108	0x4030e2b7	2.7638376
109	0xc0802bcf	-4.0053477
110	0x3f917b25	1.1365706
111	0xbf849a61	-1.0359613
112	0x3fb53b86	1.415879
113	0x3fd67a8f	1.6756152
114	0xbfc7516e	-1.5571725
115	0x40205232	2.5050168
116	0x3ff3f2f9	1.9058524
117	0xc05ae2c7	-3.4200914
118	0x3fbd18be	1.4773176
119	0xbff047dc	-1.877193
120	0x3fadff12	1.3593466
121	0xc0ac6e81	-5.3884892
122	0x40f717c1	7.7216496
123	0x3feb8ec8	1.8402948
124	0x408c29eb	4.380117
125	0xc0655bde	-3.5837321
126	0x408f855e	4.48503
127	0x3fb1dec1	1.3896104
128	0xbfe5e8ac	-1.7961631
129	0x3fe2a5d3	1.7706856
130	0x4113f35c	9.246914
131	0xc0c96969	-6.2941175
132	0x40dbe3d1	6.8715596
133	0x3fa9af59	1.3256637
134	0xbfe4cfbc	-1.7875896
135	0xc0aef2eb	-5.467153
136	0x3f8f4e72	1.1195815
137	0xbf986b72	-1.190779
138	0xc0f219dc	-7.5656567
139	0xc0192671	-2.3929713
140	0xc128c9ea	-10.549295
141	0xc011b3bf	-2.2765958
142	0xbf9774e1	-1.1832544
143	0xc0735478	-3.8020306
144	0x3fa3e23e	1.2803419
145	0xbf8b2587	-1.0870827
146	0x3f9a621d	1.2061192
147	0x3fad5dfa	1.3544304
148	0x411fc963	9.986667
149	0x3fcc6afc	1.5970149

0.weight f4 [100, 1]
0	0xc0a9d30d	-5.307013
1	0xbd97387c	-0.073838204
2	0xc0f91158	-7.783367
3	0x40d1684d	6.543982
4	0x408498d3	4.1436553
5	0x4105d8b8	8.36541
6	0xc15f0aa1	-13.940095
7	0xc0f03100	-7.5059814
8	0xc111f5a9	-9.122476
9	0x40d49d4b	6.644201
10	0x40f229b2	7.5675898
11	0x40a00c43	5.001497
12	0x40503e95	3.2538197
13	0xc0dee20a	-6.9650927
14	0xbf0ceb32	-0.5504638
15	0x3ec58ecc	0.38585508
16	0xbea4ad10	-0.32163286
17	0xc13bbf45	-11.734197
18	0x409add5b	4.839521
19	0xc131384d	-11.076245
20	0x4193710a	18.430195
21	0x410166fb	8.087642
22	0xc0ea303e	-7.318389
23	0x3f597aaf	0.84952825
24	0xc11cd157	-9.801108
25	0x3fb2cc22	1.3968546
26	0x410494d6	8.286337
27	0x3f4a65a8	0.79061365
28	0x4105b9e1	8.357881
29	0x410e5736	8.896292
30	0x413eeb6d	11.932477
31	0x3e55b6b8	0.20870483
32	0x4021d3ea	2.5285592
33	0x3eabdce8	0.33566976
34	0xbc965980	-0.018353224
35	0xc0f00c59	-7.5015073
36	0xc116c1b3	-9.42229
37	0x3d541ce0	0.05178535
38	0x3f93fa9e	1.1560857
39	0x40c12b57	6.0365405
40	0x41aa2d14	21.27201
41	0xc1683b79	-14.51452
42	0xc0fbe682	-7.871888
43	0xc1572dfe	-13.448729
44	0xc175811b	-15.34402
45	0x416c86be	14.782896
46	0x3fcc9581	1.5983125
47	0x40881a60	4.2532196
48	0x40713f00	3.7694702
49	0xbef4d800	-0.47821045
50	0x417c51dd	15.769986
51	0x405578a1	3.3354876
52	0xc0b6e164	-5.7150135
53	0xc18c6b84	-17.552498
54	0xc0c56e8a	-6.1697435
55	0xc0263e17	-2.5975397
56	0x40f3af2d	7.615134
57	0xbed81c04	-0.42208874
58	0x4130cdfb	11.050288
59	0x40423ecc	3.0350828
60	0xc11a6af6	-9.6511135
61	0xc0530745	-3.2973187
62	0xbf1a6330	-0.603076
63	0x3e772b08	0.24137509
64	0x40c4a32c	6.1449184
65	0xc0f35f0a	-7.6053514
66	0xbe88e380	-0.2673607
67	0x40fa2df4	7.8181095
68	0xc1189877	-9.537223
69	0xbf291c94	-0.6605923
70	0xbe8f037c	-0.27932346
71	0xc1279e83	-10.476199
72	0x3f2c21ac	0.6723888
73	0xc06a0a6d	-3.6568863
74	0x4024c3cb	2.5744503
75	0x3d8b8e50	0.06814253
76	0x41837e45	16.436655
77	0xc0954b3e	-4.665435
78	0x41870be9	16.880816
79	0x411cb9b1	9.795335
80	0xc0ea34bf	-7.3189387
81	0x4048990a	3.1343408
82	0xbd92a8d0	-0.07161105
83	0xc0b410ce	-5.6270514
84	0x4069c09c	3.652381
85	0x3ea47568	0.32120824
86	0x40a77072	5.232476
87	0x4157a276	13.477163
88	0x417b86db	15.720424
89	0xc0ec42d6	-7.3831587
90	0xbfcaaf14	-1.583468
91	0xc0a949d2	-5.2902613
92	0x414e4d7e	12.893919
93	0x3fe68fac	1.8012595
94	0xbddee420	-0.10883355
95	0x419a80a2	19.312809
96	0xc0f87cd3	-7.7652373
97	0xc113d867	-9.240333
98	0xbeea8044	-0.45800984
99	0xbd2c58e0	-0.042076945

0.bias f4 [100]
0	0xbdea8edb	-0.11453029
1	0x3b5532ce	0.0032531503
2	0xbf80061d	-1.0001866
3	0xbe9de368	-0.3083756
4	0xbe492147	-0.196416
5	0xbecbb4bb	-0.39786324
6	0x3f1d3a30	0.6141691
7	0x3ea95113	0.33069667
8	0x3ecdc7d7	0.40191528
9	0x3de71ffc	0.112853974
10	0x3e039f77	0.128538
11	0xbe736561	-0.23769142
12	0x3d625fe0	0.055267215
13	0xbe219737	-0.1578034
14	0x3cc6acad	0.02425226
15	0xbf3171e2	-0.69314396
16	0xbf6ff602	-0.93734753
17	0x3f0458fa	0.5169827
18	0x3da858d3	0.08220067
19	0xbff88a19	-1.9417144
20	0x3ea04735	0.31304327
21	0xbec48efc	-0.38390338
22	0x3ea515bd	0.32243147
23	0xbd2580ad	-0.040405918
24	0x3edd16c8	0.43181443
25	0x3cc25d27	0.02372606
26	0xbec7ce11	-0.39024404
27	0xbf66cb0e	-0.90153587
28	0xbff5f7df	-1.9216269
29	0x3e1abbb4	0.15110666
30	0x3e4f8a9e	0.20267722
31	0xbf571936	-0.84022844
32	0x3d2fea8a	0.042948283
33	0xbf4a291a	-0.78968966
34	0xbe10aef8	-0.14129245
35	0x3ea93730	0.33049917
36	0xbe5f59b1	-0.21811558
37	0xbf0daaf8	-0.55339
38	0xbd5fa7d1	-0.0546034
39	0xbe92dab5	-0.28682485
40	0x3eb8fdee	0.36131233
41	0x3f23b4bb	0.6394765
42	0xbe2f39e6	-0.1711193
43	0x3f17af6d	0.59252053
44	0x3f2d0fd6	0.6760229
45	0x3e808f33	0.25109252
46	0x3cde6529	0.027147846
47	0xbe4f3d88	-0.20238316
48	0xbe378828	-0.17923033
49	0xbf2b50b0	-0.66919994
50	0x3e8924c6	0.26785868
51	0x3d680e84	0.05665447
52	0x3e80eabe	0.25179094
53	0x3f45f86a	0.77332175
54	0xbe04e739	-0.1297883
55	0x3dea605d	0.11444161
56	0x3e047327	0.12934552
57	0xbf32d4de	-0.6985606
58	0x3e40327e	0.18769261
59	0x3d532807	0.051551845
60	0x3ed9b47f	0.4252052
61	0xbd94c632	-0.07264365
62	0xbf537ed2	-0.8261539
63	0xbeb7f694	-0.35930312
64	0xbe94b191	-0.29041722
65	0xbe283ed0	-0.16430211
66	0xbf324b90	-0.6964655
67	0xbebd4433	-0.36966094
68	0x3ed722e1	0.42018798
69	0xbf578c0a	-0.8419806
70	0xbed60944	-0.41803944
71	0x3eec513b	0.46155724
72	0xbf6ba672	-0.9205085
73	0x3e24fb3e	0.16111466
74	0xbdf9e130	-0.12201154
75	0xbea2d1a8	-0.3180058
76	0x3e8ef0d8	0.27918124
77	0x3e527b56	0.20554861
78	0x3e92cdc1	0.28672603
79	0x3e2a5ede	0.16637751
80	0x3ea518f0	0.32245588
81	0xbe18a443	-0.14906411
82	0xbe5bdce8	-0.21470988
83	0xbe03bd1a	-0.12865105
84	0xbe31a6ae	-0.1734874
85	0xbf74e570	-0.95662594
86	0xbe7e7f84	-0.24853331
87	0x3e6a6871	0.22891404
88	0x3e88b661	0.26701644
89	0xbe1dce39	-0.15410699
90	0x3d8ee082	0.06976415
91	0x3e6eabd9	0.23307742
92	0x3e604368	0.21900713
93	0xbdaf6988	-0.0856505
94	0xbf5292fe	-0.8225554
95	0x3ea7f3fb	0.3280333
96	0x3eaf2a2c	0.34211862
97	0xbe52dc91	-0.20591952
98	0xbf136f80	-0.5759201
99	0xbec6c000	-0.3881836

2.weight f4 [1, 100]
0	0x407c7d86	3.9451613
1	0xbc04f05c	-0.008113947
2	0xc0c0052f	-6.000633
3	0xc0ac4b69	-5.3842053
4	0xc05a4a60	-3.4107895
5	0xc0dc2ef6	-6.8807325
6	0xbfc41387	-1.5318459
7	0xbf532726	-0.8248161
8	0xbf80502a	-1.0024464
9	0x3f3336a3	0.70005244
10	0x3f4c1ea6	0.79734266
11	0xc0839f95	-4.11323
12	0x3eaf87a9	0.34283188
13	0x40a762dd	5.2308183
14	0xbd77c3b5	-0.060489375
15	0xbba0ee60	-0.004911229
16	0xbd292820	-0.04129803
17	0xbfa50c86	-1.2894447
18	0x3f028946	0.5099071
19	0xc107c689	-8.4859705
20	0x3ff88efa	1.9418633
21	0xc0d4ed92	-6.6540003
22	0xbf4de014	-0.8042004
23	0xbf326659	-0.6968742
24	0xbf89dbc4	-1.0770192
25	0x3e16b57c	0.14717668
26	0xc0da3824	-6.819353
27	0xbcbd4f20	-0.023109019
28	0x40e4ae10	7.146248
29	0x3f6ff56d	0.93733865
30	0x3fa0ed34	1.2572389
31	0xbd08251a	-0.033238508
32	0x3e8867c5	0.2664167
33	0x3daac23f	0.08337831
34	0xbd1075f6	-0.035268746
35	0xbf5306e9	-0.8243242
36	0x40e25386	7.0726957
37	0xbd50a440	-0.05093789
38	0xbf751fa1	-0.95751387
39	0xc09dd372	-4.932061
40	0x400f7122	2.24128
41	0xbfcc27e0	-1.5949669
42	0x40bd3626	5.91286
43	0xbfbd2a2b	-1.4778494
44	0xbfd7d2c8	-1.68612
45	0x3fc75e84	1.5575719
46	0x3e2c71c6	0.16840276
47	0xc05d3887	-3.4565752
48	0xc042bd46	-3.0428023
49	0xbda62253	-0.081120156
50	0x3fd4ae61	1.6615716
51	0x3eb3ef7e	0.35143656
52	0xbf20c53d	-0.6280096
53	0xbff6e2e6	-1.9287994
54	0x40933512	4.6002283
55	0xbe9224d6	-0.2854373
56	0x3f4d66ea	0.8023516
57	0x3c4e9e30	0.012610957
58	0x3f950761	1.1642877
59	0x3ea3bacb	0.3197845
60	0xbf87bfac	-1.0605369
61	0x401dc5b3	2.4651916
62	0xbd94c5bd	-0.07264278
63	0x3dbde3d3	0.0927197
64	0xc0a1ad2f	-5.0523906
65	0x40b65a3e	5.698516
66	0xbd844ac8	-0.06459576
67	0xc0cda8d6	-6.42686
68	0xbf8625a0	-1.0480232
69	0xbd3debda	-0.046367504
70	0x3d78d492	0.060749598
71	0xbf935aad	-1.1512047
72	0xbd74404a	-0.059631623
73	0xbecdbf01	-0.40184787
74	0xc007257b	-2.1116626
75	0x3d22ff76	0.039794408
76	0x3fddac16	1.7318141
77	0xbf033e92	-0.5126735
78	0x3fe3a987	1.7786111
79	0x3f841ab6	1.0320652
80	0xbf4de41d	-0.804262
81	0xc0242aa3	-2.5651023
82	0xbc86f808	-0.016475692
83	0x4085ae53	4.17753
84	0xc040c16e	-3.011806
85	0xbd67bd53	-0.056577038
86	0xc088d48b	-4.275945
87	0x3fb5c260	1.4199944
88	0x3fd4033c	1.6563487
89	0x40b10bb4	5.5326786
90	0xbe322e10	-0.17400384
91	0xbf14d26e	-0.5813359
92	0x3fade4ac	1.358541
93	0xbfbdf59f	-1.4840583
94	0x3c9a5f18	0.018844172
95	0x40023b17	2.0348566
96	0xbf5a7218	-0.85330343
97	0x40de13a8	6.9398994
98	0x3d1e6ca2	0.03867782
99	0x3d3bf2ca	0.04588584
