complete/tan/state3.pt (torch, 10937 bytes, 9 tensors)

weight f4 [100, 1]
000000 de c0 2c 3f f6 51 56 3e 88 4e 6f bf ac 1e 6c 3f
       0.6748179 0.20929703 -0.93479204 0.922343
000010 fe 8e 4d bf b8 2c 5d be 22 ee 35 3f 99 61 45 3f
       -0.80296314 -0.2159909 0.71066487 0.7710205
000020 c1 11 db be 8d 1b 98 be 15 98 f3 be 3c d3 03 bf
       -0.42786983 -0.2970852 -0.47576967 -0.51494193
000030 a4 59 1f 3f e3 29 61 3f 4d 3e 86 3e 1a 52 c7 3e
       0.62246156 0.8795454 0.26219407 0.38929826
000040 96 cf 0a bf 9e 04 1b be 98 25 55 be cb 50 64 bf
       -0.54223 -0.1513848 -0.20815122 -0.8918578
000050 9b ef 43 bf 74 6c 86 3e d3 ec 3e bf f0 fa 61 be
       -0.76537484 0.26254618 -0.74580115 -0.22068381
000060 6c d5 3d 3f 95 04 36 3e 16 a1 ba 3e e2 0c 4f bf
       0.7415378 0.17775185 0.36451024 -0.8087903
000070 66 31 7b 3f 9e e2 12 3f 48 ea 8d be 72 bd 49 3f
       0.9812225 0.5737704 -0.27717805 0.78804696
000080 64 f9 29 bf 7d bd da 3e f4 e4 6f bf 42 e1 72 bf
       -0.66396165 0.42722693 -0.9370873 -0.94874966
000090 c0 ee 4d 3d fa 10 22 3f 9e fe 3c be 04 b8 8a 3e
       0.050276518 0.63307154 -0.18456504 0.27093518
0000a0 19 b9 51 bf 3f 56 ef be 63 8b a8 bd 9d 8c 4e 3f
       -0.8192306 -0.46745488 -0.08229711 0.8068331
0000b0 5b bd 0a 3f 60 8f 65 bd 73 4b 8d be ef b0 10 3f
       0.54195184 -0.056044936 -0.27596626 0.5651998
0000c0 66 65 38 3f fa 17 1b bf 78 68 1e 3f 90 5e e1 be
       0.7202972 -0.6058346 0.61878157 -0.44017458
0000d0 36 aa 15 bf a0 79 06 be 4a d3 66 bf 71 a5 52 bf
       -0.58462846 -0.13132334 -0.9016615 -0.82283694
0000e0 49 30 6b 3f 24 80 75 3f 08 96 ef 3e 44 f8 d0 bd
       0.9187055 0.9589865 0.46794152 -0.10203603
0000f0 a0 dc 23 bf bf 74 d6 bd d6 f7 10 bf 0a a5 9d 3e
       -0.6400852 -0.10471486 -0.5662817 0.30789977
000100 88 9b ee 3e 50 ad 2c be a7 5b 64 3f db 55 70 bf
       0.46603036 -0.16862988 0.8920235 -0.93881005
000110 d8 ab 4e 3f 72 c4 3d bf ed f5 3f bf d6 65 43 3e
       0.8073096 -0.74127877 -0.7498463 0.19081816
000120 7d f8 62 bf 31 d3 aa be 4a 9b db bc b4 32 3c 3f
       -0.88660413 -0.3336425 -0.026807446 0.73514867
000130 95 fb 39 3f 68 9c e8 3e ef bd 50 bf e0 af bc bd
       0.7264951 0.45431828 -0.81539816 -0.09213233
000140 92 12 8b 3e bb 15 a1 3e 02 85 16 bf 4d d3 71 bf
       0.27162606 0.31461892 -0.58796704 -0.94463044
000150 d4 2c 2f 3f 35 14 b3 3d da ba 63 bf b7 83 39 3f
       0.6842778 0.087440886 -0.8895699 0.72466606
000160 ce ab 34 bf ae a4 10 bf 00 ac 38 bb 8c e6 d3 be
       -0.70574653 -0.5650128 -0.0028178692 -0.4138683
000170 9c 57 38 3e 49 ce e4 3e 1d 73 34 bf e7 ab f5 3e
       0.1800217 0.44688633 -0.7048815 0.47982714
000180 55 e0 ff 3e eb 13 6e bf 00 80 59 3d b1 9c 24 3f
       0.4997584 -0.9299914 0.053100586 0.6430159

bias f4 [100]
000000 ee 12 76 bd d1 8b c6 3e e2 ae 5f 3f dc d4 62 be
       -0.060076647 0.38778546 0.87376225 -0.22151512
000010 2a 92 7f bf e8 ce 6f be 2c 5b 27 3f a7 3d 63 3f
       -0.99832404 -0.23418772 0.6537349 0.8876595
000020 ed 96 67 3f 91 bd f5 3e 67 76 f3 be 8a 5f 50 bf
       0.9046467 0.4799619 -0.4755127 -0.8139578
000030 0e a8 d9 bd 78 b3 f1 3e b0 41 8e 3e 96 52 0c 3f
       -0.10627757 0.47207236 0.2778449 0.54813516
000040 aa 64 2e bf 68 16 cc 3a 9c 6a c6 be 3b 79 e8 be
       -0.6812235 0.0015570642 -0.38753211 -0.45404992
000050 da e6 a4 be 2c 52 02 bf 66 01 7a 3e 68 50 8b 3e
       -0.32207376 -0.50906634 0.24414596 0.27209783
000060 0b cc c4 3e c8 6f 98 bd 65 3c 9f be b7 7c 2a 3c
       0.38436922 -0.074431956 -0.31100765 0.010405711
000070 20 2c 2b 3f a0 40 c4 bd 7e c9 49 bf e1 d9 ba 3d
       0.66864204 -0.09582639 -0.7882308 0.09123588
000080 a1 c6 27 bf df 52 ba 3e ee a5 5b 3f 06 3b 1c bf
       -0.6553746 0.3639135 0.85800064 -0.6102756
000090 be 2f 54 bf 56 49 5a bf 7c 4b 00 3f 20 2d 8d be
       -0.8288535 -0.8526815 0.5011518 -0.2757349
0000a0 22 0a 1d be de 93 16 3e e0 34 b2 3b 29 99 07 3f
       -0.15335897 0.14704844 0.005438432 0.5296808
0000b0 f8 ac 07 bf c6 e3 2b bf 29 ef 2b 3f a9 d7 00 be
       -0.52998304 -0.6714443 0.67161804 -0.12582268
0000c0 0f 56 a6 be a2 c2 6a bf b8 91 b6 be 1c a0 3d bf
       -0.32487532 -0.91703236 -0.3565805 -0.7407243
0000d0 ce 6c 2d bf c2 91 42 bf dd 01 27 bd 24 8a 89 be
       -0.6774415 -0.7600366 -0.04077326 -0.26863205
0000e0 b8 57 88 be 17 70 26 3e d0 fd 18 3f 79 ad 6f 3f
       -0.26629424 0.16253696 0.5976229 0.93624073
0000f0 e0 8e de 3d 18 46 b2 bc 31 24 0e 3f ee cc 03 3f
       0.10867095 -0.021761939 0.55523974 0.5148457
000100 24 05 f7 be ba be 01 bf 1c 44 46 3e 76 a6 2a bf
       -0.4824611 -0.5068165 0.19361919 -0.6666025
000110 5b 80 5f 3f 9a ff 61 3f fe d3 2e bf 6a b2 00 be
       0.8730523 0.8828064 -0.68292224 -0.1256806
000120 8b dd 66 3f 78 c9 37 3e 9e be 79 3e 46 57 43 bf
       0.901818 0.17947948 0.24389121 -0.76305044
000130 67 fc 31 bf 16 76 58 bf d4 c2 4f 3d 98 56 af be
       -0.6952576 -0.84555185 0.050722912 -0.34245753
000140 a8 73 87 3e 1d db b3 3e bc dc 90 3c b6 a1 1b bf
       0.26455426 0.35128108 0.01768338 -0.60793626
000150 c6 07 7e bf 8f 77 7c 3e 88 48 3b be 45 87 1a 3f
       -0.9923061 0.24654983 -0.18289387 0.60362655
000160 bc b0 57 bf 36 c3 47 3f e8 d5 1d be 0f e4 0d 3f
       -0.8425405 0.78032243 -0.1541363 0.55426115
000170 e2 10 06 3f 34 43 31 3e fe d0 0a be bd 54 9b 3e
       0.5236951 0.17310792 -0.13556287 0.30338088
000180 64 f1 bc 3e ef da 8c 3e 56 74 2c bf c7 d0 47 be
       0.36902916 0.27510783 -0.67365015 -0.19513236

weight f4 [1, 100]
000000 19 99 d8 39 09 f9 2e bd 0c 5c 9f 3d cc d9 b8 bd
       0.00041312797 -0.042717967 0.077812284 -0.090259165
000010 58 33 9d bd 66 7c 04 3d 54 62 37 bd 8e f7 01 3d
       -0.07675809 0.032345198 -0.044771507 0.031730227
000020 35 4c c9 3d 65 67 11 3d 6a b0 09 bd 71 1b c4 3d
       0.098289885 0.035498995 -0.033615507 0.095755465
000030 22 40 a4 bd 00 78 97 bd 80 d6 17 3d 78 be dc bd
       -0.08020045 -0.07395935 0.037069798 -0.107785165
000040 a2 49 81 bd 30 50 f2 bc e0 b5 07 bd c0 32 5b bd
       -0.063128725 -0.029579252 -0.033132434 -0.053515196
000050 ef a7 9a bd aa 53 72 bd 70 f3 5f 3d 56 71 c3 3d
       -0.07551562 -0.05916182 0.05467552 0.095431015
000060 72 4d e8 bc 10 4f 76 bc 75 42 83 3d be a1 6a 3c
       -0.028357241 -0.015033498 0.0640916 0.014320789
000070 cb 4e 6d bc 62 87 5d 3c 88 f0 ae 3c 36 db 0c 3c
       -0.014484118 0.013521047 0.021354929 0.008597186
000080 13 7e f4 3c 43 35 89 bd 3e 6b 05 3e 22 a0 31 3c
       0.029845273 -0.06699612 0.13029191 0.010841401
000090 22 f8 8f bd a8 80 ea bc 1d 93 48 3c 8d 93 28 bd
       -0.070297495 -0.028625801 0.012242106 -0.04115634
0000a0 bf e7 6d bd 24 95 33 bd d9 a6 a4 3c 1d 79 55 bd
       -0.05808234 -0.043843403 0.02009909 -0.052117456
0000b0 7b 85 07 3c ec 76 91 3c c4 90 37 bc 16 30 85 3d
       0.00827157 0.017756902 -0.011203948 0.06503312
0000c0 6e c8 20 bd cb b1 ac bd 10 17 84 ba a6 6d 0d 3d
       -0.039253645 -0.08432349 -0.0010077674 0.034528397
0000d0 95 d2 a3 3d 76 27 36 3d d0 68 29 bd 03 5a da 3c
       0.0799915 0.044471227 -0.041359723 0.026654249
0000e0 56 60 0d bd 04 13 b2 bd 1b cd c0 bd 37 87 85 3c
       -0.0345157 -0.08695033 -0.09414121 0.016299827
0000f0 ff d9 70 3c 24 ba 92 3d de 69 9e b9 f4 88 84 bd
       0.014700412 0.0716441 -0.00030214986 -0.06471434
000100 0d da 26 bd 28 32 5c bc e8 a0 d6 bd 16 b6 7f 3d
       -0.040735293 -0.013439693 -0.10479909 0.06242951
000110 33 73 d2 bc e3 63 1e 3d ab ec 7d 3d 83 b7 3a 3d
       -0.025689697 0.03866948 0.061993282 0.045585167
000120 f2 4c 8b 3d 71 ec 63 3d 02 05 a7 3d 18 9c 27 bc
       0.068017855 0.05564541 0.08155252 -0.010230087
000130 0e e6 aa 3d 2a 9f 67 bd 00 ca fe bc 5a a6 37 bd
       0.08344661 -0.056548275 -0.03110218 -0.04483638
000140 e0 7f 5e 3c a2 d6 89 3d b0 d7 94 3d 34 b3 ff bd
       0.013580292 0.06730391 0.072677016 -0.12485352
000150 e0 7e 9a bb 0e 0a 75 3d 31 6e 02 bd e0 ff 19 3d
       -0.0047148317 0.059824042 -0.031843368 0.037597537
000160 55 9c b4 3d bf f0 d6 3d d3 ec 97 bd cd 52 83 3c
       0.088188805 0.104951374 -0.074182175 0.016030693
000170 88 58 7f bd ec 44 e0 bd 92 b8 6c ba f3 4f 3f bd
       -0.06234029 -0.10950646 -0.00090301887 -0.046707105
000180 d1 dc d9 bb 18 42 dd 3d ca d5 1d bd 10 da 29 3d
       -0.006648638 0.10803622 -0.038533963 0.041467726

train_data f4 [600, 1]
000000 3d e1 01 3e 9c 18 18 3f 22 71 69 3f 88 df fa be
       0.12683578 0.5941255 0.9118825 -0.48998666
000010 c8 ce cf 3c 1a 1f 19 bc 9a 76 19 bf d5 9a c7 3d
       0.025367156 -0.009345794 -0.59946597 0.09746329
000020 e9 ee b9 bc df c4 40 3e 9a 91 ee 3e 0b 60 a3 3e
       -0.022696929 0.188251 0.4659546 0.31909212
000030 a9 35 0f 3f 96 32 1c 3f 8e aa 21 3f 2a de 8e 3e
       0.55941254 0.6101469 0.6315087 0.27903873
000040 27 06 66 3f 27 06 66 bf b3 29 de 3e 1e 2d 6c bf
       0.8985314 -0.8985314 0.4339119 -0.92256343
000050 fe 42 ac bd 91 9d 1f bf 36 aa 86 3e 5d cb 41 bf
       -0.08411215 -0.623498 0.26301736 -0.7570093
000060 64 02 3d bf 8d 74 77 3e a4 bb e7 be eb 90 38 3e
       -0.7383177 0.24165554 -0.45260346 0.18024032
000070 12 b2 73 bf 26 b5 66 3f c0 46 55 bd 98 d4 1a bf
       -0.9519359 0.9012016 -0.052069426 -0.6048064
000080 a0 5c 15 bf 3a 09 59 3f 19 98 6f bf 24 f8 92 be
       -0.5834446 0.84779704 -0.9359146 -0.2870494
000090 1e 63 96 3d fa fe ae ba 07 1c a6 3e a9 ff e4 3e
       0.07343124 -0.0013351135 0.32443258 0.44726303
0000a0 9f 0b 16 3f 3f 4d 56 bf a6 42 11 bf 1f 7e 6b 3f
       0.5861148 -0.8371162 -0.5674232 0.9198932
0000b0 0c b1 22 be 0b 7b 78 bf 25 64 67 bf af 1b 0b bf
       -0.1588785 -0.9706275 -0.90387183 -0.54339117
0000c0 57 e5 45 bf 87 8e fb 3c 6c 39 38 3f 6a 97 39 3f
       -0.7730307 0.03070761 0.7196262 0.72496665
0000d0 b0 36 60 bd 4f 5d 4b bf 39 b8 59 bf 31 15 0a 3e
       -0.054739654 -0.7943925 -0.85046726 0.13484646
0000e0 c0 2b 00 bf bc e7 02 3f 5b 29 43 bf 9b c7 18 3f
       -0.5006676 0.5113485 -0.7623498 0.59679574
0000f0 b1 bd 09 bf 1e 63 96 bd d4 49 c8 3e 37 fb 85 bd
       -0.5380507 -0.07343124 0.39118826 -0.06542056
000100 b9 0f da 3e 70 7d 35 3f 00 00 80 3f 20 cf 6a bf
       0.4259012 0.7089453 1.0 -0.917223
000110 a6 42 11 3f ab a1 e3 be 03 f3 7d 3f 26 9a 91 be
       0.5674232 -0.4445928 0.9919893 -0.28437918
000120 51 ff 49 3f da 2f c4 be 28 3c 90 3e 8d 74 77 be
       0.78905207 -0.38317758 0.28170896 -0.24165554
000130 81 a8 7f 3e a0 77 ea 3e a2 19 e9 be 8a 81 f9 be
       0.24966623 0.45794392 -0.4552737 -0.48731643
000140 1c c1 17 be de 73 c1 be 0c cc 77 bf f6 0b b1 be
       -0.14819759 -0.37783712 -0.96795726 -0.34579438
000150 74 c1 32 bf e6 fb bb 3e 18 47 70 bf 93 3f 1e bf
       -0.69826436 0.3671562 -0.9385848 -0.61815757
000160 a8 e4 0f 3f 30 c4 8a be 37 fb 85 3d 36 c5 5b 3f
       0.56208277 -0.27102804 0.06542056 0.85847795
000170 fe 42 ac 3d 63 b1 3d 3f 33 b7 08 3d 56 94 46 3f
       0.08411215 0.74098796 0.033377837 0.7757009
000180 12 97 1e bd 8b 08 23 bf 00 e5 2a 3e 2b 4a 63 3f
       -0.03871829 -0.6368491 0.16688919 0.88785046
000190 15 54 72 3f fb 4f ae 3e 61 0f 3f 3f e3 08 3e 3e
       0.9465955 0.34045395 0.7463284 0.18558078
0001a0 db 80 43 be aa 86 0e 3f 20 05 15 be bf da 00 3f
       -0.19092123 0.5567423 -0.14552736 0.5033378
0001b0 55 43 47 3f 16 a5 71 bf 1a 1f 19 3c bb b1 d8 be
       0.77837116 -0.94392526 0.009345794 -0.42323098
0001c0 83 80 28 bf b7 52 06 bf 2a de 8e be 79 56 2f bf
       -0.65821093 -0.5246996 -0.27903873 -0.6849132
0001d0 9a 76 19 3f 32 81 5e 3f bb 96 03 bf 2e 22 8c 3e
       0.59946597 0.86915886 -0.5140187 0.27369827
0001e0 76 63 31 bf 24 13 68 3f d5 9a c7 bd 0d 02 a2 be
       -0.6929239 0.90654206 -0.09746329 -0.3164219
0001f0 cb c1 cd 3e a0 5c 15 3f 84 9b fd 3e 96 4d f1 3e
       0.40186915 0.5834446 0.49532712 0.47129506
000200 bd 38 02 bf 04 44 7d bf 9d 69 17 3f 3b 5a 58 3f
       -0.50867826 -0.9893191 0.5914553 0.8451268
000210 ae 94 61 3e ff 93 ab 3e 0f a4 a0 3e 7c 49 2d 3f
       0.22029373 0.3351135 0.31375167 0.67690253
000220 94 90 1d bf fc a0 2d 3e 7d 9a 2c 3f 67 a4 3b bf
       -0.61548734 0.16955942 0.6742323 -0.73297733
000230 b5 cb dc be 40 9e 55 3f 34 08 88 3e f3 18 33 be
       -0.43124166 0.83444595 0.26568758 -0.17489986
000240 17 2c 9b be ba 60 59 be 02 87 29 3d b8 a3 05 3f
       -0.30307075 -0.21228305 0.04138852 0.5220294
000250 cd 63 cc 3e a4 a0 12 3f b7 52 06 3f 09 d9 79 3f
       0.39919892 0.5727637 0.5246996 0.97596794
000260 24 f8 92 3e cc 12 cd 3d 07 37 7b bf b3 5f 08 3f
       0.2870494 0.10013351 -0.9813084 0.53271025
000270 45 33 52 3f 83 80 28 3f 99 25 1a 3f 11 61 74 bf
       0.8210948 0.65821093 0.6021362 -0.9546061
000280 df c4 40 be 95 e1 1c 3f dd 22 c2 3d 92 ee 1e 3f
       -0.188251 0.6128171 0.09479306 0.6208278
000290 ab d7 0d 3f bc e7 02 bf 2d ec 61 bf 9d 69 17 bf
       0.5540721 -0.5113485 -0.88251 -0.5914553
0002a0 c1 97 d4 be b8 a3 05 bf 46 84 51 3f 25 64 67 3f
       -0.4152203 -0.5220294 0.8184246 0.90387183
0002b0 bb 96 03 3f 38 67 5a bf b9 0f da be 31 30 5f bf
       0.5140187 -0.8531375 -0.4259012 -0.8718291
0002c0 1a e9 6e 3f 81 de 29 bf e2 b7 be 3e 6d 8a 37 3f
       0.93324435 -0.6635514 0.37249666 0.71695596
0002d0 d0 56 4a bd 7b f8 2d 3f 8b d2 f8 3d d6 eb c6 3e
       -0.049399197 0.67957276 0.12149533 0.38851804
0002e0 08 88 7a bf f7 5c 30 3e 39 b8 59 3f 21 56 94 be
       -0.9786382 0.17222963 0.85046726 -0.2897196
0002f0 3c ab 57 bf 7e eb 2b bf 23 c2 68 bf bb b1 d8 3e
       -0.8424566 -0.6715621 -0.9092123 0.42323098
000300 30 df 5f bf ed 32 b7 bd 06 e6 7b bf 21 56 94 3e
       -0.8744993 -0.0894526 -0.9839786 0.2897196
000310 22 71 69 bf 3b 3f 83 bb 9d 84 6c 3e 0c b1 22 3e
       -0.9118825 -0.0040053404 0.23097463 0.1588785
000320 2b 2f 8e bc 3b 3f 83 3b af e5 e0 be d9 de 44 3c
       -0.017356476 0.0040053404 -0.43925235 0.012016022
000330 a3 6a e8 bd 35 59 07 be 0a 2a 79 bf f2 c7 b3 3e
       -0.11348464 -0.13217624 -0.9732977 0.35113484
000340 84 d1 27 bf 89 66 24 3f 1c 8b 6d bf 24 13 68 bf
       -0.6555407 0.64218956 -0.9279039 -0.90654206
000350 4b 19 4e 3f 14 39 1d be f5 ba b1 bd 9f 0b 16 bf
       0.80507344 -0.15353805 -0.08678237 -0.5861148
000360 2f 8e 60 3f ac f2 e2 3d c4 8a d2 bd 87 c4 25 3f
       0.87716955 0.11081442 -0.10280374 0.64753
000370 1e 2d 6c 3f e4 59 bd be b1 87 df be ab a1 e3 3e
       0.92256343 -0.36982644 -0.43658212 0.4445928
000380 19 ce 99 be 89 66 24 bf a4 bb e7 3e b7 6d db 3e
       -0.30040053 -0.64218956 0.45260346 0.42857143
000390 a5 0c 67 3e 1d 12 97 be 51 ff 49 bf ad 79 0c bf
       0.22563417 -0.29506007 -0.78905207 -0.5487316
0003a0 db 80 43 3e 1d dc 6c 3f 10 f5 1f 3e be a4 56 3e
       0.19092123 0.92523366 0.15620828 0.20961282
0003b0 52 50 49 bf a3 6a e8 3d e8 9d ba be 1a e9 6e bf
       -0.78638184 0.11348464 -0.36448598 -0.93324435
0003c0 10 10 75 bf 94 90 1d 3f 29 a8 64 3f 01 51 7f 3f
       -0.95727634 0.61548734 0.8931909 0.9973298
0003d0 9f 26 6b bd 85 22 27 3f ae ca 0b 3f 2c 80 8d 3e
       -0.05740988 0.6528705 0.5460614 0.2763685
0003e0 cc 12 cd bd 8a b7 23 3f 84 9b fd be f7 5c 30 be
       -0.10013351 0.63951933 -0.49532712 -0.17222963
0003f0 40 9e 55 bf fd f1 ac 3e 49 77 4f bf 20 cf 6a 3f
       -0.83444595 0.33778372 -0.8104139 0.917223

train_targets f4 [600, 1]
000000 8e 8b d7 3e 55 16 52 c0 c5 78 91 be 78 39 fe c1
       0.4209866 -3.282613 -0.28412452 -31.77806
000010 e8 8e a3 3d 82 97 f0 bc 1f 1a 46 40 00 dc a1 3e
       0.079862416 -0.02936912 3.0953443 0.3161316
000020 95 47 92 bd c3 ed 2b 3f b5 05 15 41 0b 6e c8 3f
       -0.071425594 0.6715967 9.313893 1.5658582
000030 c2 72 a9 c0 84 82 31 c0 2f fe 11 c0 0a c7 99 3f
       -5.2952585 -2.773591 -2.2811391 1.2013867
000040 78 f9 a8 be 78 f9 a8 3e bf e7 97 40 76 25 7e 3e
       -0.3300283 0.3300283 4.7470393 0.24818978
000050 96 88 8a be 79 98 1c 40 03 ec 8a 3f 78 f7 74 3f
       -0.27057332 2.4468062 1.0853275 0.9569011
000060 07 c2 89 3f fd ea 72 3f 5f 51 d5 c0 da bb 22 3f
       1.0762337 0.94889814 -6.666183 0.6356789
000070 c4 ce 1b 3e 84 39 a4 be 62 04 29 be e3 4c 3b 40
       0.15215594 -0.3207513 -0.16505578 2.9265678
000080 8b 84 6e 40 99 ad 04 bf 66 fe 50 3e 33 e5 a1 bf
       3.7268398 -0.5182739 0.20409545 -1.2648071
000090 65 82 70 3e 3d 71 89 bb 2d 0b d0 3f 08 60 bf 40
       0.23487242 -0.0041944073 1.625341 5.9804726
0000a0 1f c4 66 c0 cf c5 0f 3f e1 ce 94 40 74 a4 83 be
       -3.6057203 0.56161207 4.650254 -0.25711405
0000b0 9d 90 0b bf 34 85 bd 3d 17 80 9f 3e 54 4a e9 40
       -0.5451754 0.09253922 0.31152412 7.2903233
0000c0 fa 65 5d 3f fa 2f c6 3d 8f 18 9b bf 8c e6 95 bf
       0.8648373 0.096771196 -1.211687 -1.1710982
0000d0 8b da 31 be ae f9 40 3f 2a f7 01 3f 2e e1 e6 3e
       -0.17368524 0.7538098 0.5076777 0.45093673
0000e0 ec 69 ee 43 6f 4b e0 c1 3b de 6c 3f 38 ef 4b c0
       476.8275 -28.036833 0.92526597 -3.1864758
0000f0 57 35 05 41 65 82 70 be ed de 33 40 b8 78 55 be
       8.325522 -0.23487242 2.8104813 -0.20846832
000100 ce f8 86 40 88 26 a6 bf 32 31 0d a5 3c 3b 88 3e
       4.2178717 -1.2980509 -1.2246469e-16 0.26607692
000110 e1 ce 94 c0 17 fa b5 c0 b2 34 ce bc 10 22 9f bf
       -4.650254 -5.6867785 -0.025171611 -1.243227
000120 40 cc 47 bf 6e 7b 26 c0 86 6d 9c 3f fd ea 72 bf
       -0.78046036 -2.6012836 1.2220924 -0.94889814
000130 b4 76 7f 3f 9a c9 f0 40 f3 3c e2 c0 db a9 c8 c1
       0.997905 7.5246096 -7.06994 -25.082937
000140 2a 9e 00 bf 99 7d 1e c0 8c dc ce 3d 3d 37 f3 bf
       -0.5024134 -2.4764159 0.1010066 -1.9001232
000150 5c 36 b2 3f e8 57 10 40 98 0f 48 3e 75 6b 24 40
       1.3922839 2.2553654 0.19537199 2.5690587
000160 f5 fb a1 c0 e1 22 92 bf b8 78 55 3e 0c ed f3 be
       -5.0620065 -1.1416894 0.20846832 -0.4764179
000170 96 88 8a 3e 0c 76 87 bf 01 8b d7 3d eb ab 59 bf
       0.27057332 -1.05829 0.1052456 -0.8502795
000180 43 59 fa bd a1 93 0b 40 56 0a 14 3f 20 3f bc be
       -0.122240566 2.1808856 0.5782827 -0.3676691
000190 a9 6e 2d be a4 9e e9 3f c9 fc 82 bf 7b d4 28 3f
       -0.16936745 1.8251538 -1.0233394 0.6594922
0001a0 09 10 2f bf 37 9b b1 c0 01 e1 fb be 6b b9 be c2
       -0.6838384 -5.550197 -0.49195102 -95.362144
0001b0 5f ff 55 bf 14 48 36 3e 82 97 f0 3c 9d 19 82 c0
       -0.8359279 0.17800933 0.02936912 -4.0656266
0001c0 86 f6 eb 3f 2f c8 4d 41 0a c7 99 bf 2a fa c2 3f
       1.8434608 12.861373 -1.2013867 1.5232594
0001d0 1f 1a 46 c0 9a 2b df be 09 88 b5 41 33 a2 94 3f
       -3.0953443 -0.43587953 22.691423 1.1611999
0001e0 9e ac b8 3f f7 cc 9a be 00 dc a1 be 73 c5 c4 bf
       1.4427679 -0.302345 -0.3161316 -1.5372757
0001f0 d6 fa 48 40 8b 84 6e c0 12 3a 88 42 78 f1 30 41
       3.1403098 -3.7268398 68.11342 11.058952
000200 16 ae 12 42 3e 7e 09 3d a6 96 58 c0 19 6a 07 bf
       36.670006 0.03356766 -3.3841949 -0.5289627
000210 09 2e 54 3f 0a 98 e0 3f b5 34 c1 3f 09 1a ce bf
       0.82882744 1.7546399 1.509421 -1.6101695
000220 0e 97 28 40 8b eb 16 3f 23 03 d2 bf 83 7a 8e 3f
       2.6342196 0.5895316 -1.6407207 1.1131138
000230 59 d4 91 c0 6a 9c 12 bf 35 48 8d 3f 29 c4 1c bf
       -4.5571713 -0.5726992 1.1037661 -0.61236817
000240 99 cc b3 bf 07 88 49 bf e6 e6 05 3e f9 d1 66 c1
       -1.4046813 -0.78723186 0.13076362 -14.426263
000250 4b 4c 43 40 16 8a 89 c0 2f c8 4d c1 8b ea 9a bd
       3.0515316 -4.298106 -12.861373 -0.07564267
000260 33 e5 a1 3f aa 98 a6 3e ad cc 70 3d 8b 26 1b c1
       1.2648071 0.32538348 0.058788944 -9.69691
000270 ea 3a 21 bf 86 f6 eb bf 9b 90 40 c0 9b 07 13 3e
       -0.6298052 -1.8434608 -3.008826 0.1435837
000280 c3 ed 2b bf e7 f2 2c c0 c1 25 9d 3e e8 6c 20 c0
       -0.6715967 -2.7023256 0.30692866 -2.506647
000290 a5 8f ba c0 6f 4b e0 41 31 0f c6 3e a6 96 58 40
       -5.8300347 28.036833 0.38683465 3.3841949
0002a0 14 95 6a c0 f9 d1 66 41 d8 3e 24 bf 17 80 9f be
       -3.665349 14.426263 -0.6415839 -0.31152412
0002b0 09 88 b5 c1 3d 8d fe 3e ce f8 86 c0 e8 13 da 3e
       -22.691423 0.4971713 -4.2178717 0.42593312
0002c0 0c f5 59 be ca cc e2 3f 00 23 17 40 01 c6 9d bf
       -0.21284884 1.7718747 2.3615112 -1.2326051
0002d0 7b 34 20 be 9e 4b ca bf ab 80 cd 3e 01 34 2f 40
       -0.1564502 -1.5804327 0.40137228 2.737549
0002e0 f3 a5 89 3d 14 d4 19 3f 2a f7 01 bf 81 b7 a4 bf
       0.067211054 0.6008923 -0.5076777 -1.2868501
0002f0 d8 2c 0a 3f 2f 08 d6 3f ee 1f 96 3e 9d 19 82 40
       0.53974676 1.6721247 0.29321235 4.0656266
000300 7e 05 d5 3e a1 cb 93 be 2a 56 4e 3d 81 b7 a4 3f
       0.41605753 -0.28866294 0.05037514 1.2868501
000310 c5 78 91 3e 56 2c 4e bc 5b 17 63 3f 9d 90 0b 3f
       0.28412452 -0.012583813 0.8870751 0.5451754
000320 69 90 5f bd 56 2c 4e 3c 9e a2 a5 c0 f9 b1 1a 3d
       -0.05458108 0.012583813 -5.1761007 0.037767384
000330 2d b0 be be 05 bb e1 be c0 34 ac 3d a3 71 fd 3f
       -0.37243786 -0.44087997 0.08408499 1.9800304
000340 93 c2 f0 3f 0c 9d 05 c0 57 fb 6b 3e f7 cc 9a 3e
       1.8809379 -2.0877104 0.23045097 0.302345
000350 e4 d4 33 bf 14 0b 06 bf 53 27 8f be 1f c4 66 40
       -0.7024672 -0.52360654 -0.2795969 3.6057203
000360 15 00 d0 be 00 d0 b9 3e f7 5b ab be cb 0d 00 c0
       -0.40625063 0.36291504 -0.334686 -2.0008419
000370 76 25 7e be 9f ac 13 c0 2a 7c 9e c0 17 fa b5 40
       -0.24818978 -2.307411 -4.9526567 5.6867785
000380 d6 a4 b0 bf 0c 9d 05 40 5f 51 d5 40 7f 33 8c 40
       -1.3800304 2.0877104 6.666183 4.381286
000390 3b 87 5b 3f 0a 8c aa bf 40 cc 47 3f 90 62 cf 40
       0.8575322 -1.3323987 0.78046036 6.4807816
0003a0 09 10 2f 3f bc 0b 75 be ae ca 08 3f 60 13 46 3f
       0.6838384 -0.23930258 0.53434265 0.77373314
0003b0 be 46 4b 3f 2d b0 be 3e dc 22 0d c0 0c f5 59 3e
       0.7940482 0.37243786 -2.2052526 0.21284884
0003c0 da 45 0a 3e 0e 97 28 c0 dd 8d b2 be dc 71 09 bc
       0.13503209 -2.6342196 -0.34873858 -0.008388963
0003d0 4e b7 3a be 00 b6 f5 bf 8f 97 db c0 18 2e 97 3f
       -0.18233988 -1.9196167 -6.862251 1.1810942
0003e0 aa 98 a6 be ad 8a 08 c0 12 3a 88 c2 14 d4 19 bf
       -0.32538348 -2.133464 -68.11342 -0.6008923
0003f0 6a 9c 12 3f 00 0a e5 3f c2 7d 2d 3f 3c 3b 88 be
       0.5726992 1.7893677 0.67770016 -0.26607692

test_data f4 [150, 1]
000000 0c ed f3 3e 5f 17 84 3f c9 92 7f 40 f6 53 86 bf
       0.4764179 1.0319632 3.993334 -1.0494373
000010 93 99 a7 bf 35 bd 1a 40 60 19 7b 40 0d c5 76 c0
       -1.3093742 2.4177983 3.9234238 -3.855777
000020 09 2e 54 bf fc 94 50 3f 4b 4c 43 c0 e1 22 92 3f
       -0.82882744 0.8147733 -3.0515316 1.1416894
000030 8f 8f ad 3f 2e 98 c3 3e 88 26 a6 3f 87 76 67 be
       1.3559436 0.3820204 1.2980509 -0.22603808
000040 db 4a 55 40 be fa 5b 40 d5 20 9b c0 8a 68 01 40
       3.3326938 3.437179 -4.847758 2.0220056
000050 d6 4b f1 3e 90 05 81 3d ec 5f 52 bf bd d3 ab 3c
       0.4712817 0.06299889 -0.82177615 0.020974988
000060 9e 4b ca 3f 7b d4 28 bf 57 35 05 c1 0b 6e c8 bf
       1.5804327 -0.6594922 -8.325522 -1.5658582
000070 43 59 fa 3d 05 9b 43 be 19 47 dc bf 5c e6 3d c0
       0.122240566 -0.19102104 -1.7209197 -2.967185
000080 ec 69 ee c3 66 f7 b4 3e 61 04 65 3f 2d 08 77 bf
       -476.8275 0.35345 0.89459807 -0.9649685
000090 0a 7a 15 bf eb ab 59 3f ab e2 70 3f 78 a2 f1 3d
       -0.5838934 0.8502795 0.9409587 0.117985666
0000a0 ae 81 d2 be a0 a4 30 bf bc 0b 75 3e e8 78 98 3f
       -0.41114563 -0.690012 0.23930258 1.1911898
0000b0 34 85 bd bd 78 f1 30 c1 3e 7e 09 bd cf c5 0f bf
       -0.09253922 -11.058952 -0.03356766 -0.56161207
0000c0 e3 4c 3b c0 fc 2d 61 3f 79 63 15 40 d8 2c 0a bf
       -2.9265678 0.8796079 2.3341963 -0.53974676
0000d0 c2 49 36 40 8f 18 9b 3f 2d c0 ad be 2e 98 c3 be
       2.8482518 1.211687 -0.3393568 -0.3820204
0000e0 9c e4 81 3f a3 e9 68 bf e2 ed e8 3d da bb 22 bf
       1.0147891 -0.909815 0.113734975 -0.6356789
0000f0 eb d2 fa bf c0 34 ac bd 15 00 d0 3e 3b 87 5b bf
       -1.9595617 -0.08408499 0.40625063 -0.8575322
000100 b3 96 c6 bf 78 2f 43 c1 a0 0b ac 3f b3 96 c6 3f
       -1.551474 -12.199089 1.3441048 1.551474
000110 f9 5a 81 be 0c 76 87 3f 36 48 5f 3f 20 3f bc 3e
       -0.2526472 1.05829 0.8721956 0.3676691
000120 9a c9 f0 c0 01 94 72 40 c6 81 a0 3f 87 76 67 3e
       -7.5246096 3.7902834 1.2539604 0.22603808
000130 45 96 59 41 0a 8c aa 3f b3 75 98 be f9 c5 f8 c0
       13.599187 1.3323987 -0.29777297 -7.7741666
000140 8c e6 95 3f 04 f6 0c 3f 68 97 79 3e dd 8d b2 3e
       1.1710982 0.5506289 0.24374163 0.34873858
000150 13 5d 0e bf bc 56 ba bf 2a fa c2 bf 99 7d 1e 40
       -0.5561077 -1.4557719 -1.5232594 2.4764159
000160 71 08 4d bf 9b 07 13 be 2d cd 4e 3f fb d3 57 bf
       -0.80091006 -0.1435837 0.80781823 -0.8430783
000170 99 cc b3 3f c4 ce 1b be 8a 68 01 c0 f9 b1 1a bd
       1.4046813 -0.15215594 -2.0220056 -0.037767384
000180 46 d7 8c be 16 02 d4 bf 95 47 92 3d d8 9e 39 41
       -0.2750799 -1.6563137 0.071425594 11.60128
000190 83 7a 8e bf 61 7e 84 c0 ab 80 cd be 16 ae 12 c2
       -1.1131138 -4.140427 -0.40137228 -36.670006
0001a0 d6 a4 b0 3f 23 3f f8 bf b9 18 8c bf 1a e7 2b bd
       1.3800304 -1.9394268 -1.0945045 -0.041968442
0001b0 45 96 59 c1 9a 2b df 3e b1 af 8f 3f 91 2f cc 3f
       -13.599187 0.43587953 1.1225492 1.5952016
0001c0 93 9e dc be 16 8a 89 40 e4 d4 33 3f dc 71 09 3c
       -0.43089733 4.298106 0.7024672 0.008388963
0001d0 bd 66 22 c0 fa 2f c6 bd 5a 11 ec be a3 71 fd bf
       -2.5375206 -0.096771196 -0.46106988 -1.9800304
0001e0 c4 62 b7 3e 68 60 83 41 bd 66 22 40 d7 6f c4 40
       0.3581754 16.422073 2.5375206 6.1386523
0001f0 f7 5b ab 3e cc e7 90 bf ff 77 e9 be 8e c3 38 c0
       0.334686 -1.1320739 -0.45599362 -2.8869357
000200 a0 07 b7 bf 98 0f 48 be 1f f5 66 3f e8 8e a3 bd
       -1.4299202 -0.19537199 0.90217775 -0.079862416
000210 03 e6 53 42 2a 56 4e bd 7f 5c 2d 42 68 cc 21 41
       52.97462 -0.05037514 43.34033 10.112404
000220 d8 9e 39 c1 d8 3e 24 3f 7b 34 20 3e b1 af 8f bf
       -11.60128 0.6415839 0.1564502 -1.1225492
000230 19 6a 07 3f 8b 10 07 c0 3b 78 5f 40 8b 6b de bf
       0.5289627 -2.1103847 3.4917133 -1.737657
000240 5c 36 b2 bf 9a 15 d8 3f bc be 2a 40 f5 4b 3f bf
       -1.3922839 1.6881592 2.6678915 -0.74725276
000250 09 09 29 41 8b eb 16 bf
       10.564706 -0.5895316

0.weight f4 [100, 1]
000000 de c0 2c 3f f6 51 56 3e 88 4e 6f bf ac 1e 6c 3f
       0.6748179 0.20929703 -0.93479204 0.922343
000010 fe 8e 4d bf b8 2c 5d be 22 ee 35 3f 99 61 45 3f
       -0.80296314 -0.2159909 0.71066487 0.7710205
000020 c1 11 db be 8d 1b 98 be 15 98 f3 be 3c d3 03 bf
       -0.42786983 -0.2970852 -0.47576967 -0.51494193
000030 a4 59 1f 3f e3 29 61 3f 4d 3e 86 3e 1a 52 c7 3e
       0.62246156 0.8795454 0.26219407 0.38929826
000040 96 cf 0a bf 9e 04 1b be 98 25 55 be cb 50 64 bf
       -0.54223 -0.1513848 -0.20815122 -0.8918578
000050 9b ef 43 bf 74 6c 86 3e d3 ec 3e bf f0 fa 61 be
       -0.76537484 0.26254618 -0.74580115 -0.22068381
000060 6c d5 3d 3f 95 04 36 3e 16 a1 ba 3e e2 0c 4f bf
       0.7415378 0.17775185 0.36451024 -0.8087903
000070 66 31 7b 3f 9e e2 12 3f 48 ea 8d be 72 bd 49 3f
       0.9812225 0.5737704 -0.27717805 0.78804696
000080 64 f9 29 bf 7d bd da 3e f4 e4 6f bf 42 e1 72 bf
       -0.66396165 0.42722693 -0.9370873 -0.94874966
000090 c0 ee 4d 3d fa 10 22 3f 9e fe 3c be 04 b8 8a 3e
       0.050276518 0.63307154 -0.18456504 0.27093518
0000a0 19 b9 51 bf 3f 56 ef be 63 8b a8 bd 9d 8c 4e 3f
       -0.8192306 -0.46745488 -0.08229711 0.8068331
0000b0 5b bd 0a 3f 60 8f 65 bd 73 4b 8d be ef b0 10 3f
       0.54195184 -0.056044936 -0.27596626 0.5651998
0000c0 66 65 38 3f fa 17 1b bf 78 68 1e 3f 90 5e e1 be
       0.7202972 -0.6058346 0.61878157 -0.44017458
0000d0 36 aa 15 bf a0 79 06 be 4a d3 66 bf 71 a5 52 bf
       -0.58462846 -0.13132334 -0.9016615 -0.82283694
0000e0 49 30 6b 3f 24 80 75 3f 08 96 ef 3e 44 f8 d0 bd
       0.9187055 0.9589865 0.46794152 -0.10203603
0000f0 a0 dc 23 bf bf 74 d6 bd d6 f7 10 bf 0a a5 9d 3e
       -0.6400852 -0.10471486 -0.5662817 0.30789977
000100 88 9b ee 3e 50 ad 2c be a7 5b 64 3f db 55 70 bf
       0.46603036 -0.16862988 0.8920235 -0.93881005
000110 d8 ab 4e 3f 72 c4 3d bf ed f5 3f bf d6 65 43 3e
       0.8073096 -0.74127877 -0.7498463 0.19081816
000120 7d f8 62 bf 31 d3 aa be 4a 9b db bc b4 32 3c 3f
       -0.88660413 -0.3336425 -0.026807446 0.73514867
000130 95 fb 39 3f 68 9c e8 3e ef bd 50 bf e0 af bc bd
       0.7264951 0.45431828 -0.81539816 -0.09213233
000140 92 12 8b 3e bb 15 a1 3e 02 85 16 bf 4d d3 71 bf
       0.27162606 0.31461892 -0.58796704 -0.94463044
000150 d4 2c 2f 3f 35 14 b3 3d da ba 63 bf b7 83 39 3f
       0.6842778 0.087440886 -0.8895699 0.72466606
000160 ce ab 34 bf ae a4 10 bf 00 ac 38 bb 8c e6 d3 be
       -0.70574653 -0.5650128 -0.0028178692 -0.4138683
000170 9c 57 38 3e 49 ce e4 3e 1d 73 34 bf e7 ab f5 3e
       0.1800217 0.44688633 -0.7048815 0.47982714
000180 55 e0 ff 3e eb 13 6e bf 00 80 59 3d b1 9c 24 3f
       0.4997584 -0.9299914 0.053100586 0.6430159

0.bias f4 [100]
000000 ee 12 76 bd d1 8b c6 3e e2 ae 5f 3f dc d4 62 be
       -0.060076647 0.38778546 0.87376225 -0.22151512
000010 2a 92 7f bf e8 ce 6f be 2c 5b 27 3f a7 3d 63 3f
       -0.99832404 -0.23418772 0.6537349 0.8876595
000020 ed 96 67 3f 91 bd f5 3e 67 76 f3 be 8a 5f 50 bf
       0.9046467 0.4799619 -0.4755127 -0.8139578
000030 0e a8 d9 bd 78 b3 f1 3e b0 41 8e 3e 96 52 0c 3f
       -0.10627757 0.47207236 0.2778449 0.54813516
000040 aa 64 2e bf 68 16 cc 3a 9c 6a c6 be 3b 79 e8 be
       -0.6812235 0.0015570642 -0.38753211 -0.45404992
000050 da e6 a4 be 2c 52 02 bf 66 01 7a 3e 68 50 8b 3e
       -0.32207376 -0.50906634 0.24414596 0.27209783
000060 0b cc c4 3e c8 6f 98 bd 65 3c 9f be b7 7c 2a 3c
       0.38436922 -0.074431956 -0.31100765 0.010405711
000070 20 2c 2b 3f a0 40 c4 bd 7e c9 49 bf e1 d9 ba 3d
       0.66864204 -0.09582639 -0.7882308 0.09123588
000080 a1 c6 27 bf df 52 ba 3e ee a5 5b 3f 06 3b 1c bf
       -0.6553746 0.3639135 0.85800064 -0.6102756
000090 be 2f 54 bf 56 49 5a bf 7c 4b 00 3f 20 2d 8d be
       -0.8288535 -0.8526815 0.5011518 -0.2757349
0000a0 22 0a 1d be de 93 16 3e e0 34 b2 3b 29 99 07 3f
       -0.15335897 0.14704844 0.005438432 0.5296808
0000b0 f8 ac 07 bf c6 e3 2b bf 29 ef 2b 3f a9 d7 00 be
       -0.52998304 -0.6714443 0.67161804 -0.12582268
0000c0 0f 56 a6 be a2 c2 6a bf b8 91 b6 be 1c a0 3d bf
       -0.32487532 -0.91703236 -0.3565805 -0.7407243
0000d0 ce 6c 2d bf c2 91 42 bf dd 01 27 bd 24 8a 89 be
       -0.6774415 -0.7600366 -0.04077326 -0.26863205
0000e0 b8 57 88 be 17 70 26 3e d0 fd 18 3f 79 ad 6f 3f
       -0.26629424 0.16253696 0.5976229 0.93624073
0000f0 e0 8e de 3d 18 46 b2 bc 31 24 0e 3f ee cc 03 3f
       0.10867095 -0.021761939 0.55523974 0.5148457
000100 24 05 f7 be ba be 01 bf 1c 44 46 3e 76 a6 2a bf
       -0.4824611 -0.5068165 0.19361919 -0.6666025
000110 5b 80 5f 3f 9a ff 61 3f fe d3 2e bf 6a b2 00 be
       0.8730523 0.8828064 -0.68292224 -0.1256806
000120 8b dd 66 3f 78 c9 37 3e 9e be 79 3e 46 57 43 bf
       0.901818 0.17947948 0.24389121 -0.76305044
000130 67 fc 31 bf 16 76 58 bf d4 c2 4f 3d 98 56 af be
       -0.6952576 -0.84555185 0.050722912 -0.34245753
000140 a8 73 87 3e 1d db b3 3e bc dc 90 3c b6 a1 1b bf
       0.26455426 0.35128108 0.01768338 -0.60793626
000150 c6 07 7e bf 8f 77 7c 3e 88 48 3b be 45 87 1a 3f
       -0.9923061 0.24654983 -0.18289387 0.60362655
000160 bc b0 57 bf 36 c3 47 3f e8 d5 1d be 0f e4 0d 3f
       -0.8425405 0.78032243 -0.1541363 0.55426115
000170 e2 10 06 3f 34 43 31 3e fe d0 0a be bd 54 9b 3e
       0.5236951 0.17310792 -0.13556287 0.30338088
000180 64 f1 bc 3e ef da 8c 3e 56 74 2c bf c7 d0 47 be
       0.36902916 0.27510783 -0.67365015 -0.19513236

2.weight f4 [1, 100]
000000 19 99 d8 39 09 f9 2e bd 0c 5c 9f 3d cc d9 b8 bd
       0.00041312797 -0.042717967 0.077812284 -0.090259165
000010 58 33 9d bd 66 7c 04 3d 54 62 37 bd 8e f7 01 3d
       -0.07675809 0.032345198 -0.044771507 0.031730227
000020 35 4c c9 3d 65 67 11 3d 6a b0 09 bd 71 1b c4 3d
       0.098289885 0.035498995 -0.033615507 0.095755465
000030 22 40 a4 bd 00 78 97 bd 80 d6 17 3d 78 be dc bd
       -0.08020045 -0.07395935 0.037069798 -0.107785165
000040 a2 49 81 bd 30 50 f2 bc e0 b5 07 bd c0 32 5b bd
       -0.063128725 -0.029579252 -0.033132434 -0.053515196
000050 ef a7 9a bd aa 53 72 bd 70 f3 5f 3d 56 71 c3 3d
       -0.07551562 -0.05916182 0.05467552 0.095431015
000060 72 4d e8 bc 10 4f 76 bc 75 42 83 3d be a1 6a 3c
       -0.028357241 -0.015033498 0.0640916 0.014320789
000070 cb 4e 6d bc 62 87 5d 3c 88 f0 ae 3c 36 db 0c 3c
       -0.014484118 0.013521047 0.021354929 0.008597186
000080 13 7e f4 3c 43 35 89 bd 3e 6b 05 3e 22 a0 31 3c
       0.029845273 -0.06699612 0.13029191 0.010841401
000090 22 f8 8f bd a8 80 ea bc 1d 93 48 3c 8d 93 28 bd
       -0.070297495 -0.028625801 0.012242106 -0.04115634
0000a0 bf e7 6d bd 24 95 33 bd d9 a6 a4 3c 1d 79 55 bd
       -0.05808234 -0.043843403 0.02009909 -0.052117456
0000b0 7b 85 07 3c ec 76 91 3c c4 90 37 bc 16 30 85 3d
       0.00827157 0.017756902 -0.011203948 0.06503312
0000c0 6e c8 20 bd cb b1 ac bd 10 17 84 ba a6 6d 0d 3d
       -0.039253645 -0.08432349 -0.0010077674 0.034528397
0000d0 95 d2 a3 3d 76 27 36 3d d0 68 29 bd 03 5a da 3c
       0.0799915 0.044471227 -0.041359723 0.026654249
0000e0 56 60 0d bd 04 13 b2 bd 1b cd c0 bd 37 87 85 3c
       -0.0345157 -0.08695033 -0.09414121 0.016299827
0000f0 ff d9 70 3c 24 ba 92 3d de 69 9e b9 f4 88 84 bd
       0.014700412 0.0716441 -0.00030214986 -0.06471434
000100 0d da 26 bd 28 32 5c bc e8 a0 d6 bd 16 b6 7f 3d
       -0.040735293 -0.013439693 -0.10479909 0.06242951
000110 33 73 d2 bc e3 63 1e 3d ab ec 7d 3d 83 b7 3a 3d
       -0.025689697 0.03866948 0.061993282 0.045585167
000120 f2 4c 8b 3d 71 ec 63 3d 02 05 a7 3d 18 9c 27 bc
       0.068017855 0.05564541 0.08155252 -0.010230087
000130 0e e6 aa 3d 2a 9f 67 bd 00 ca fe bc 5a a6 37 bd
       0.08344661 -0.056548275 -0.03110218 -0.04483638
000140 e0 7f 5e 3c a2 d6 89 3d b0 d7 94 3d 34 b3 ff bd
       0.013580292 0.06730391 0.072677016 -0.12485352
000150 e0 7e 9a bb 0e 0a 75 3d 31 6e 02 bd e0 ff 19 3d
       -0.0047148317 0.059824042 -0.031843368 0.037597537
000160 55 9c b4 3d bf f0 d6 3d d3 ec 97 bd cd 52 83 3c
       0.088188805 0.104951374 -0.074182175 0.016030693
000170 88 58 7f bd ec 44 e0 bd 92 b8 6c ba f3 4f 3f bd
       -0.06234029 -0.10950646 -0.00090301887 -0.046707105
000180 d1 dc d9 bb 18 42 dd 3d ca d5 1d bd 10 da 29 3d
       -0.006648638 0.10803622 -0.038533963 0.041467726
