complete/tan/state0.pt (torch, 10937 bytes, 9 tensors)

weight f4 [100, 1]
0	0xbcb81340	-0.022470117
1	0xbf209de5	-0.6274093
2	0xbf01bf1a	-0.5068222
3	0xbe829fbd	-0.25512496
4	0xbd97e190	-0.074160695
5	0xbd123cd9	-0.03570256
6	0xbd52f2e0	-0.051501155
7	0x3f353867	0.7078919
8	0x3e871158	0.2638042
9	0x3ead8b60	0.33895397
10	0x3f401316	0.7502912
11	0xbf72216e	-0.9458226
12	0x3ef17386	0.4715845
13	0x3ec8d2d8	0.3922336
14	0x3e503e9d	0.20336385
15	0x3f141724	0.5784781
16	0x3f58fd4a	0.8476149
17	0x3f4a66ac	0.79062915
18	0x3eea3297	0.45741722
19	0xbec4ba8a	-0.38423568
20	0x3f37f09a	0.71851504
21	0x3e7c6853	0.24649172
22	0xbf5f3a24	-0.8719809
23	0x3d0ce03c	0.034393534
24	0xbf61c2fc	-0.8818815
25	0xbe038ae4	-0.12845951
26	0x3eab98ac	0.33514917
27	0x3d2981ca	0.041383542
28	0x3f0f26e8	0.5591874
29	0x3edfd934	0.437204
30	0x3f2631b3	0.64919585
31	0xbf0c4402	-0.5479127
32	0x3f19ea57	0.601232
33	0xbf26fe57	-0.6523184
34	0x3ddd9ad3	0.10820546
35	0x3f302726	0.68809736
36	0xbf551bd0	-0.83245564
37	0x3dcd589c	0.100266665
38	0x3f56e266	0.83939207
39	0xbf4cf3a7	-0.80059284
40	0x3f71ce42	0.9445535
41	0xbeda8290	-0.42677736
42	0x3f6ab396	0.91680276
43	0x3f641956	0.8910116
44	0xbf68c7b8	-0.90929747
45	0xbe6c5636	-0.23079762
46	0xbd6594d5	-0.05605014
47	0x3f4c3654	0.797704
48	0xbf310bac	-0.69158435
49	0x3f335a54	0.70059705
50	0x3f28679e	0.6578311
51	0xbe63e888	-0.22256672
52	0x3e026b80	0.1273632
53	0xbf153a08	-0.58291674
54	0x3eff4d6c	0.49863756
55	0x3f444ce1	0.7667981
56	0xbf1649f2	-0.5870658
57	0xbf20ba8b	-0.6278464
58	0xbeac25f4	-0.33622706
59	0xbec2e3be	-0.38064378
60	0x3f423946	0.7586864
61	0xbf2d8ee2	-0.67796147
62	0x3ef5c11c	0.47998893
63	0x3e8d9a1e	0.27656645
64	0x3d9ba8a0	0.07600522
65	0xbf03cff7	-0.51489204
66	0x3e992050	0.29907465
67	0xbf17d25a	-0.59305346
68	0xbf1a7f41	-0.60350424
69	0x3de0a3bd	0.109687306
70	0xbd879740	-0.066206455
71	0xbd8b5533	-0.0680336
72	0x3f094176	0.5361551
73	0x3f4629da	0.7740761
74	0xbd6f3075	-0.05839582
75	0xbf62d6b4	-0.8860886
76	0x3ccafcc0	0.024778724
77	0xbf54dd62	-0.83150303
78	0x3e101d8f	0.14073776
79	0x3f2bba0f	0.6708078
80	0xbd525220	-0.05134785
81	0x3f65a962	0.8971158
82	0x3d223aaf	0.039606746
83	0x3e84ec8f	0.2596173
84	0xbdde7051	-0.108612664
85	0xbf1c059a	-0.6094605
86	0xbd37cce0	-0.04487312
87	0x3d4299c6	0.04750993
88	0x3f0b26d4	0.5435612
89	0x3f774564	0.96590257
90	0x3f197339	0.5994144
91	0x3e5d13f0	0.21589637
92	0xbbbec0e7	-0.0058213356
93	0x3cae421d	0.02127176
94	0x3edeec0c	0.43539464
95	0xbe10edd8	-0.1415323
96	0x3f4904a6	0.7852272
97	0xbf69b76f	-0.9129552
98	0xbec8cdcc	-0.3921951
99	0xbf1cdb7c	-0.61272407

bias f4 [100]
0	0xbf71e4fa	-0.94490016
1	0x3f5baca5	0.8581031
2	0x3ee9533a	0.4557131
3	0x3edb668e	0.4285168
4	0xbeb8dffc	-0.36108387
5	0x3f17e3d8	0.59332037
6	0xbeff33a4	-0.49844086
7	0x3edfd09a	0.43713838
8	0xbbbea20f	-0.0058176587
9	0x3e347d9a	0.17626038
10	0xbc79c9ec	-0.015245896
11	0x3bc0b665	0.005881118
12	0x3eba8705	0.36431137
13	0x3e8e2e4f	0.27769706
14	0x3f533cc3	0.8251459
15	0xbe256379	-0.16151227
16	0x3f0b1fc7	0.54345363
17	0xbf3b2e25	-0.73117286
18	0xbda9d58e	-0.082926854
19	0x3f3136a0	0.69223976
20	0x3ec9fd8b	0.3945125
21	0x3ed97cbf	0.42477986
22	0xbecbe25c	-0.39821136
23	0x3f419d1c	0.75630355
24	0x3e49035e	0.1963019
25	0xbd74c91b	-0.0597621
26	0xbf3277f2	-0.6971427
27	0x3dacba2d	0.08433948
28	0xbeb9c082	-0.36279684
29	0xbe783a3b	-0.24240963
30	0xbcc39880	-0.023876429
31	0x3dcc603d	0.099792935
32	0xbe89d6ae	-0.269216
33	0xbf232fcb	-0.637448
34	0x3f24f44f	0.64435285
35	0xbf2b1671	-0.6683112
36	0x3ebe7f1b	0.3720635
37	0x3f36c915	0.71400577
38	0xbf5e7990	-0.8690424
39	0x3edbed81	0.4295464
40	0xbe77b250	-0.24189115
41	0xbef45a70	-0.47725248
42	0x3ea082b2	0.31349713
43	0xbf124233	-0.5713226
44	0x3f040e28	0.515841
45	0x3f0c0a10	0.54702854
46	0x3f61bf85	0.8818286
47	0xbf558d94	-0.83419156
48	0x3bef9504	0.007311465
49	0xbf4abf82	-0.7919847
50	0x3e371e57	0.17882667
51	0xbe968404	-0.29397595
52	0xbf0247ee	-0.50891006
53	0x3df1ae27	0.11800795
54	0xbf774ce6	-0.9660171
55	0x3e168e58	0.14702737
56	0xbe5971d7	-0.21234833
57	0xbea5b050	-0.32361078
58	0xbeda91f0	-0.42689466
59	0xbe8b0db1	-0.27158883
60	0xbf7a7892	-0.97840226
61	0xbf419054	-0.7561085
62	0xbf2b372e	-0.6688107
63	0x3f490839	0.7852817
64	0xbf0a1570	-0.5393896
65	0x3f30f884	0.69129205
66	0xbe8707b9	-0.2637308
67	0xbf7fb520	-0.9988575
68	0xbe9e2680	-0.30888748
69	0x3e7f1a97	0.24912487
70	0xbf3c3e64	-0.735327
71	0x3e8c9874	0.27460063
72	0xbf77b07a	-0.96753657
73	0x3dc149ec	0.094379276
74	0x3f7158bc	0.9427602
75	0xbe3aec8b	-0.18254296
76	0xbf431bde	-0.76214397
77	0x3d122577	0.03568026
78	0x3f2846a7	0.65732807
79	0x3f57e541	0.8433419
80	0xbedc46a0	-0.43022633
81	0xbe174838	-0.14773643
82	0x3f1acaf8	0.60465956
83	0x3ecd8f8d	0.40148583
84	0x3f68f12d	0.90993005
85	0x3f3299fc	0.6976621
86	0xbf39ea86	-0.7262348
87	0xbc577d2f	-0.013152405
88	0xbd859044	-0.06521657
89	0xbf7160b4	-0.9428818
90	0x3f3d97b8	0.7405963
91	0xbee40ec8	-0.44542527
92	0x3f286ae3	0.65788096
93	0x3f725b51	0.9467059
94	0x3b5f5251	0.0034076164
95	0xbe2ad100	-0.1668129
96	0x3ea46c39	0.32113817
97	0x3f27684f	0.6539354
98	0x3f6dee83	0.92942065
99	0x3f6d26e5	0.92637473

weight f4 [1, 100]
0	0x3daaaf05	0.083341636
1	0xbdc750ff	-0.09732246
2	0x3dbfaa96	0.093587086
3	0xbda4c667	-0.08045655
4	0xbdbbc0d5	-0.09167639
5	0xbdc2f635	-0.095196165
6	0xbd54f797	-0.051993933
7	0xbcc81070	-0.0244219
8	0xbd8cb78e	-0.06870948
9	0xbd47a9f4	-0.048746064
10	0x3ccd24fc	0.02504205
11	0x3cdcad81	0.026938202
12	0xbd907575	-0.07053653
13	0xbbf2c8df	-0.0074091996
14	0xbdadb974	-0.08482638
15	0x3bb33653	0.0054691224
16	0xbe0c6367	-0.13709794
17	0x3cd952f6	0.026528817
18	0x3d0dd70b	0.03462891
19	0xbda05f2d	-0.07830653
20	0xbe0e1c96	-0.13878092
21	0xbda1876f	-0.0788716
22	0xbd50deef	-0.050993856
23	0xbd145423	-0.03621305
24	0x3da715b6	0.08158438
25	0x3ce87552	0.028376255
26	0xbda5f9b0	-0.08104265
27	0x3d245f11	0.040129725
28	0xbd2f499a	-0.0427948
29	0x3da975df	0.08274435
30	0xbdce0931	-0.10060347
31	0xbd3db408	-0.04631427
32	0x3c9e77b7	0.019344194
33	0xbd094b37	-0.033518996
34	0xbdf29e5e	-0.118466124
35	0xbc6ee741	-0.014581502
36	0xbc91218f	-0.017716197
37	0xbd47fbf9	-0.048824284
38	0xbcb475d4	-0.022028841
39	0x3ddfb14f	0.10922491
40	0x3cea3a46	0.02859224
41	0x3d928fc9	0.07156331
42	0xbd3da240	-0.04629731
43	0x3d6485df	0.055791732
44	0xbd47a709	-0.04874328
45	0x3c8726e3	0.016498035
46	0xbd9d834a	-0.07691057
47	0xbb84d1b0	-0.004053317
48	0xbc89c2eb	-0.016816577
49	0x3c4be250	0.012444094
50	0xbcca34af	-0.024683325
51	0xbdc92273	-0.09821024
52	0xbb69bfc0	-0.003566727
53	0x3d57f6f5	0.05272575
54	0x3da7322d	0.08163867
55	0xbd2a6398	-0.041598886
56	0x3dad3624	0.08457592
57	0x3a728fb3	0.000925298
58	0x3db294e1	0.08719803
59	0xbdbb3997	-0.09141844
60	0xb88f9800	-6.8470836e-05
61	0xbd59ce87	-0.053175475
62	0x3d90b5ed	0.070659496
63	0xbc979a7b	-0.01850628
64	0x3d85464b	0.06507548
65	0x3d213c77	0.039364304
66	0xbd690f21	-0.056899194
67	0xbd59c3d0	-0.053165257
68	0xbd9ffa4c	-0.07811412
69	0x3cddeb4c	0.027089737
70	0x3cfa20bc	0.030533187
71	0xbce9bd78	-0.028532729
72	0xbd655b0a	-0.055995025
73	0xbce45b8d	-0.027875686
74	0xbdeb2b00	-0.11482811
75	0x3de8b5db	0.11362811
76	0x3ccd37c4	0.025051005
77	0xbb8433de	-0.0040345034
78	0xbdd9f4f7	-0.106424265
79	0xbd7fb922	-0.062432416
80	0xbd8b8188	-0.068118155
81	0xbd9e9f54	-0.07745233
82	0xbde78013	-0.11303725
83	0xbd94d264	-0.07266691
84	0xbda724ec	-0.08161339
85	0x3cde28e6	0.027119111
86	0x3d872fdf	0.066009276
87	0x3d7c70e8	0.061631113
88	0xbc9dd769	-0.019267755
89	0x3d5ed51c	0.054402456
90	0xbddc6ada	-0.10762568
91	0x3d9f7f9f	0.07788014
92	0xbe10b539	-0.14131631
93	0xbcaf29ec	-0.021382295
94	0xbc33aa99	-0.010965967
95	0xbd95824b	-0.07300242
96	0xbc8cb33c	-0.01717531
97	0x3b725d28	0.0036981795
98	0xbbe9d784	-0.007136287
99	0x3d848d56	0.0647227

train_data f4 [600, 1]
0	0xbf13fea2	-0.57810414
1	0xbe35d4ef	-0.17757009
2	0xbecdc1cb	-0.40186915
3	0xbf52e244	-0.82376504
4	0x3f5d2334	0.8638184
5	0x3f71a516	0.94392526
6	0x3f4d6a4c	0.8024032
7	0xbf3ba467	-0.73297733
8	0xbe075935	-0.13217624
9	0x3f660627	0.8985314
10	0x3f5e8132	0.86915886
11	0x3ee65da6	0.44993323
12	0x3d9bdb16	0.07610147
13	0xbecf1fc9	-0.40453938
14	0xbf5a6738	-0.8531375
15	0x3f7be606	0.9839786
16	0xbdfe4a83	-0.12416556
17	0xbf6cdc1d	-0.92523366
18	0x3e95b41f	0.29238984
19	0x3f04f4b9	0.5193592
20	0xbec173de	-0.37783712
21	0xbee919a2	-0.4552737
22	0xbf6d8b1c	-0.9279039
23	0xbf1142a6	-0.5674232
24	0x3da6cb06	0.081441924
25	0x3eea77a0	0.45794392
26	0x3f246689	0.64218956
27	0x3f63f92a	0.8905207
28	0xbedb6db7	-0.42857143
29	0x3f357d70	0.7089453
30	0xbf61ec2d	-0.88251
31	0x3f41cb5d	0.7570093
32	0xbf204c90	-0.62616825
33	0x3ed497c1	0.4152203
34	0xbf48a153	-0.7837116
35	0xbf1eee92	-0.6208278
36	0x3d6036b0	0.054739654
37	0xbf39976a	-0.72496665
38	0x3f02e7bc	0.5113485
39	0xbecb05cf	-0.3965287
40	0xbf0f35a9	-0.55941254
41	0xbdcd12cc	-0.10013351
42	0xbf292f82	-0.66088116
43	0x3f469456	0.7757009
44	0xbf251588	-0.6448598
45	0xbf3f0f61	-0.7463284
46	0x3f321275	0.69559413
47	0xbe71fc95	-0.23631509
48	0x3ef2ab94	0.4739653
49	0x3f474355	0.77837116
50	0x3bdabeb8	0.0066755675
51	0x3d8b732f	0.06809079
52	0xbe670ca5	-0.22563417
53	0x3f70f617	0.94125503
54	0xbee4ffa9	-0.44726303
55	0xbf341f72	-0.7036048
56	0xbf41cb5d	-0.7570093
57	0xbf4ec84a	-0.80774367
58	0x3de86aa3	0.11348464
59	0x3ee919a2	0.4552737
60	0x3f38396c	0.7196262
61	0x3e075935	0.13217624
62	0xbf787b0b	-0.9706275
63	0xbf7a8808	-0.9786382
64	0xbf2d497c	-0.67690253
65	0xbec42fda	-0.38317758
66	0x3ef14d96	0.47129506
67	0x3ea61c07	0.32443258
68	0x3f2df87b	0.67957276
69	0x3f2b3c7f	0.66889185
70	0x3e53e8c2	0.20694259
71	0x3edb6db7	0.42857143
72	0x3f7b3707	0.9813084
73	0xbee7bba4	-0.45260346
74	0xbf002bc0	-0.5006676
75	0xbf544042	-0.8291055
76	0x3e945621	0.2897196
77	0x3ecdc1cb	0.40186915
78	0xbefc3d86	-0.4926569
79	0xbe3b4ce7	-0.18291055
80	0x3f1142a6	0.5674232
81	0xbf0dd7ab	-0.5540721
82	0x3eb683ee	0.3564753
83	0xbe124925	-0.14285715
84	0x3e6c849d	0.23097463
85	0xbf585a3b	-0.8451268
86	0xbe5ed8b2	-0.2176235
87	0x3e8ac430	0.27102804
88	0xbd6b269f	-0.05740988
89	0x3eb525f0	0.35380507
90	0x3f3e6062	0.7436582
91	0xbefef982	-0.49799734
92	0x3e049d39	0.129506
93	0x3d4a56d0	0.049399197
94	0x3f6a2021	0.91455275
95	0xbf0d28ac	-0.55140185
96	0x3da1530e	0.078771695
97	0x3d90eb27	0.07076102
98	0x3f608e2f	0.87716955
99	0xbf00dabf	-0.5033378
100	0xbf3e6062	-0.7436582
101	0xbf090eb2	-0.5353805
102	0xbeb269f4	-0.3484646
103	0x3e9de813	0.3084112
104	0x3f39976a	0.72496665
105	0xbe5c1cb6	-0.21495327
106	0x3ce5aea7	0.028037382
107	0xbec6ebd6	-0.38851804
108	0x3f4aae50	0.7917223
109	0xbe83ee3a	-0.2576769
110	0xbf608e2f	-0.87716955
111	0x3f79d909	0.97596794
112	0x3f59093a	0.84779704
113	0xbdd28ac4	-0.10280374
114	0xbf3c5366	-0.73564756
115	0x3f5b1637	0.8558077
116	0xbe98701b	-0.2977303
117	0x3e282904	0.16421896
118	0xbf771d0d	-0.965287
119	0xbd5546c0	-0.052069426
120	0xbe5960ba	-0.21228305
121	0xbf43d85a	-0.76502
122	0x3f6e3a1b	0.9305741
123	0xbdede29b	-0.11615487
124	0x3ea3600b	0.31909212
125	0xbeacf1fd	-0.33778372
126	0x3ec6ebd6	0.38851804
127	0xbf427a5c	-0.75967956
128	0xbe919a26	-0.28437918
129	0xbe9c8a15	-0.30574098
130	0xbd90eb27	-0.07076102
131	0x3d80833f	0.06275033
132	0xbef14d96	-0.47129506
133	0xbe945621	-0.2897196
134	0x3f502648	0.8130841
135	0xbefadf88	-0.48998666
136	0x3f292f82	0.66088116
137	0xbeea77a0	-0.45794392
138	0x3e7fa881	0.24966623
139	0x3e7a3089	0.24432577
140	0x3f0445ba	0.51668894
141	0x3f47f254	0.7810414
142	0xbf5f3031	-0.8718291
143	0x3e854c38	0.26034713
144	0xbe903c28	-0.28170896
145	0x3d08b733	0.033377837
146	0x3f3f0f61	0.7463284
147	0xbf3af568	-0.7303071
148	0xbe1ff510	-0.15620828
149	0x3ea77a05	0.3271028
150	0x3f57ab3c	0.8424566
151	0xbf57ab3c	-0.8424566
152	0xbf155ca0	-0.5834446
153	0xbf59b839	-0.85046726
154	0xbf5e8132	-0.86915886
155	0x3f56fc3e	0.8397864
156	0x3f11f1a5	0.57009345
157	0x3f1d9094	0.61548734
158	0xbf629b2c	-0.88518023
159	0x3ea8d803	0.32977304
160	0x3f52e244	0.82376504
161	0x3f300578	0.68758345
162	0x3ee7bba4	0.45260346
163	0x3aaefefa	0.0013351135
164	0xbf725415	-0.9465955
165	0xbef9818a	-0.48731643
166	0x3f251588	0.6448598
167	0x3f204c90	0.62616825
168	0xbf564d3f	-0.8371162
169	0x3f59b839	0.85046726
170	0x3e0cd12d	0.13751669
171	0xbed753bd	-0.42056075
172	0xbf19769a	-0.59946597
173	0xbf02e7bc	-0.5113485
174	0x3f0701b5	0.5273698
175	0x3d76168f	0.060080107
176	0xbe7cec85	-0.246996
177	0xbf539143	-0.82643527
178	0x3f0396bb	0.5140187
179	0xbf300578	-0.68758345
180	0xbdc222dd	-0.09479306
181	0xbec015e0	-0.3751669
182	0xbf6ee91a	-0.93324435
183	0x3f1e3f93	0.61815757
184	0xbcfb8e87	-0.03070761
185	0xbf1b8397	-0.60747665
186	0xbeaa3601	-0.33244327
187	0xbf7ea202	-0.99465954
188	0xbf681324	-0.90654206
189	0xbf6acf20	-0.917223
190	0xbf0652b7	-0.5246996
191	0x3f4f7749	0.8104139
192	0x3f0189be	0.506008
193	0xbe4e70ca	-0.20160213
194	0xbf6f9819	-0.9359146
195	0xbe22b10c	-0.1588785
196	0xbf1a2599	-0.6021362
197	0x3cb9eee9	0.022696929
198	0x3e5ed8b2	0.2176235
199	0x3ecc63cd	0.39919892
200	0xbf246689	-0.64218956
201	0xbe8c222e	-0.27369827
202	0xbf1d9094	-0.61548734
203	0xbf746111	-0.9546061
204	0xbee3a1ab	-0.4445928
205	0xbedccbb5	-0.43124166
206	0xbedf87b1	-0.43658212
207	0x3ec849d4	0.39118826
208	0xbf751010	-0.95727634
209	0x3f4e194b	0.80507344
210	0xbe7a3089	-0.24432577
211	0xbf378a6d	-0.71695596
212	0xbf1e3f93	-0.61815757
213	0xbf495052	-0.78638184
214	0x3d3476f1	0.044058744
215	0x3ef6c58e	0.48197597
216	0xbccfcec8	-0.025367156
217	0xbeefef98	-0.46862483
218	0x3d298702	0.04138852
219	0x3eb7e1ec	0.35914552
220	0x3eb269f4	0.3484646
221	0xbd3476f1	-0.044058744
222	0xbe4bb4ce	-0.1989319
223	0xbe99ce19	-0.30040053
224	0xbde86aa3	-0.11348464
225	0xbf0a6cb0	-0.54072094
226	0x3f2d497c	0.67690253
227	0x3f29de81	0.6635514
228	0xbddd7ab4	-0.108144194
229	0xbf29de81	-0.6635514
230	0x3c191f1a	0.009345794
231	0xbe0a1531	-0.13484646
232	0xbf3fbe60	-0.74899864
233	0xbf32c174	-0.69826436
234	0xbf5c7435	-0.8611482
235	0x3f6c2d1e	0.92256343
236	0x3e124925	0.14285715
237	0x3e71fc95	0.23631509
238	0xbee0e5af	-0.43925235
239	0xbf23088b	-0.6368491
240	0x3f30b477	0.6902537
241	0x3e463cd7	0.19359146
242	0x3eee919a	0.4659546
243	0x3dcd12cc	0.10013351
244	0xbe95b41f	-0.29238984
245	0x3e919a26	0.28437918
246	0x3f23088b	0.6368491
247	0x3f14ada1	0.58077437
248	0xbda1530e	-0.078771695
249	0xbf21aa8e	-0.6315087
250	0xbec9a7d2	-0.3938585
251	0x3f453658	0.77036047
252	0x3e6450aa	0.22296396
253	0xbf64a829	-0.8931909
254	0x3ec015e0	0.3751669
255	0xbf448759	-0.76769024

train_targets f4 [600, 1]
0	0x407f92c9	3.993334
1	0xbf1fbc02	-0.6239625
2	0xc048fad6	-3.1403098
3	0x3f1e3f19	0.6181503
4	0xbee977ff	-0.45599362
5	0xbe364814	-0.17800933
6	0xbf370ed4	-0.71507
7	0x3f8e7a83	1.1131138
8	0xbee1bb05	-0.44087997
9	0xbea8f978	-0.3300283
10	0xbedf2b9a	-0.43587953
11	0x40c9c424	6.305193
12	0x3e799768	0.24374163
13	0xc04ef817	-3.2338922
14	0x3efe8d3d	0.4971713
15	0xbd4e562a	-0.05037514
16	0xbed281ae	-0.41114563
17	0x3e750bbc	0.23930258
18	0x3fa79993	1.3093742
19	0xc1836068	-16.422073
20	0xc01e7d99	-2.4764159
21	0xc0e23cf3	-7.06994
22	0x3e6bfb57	0.23045097
23	0x4094cee1	4.650254
24	0x3e85ef33	0.26159057
25	0x40f0c99a	7.5246096
26	0xc0059d0c	-2.0877104
27	0xbeb762c4	-0.3581754
28	0xc08c337f	-4.381286
29	0xbfa62688	-1.2980509
30	0x3ec60f31	0.38683465
31	0xbf74f778	-0.9569011
32	0x4018eb7b	2.3893726
33	0x406a9514	3.665349
34	0x3f4ecd2d	0.80781823
35	0x40206ce8	2.506647
36	0x3e31da8b	0.17368524
37	0x3f95e68c	1.1710982
38	0xc1e04b6f	-28.036833
39	0xc03de65c	-2.967185
40	0x40a972c2	5.2952585
41	0xbea698aa	-0.32538348
42	0x3fe74fe0	1.8071251
43	0xbf59abeb	-0.8502795
44	0x4002c938	2.0435314
45	0x3f82fcc9	1.0233394
46	0xbfb567a7	-1.4172257
47	0xbf6ae1fc	-0.91751075
48	0x41432f78	12.199089
49	0xbf55ff5f	-0.8359279
50	0x3cabd3bd	0.020974988
51	0x3e5e736d	0.21723719
52	0xbf5b873b	-0.8575322
53	0xbe3f2845	-0.18667705
54	0xc0bf6008	-5.9804726
55	0x3fac0ba0	1.3441048
56	0x3f74f778	0.9569011
57	0x3f30a4a0	0.690012
58	0x3ebeb02d	0.37243786
59	0x40e23cf3	7.06994
60	0xbf9b188f	-1.211687
61	0x3ee1bb05	0.44087997
62	0x3dbd8534	0.09253922
63	0x3d89a5f3	0.067211054
64	0x3fce1a09	1.6101695
65	0xc0267b6e	-2.6012836
66	0x4130f178	11.058952
67	0x3fd00b2d	1.625341
68	0xbfca4b9e	-1.5804327
69	0xbfda2a83	-1.7044224
70	0x3f42aa21	0.76040846
71	0x408c337f	4.381286
72	0xbd70ccad	-0.058788944
73	0xc0d5515f	-6.666183
74	0x43ee69ec	476.8275
75	0x3f185ee2	0.5951978
76	0x3fa4b781	1.2868501
77	0x4048fad6	3.1403098
78	0xc22d5c7f	-43.34033
79	0xbf25c3ed	-0.64752084
80	0xc094cee1	-4.650254
81	0x40ba8fa5	5.8300347
82	0x40042fff	2.0654294
83	0xbef690f3	-0.48157462
84	0x3f63175b	0.8870751
85	0x3f076a19	0.5289627
86	0xbf5094fc	-0.8147733
87	0x3f9222e1	1.1416894
88	0xbe3ab74e	-0.18233988
89	0x4001688a	2.0220056
90	0xbf85346b	-1.0406622
91	0xc31ef0ce	-158.94064
92	0x3edc9e93	0.43089733
93	0x3e20347b	0.1564502
94	0xbe8cd746	-0.2750799
95	0x40c46fd7	6.1386523
96	0x3e815af9	0.2526472
97	0x3e677687	0.22603808
98	0xbed00015	-0.40625063
99	0x42beb96b	95.362144
100	0x3f85346b	1.0406622
101	0x410f5ad7	8.959678
102	0xbff83f23	-1.9394268
103	0x3fba56bc	1.4557719
104	0xbf95e68c	-1.1710982
105	0xbf4d0871	-0.80091006
106	0x3db4dc28	0.08831054
107	0xc02f3401	-2.737549
108	0xbf445d59	-0.7670494
109	0xbf8653f6	-1.0494373
110	0x3ed00015	0.40625063
111	0xbd9aea8b	-0.07564267
112	0xbf04ad99	-0.5182739
113	0xbeab5bf7	-0.334686
114	0x3f8c18b9	1.0945045
115	0xbef93796	-0.4867522
116	0xbfad8f8f	-1.3559436
117	0x3f11303f	0.5671424
118	0x3de03b6c	0.10948834
119	0xbe290462	-0.16505578
120	0xbf498807	-0.78723186
121	0x3f68e9a3	0.909815
122	0xbe62f3e7	-0.22163354
123	0xbec3982e	-0.3820204
124	0x3fc86e0b	1.5658582
125	0xbfe50a00	-1.7893677
126	0x402f3401	2.737549
127	0x3f70e2ab	0.9409587
128	0xbf9f2210	-1.243227
129	0xbfb707a0	-1.4299202
130	0xbe677687	-0.22603808
131	0x3e4c8609	0.19973005
132	0xc130f178	-11.058952
133	0xbfa4b781	-1.2868501
134	0xbf2a6004	-0.6655276
135	0xc1fe3978	-31.77806
136	0xbfe74fe0	-1.8071251
137	0xc0f0c99a	-7.5246096
138	0x3f7f76b4	0.997905
139	0x3f77082d	0.9649685
140	0xc19871f8	-19.055649
141	0xbf525fec	-0.82177615
142	0x3eda13e8	0.42593312
143	0x3f889ab9	1.0672218
144	0xbf9c6d86	-1.2220924
145	0x3dd78b01	0.1052456
146	0xbf82fcc9	-1.0233394
147	0x3f90e7cc	1.1320739
148	0xbf08caae	-0.53434265
149	0x3fd40216	1.6563137
150	0xbf0a2cd8	-0.53974676
151	0x3f0a2cd8	0.53974676
152	0x406e848b	3.7268398
153	0x3f01f72a	0.5076777
154	0x3edf2b9a	0.43587953
155	0xbf0cf604	-0.5506289
156	0xc08ef66c	-4.467581
157	0xc028970e	-2.6342196
158	0x3ec1232f	0.37722155
159	0x3fd8159a	1.6881592
160	0xbf1e3f19	-0.6181503
161	0xbfbf74f5	-1.4957567
162	0x40d5515f	6.666183
163	0x3b89713d	0.0041944073
164	0x3e2d6ea9	0.16936745
165	0xc1c8a9db	-25.082937
166	0xc002c938	-2.0435314
167	0xc018eb7b	-2.3893726
168	0x3f0fc5cf	0.56161207
169	0xbf01f72a	-0.5076777
170	0x3eec115a	0.46106988
171	0xc07b1960	-3.9234238
172	0x40461a1f	3.0953443
173	0x41e04b6f	28.036833
174	0xc1399ed8	-11.60128
175	0x3e439b05	0.19102104
176	0xbf7b368e	-0.9813012
177	0x3f1b4b2a	0.60661566
178	0xc1b58809	-22.691423
179	0x3fbf74f5	1.4957567
180	0xbe9d25c1	-0.30692866
181	0xc01abd35	-2.4177983
182	0x3e59f50c	0.21284884
183	0xc0246b75	-2.5690587
184	0xbdc62ffa	-0.096771196
185	0x403649c2	2.8482518
186	0xbfdc4719	-1.7209197
187	0x3c897456	0.016779106
188	0x3e9accf7	0.302345
189	0x3e883b3c	0.26607692
190	0x414dc82f	12.861373
191	0xbf2d7dc2	-0.67770016
192	0xc253e603	-52.97462
193	0xbf3bf887	-0.734261
194	0x3e50fe66	0.20409545
195	0xbf0b909d	-0.5451754
196	0x4040909b	3.008826
197	0x3d924795	0.071425594
198	0x3f5094fc	0.8147733
199	0x40434c4b	3.0515316
200	0x40059d0c	2.0877104
201	0xbf94a233	-1.1611999
202	0x4028970e	2.6342196
203	0x3e13079b	0.1435837
204	0xc0b5fa17	-5.6867785
205	0xc091d459	-4.5571713
206	0xc09e7c2a	-4.9526567
207	0x4033deed	2.8104813
208	0x3e0a45da	0.13503209
209	0xbf33d4e4	-0.7024672
210	0xbf77082d	-0.9649685
211	0x3f9dc601	1.2326051
212	0x40246b75	2.5690587
213	0x3f4b46be	0.7940482
214	0x3e0ea613	0.1393054
215	0x418d21a4	17.641426
216	0xbda38ee8	-0.079862416
217	0xc121cc68	-10.112404
218	0x3e05e6e6	0.13076362
219	0x4007108b	2.1103847
220	0x3ff83f23	1.9394268
221	0xbe0ea613	-0.1393054
222	0xbf38af85	-0.7214282
223	0xbfb0a4d6	-1.3800304
224	0xbebeb02d	-0.37243786
225	0x40f8c5f9	7.7741666
226	0xbfce1a09	-1.6101695
227	0xbfe2ccca	-1.7718747
228	0xbeb4f766	-0.35345
229	0x3fe2ccca	1.7718747
230	0x3cf09782	0.02936912
231	0xbee6e12e	-0.45093673
232	0x3f80ced0	1.0063114
233	0x3fb2365c	1.3922839
234	0x3eeead49	0.4661658
235	0xbe7e2576	-0.24818978
236	0x3ef690f3	0.48157462
237	0x3f6ae1fc	0.91751075
238	0xc0a5a29e	-5.1761007
239	0x400b93a1	2.1808856
240	0xbfbc0617	-1.4689358
241	0x3f323b91	0.6962214
242	0x411505b5	9.313893
243	0x3ea698aa	0.32538348
244	0xbfa79993	-1.3093742
245	0x3f9f2210	1.243227
246	0xc00b93a1	-2.1808856
247	0xc076c50d	-3.855777
248	0xbe815af9	-0.2526472
249	0x4011fe2f	2.2811391
250	0xc038c38e	-2.8869357
251	0xbf612dfc	-0.8796079
252	0x3f57d3fb	0.8430783
253	0x3eb28ddd	0.34873858
254	0x401abd35	2.4177983
255	0x3f650461	0.89459807

test_data f4 [150, 1]
0	0xbe799768	-0.24374163
1	0x3fda2a83	1.7044224
2	0x3ee977ff	0.45599362
3	0xbc4e2c56	-0.012583813
4	0x401c9879	2.4468062
5	0xbf3570a2	-0.7087499
6	0x40088aad	2.133464
7	0xbfa910b8	-1.3208227
8	0x3fc696b3	1.551474
9	0xbf40f9ae	-0.7538098
10	0xbf68e9a3	-0.909815
11	0x40ad6f3f	5.41983
12	0x3f3f4bf5	0.74725276
13	0xc11b268b	-9.69691
14	0x3c0971dc	0.008388963
15	0xbf1cc429	-0.61236817
16	0xbd810590	-0.06299889
17	0xc0461a1f	-3.0953443
18	0x3f40f9ae	0.7538098
19	0xbfd40216	-1.6563137
20	0xbf0fc5cf	-0.56161207
21	0x40898a16	4.298106
22	0xbd2be71a	-0.041968442
23	0x3f7d545f	0.98956865
24	0x40db978f	6.862251
25	0xbd89a5f3	-0.067211054
26	0xbf274b21	-0.6534901
27	0x3f213aea	0.6298052
28	0xbedc9e93	-0.43089733
29	0xbf060b14	-0.52360654
30	0x3e5578b8	0.20846832
31	0x3f5b873b	0.8575322
32	0xbde03b6c	-0.10948834
33	0xbfe0980a	-1.7546399
34	0xbea43984	-0.3207513
35	0xbf791d2e	-0.9731015
36	0x3fa34c6c	1.2757697
37	0x3ed78b8e	0.4209866
38	0x409b20d5	4.847758
39	0xbf16eb8b	-0.5895316
40	0xbfc2fa2a	-1.5232594
41	0xbe883b3c	-0.26607692
42	0x431ef0ce	158.94064
43	0xc0434c4b	-3.0515316
44	0xbeda13e8	-0.42593312
45	0xc082199d	-4.0656266
46	0xc100a615	-8.040547
47	0xbe05e6e6	-0.13076362
48	0xc10a1912	-8.631121
49	0x3f55ff5f	0.8359279
50	0x41290909	10.564706
51	0x3d1ab1f9	0.037767384
52	0xbf140a56	-0.5782827
53	0xbde8ede2	-0.113734975
54	0x400d22dc	2.2052526
55	0x4253e603	52.97462
56	0x3e83a474	0.25711405
57	0xbe0a45da	-0.13503209
58	0xa50d3132	-1.2246469e-16
59	0xc166d1f9	-14.426263
60	0xbdd78b01	-0.1052456
61	0x405bfabe	3.437179
62	0xbf8d4835	-1.1037661
63	0x3f2bedc3	0.6715967
64	0x3f89c207	1.0762337
65	0x3f47cc40	0.78046036
66	0x3f16eb8b	0.5895316
67	0x3f22bbda	0.6356789
68	0x3f542e09	0.82882744
69	0x3e364814	0.17800933
70	0x3fbc0617	1.4689358
71	0xc0f8c5f9	-7.7741666
72	0xbfaa8c0a	-1.3323987
73	0x3ff3373d	1.9001232
74	0xbf99c70a	-1.2013867
75	0xc0b19b37	-5.550197
76	0xbf243ed8	-0.6415839
77	0xbf5f4836	-0.8721956
78	0x3d3d1dc7	0.046170976
79	0x4013ac9f	2.307411
80	0xbe50fe66	-0.20409545
81	0x3ffd71a3	1.9800304
82	0x3f0e5d13	0.5561077
83	0xbec60f31	-0.38683465
84	0x3dfa5943	0.122240566
85	0xbe439b05	-0.19102104
86	0x3fa081c6	1.2539604
87	0xc01057e8	-2.2553654
88	0x419871f8	19.055649
89	0xbe8f2753	-0.2795969
90	0x4076c50d	3.855777
91	0xbf89c207	-1.0762337
92	0xbfb2365c	-1.3922839
93	0xbe4c8609	-0.19973005
94	0x3f3bf887	0.734261
95	0x4086f8ce	4.2178717
96	0xbef3ed0c	-0.4764179
97	0xbe9178c5	-0.28412452
98	0x3f4d0871	0.80091006
99	0xbffd71a3	-1.9800304
100	0x3e8cd746	0.2750799
101	0x40bf6008	5.9804726
102	0xbf84175f	-1.0319632
103	0xc1432f78	-12.199089
104	0xbf4ecd2d	-0.80781823
105	0xbe176a7d	-0.14786716
106	0xbd097e3e	-0.03356766
107	0xc097e7bf	-4.7470393
108	0xc0206ce8	-2.506647
109	0x3e961fee	0.29321235
110	0x3dcedc8c	0.1010066
111	0xbfb8ac9e	-1.4427679
112	0x3fbdbacb	1.482263
113	0x3c4e2c56	0.012583813
114	0xbfa1e533	-1.2648071
115	0xc11505b5	-9.313893
116	0xbf5d65fa	-0.8648373
117	0x4212ae16	36.670006
118	0xbf1b4b2a	-0.60661566
119	0x40b5fa17	5.6867785
120	0x3fee57c1	1.862053
121	0x4038c38e	2.8869357
122	0x40847e61	4.140427
123	0x40156379	2.3341963
124	0x3f972e18	1.1810942
125	0xc0c9c424	-6.305193
126	0x3ea8f978	0.3300283
127	0x40e94a54	7.2903233
128	0xbf972e18	-1.1810942
129	0xbe750bbc	-0.23930258
130	0xc06e848b	-3.7268398
131	0x3f25c3ed	0.64752084
132	0x4175c20f	15.359878
133	0xbdb4dc28	-0.08831054
134	0x3ef93796	0.4867522
135	0x41b58809	22.691423
136	0x41a5b982	20.71558
137	0x4121cc68	10.112404
138	0xc03649c2	-2.8482518
139	0xbf3a52bd	-0.727825
140	0xbf2bedc3	-0.6715967
141	0x3ff5b600	1.9196167
142	0xbeb02622	-0.34404093
143	0xbd3d1dc7	-0.046170976
144	0xc0ad6f3f	-5.41983
145	0xc09b20d5	-4.847758
146	0x3f04ad99	0.5182739
147	0x407b1960	3.9234238
148	0xbf8fafb1	-1.1225492
149	0xbea1dc00	-0.3161316

0.weight f4 [100, 1]
0	0xbcb81340	-0.022470117
1	0xbf209de5	-0.6274093
2	0xbf01bf1a	-0.5068222
3	0xbe829fbd	-0.25512496
4	0xbd97e190	-0.074160695
5	0xbd123cd9	-0.03570256
6	0xbd52f2e0	-0.051501155
7	0x3f353867	0.7078919
8	0x3e871158	0.2638042
9	0x3ead8b60	0.33895397
10	0x3f401316	0.7502912
11	0xbf72216e	-0.9458226
12	0x3ef17386	0.4715845
13	0x3ec8d2d8	0.3922336
14	0x3e503e9d	0.20336385
15	0x3f141724	0.5784781
16	0x3f58fd4a	0.8476149
17	0x3f4a66ac	0.79062915
18	0x3eea3297	0.45741722
19	0xbec4ba8a	-0.38423568
20	0x3f37f09a	0.71851504
21	0x3e7c6853	0.24649172
22	0xbf5f3a24	-0.8719809
23	0x3d0ce03c	0.034393534
24	0xbf61c2fc	-0.8818815
25	0xbe038ae4	-0.12845951
26	0x3eab98ac	0.33514917
27	0x3d2981ca	0.041383542
28	0x3f0f26e8	0.5591874
29	0x3edfd934	0.437204
30	0x3f2631b3	0.64919585
31	0xbf0c4402	-0.5479127
32	0x3f19ea57	0.601232
33	0xbf26fe57	-0.6523184
34	0x3ddd9ad3	0.10820546
35	0x3f302726	0.68809736
36	0xbf551bd0	-0.83245564
37	0x3dcd589c	0.100266665
38	0x3f56e266	0.83939207
39	0xbf4cf3a7	-0.80059284
40	0x3f71ce42	0.9445535
41	0xbeda8290	-0.42677736
42	0x3f6ab396	0.91680276
43	0x3f641956	0.8910116
44	0xbf68c7b8	-0.90929747
45	0xbe6c5636	-0.23079762
46	0xbd6594d5	-0.05605014
47	0x3f4c3654	0.797704
48	0xbf310bac	-0.69158435
49	0x3f335a54	0.70059705
50	0x3f28679e	0.6578311
51	0xbe63e888	-0.22256672
52	0x3e026b80	0.1273632
53	0xbf153a08	-0.58291674
54	0x3eff4d6c	0.49863756
55	0x3f444ce1	0.7667981
56	0xbf1649f2	-0.5870658
57	0xbf20ba8b	-0.6278464
58	0xbeac25f4	-0.33622706
59	0xbec2e3be	-0.38064378
60	0x3f423946	0.7586864
61	0xbf2d8ee2	-0.67796147
62	0x3ef5c11c	0.47998893
63	0x3e8d9a1e	0.27656645
64	0x3d9ba8a0	0.07600522
65	0xbf03cff7	-0.51489204
66	0x3e992050	0.29907465
67	0xbf17d25a	-0.59305346
68	0xbf1a7f41	-0.60350424
69	0x3de0a3bd	0.109687306
70	0xbd879740	-0.066206455
71	0xbd8b5533	-0.0680336
72	0x3f094176	0.5361551
73	0x3f4629da	0.7740761
74	0xbd6f3075	-0.05839582
75	0xbf62d6b4	-0.8860886
76	0x3ccafcc0	0.024778724
77	0xbf54dd62	-0.83150303
78	0x3e101d8f	0.14073776
79	0x3f2bba0f	0.6708078
80	0xbd525220	-0.05134785
81	0x3f65a962	0.8971158
82	0x3d223aaf	0.039606746
83	0x3e84ec8f	0.2596173
84	0xbdde7051	-0.108612664
85	0xbf1c059a	-0.6094605
86	0xbd37cce0	-0.04487312
87	0x3d4299c6	0.04750993
88	0x3f0b26d4	0.5435612
89	0x3f774564	0.96590257
90	0x3f197339	0.5994144
91	0x3e5d13f0	0.21589637
92	0xbbbec0e7	-0.0058213356
93	0x3cae421d	0.02127176
94	0x3edeec0c	0.43539464
95	0xbe10edd8	-0.1415323
96	0x3f4904a6	0.7852272
97	0xbf69b76f	-0.9129552
98	0xbec8cdcc	-0.3921951
99	0xbf1cdb7c	-0.61272407

0.bias f4 [100]
0	0xbf71e4fa	-0.94490016
1	0x3f5baca5	0.8581031
2	0x3ee9533a	0.4557131
3	0x3edb668e	0.4285168
4	0xbeb8dffc	-0.36108387
5	0x3f17e3d8	0.59332037
6	0xbeff33a4	-0.49844086
7	0x3edfd09a	0.43713838
8	0xbbbea20f	-0.0058176587
9	0x3e347d9a	0.17626038
10	0xbc79c9ec	-0.015245896
11	0x3bc0b665	0.005881118
12	0x3eba8705	0.36431137
13	0x3e8e2e4f	0.27769706
14	0x3f533cc3	0.8251459
15	0xbe256379	-0.16151227
16	0x3f0b1fc7	0.54345363
17	0xbf3b2e25	-0.73117286
18	0xbda9d58e	-0.082926854
19	0x3f3136a0	0.69223976
20	0x3ec9fd8b	0.3945125
21	0x3ed97cbf	0.42477986
22	0xbecbe25c	-0.39821136
23	0x3f419d1c	0.75630355
24	0x3e49035e	0.1963019
25	0xbd74c91b	-0.0597621
26	0xbf3277f2	-0.6971427
27	0x3dacba2d	0.08433948
28	0xbeb9c082	-0.36279684
29	0xbe783a3b	-0.24240963
30	0xbcc39880	-0.023876429
31	0x3dcc603d	0.099792935
32	0xbe89d6ae	-0.269216
33	0xbf232fcb	-0.637448
34	0x3f24f44f	0.64435285
35	0xbf2b1671	-0.6683112
36	0x3ebe7f1b	0.3720635
37	0x3f36c915	0.71400577
38	0xbf5e7990	-0.8690424
39	0x3edbed81	0.4295464
40	0xbe77b250	-0.24189115
41	0xbef45a70	-0.47725248
42	0x3ea082b2	0.31349713
43	0xbf124233	-0.5713226
44	0x3f040e28	0.515841
45	0x3f0c0a10	0.54702854
46	0x3f61bf85	0.8818286
47	0xbf558d94	-0.83419156
48	0x3bef9504	0.007311465
49	0xbf4abf82	-0.7919847
50	0x3e371e57	0.17882667
51	0xbe968404	-0.29397595
52	0xbf0247ee	-0.50891006
53	0x3df1ae27	0.11800795
54	0xbf774ce6	-0.9660171
55	0x3e168e58	0.14702737
56	0xbe5971d7	-0.21234833
57	0xbea5b050	-0.32361078
58	0xbeda91f0	-0.42689466
59	0xbe8b0db1	-0.27158883
60	0xbf7a7892	-0.97840226
61	0xbf419054	-0.7561085
62	0xbf2b372e	-0.6688107
63	0x3f490839	0.7852817
64	0xbf0a1570	-0.5393896
65	0x3f30f884	0.69129205
66	0xbe8707b9	-0.2637308
67	0xbf7fb520	-0.9988575
68	0xbe9e2680	-0.30888748
69	0x3e7f1a97	0.24912487
70	0xbf3c3e64	-0.735327
71	0x3e8c9874	0.27460063
72	0xbf77b07a	-0.96753657
73	0x3dc149ec	0.094379276
74	0x3f7158bc	0.9427602
75	0xbe3aec8b	-0.18254296
76	0xbf431bde	-0.76214397
77	0x3d122577	0.03568026
78	0x3f2846a7	0.65732807
79	0x3f57e541	0.8433419
80	0xbedc46a0	-0.43022633
81	0xbe174838	-0.14773643
82	0x3f1acaf8	0.60465956
83	0x3ecd8f8d	0.40148583
84	0x3f68f12d	0.90993005
85	0x3f3299fc	0.6976621
86	0xbf39ea86	-0.7262348
87	0xbc577d2f	-0.013152405
88	0xbd859044	-0.06521657
89	0xbf7160b4	-0.9428818
90	0x3f3d97b8	0.7405963
91	0xbee40ec8	-0.44542527
92	0x3f286ae3	0.65788096
93	0x3f725b51	0.9467059
94	0x3b5f5251	0.0034076164
95	0xbe2ad100	-0.1668129
96	0x3ea46c39	0.32113817
97	0x3f27684f	0.6539354
98	0x3f6dee83	0.92942065
99	0x3f6d26e5	0.92637473

2.weight f4 [1, 100]
0	0x3daaaf05	0.083341636
1	0xbdc750ff	-0.09732246
2	0x3dbfaa96	0.093587086
3	0xbda4c667	-0.08045655
4	0xbdbbc0d5	-0.09167639
5	0xbdc2f635	-0.095196165
6	0xbd54f797	-0.051993933
7	0xbcc81070	-0.0244219
8	0xbd8cb78e	-0.06870948
9	0xbd47a9f4	-0.048746064
10	0x3ccd24fc	0.02504205
11	0x3cdcad81	0.026938202
12	0xbd907575	-0.07053653
13	0xbbf2c8df	-0.0074091996
14	0xbdadb974	-0.08482638
15	0x3bb33653	0.0054691224
16	0xbe0c6367	-0.13709794
17	0x3cd952f6	0.026528817
18	0x3d0dd70b	0.03462891
19	0xbda05f2d	-0.07830653
20	0xbe0e1c96	-0.13878092
21	0xbda1876f	-0.0788716
22	0xbd50deef	-0.050993856
23	0xbd145423	-0.03621305
24	0x3da715b6	0.08158438
25	0x3ce87552	0.028376255
26	0xbda5f9b0	-0.08104265
27	0x3d245f11	0.040129725
28	0xbd2f499a	-0.0427948
29	0x3da975df	0.08274435
30	0xbdce0931	-0.10060347
31	0xbd3db408	-0.04631427
32	0x3c9e77b7	0.019344194
33	0xbd094b37	-0.033518996
34	0xbdf29e5e	-0.118466124
35	0xbc6ee741	-0.014581502
36	0xbc91218f	-0.017716197
37	0xbd47fbf9	-0.048824284
38	0xbcb475d4	-0.022028841
39	0x3ddfb14f	0.10922491
40	0x3cea3a46	0.02859224
41	0x3d928fc9	0.07156331
42	0xbd3da240	-0.04629731
43	0x3d6485df	0.055791732
44	0xbd47a709	-0.04874328
45	0x3c8726e3	0.016498035
46	0xbd9d834a	-0.07691057
47	0xbb84d1b0	-0.004053317
48	0xbc89c2eb	-0.016816577
49	0x3c4be250	0.012444094
50	0xbcca34af	-0.024683325
51	0xbdc92273	-0.09821024
52	0xbb69bfc0	-0.003566727
53	0x3d57f6f5	0.05272575
54	0x3da7322d	0.08163867
55	0xbd2a6398	-0.041598886
56	0x3dad3624	0.08457592
57	0x3a728fb3	0.000925298
58	0x3db294e1	0.08719803
59	0xbdbb3997	-0.09141844
60	0xb88f9800	-6.8470836e-05
61	0xbd59ce87	-0.053175475
62	0x3d90b5ed	0.070659496
63	0xbc979a7b	-0.01850628
64	0x3d85464b	0.06507548
65	0x3d213c77	0.039364304
66	0xbd690f21	-0.056899194
67	0xbd59c3d0	-0.053165257
68	0xbd9ffa4c	-0.07811412
69	0x3cddeb4c	0.027089737
70	0x3cfa20bc	0.030533187
71	0xbce9bd78	-0.028532729
72	0xbd655b0a	-0.055995025
73	0xbce45b8d	-0.027875686
74	0xbdeb2b00	-0.11482811
75	0x3de8b5db	0.11362811
76	0x3ccd37c4	0.025051005
77	0xbb8433de	-0.0040345034
78	0xbdd9f4f7	-0.106424265
79	0xbd7fb922	-0.062432416
80	0xbd8b8188	-0.068118155
81	0xbd9e9f54	-0.07745233
82	0xbde78013	-0.11303725
83	0xbd94d264	-0.07266691
84	0xbda724ec	-0.08161339
85	0x3cde28e6	0.027119111
86	0x3d872fdf	0.066009276
87	0x3d7c70e8	0.061631113
88	0xbc9dd769	-0.019267755
89	0x3d5ed51c	0.054402456
90	0xbddc6ada	-0.10762568
91	0x3d9f7f9f	0.07788014
92	0xbe10b539	-0.14131631
93	0xbcaf29ec	-0.021382295
94	0xbc33aa99	-0.010965967
95	0xbd95824b	-0.07300242
96	0xbc8cb33c	-0.01717531
97	0x3b725d28	0.0036981795
98	0xbbe9d784	-0.007136287
99	0x3d848d56	0.0647227
