complete/tan/state9.pt (torch, 10937 bytes, 9 tensors)

weight f4 [100, 1]
000000 81 ed 01 3f 1b 8c 8a 40 f9 8b 1e bf 86 5a 20 bf
       0.5075303 4.3296027 -0.6193233 -0.6263813
000010 d1 d4 54 41 95 18 11 bf 20 8a 84 3e 9e 3e 4f 3e
       13.301957 -0.56678134 0.2588663 0.2023873
000020 18 43 75 41 5f de b6 3e 2d dd 4d 3e d0 c8 11 3e
       15.32888 0.3571653 0.20103903 0.1423676
000030 58 3b f7 3e 12 3f 8e bd 06 01 17 c1 dd dd 5a be
       0.48287463 -0.069456235 -9.43775 -0.21373697
000040 5b 9d 4e c1 48 12 bf 3e 68 34 9f be 73 44 6e 3e
       -12.913417 0.37318635 -0.3109467 0.23268299
000050 b4 e1 d5 3e 76 21 6e 40 1b 17 1d c1 60 fe df c0
       0.4177376 3.7207923 -9.818141 -6.9998016
000060 c9 6e ed be c0 29 a1 3e 50 64 26 3e bb bf 4f 41
       -0.46373585 0.31477165 0.16249204 12.984309
000070 70 eb 6e 3e 82 96 97 3e f6 a5 04 bf 6e 1b 29 bf
       0.23332 0.29607016 -0.51815736 -0.6605748
000080 ca 5b bf c0 58 04 32 be 08 2d 81 41 00 03 2b be
       -5.9799547 -0.1738447 16.146988 -0.16700363
000090 78 cd f2 3e e7 88 e3 c0 b2 ff e7 3b f6 41 3f bf
       0.47422385 -7.1104617 0.007080042 -0.74710023
0000a0 c2 5e 22 3f 64 27 d9 be 65 a2 b7 3e c3 02 b9 bd
       0.6342584 -0.42412865 0.35866085 -0.0903373
0000b0 54 63 20 bf 86 d5 8e 3d 70 bd a8 be d3 6d 97 3d
       -0.6265156 0.0697432 -0.3295703 0.07393994
0000c0 08 b2 c6 3e 01 13 22 bf 71 09 81 3d 82 55 c4 c0
       0.38807702 -0.6331025 0.06300629 -6.135438
0000d0 c0 11 a2 3b c5 59 ac bd 57 ac 9d 40 fc a7 bb 40
       0.0049459636 -0.0841556 4.9272876 5.864256
0000e0 8d ee aa bd 94 da 84 40 2a 6e 2c bf f6 a4 00 be
       -0.08346281 4.151682 -0.67355597 -0.12562928
0000f0 2c f3 d8 3e d0 df 91 bd 30 1f 10 3f 9b db b7 3e
       0.42373025 -0.07122767 0.5629759 0.35909733
000100 00 42 2e 3c 60 92 b0 3e 28 38 26 41 0f b0 0d bc
       0.010635853 0.34486675 10.38871 -0.008647933
000110 1c f9 5f c1 af 84 10 41 fc 41 6e 3e f0 28 b0 3d
       -13.998318 9.032393 0.23267359 0.08601558
000120 ae 8b 36 3f 29 3e 48 be c4 cc 95 be e0 1a 87 3c
       0.71306884 -0.19554962 -0.29257786 0.016492307
000130 17 11 56 40 76 c9 2d bd 7e f9 20 c1 5f 7b 61 3d
       3.344793 -0.042428456 -10.060911 0.055049296
000140 05 0d a9 3e 09 51 89 c0 9a 36 ae c0 4f b7 48 3f
       0.33017746 -4.291142 -5.444165 0.78404707
000150 90 9b 14 41 6f 04 cf c0 df ae 0b c1 b2 fc ca be
       9.287979 -6.469291 -8.730193 -0.39645916
000160 e6 b7 37 3f 38 f9 06 c1 96 68 1b 3d 55 23 1f 41
       0.7176498 -8.435844 0.037941538 9.946126
000170 90 df 85 be cf 24 4c be a8 b0 60 3e 3c 89 be 3e
       -0.26147127 -0.19935916 0.21942389 0.37214077
000180 b8 69 aa be c7 fc 27 c0 67 5e 07 41 a5 d6 d8 bd
       -0.33283782 -2.6248033 8.460547 -0.10587815

bias f4 [100]
000000 6d 83 5e 3e 3b 38 f8 bf 92 2a 67 3e 83 c9 69 3e
       0.21729822 -1.939216 0.22574833 0.22830777
000010 91 8b b9 c0 5d 8a 53 3e 9c 52 e1 be ba 76 b1 3d
       -5.798287 0.2065825 -0.44008338 0.086652234
000020 85 d1 d5 c0 58 b1 1c 3e 49 48 b0 3d d2 12 24 bf
       -6.681826 0.15302026 0.08607537 -0.6409122
000030 f2 6c 5f bf f4 61 cf 3c 52 73 85 c0 be 8e 9f 3d
       -0.8727561 0.025315262 -4.170327 0.07790898
000040 c1 98 b6 c0 80 3a e5 be cc 6b 2b bf 84 00 cc 3d
       -5.7061467 -0.44771194 -0.6696136 0.09961036
000050 3c e1 24 bf 70 54 d5 bf 38 d4 8a c0 59 d6 5f c0
       -0.6440618 -1.6666393 -4.3384056 -3.4974577
000060 38 14 2d 3e 6c fc 09 3e 78 81 02 bf 64 1d b5 c0
       0.16902244 0.13475198 -0.50978804 -5.6598377
000070 60 7c d5 be 18 ce 01 3e 86 47 2d bf 5a 8d 76 3e
       -0.41696453 0.12676275 -0.6768726 0.24077359
000080 aa 8d 45 c0 90 2c dd be 64 3b e1 c0 50 5a 6d be
       -3.0867715 -0.4319806 -7.0385 -0.23178983
000090 04 90 26 bf 94 15 49 c0 75 ca 46 3b 40 5a 5a bf
       -0.650635 -3.141942 0.0030333076 -0.8529396
0000a0 0c ce 3d bf 0e 20 73 bf bd 3f 1d 3e 7d dd 06 3d
       -0.7414253 -0.94970787 0.15356345 0.03292607
0000b0 e2 3b 6f bf 7a 9e f4 3c e2 03 f6 3d 4a ab 01 3d
       -0.9345075 0.029860724 0.12012459 0.031657495
0000c0 f0 50 5a bf ed 4a 6c 3e 33 fd dc 3c 0e 86 44 c0
       -0.8527975 0.23075457 0.026976204 -3.070682
0000d0 32 c8 0a 3b 19 47 fb 3c 40 75 09 c0 48 49 49 c0
       0.0021176455 0.03067355 -2.1477814 -3.1450977
0000e0 ac 35 f9 3c 9a 15 ec bf ee 65 7b 3e d6 8e 3b 3d
       0.0304211 -1.8444092 0.24550602 0.045790516
0000f0 33 c6 39 3e 3f ac d4 3c 75 ca 76 3e 66 70 1d 3e
       0.18142013 0.02596104 0.24100669 0.15374908
000100 b4 a6 dd be e2 11 31 bf bb 8e 92 c0 d8 91 4e 3b
       -0.43291247 -0.6916791 -4.579923 0.0031520035
000110 e2 ef c5 c0 63 f0 9a c0 7d 05 cc 3d 1c a3 c5 be
       -6.1855326 -4.841844 0.09961984 -0.38601005
000120 cc 7d 4b bf 17 f8 91 3d d2 cf 21 bf bf 61 e7 3b
       -0.79488826 0.071273975 -0.63207734 0.007061213
000130 6c 9f ba bf 00 62 7d 3c d4 42 8e c0 29 0e c1 3c
       -1.4579902 0.01546526 -4.4456577 0.023566322
000140 60 c2 10 3e d6 a1 0d c0 c3 78 33 c0 b3 fb ae be
       0.14136648 -2.2130027 -2.8042457 -0.34176406
000150 28 8e 81 c0 26 5d 55 c0 0e e4 76 c0 25 fb 13 3e
       -4.048603 -3.3338103 -3.8576694 0.14451273
000160 f4 42 5f bf f7 90 6e c0 dc 29 85 3c 0c b1 aa c0
       -0.8721154 -3.727598 0.016255312 -5.334112
000170 69 2d c3 3d de d0 94 3d ea aa 58 bf d0 9b e4 be
       0.09530146 0.07266401 -0.84635794 -0.44650126
000180 ef 72 f8 3d 9a 75 94 bf 0c 23 ab c0 c3 11 1e 3d
       0.12131297 -1.1598389 -5.348028 0.038591158

weight f4 [1, 100]
000000 f6 9a d8 3e 94 e8 56 40 3b 1d f7 be a8 ed f9 be
       0.42305726 3.3579454 -0.4826449 -0.4881413
000010 b8 32 43 c0 fb 25 e2 be aa 1e 70 bd 61 c0 2c 3e
       -3.0499706 -0.44169602 -0.058622994 0.16870262
000020 33 f1 60 c0 be 72 98 3e ea 99 2b 3e 19 c5 bd 3d
       -3.5147216 0.2977504 0.16757932 0.09266109
000030 69 8a 93 3d 9f b4 5d bd a4 36 e5 3f ac 90 2a be
       0.07204134 -0.05412733 1.79073 -0.1665675
000040 24 d0 1c 40 67 30 1e bd c4 91 f1 3c e7 9a 46 3e
       2.450204 -0.03862038 0.029488452 0.19395028
000050 a0 d0 82 3c 75 84 36 40 c2 73 ee 3f a9 45 c6 c0
       0.01596862 2.8518345 1.8629076 -6.1960034
000060 2b 08 b9 be fb 55 86 3e b0 b4 6d 3c 8a 89 3e c0
       -0.36139044 0.26237473 0.014508411 -2.9771447
000070 a0 ab 1d bd 49 b7 7c 3e fd 31 9d bd 1f c9 03 bf
       -0.038493752 0.24679293 -0.0767555 -0.5147876
000080 da b2 aa c0 62 97 52 3d 6d f2 6c c0 ea 8a cb bd
       -5.3343325 0.0514139 -3.7022965 -0.09938605
000090 ad 67 4b bd d2 b0 ac 3f c1 67 c1 3b fc 0d f1 3c
       -0.04965942 1.3491461 0.005902261 0.029425614
0000a0 33 52 59 bd 01 7e ae 3d 64 12 99 3e d9 2d 90 bd
       -0.053056907 0.08520127 0.29896843 -0.07039995
0000b0 ab 68 9d 3d a7 1f 6e 3d e9 7f 83 be a4 73 7c 3d
       0.076859795 0.058135655 -0.25683525 0.06163372
0000c0 e9 34 b3 3d 3f 9c fc be eb 1e 57 3d 3b 86 ae c0
       0.08750326 -0.49337956 0.05251972 -5.4538856
0000d0 82 18 87 3b 8a 50 86 bd 1d 9c 90 bf 35 e7 9d 40
       0.0041227946 -0.0655833 -1.1297642 4.9344735
0000e0 49 35 85 bd f7 fe 4f 40 1e 60 06 bf c8 81 c8 bd
       -0.06504304 3.2499368 -0.52490413 -0.09790379
0000f0 54 d7 b4 3e 5c 5c 63 bd 39 43 f0 3e 15 42 99 3e
       0.35320532 -0.055508003 0.46926287 0.2993323
000100 17 17 71 bd 97 38 21 bd 75 c0 07 41 03 d6 dc bb
       -0.05885991 -0.03936061 8.484487 -0.0067393794
000110 d0 fc 29 40 a6 da f1 40 72 9a 46 3e 0d a5 1d bd
       2.6560555 7.5579405 0.19394854 -0.038487483
000120 fc 1a 12 bd bb 0c 1c be da 85 a8 bd 14 3d 61 3c
       -0.035670266 -0.15239231 -0.08228655 0.013747472
000130 a1 54 44 bf 0b 6f 07 bd 24 59 f4 3f e1 f2 3b 3d
       -0.76691633 -0.033064883 1.9089704 0.045885924
000140 2f ea 8c 3e dc 25 6c c0 2a 93 9b c0 51 16 38 be
       0.27522418 -3.6898108 -4.8617144 -0.17977263
000150 a6 4b 08 c0 1e 9c b8 c0 86 07 d4 3f a9 30 9e be
       -2.1296172 -5.7690573 1.6564796 -0.308965
000160 76 d0 3e 3d 76 e1 cc 3f 52 8e 01 3d 31 db 05 41
       0.046585523 1.6006305 0.031629868 8.366014
000170 f7 a7 50 be 04 17 1f be 88 7c bf bc 82 5a 1e 3d
       -0.20376574 -0.15536124 -0.02337481 0.038660534
000180 b0 cd 84 be 76 fe fe 3e 85 37 18 c1 d7 fb a8 bd
       -0.25938177 0.49803513 -9.513555 -0.0825116

train_data f4 [600, 1]
000000 21 56 94 3e 06 e6 7b bf 96 4d f1 3e 9f 0b 16 3f
       0.2897196 -0.9839786 0.47129506 0.5861148
000010 32 81 5e bf 1f b4 95 3e 81 de 29 bf a3 4f 13 bf
       -0.86915886 0.29238984 -0.6635514 -0.5754339
000020 3c ab 57 bf 8a b7 23 bf 30 c4 8a be 1c 8b 6d bf
       -0.8424566 -0.63951933 -0.27102804 -0.9279039
000030 28 3c 90 be 2a de 8e be d9 de 44 bc e5 aa bc bd
       -0.28170896 -0.27903873 -0.012016022 -0.09212283
000040 98 ef ef be 48 26 50 bf 50 ae 4a bf 81 de 29 3f
       -0.46862483 -0.8130841 -0.7917223 0.6635514
000050 2e 3d 61 bf 09 d9 79 bf 82 f9 fe 3e 19 98 6f bf
       -0.8798398 -0.97596794 0.49799734 -0.9359146
000060 52 50 49 3f 40 9e 55 3f 86 73 26 3f 8e aa 21 bf
       0.78638184 0.83444595 0.65020025 -0.6315087
000070 92 ee 1e 3f 13 e8 9d 3e 01 51 7f 3f 8d 74 77 be
       0.6208278 0.3084112 0.9973298 -0.24165554
000080 78 05 30 3f e4 59 bd 3e 40 9e 55 bf 17 f6 70 3f
       0.68758345 0.36982644 -0.83444595 0.94125503
000090 9d 69 17 bf 9d 69 17 3f 74 c1 32 bf b8 be da 3b
       -0.5914553 0.5914553 -0.69826436 0.0066755675
0000a0 94 ab f2 3e 88 15 25 bf 42 40 54 3f fb 4f ae be
       0.4739653 -0.6448598 0.8291055 -0.34045395
0000b0 44 e2 52 bf f8 ad af 3e a0 77 ea 3e 49 77 4f 3f
       -0.82376504 0.34312415 0.45794392 0.8104139
0000c0 b4 7a dd bd e2 b7 be 3e 0f a4 a0 be 1c 8b 6d 3f
       -0.108144194 0.37249666 -0.31375167 0.9279039
0000d0 d2 a7 c9 3e 71 ce 34 bf f5 ba b1 3d 2c 9b 62 3f
       0.3938585 -0.70627505 0.08678237 0.88518023
0000e0 09 be a4 3e d5 9a c7 3d bf da 00 3f 73 70 33 bf
       0.32176235 0.09746329 0.5033378 -0.7009346
0000f0 2d d1 0c be 89 30 7a be 1b 3a 6e bf dd 22 c2 3d
       -0.13751669 -0.24432577 -0.9305741 0.09479306
000100 00 e5 2a be 11 61 74 bf e7 4c 3b be 36 c5 5b 3f
       -0.16688919 -0.9546061 -0.18291055 0.85847795
000110 35 59 07 3e 01 36 aa be e2 b7 be be b6 1c 5c 3e
       0.13217624 -0.33244327 -0.37249666 0.21495327
000120 71 ce 34 3f f6 0b b1 be 0e 6e 76 3f a4 bb e7 be
       0.70627505 -0.34579438 0.9626168 -0.45260346
000130 58 36 45 bf cc 12 cd bd 9e d5 eb 3e bc 02 d8 bd
       -0.77036047 -0.10013351 0.46061414 -0.105473965
000140 b9 f4 04 3f 9d 84 6c 3e 2e 22 8c 3e d6 eb c6 3e
       0.5193592 0.23097463 0.27369827 0.38851804
000150 69 46 3a bf 32 66 89 be 29 a8 64 bf 91 b8 74 3e
       -0.7276369 -0.2683578 -0.8931909 0.23898531
000160 c0 2b 00 3f ab d7 0d 3f de 73 c1 be af 1b 0b bf
       0.5006676 0.5540721 -0.37783712 -0.54339117
000170 4a c8 4e 3f 29 8d 0f be b7 6d db be 20 cf 6a bf
       0.80774367 -0.14018692 -0.42857143 -0.917223
000180 64 02 3d bf 60 be 3f bf 23 a7 13 3d ba 60 59 be
       -0.7383177 -0.74899864 0.036048066 -0.21228305
000190 d0 56 4a 3d 74 c1 32 3f 1a e9 6e 3f fd f1 ac 3e
       0.049399197 0.69826436 0.93324435 0.33778372
0001a0 1b 3a 6e 3f ac f2 e2 bd 9c 18 18 bf aa 50 64 3e
       0.9305741 -0.11081442 -0.5941255 0.22296396
0001b0 ec e1 b7 be 48 26 50 3f 90 67 f5 be 89 66 24 3f
       -0.35914552 0.8130841 -0.47930574 0.64218956
0001c0 b0 6c 0a bf a7 93 10 3f bd 38 02 3f 6c 39 38 bf
       -0.54072094 0.564753 0.50867826 -0.7196262
0001d0 e4 59 bd be 2c 80 8d 3e 1e 63 96 bd 1a e9 6e bf
       -0.36982644 0.2763685 -0.07343124 -0.93324435
0001e0 bc e7 02 3f 88 df fa be 41 ef 54 bf 83 80 28 3f
       0.5113485 -0.48998666 -0.8317757 0.65821093
0001f0 1e 63 96 3d fc a0 2d 3e bc e7 02 bf a0 5c 15 bf
       0.07343124 0.16955942 -0.5113485 -0.5834446
000200 46 84 51 3f aa 86 0e bf 96 4d f1 be 5e 1c 41 bf
       0.8184246 -0.5567423 -0.47129506 -0.7543391
000210 2a f9 63 3f ae ca 0b bf 1b 70 98 3e bc 02 d8 3d
       0.8905207 -0.5460614 0.2977303 0.105473965
000220 e6 fb bb be 53 a1 48 3f 84 9b fd be dc d1 c2 3e
       -0.3671562 0.7837116 -0.49532712 0.38050735
000230 31 15 0a be a8 e4 0f bf d3 f8 48 3e 44 e2 52 3f
       -0.13484646 -0.56208277 0.19626169 0.82376504
000240 24 13 68 3f a6 42 11 bf 30 df 5f 3f f0 25 b5 be
       0.90654206 -0.5674232 0.8744993 -0.35380507
000250 a3 6a e8 bd af e5 e0 3e 95 fc 71 3e 73 70 33 3f
       -0.11348464 0.43925235 0.23631509 0.7009346
000260 f2 c7 b3 be 04 44 7d 3f c6 2c 51 be 2d ec 61 bf
       -0.35113484 0.9893191 -0.20427236 -0.88251
000270 c8 ce cf bc b8 a3 05 bf ff 93 ab be 16 db 9b 3d
       -0.025367156 -0.5220294 -0.3351135 0.07610147
000280 3c 90 82 be 36 aa 86 3e 29 a8 64 3f 26 9a 91 3e
       -0.25500667 0.26301736 0.8931909 0.28437918
000290 2b 4a 63 3f ba 60 59 3e 25 49 12 be 08 6d 25 be
       0.88785046 0.21228305 -0.14285715 -0.16154873
0002a0 fb 4f ae 3e 15 54 72 bf c0 2b 00 bf 61 0f 3f 3f
       0.34045395 -0.9465955 -0.5006676 0.7463284
0002b0 12 97 1e 3d 8e aa 21 3f 17 2c 9b 3e 9e ba 16 3f
       0.03871829 0.6315087 0.30307075 0.58878505
0002c0 ab a1 e3 be 37 fb 85 3d 82 2f 29 3f 36 aa 86 be
       -0.4445928 0.06542056 0.66088116 -0.26301736
0002d0 01 51 7f bf a5 f1 11 3f fe 42 ac 3d 68 f5 3a bf
       -0.9973298 0.57009345 0.08411215 -0.7303071
0002e0 93 3f 1e bf 70 7d 35 3f 99 40 6f be 9a 76 19 bf
       -0.61815757 0.7089453 -0.23364486 -0.59946597
0002f0 3f 83 80 bd b1 bd 09 3f 67 a4 3b 3f 82 f9 fe be
       -0.06275033 0.5380507 0.73297733 -0.49799734
000300 16 a5 71 3f db 80 43 3e cd 63 cc be c3 39 d3 be
       0.94392526 0.19092123 -0.39919892 -0.41255006
000310 13 03 73 3f 31 15 0a 3e 45 33 52 bf 97 83 1b 3f
       0.94926566 0.13484646 -0.8210948 0.60747665
000320 be a4 56 be 0d 02 a2 3e b3 5f 08 3f 0a 2a 79 bf
       -0.20961282 0.3164219 0.53271025 -0.9732977
000330 96 32 1c bf d7 3c 46 3e 9c 33 ed 3e ed 32 b7 3d
       -0.6101469 0.19359146 0.46328437 0.0894526
000340 85 ec 7c 3e 89 66 24 bf 60 be 3f 3f 04 29 28 3e
       0.246996 -0.64218956 0.74899864 0.16421896
000350 e0 15 c0 3e 2e 22 8c be 80 8d 2a bf 0b 60 a3 be
       0.3751669 -0.27369827 -0.6662216 -0.31909212
000360 7d 9a 2c 3f 13 03 73 bf b5 01 07 bf 56 94 46 3f
       0.6742323 -0.94926566 -0.5273698 0.7757009
000370 27 06 66 bf e9 ee b9 3c 84 d1 27 3f 1c c1 17 be
       -0.8985314 0.022696929 0.6555407 -0.14819759
000380 b4 b0 07 3f 9f 26 6b bd 34 23 5d 3f 8b d2 f8 3d
       0.53004 -0.05740988 0.8638184 0.12149533
000390 9b c7 18 bf ab d7 0d bf 9b e2 ed bd 6a 97 39 3f
       -0.59679574 -0.5540721 -0.11615487 0.72496665
0003a0 6e db 36 3f 35 59 07 be 0d 1d 77 bf d3 f8 48 be
       0.71428573 -0.13217624 -0.965287 -0.19626169
0003b0 0b 60 a3 3e 6f 2c 36 3f b8 be da bb b0 36 60 3d
       0.31909212 0.7116155 -0.0066755675 0.054739654
0003c0 43 91 53 3f bb b1 d8 be fd f1 ac be 17 f6 70 bf
       0.82643527 -0.42323098 -0.33778372 -0.94125503
0003d0 6b e8 38 bf 7c 49 2d bf 2f 73 8b 3d 7b f8 2d 3f
       -0.7222964 -0.67690253 0.06809079 0.67957276
0003e0 16 db 9b bd 45 33 52 3f cb c1 cd be 02 87 29 bd
       -0.07610147 0.8210948 -0.40186915 -0.04138852
0003f0 31 30 5f bf bf f5 d5 3e 8b d2 f8 bd 47 d5 50 3f
       -0.8718291 0.41789052 -0.12149533 0.81575435

train_targets f4 [600, 1]
000000 81 b7 a4 3f 2a 56 4e 3d 78 f1 30 41 1f c4 66 c0
       1.2868501 0.05037514 11.058952 -3.6057203
000010 9a 2b df 3e 93 99 a7 3f ca cc e2 3f 61 7e 84 40
       0.43587953 1.3093742 1.7718747 4.140427
000020 d8 2c 0a 3f ad 8a 08 40 e1 22 92 bf 57 fb 6b 3e
       0.53974676 2.133464 -1.1416894 0.23045097
000030 86 6d 9c bf 0a c7 99 bf f9 b1 1a bd b3 75 98 be
       -1.2220924 -1.2013867 -0.037767384 -0.29777297
000040 68 cc 21 c1 04 60 2a 3f 59 5d 44 3f ca cc e2 bf
       -10.112404 0.6655276 0.7670494 -1.7718747
000050 68 03 cb 3e 8b ea 9a 3d ce f0 1e 43 66 fe 50 3e
       0.39651036 0.07564267 158.94064 0.20409545
000060 be 46 4b bf 6a 9c 12 bf eb d2 fa bf 2f fe 11 40
       -0.7940482 -0.5726992 -1.9595617 2.2811391
000070 e8 6c 20 c0 bc 56 ba 3f dc 71 09 bc fd ea 72 bf
       -2.506647 1.4557719 -0.008388963 -0.94889814
000080 f5 74 bf bf 9f ac 13 40 6a 9c 12 3f 45 28 3f be
       -1.4957567 2.307411 0.5726992 -0.18667705
000090 a6 96 58 40 a6 96 58 c0 5c 36 b2 3f bd d3 ab 3c
       3.3841949 -3.3841949 1.3922839 0.020974988
0000a0 78 2f 43 41 38 c9 02 40 e2 5e 18 bf a4 9e e9 bf
       12.199089 2.0435314 -0.5951978 -1.8251538
0000b0 19 3f 1e 3f c1 57 ee 3f 9a c9 f0 40 c2 7d 2d bf
       0.6181503 1.862053 7.5246096 -0.67770016
0000c0 66 f7 b4 be 00 23 17 40 b5 34 c1 bf 57 fb 6b be
       -0.35345 2.3615112 -1.509421 -0.23045097
0000d0 8e c3 38 40 b8 10 a9 3f 53 27 8f 3e 2f 23 c1 be
       2.8869357 1.3208227 0.2795969 -0.37722155
0000e0 91 2f cc 3f 00 dc a1 3e 6b b9 be c2 ef 17 af 3f
       1.5952016 0.3161316 -95.362144 1.3679179
0000f0 5a 11 ec be 2d 08 77 bf e7 f3 62 3e c1 25 9d 3e
       -0.46106988 -0.9649685 0.22163354 0.30692866
000100 56 0a 14 bf 9b 07 13 3e ed c3 25 bf 0c ed f3 be
       -0.5782827 0.1435837 -0.64752084 -0.4764179
000110 05 bb e1 3e 19 47 dc bf 00 23 17 c0 71 08 4d 3f
       0.44087997 -1.7209197 -2.3615112 0.80091006
000120 b8 10 a9 bf 3d 37 f3 bf 78 a2 f1 bd 5f 51 d5 c0
       -1.3208227 -1.9001232 -0.117985666 -6.666183
000130 fc 2d 61 3f aa 98 a6 be 15 a6 00 41 22 26 b0 be
       0.8796079 -0.32538348 8.040547 -0.34404093
000140 68 60 83 c1 5b 17 63 3f 33 a2 94 3f 01 34 2f 40
       -16.422073 0.8870751 1.1611999 2.737549
000150 ff 60 93 3f b1 af 8f bf dd 8d b2 3e 6f de 6e 3f
       1.1513976 -1.1225492 0.34873858 0.93308157
000160 ec 69 ee c3 a5 8f ba c0 99 7d 1e c0 54 4a e9 40
       -476.8275 -5.8300347 -2.4764159 7.2903233
000170 a0 a4 30 bf d6 4b f1 be 7f 33 8c c0 3c 3b 88 3e
       -0.690012 -0.4712817 -4.381286 0.26607692
000180 07 c2 89 3f d0 ce 80 3f e2 ed e8 3d 07 88 49 bf
       1.0762337 1.0063114 0.113734975 -0.78723186
000190 7b 34 20 3e 5c 36 b2 bf 0c f5 59 be 00 0a e5 3f
       0.1564502 -1.3922839 -0.21284884 1.7893677
0001a0 e7 f3 62 be 00 d0 b9 be 55 16 52 40 fb d3 57 3f
       -0.22163354 -0.36291504 3.282613 0.8430783
0001b0 8b 10 07 c0 04 60 2a bf 0f c2 75 c1 0c 9d 05 c0
       -2.1103847 -0.6655276 -15.359878 -2.0877104
0001c0 f9 c5 f8 40 d5 20 9b c0 16 ae 12 c2 8f 18 9b 3f
       7.7741666 -4.847758 -36.670006 1.211687
0001d0 9f ac 13 c0 18 2e 97 3f 65 82 70 be 0c f5 59 3e
       -2.307411 1.1810942 -0.23487242 0.21284884
0001e0 6f 4b e0 c1 78 39 fe c1 0a 7a 15 3f 86 f6 eb bf
       -28.036833 -31.77806 0.5838934 -1.8434608
0001f0 65 82 70 3e 8b eb 16 3f 6f 4b e0 41 8b 84 6e 40
       0.23487242 0.5895316 28.036833 3.7268398
000200 d8 3e 24 bf 37 9b b1 40 78 f1 30 c1 2e 1d 79 3f
       -0.6415839 5.550197 -11.058952 0.9731015
000210 c4 62 b7 be 8f 97 db 40 8f 8f ad 3f 22 26 b0 3e
       -0.3581754 6.862251 1.3559436 0.34404093
000220 e8 57 10 c0 2d cd 4e bf 12 3a 88 c2 bd 66 22 40
       -2.2553654 -0.80781823 -68.11342 2.5375206
000230 2e e1 e6 be f5 fb a1 40 a2 70 35 3f 19 3f 1e bf
       -0.45093673 5.0620065 0.7087499 -0.6181503
000240 f7 cc 9a be e1 ce 94 40 7e 05 d5 be 8a 68 01 c0
       -0.302345 4.650254 -0.41605753 -2.0220056
000250 2d b0 be be 9e a2 a5 40 fc e1 6a 3f ef 17 af bf
       -0.37243786 5.1761007 0.91751075 -1.3679179
000260 a3 71 fd bf 3e 7e 09 bd f5 4b 3f bf 31 0f c6 3e
       -1.9800304 -0.03356766 -0.74725276 0.38683465
000270 e8 8e a3 bd f9 d1 66 41 0a 98 e0 bf 68 97 79 3e
       -0.079862416 14.426263 -1.7546399 0.24374163
000280 5f 17 84 bf 03 ec 8a 3f dd 8d b2 be 10 22 9f 3f
       -1.0319632 1.0853275 -0.34873858 1.243227
000290 20 3f bc be 07 88 49 3f f3 90 f6 be 13 5d 0e bf
       -0.3676691 0.78723186 -0.48157462 -0.5561077
0002a0 a4 9e e9 3f a9 6e 2d 3e ec 69 ee 43 c9 fc 82 bf
       1.8251538 0.16936745 476.8275 -1.0233394
0002b0 43 59 fa 3d 2f fe 11 c0 99 cc b3 3f 3b 78 5f c0
       0.122240566 -2.2811391 1.4046813 -3.4917133
0002c0 17 fa b5 c0 b8 78 55 3e e0 4f e7 bf 03 ec 8a bf
       -5.6867785 0.20846832 -1.8071251 -1.0853275
0002d0 dc 71 09 3c 6c f6 8e c0 96 88 8a 3e cc e7 90 3f
       0.008388963 -4.467581 0.27057332 1.1320739
0002e0 75 6b 24 40 88 26 a6 bf 1f f5 66 bf 1f 1a 46 40
       2.5690587 -1.2980509 -0.90217775 3.0953443
0002f0 09 86 4c be 57 35 05 c1 83 7a 8e bf ce f0 1e c3
       -0.19973005 -8.325522 -1.1131138 -158.94064
000300 14 48 36 be 09 10 2f 3f 4b 4c 43 c0 47 10 63 c0
       -0.17800933 0.6838384 -3.0515316 -3.5478685
000310 ac 9b 24 be 2e e1 e6 3e ea 3a 21 3f c2 49 36 c0
       -0.16075009 0.45093673 0.6298052 -2.8482518
000320 60 13 46 bf 73 c5 c4 3f 8b 26 1b c1 c0 34 ac 3d
       -0.77373314 1.5372757 -9.69691 0.08408499
000330 84 82 31 40 91 3b 32 3f 12 19 0a 41 a1 cb 93 3e
       2.773591 0.6962214 8.631121 0.28866294
000340 8e 36 7b 3f 0c 9d 05 40 d0 ce 80 bf 3f 30 11 3f
       0.9813012 2.0877104 -1.0063114 0.5671424
000350 35 bd 1a 40 33 a2 94 bf 8b 6b de 3f 0b 6e c8 bf
       2.4177983 -1.1611999 1.737657 -1.5658582
000360 23 03 d2 bf ac 9b 24 3e d8 9e 39 41 eb ab 59 bf
       -1.6407207 0.16075009 11.60128 -0.8502795
000370 78 f9 a8 3e 95 47 92 3d 93 c2 f0 bf 2a 9e 00 bf
       0.3300283 0.071425594 -1.8809379 -0.5024134
000380 09 09 29 c1 4e b7 3a be ff 77 e9 be ab 80 cd 3e
       -10.564706 -0.18233988 -0.45599362 0.40137228
000390 38 ef 4b 40 a5 8f ba 40 2e 98 c3 be 8c e6 95 bf
       3.1864758 5.8300347 -0.3820204 -1.1710982
0003a0 c6 81 a0 bf 05 bb e1 be 6c 3b e0 3d a2 70 35 bf
       -1.2539604 -0.44087997 0.10948834 -0.7087499
0003b0 0b 6e c8 3f 6c 4c a3 bf bd d3 ab bc 8b da 31 3e
       1.5658582 -1.2757697 -0.020974988 0.17368524
0003c0 2a 4b 1b bf 9d 19 82 c0 00 0a e5 bf 45 28 3f 3e
       -0.60661566 -4.0656266 -1.7893677 0.18667705
0003d0 e8 78 98 3f 09 1a ce 3f 6d 73 5e 3e 9e 4b ca bf
       1.1911898 1.6101695 0.21723719 -1.5804327
0003e0 68 97 79 be ea 3a 21 bf d6 fa 48 c0 e6 e6 05 be
       -0.24374163 -0.6298052 -3.1403098 -0.13076362
0003f0 e8 13 da 3e 01 94 72 40 ab 80 cd be 21 4b 27 bf
       0.42593312 3.7902834 -0.40137228 -0.6534901

test_data f4 [150, 1]
000000 e4 d4 33 3f 5f 17 84 3f 09 09 29 41 a0 a4 30 3f
       0.7024672 1.0319632 10.564706 0.690012
000010 a2 51 03 3f a4 21 8d c1 db 4a 55 40 2d c0 ad 3e
       0.51296437 -17.641426 3.3326938 0.3393568
000020 90 05 81 3d 2e 1d 79 bf 02 bc 1f 3f fc 2d 61 bf
       0.06299889 -0.9731015 0.6239625 -0.8796079
000030 04 f6 0c bf 46 d7 8c 3e ae 81 d2 3e 03 e6 53 c2
       -0.5506289 0.2750799 0.41114563 -52.97462
000040 73 c5 c4 bf 32 31 0d a5 f6 53 86 3f 0a 98 e0 3f
       -1.5372757 -1.2246469e-16 1.0494373 1.7546399
000050 9a 15 d8 bf cc e7 90 bf 3b 78 5f 40 bf e7 97 c0
       -1.6881592 -1.1320739 3.4917133 -4.7470393
000060 fa 65 5d bf bc be 2a 40 0a 8c aa bf 0a 7a 15 bf
       -0.8648373 2.6678915 -1.3323987 -0.5838934
000070 99 cc b3 bf de 4c e4 3e 7b eb 18 c0 83 2a da bf
       -1.4046813 0.44589895 -2.3893726 -1.7044224
000080 ab e2 70 3f 9d 90 0b 3f 68 03 cb be 01 e1 fb be
       0.9409587 0.5451754 -0.39651036 -0.49195102
000090 0a c7 99 3f 19 47 dc 3f 15 00 d0 be f3 3c e2 c0
       1.2013867 1.7209197 -0.40625063 -7.06994
0000a0 21 4b 27 3f d6 a4 b0 3f 74 a4 83 3e 3d 8d fe 3e
       0.6534901 1.3800304 0.25711405 0.4971713
0000b0 49 ad ee 3e 7d 6a 17 be 6f de 6e bf 17 06 bc bf
       0.4661658 -0.14786716 -0.93308157 -1.4689358
0000c0 a1 93 0b c0 2d 0b d0 bf a1 cb 93 be c9 92 7f 40
       -2.1808856 -1.625341 -0.28866294 3.993334
0000d0 f3 a5 89 3d b8 78 55 be 35 48 8d bf ae f9 40 3f
       0.067211054 -0.20846832 -1.1037661 0.7538098
0000e0 c3 ed 2b 3f 98 0f 48 be 14 95 6a c0 9b 90 40 c0
       0.6715967 -0.19537199 -3.665349 -3.008826
0000f0 17 f8 4e 40 f3 a5 89 bd c2 49 36 40 bd 52 3a bf
       3.2338922 -0.067211054 2.8482518 -0.727825
000100 cb ba bd 3f ff 2f 04 c0 79 98 1c c0 7b eb 18 40
       1.482263 -2.0654294 -2.4468062 2.3893726
000110 34 85 bd 3d 0c ed f3 3e 7f 5c 2d 42 38 ef 4b c0
       0.09253922 0.4764179 43.34033 -3.1864758
000120 91 2f cc bf e8 57 10 40 0f c2 75 41 2f 08 d6 bf
       -1.5952016 2.2553654 15.359878 -1.6721247
000130 15 00 d0 3e 8c e6 95 3f 8b b9 0e c0 86 6d 9c 3f
       0.40625063 1.1710982 -2.2300746 1.2220924
000140 d7 6f c4 40 93 9e dc be 5a 11 ec 3e 6d 73 5e be
       6.1386523 -0.43089733 0.46106988 -0.21723719
000150 d7 5a 0f c1 56 2c 4e bc 00 b6 f5 3f 14 0b 06 bf
       -8.959678 -0.012583813 1.9196167 -0.52360654
000160 8f 8f ad bf 59 d4 91 40 85 af 38 3f a1 93 0b 40
       -1.3559436 4.5571713 0.7214282 2.1808856
000170 78 f7 74 bf cb 0d 00 c0 a0 07 b7 3f aa 98 a6 3e
       -0.9569011 -2.0008419 1.4299202 0.32538348
000180 6e 7b 26 c0 5f 54 7d 3f e2 5e 18 3f 8c dc ce bd
       -2.6012836 0.98956865 0.5951978 -0.1010066
000190 c5 78 91 3e ed c3 25 3f 62 04 29 be 49 ad ee be
       0.28412452 0.64752084 -0.16505578 -0.4661658
0001a0 21 aa 42 3f 83 2a da 3f 82 97 f0 3c ad cc 70 3d
       0.76040846 1.7044224 0.02936912 0.058788944
0001b0 14 d4 19 3f 69 90 5f 3d 04 f6 0c 3f 33 e5 a1 3f
       0.6008923 0.05458108 0.5506289 1.2648071
0001c0 99 ad 04 3f 85 af 38 bf 00 dc a1 be d4 0e 37 3f
       0.5182739 -0.7214282 -0.3161316 0.71507
0001d0 21 aa 42 bf 05 9b 43 be a7 67 b5 3f 79 98 1c 40
       -0.76040846 -0.19102104 1.4172257 2.4468062
0001e0 7b 34 20 be b2 34 ce bc dc 22 0d c0 55 16 52 c0
       -0.1564502 -0.025171611 -2.2052526 -3.282613
0001f0 99 7d 1e 40 6c 4c a3 3f 08 60 bf 40 e8 78 98 bf
       2.4764159 1.2757697 5.9804726 -1.1911898
000200 f7 5b ab be e3 4c 3b 40 68 60 83 41 3e 7e 09 3d
       -0.334686 2.9265678 16.422073 0.03356766
000210 e0 4f e7 3f 7f 33 8c 40 16 02 d4 bf 2a 7c 9e 40
       1.8071251 4.381286 -1.6563137 4.9526567
000220 e8 6c 20 40 43 59 fa bd b2 34 ce 3c eb a0 3d 3f
       2.506647 -0.122240566 0.025171611 0.74073666
000230 ee 1f 96 3e 32 31 0d 25 90 62 cf 40 b4 76 7f 3f
       0.29321235 1.2246469e-16 6.4807816 0.997905
000240 c2 72 a9 40 87 f8 3b bf db a9 c8 41 02 bc 1f bf
       5.2952585 -0.734261 25.082937 -0.6239625
000250 2a 56 4e bd 35 48 8d 3f
       -0.05037514 1.1037661

0.weight f4 [100, 1]
000000 81 ed 01 3f 1b 8c 8a 40 f9 8b 1e bf 86 5a 20 bf
       0.5075303 4.3296027 -0.6193233 -0.6263813
000010 d1 d4 54 41 95 18 11 bf 20 8a 84 3e 9e 3e 4f 3e
       13.301957 -0.56678134 0.2588663 0.2023873
000020 18 43 75 41 5f de b6 3e 2d dd 4d 3e d0 c8 11 3e
       15.32888 0.3571653 0.20103903 0.1423676
000030 58 3b f7 3e 12 3f 8e bd 06 01 17 c1 dd dd 5a be
       0.48287463 -0.069456235 -9.43775 -0.21373697
000040 5b 9d 4e c1 48 12 bf 3e 68 34 9f be 73 44 6e 3e
       -12.913417 0.37318635 -0.3109467 0.23268299
000050 b4 e1 d5 3e 76 21 6e 40 1b 17 1d c1 60 fe df c0
       0.4177376 3.7207923 -9.818141 -6.9998016
000060 c9 6e ed be c0 29 a1 3e 50 64 26 3e bb bf 4f 41
       -0.46373585 0.31477165 0.16249204 12.984309
000070 70 eb 6e 3e 82 96 97 3e f6 a5 04 bf 6e 1b 29 bf
       0.23332 0.29607016 -0.51815736 -0.6605748
000080 ca 5b bf c0 58 04 32 be 08 2d 81 41 00 03 2b be
       -5.9799547 -0.1738447 16.146988 -0.16700363
000090 78 cd f2 3e e7 88 e3 c0 b2 ff e7 3b f6 41 3f bf
       0.47422385 -7.1104617 0.007080042 -0.74710023
0000a0 c2 5e 22 3f 64 27 d9 be 65 a2 b7 3e c3 02 b9 bd
       0.6342584 -0.42412865 0.35866085 -0.0903373
0000b0 54 63 20 bf 86 d5 8e 3d 70 bd a8 be d3 6d 97 3d
       -0.6265156 0.0697432 -0.3295703 0.07393994
0000c0 08 b2 c6 3e 01 13 22 bf 71 09 81 3d 82 55 c4 c0
       0.38807702 -0.6331025 0.06300629 -6.135438
0000d0 c0 11 a2 3b c5 59 ac bd 57 ac 9d 40 fc a7 bb 40
       0.0049459636 -0.0841556 4.9272876 5.864256
0000e0 8d ee aa bd 94 da 84 40 2a 6e 2c bf f6 a4 00 be
       -0.08346281 4.151682 -0.67355597 -0.12562928
0000f0 2c f3 d8 3e d0 df 91 bd 30 1f 10 3f 9b db b7 3e
       0.42373025 -0.07122767 0.5629759 0.35909733
000100 00 42 2e 3c 60 92 b0 3e 28 38 26 41 0f b0 0d bc
       0.010635853 0.34486675 10.38871 -0.008647933
000110 1c f9 5f c1 af 84 10 41 fc 41 6e 3e f0 28 b0 3d
       -13.998318 9.032393 0.23267359 0.08601558
000120 ae 8b 36 3f 29 3e 48 be c4 cc 95 be e0 1a 87 3c
       0.71306884 -0.19554962 -0.29257786 0.016492307
000130 17 11 56 40 76 c9 2d bd 7e f9 20 c1 5f 7b 61 3d
       3.344793 -0.042428456 -10.060911 0.055049296
000140 05 0d a9 3e 09 51 89 c0 9a 36 ae c0 4f b7 48 3f
       0.33017746 -4.291142 -5.444165 0.78404707
000150 90 9b 14 41 6f 04 cf c0 df ae 0b c1 b2 fc ca be
       9.287979 -6.469291 -8.730193 -0.39645916
000160 e6 b7 37 3f 38 f9 06 c1 96 68 1b 3d 55 23 1f 41
       0.7176498 -8.435844 0.037941538 9.946126
000170 90 df 85 be cf 24 4c be a8 b0 60 3e 3c 89 be 3e
       -0.26147127 -0.19935916 0.21942389 0.37214077
000180 b8 69 aa be c7 fc 27 c0 67 5e 07 41 a5 d6 d8 bd
       -0.33283782 -2.6248033 8.460547 -0.10587815

0.bias f4 [100]
000000 6d 83 5e 3e 3b 38 f8 bf 92 2a 67 3e 83 c9 69 3e
       0.21729822 -1.939216 0.22574833 0.22830777
000010 91 8b b9 c0 5d 8a 53 3e 9c 52 e1 be ba 76 b1 3d
       -5.798287 0.2065825 -0.44008338 0.086652234
000020 85 d1 d5 c0 58 b1 1c 3e 49 48 b0 3d d2 12 24 bf
       -6.681826 0.15302026 0.08607537 -0.6409122
000030 f2 6c 5f bf f4 61 cf 3c 52 73 85 c0 be 8e 9f 3d
       -0.8727561 0.025315262 -4.170327 0.07790898
000040 c1 98 b6 c0 80 3a e5 be cc 6b 2b bf 84 00 cc 3d
       -5.7061467 -0.44771194 -0.6696136 0.09961036
000050 3c e1 24 bf 70 54 d5 bf 38 d4 8a c0 59 d6 5f c0
       -0.6440618 -1.6666393 -4.3384056 -3.4974577
000060 38 14 2d 3e 6c fc 09 3e 78 81 02 bf 64 1d b5 c0
       0.16902244 0.13475198 -0.50978804 -5.6598377
000070 60 7c d5 be 18 ce 01 3e 86 47 2d bf 5a 8d 76 3e
       -0.41696453 0.12676275 -0.6768726 0.24077359
000080 aa 8d 45 c0 90 2c dd be 64 3b e1 c0 50 5a 6d be
       -3.0867715 -0.4319806 -7.0385 -0.23178983
000090 04 90 26 bf 94 15 49 c0 75 ca 46 3b 40 5a 5a bf
       -0.650635 -3.141942 0.0030333076 -0.8529396
0000a0 0c ce 3d bf 0e 20 73 bf bd 3f 1d 3e 7d dd 06 3d
       -0.7414253 -0.94970787 0.15356345 0.03292607
0000b0 e2 3b 6f bf 7a 9e f4 3c e2 03 f6 3d 4a ab 01 3d
       -0.9345075 0.029860724 0.12012459 0.031657495
0000c0 f0 50 5a bf ed 4a 6c 3e 33 fd dc 3c 0e 86 44 c0
       -0.8527975 0.23075457 0.026976204 -3.070682
0000d0 32 c8 0a 3b 19 47 fb 3c 40 75 09 c0 48 49 49 c0
       0.0021176455 0.03067355 -2.1477814 -3.1450977
0000e0 ac 35 f9 3c 9a 15 ec bf ee 65 7b 3e d6 8e 3b 3d
       0.0304211 -1.8444092 0.24550602 0.045790516
0000f0 33 c6 39 3e 3f ac d4 3c 75 ca 76 3e 66 70 1d 3e
       0.18142013 0.02596104 0.24100669 0.15374908
000100 b4 a6 dd be e2 11 31 bf bb 8e 92 c0 d8 91 4e 3b
       -0.43291247 -0.6916791 -4.579923 0.0031520035
000110 e2 ef c5 c0 63 f0 9a c0 7d 05 cc 3d 1c a3 c5 be
       -6.1855326 -4.841844 0.09961984 -0.38601005
000120 cc 7d 4b bf 17 f8 91 3d d2 cf 21 bf bf 61 e7 3b
       -0.79488826 0.071273975 -0.63207734 0.007061213
000130 6c 9f ba bf 00 62 7d 3c d4 42 8e c0 29 0e c1 3c
       -1.4579902 0.01546526 -4.4456577 0.023566322
000140 60 c2 10 3e d6 a1 0d c0 c3 78 33 c0 b3 fb ae be
       0.14136648 -2.2130027 -2.8042457 -0.34176406
000150 28 8e 81 c0 26 5d 55 c0 0e e4 76 c0 25 fb 13 3e
       -4.048603 -3.3338103 -3.8576694 0.14451273
000160 f4 42 5f bf f7 90 6e c0 dc 29 85 3c 0c b1 aa c0
       -0.8721154 -3.727598 0.016255312 -5.334112
000170 69 2d c3 3d de d0 94 3d ea aa 58 bf d0 9b e4 be
       0.09530146 0.07266401 -0.84635794 -0.44650126
000180 ef 72 f8 3d 9a 75 94 bf 0c 23 ab c0 c3 11 1e 3d
       0.12131297 -1.1598389 -5.348028 0.038591158

2.weight f4 [1, 100]
000000 f6 9a d8 3e 94 e8 56 40 3b 1d f7 be a8 ed f9 be
       0.42305726 3.3579454 -0.4826449 -0.4881413
000010 b8 32 43 c0 fb 25 e2 be aa 1e 70 bd 61 c0 2c 3e
       -3.0499706 -0.44169602 -0.058622994 0.16870262
000020 33 f1 60 c0 be 72 98 3e ea 99 2b 3e 19 c5 bd 3d
       -3.5147216 0.2977504 0.16757932 0.09266109
000030 69 8a 93 3d 9f b4 5d bd a4 36 e5 3f ac 90 2a be
       0.07204134 -0.05412733 1.79073 -0.1665675
000040 24 d0 1c 40 67 30 1e bd c4 91 f1 3c e7 9a 46 3e
       2.450204 -0.03862038 0.029488452 0.19395028
000050 a0 d0 82 3c 75 84 36 40 c2 73 ee 3f a9 45 c6 c0
       0.01596862 2.8518345 1.8629076 -6.1960034
000060 2b 08 b9 be fb 55 86 3e b0 b4 6d 3c 8a 89 3e c0
       -0.36139044 0.26237473 0.014508411 -2.9771447
000070 a0 ab 1d bd 49 b7 7c 3e fd 31 9d bd 1f c9 03 bf
       -0.038493752 0.24679293 -0.0767555 -0.5147876
000080 da b2 aa c0 62 97 52 3d 6d f2 6c c0 ea 8a cb bd
       -5.3343325 0.0514139 -3.7022965 -0.09938605
000090 ad 67 4b bd d2 b0 ac 3f c1 67 c1 3b fc 0d f1 3c
       -0.04965942 1.3491461 0.005902261 0.029425614
0000a0 33 52 59 bd 01 7e ae 3d 64 12 99 3e d9 2d 90 bd
       -0.053056907 0.08520127 0.29896843 -0.07039995
0000b0 ab 68 9d 3d a7 1f 6e 3d e9 7f 83 be a4 73 7c 3d
       0.076859795 0.058135655 -0.25683525 0.06163372
0000c0 e9 34 b3 3d 3f 9c fc be eb 1e 57 3d 3b 86 ae c0
       0.08750326 -0.49337956 0.05251972 -5.4538856
0000d0 82 18 87 3b 8a 50 86 bd 1d 9c 90 bf 35 e7 9d 40
       0.0041227946 -0.0655833 -1.1297642 4.9344735
0000e0 49 35 85 bd f7 fe 4f 40 1e 60 06 bf c8 81 c8 bd
       -0.06504304 3.2499368 -0.52490413 -0.09790379
0000f0 54 d7 b4 3e 5c 5c 63 bd 39 43 f0 3e 15 42 99 3e
       0.35320532 -0.055508003 0.46926287 0.2993323
000100 17 17 71 bd 97 38 21 bd 75 c0 07 41 03 d6 dc bb
       -0.05885991 -0.03936061 8.484487 -0.0067393794
000110 d0 fc 29 40 a6 da f1 40 72 9a 46 3e 0d a5 1d bd
       2.6560555 7.5579405 0.19394854 -0.038487483
000120 fc 1a 12 bd bb 0c 1c be da 85 a8 bd 14 3d 61 3c
       -0.035670266 -0.15239231 -0.08228655 0.013747472
000130 a1 54 44 bf 0b 6f 07 bd 24 59 f4 3f e1 f2 3b 3d
       -0.76691633 -0.033064883 1.9089704 0.045885924
000140 2f ea 8c 3e dc 25 6c c0 2a 93 9b c0 51 16 38 be
       0.27522418 -3.6898108 -4.8617144 -0.17977263
000150 a6 4b 08 c0 1e 9c b8 c0 86 07 d4 3f a9 30 9e be
       -2.1296172 -5.7690573 1.6564796 -0.308965
000160 76 d0 3e 3d 76 e1 cc 3f 52 8e 01 3d 31 db 05 41
       0.046585523 1.6006305 0.031629868 8.366014
000170 f7 a7 50 be 04 17 1f be 88 7c bf bc 82 5a 1e 3d
       -0.20376574 -0.15536124 -0.02337481 0.038660534
000180 b0 cd 84 be 76 fe fe 3e 85 37 18 c1 d7 fb a8 bd
       -0.25938177 0.49803513 -9.513555 -0.0825116
