complete/tan/state6.pt (torch, 10937 bytes, 9 tensors)

weight f4 [100, 1]
6.158992 -14.703937 -0.1596439 0.43671393 0.556068 -0.8674735 0.1280365 0.08306682
0.020139536 0.09024787 0.5866935 -0.82240033 0.5141132 -19.627449 0.32863784 -13.777953
-0.28076363 -0.07617364 10.633096 0.3153767 -0.30153346 0.09674836 8.786468 11.968048
0.6930442 0.69718784 -16.444206 -0.8854648 0.06232742 -9.010723 -0.0102772415 10.808259
-12.8852215 -0.5262548 0.24803615 -0.41779965 0.4599061 0.2602694 -0.07130415 -0.012931747
-0.053343624 0.06565821 35.944992 0.57363343 -0.24702111 0.47235572 0.17089319 -0.0118306875
0.6393963 15.091469 -9.732746 -21.80571 19.581573 0.32479513 -0.4698157 -26.487547
-0.33182478 35.532032 0.64219105 0.74124753 -6.096852 -17.581879 -0.43779632 15.004604
-0.12107937 0.6625731 15.2003565 -21.287579 -9.60354 0.38453364 0.8229411 0.54743516
0.13286577 -8.902136 -14.937948 0.62843275 26.81512 0.6105219 0.72932816 -0.30940425
-0.1014142 35.067764 0.18611403 0.06658818 -0.08058289 -20.950932 13.069831 0.22773258
0.26889345 0.35076624 20.160505 0.42665955 0.45017248 5.0191894 0.28781772 -0.17321149
16.207443 21.01902 9.976947 -7.8665934
00000000: 7616 c540 5343 6bc1 b179 23be f898 df3e
00000010: 795a 0e3f be12 5ebf 001c 033e f01e aa3d
00000020: abfb a43c e0d3 b83d 8c31 163f d488 52bf
00000030: ec9c 033f 0405 9dc1 3843 a83e 7f72 5cc1
00000040: 40c0 8fbe ed00 9cbd 2921 2a41 0e79 a13e
00000050: 9862 9abe 0124 c63d 5f95 0c41 207d 3f41
00000060: 586b 313f e77a 323f bc8d 83c1 d2ad 62bf
00000070: 094b 7f3d ec2b 10c1 e061 28bc a1ee 2c41
00000080: de29 4ec1 a2b8 06bf 30fd 7d3e d6e9 d5be
00000090: d078 eb3e 0842 853e e907 92bd aedf 53bc
000000a0: d87e 5abd d077 863d acc7 0f42 a4d9 123f
000000b0: 1af3 7cbe 9cd8 f13e a0fe 2e3e 80d5 41bc
000000c0: 7aaf 233f a876 7141 54b9 1bc1 1872 aec1
000000d0: 10a7 9c41 8c4b a63e af8b f0be 7fe6 d3c1
000000e0: f0e4 a9be cd20 0e42 a266 243f 66c2 3d3f
000000f0: 6919 c3c0 b0a7 8cc1 d726 e0be dc12 7041
00000100: 76f8 f7bd 649e 293f a934 7341 f64c aac1
00000110: 1aa8 19c1 98e1 c43e 45ac 523f b624 0c3f
00000120: f70d 083e 266f 0ec1 d601 6fc1 f8e0 203f
00000130: 5e85 d641 2a4b 1c3f 40b5 3a3f 3c6a 9ebe
00000140: 40b2 cfbd 6445 0c42 ad94 3e3e 625f 883d
00000150: a408 a5bd 829b a7c1 071e 5141 bb32 693e
00000160: 67ac 893e a297 b33e b748 a141 1f73 da3e
00000170: 027d e63e 339d a040 d85c 933e 5a5e 31be
00000180: d8a8 8141 f426 a841 93a1 1f41 22bb fbc0

bias f4 [100]
-3.1330256 -7.478942 0.06340994 -0.85684824 0.24124978 -0.8704958 -0.46080685 -0.3664577
0.008737426 -0.814538 0.2545476 -0.9392122 -0.7437767 -8.933527 0.14257845 -7.0055575
0.11145027 0.030252561 -6.391356 0.13682182 0.119778536 0.04197424 -4.4789357 -5.6347227
0.30067778 0.3024725 -7.484665 -0.94191015 0.027038196 -4.5824094 0.004073968 -5.0453243
-5.86482 -0.82704055 -0.98416865 0.16575415 -0.9108765 0.112916954 0.02831886 0.0051302626
0.021187993 -0.55667055 -16.77923 -0.908057 0.09803163 -0.8593863 -0.3580873 -0.35250616
0.2774043 -7.109559 -4.429931 -9.925005 -10.926393 0.14091007 0.18638991 -12.055962
-0.5228801 -16.586369 0.27860948 0.32159182 -3.1012983 -8.002525 0.17389421 -7.676878
0.048062325 -0.8726374 -7.7915807 -9.689196 -4.884127 0.16682202 -0.82077485 0.23750608
0.057643496 -4.5281878 -8.575595 0.2726476 -12.517325 0.2648706 0.31641895 -0.9884623
-0.38275445 -16.369713 0.080743566 0.028885882 0.03200381 -9.535987 -6.647352 0.09880106
0.11665276 0.15218051 -10.316308 0.18509881 0.19530721 -2.3429754 -0.5971503 0.06879794
-8.313266 -9.811715 -5.076374 -4.0013328
00000000: 7e83 48c0 7e53 efc0 12dd 813d 685a 5bbf
00000010: 2f0a 773e d0d8 5ebf e0ee ebbe 58a0 bbbe
00000020: 6c27 0f3c 9085 50bf 1054 823e 3670 70bf
00000030: 2668 3ebf baef 0ec1 1600 123e 872d e0c0
00000040: 0a40 e43d 38d4 f73c fd85 ccc0 051b 0c3e
00000050: 734e f53d 2eed 2b3d 7153 8fc0 a64f b4c0
00000060: 70f2 993e addd 9a3e 6082 efc0 0621 71bf
00000070: 357f dd3c 19a3 92c0 ec7e 853b 4c73 a1c0
00000080: 9bac bbc0 eeb8 53bf 7af2 7bbf 75bb 293e
00000090: 342f 69bf 0141 e73d f4fc e73c c31b a83b
000000a0: 7192 ad3c f681 0ebf dd3b 86c1 6c76 68bf
000000b0: cfc4 c83d be00 5cbf 3857 b7be b07b b4be
000000c0: f007 8e3e 8281 e3c0 ffc1 8dc0 d2cc 1ec1
000000d0: 81d2 2ec1 bb4a 103e ffdc 3e3e 38e5 40c1
000000e0: 78db 05bf e2b0 84c1 e7a5 8e3e afa7 a43e
000000f0: ac7b 46c0 580a 00c1 5311 323e fca8 f5c0
00000100: 00dd 443d 2a65 5fbf a154 f9c0 f206 1bc1
00000110: c54a 9cc0 64d3 2a3e 4d1e 52bf cb34 733e
00000120: 961b 6c3d eae6 90c0 a335 09c1 7798 8b3e
00000130: f746 48c1 1f9d 873e aa01 a23e de0b 7dbf
00000140: 64f8 c3be 2cf5 82c1 e25c a53d 16a2 ec3c
00000150: 6d16 033d 6793 18c1 1cb7 d4c0 3658 ca3d
00000160: a4e7 ee3d 35d5 1b3e 990f 25c1 8b8a 3d3e
00000170: 9dfe 473e 4ff3 15c0 d8de 18bf efe5 8c3d
00000180: 2303 05c1 c9fc 1cc1 a871 a2c0 eb0a 80c0

weight f4 [1, 100]
3.1141481 -12.68485 -0.12776014 0.04279349 0.4653345 0.081778355 0.073192514 -0.06532313
0.016853256 -0.047911193 0.49096936 0.0661264 0.059558503 2.4351304 0.27501282 -11.886004
-0.22467121 -0.060959134 -6.815327 0.26391286 -0.24131835 0.08096181 4.392839 6.2092733
0.57996017 0.58342475 2.0402002 0.013670132 0.05215621 -7.765232 -0.008222262 -1.423395
1.5986466 -0.01963441 0.099284805 -0.33428743 0.0991473 0.21779996 -0.057062145 -0.010346903
-0.04269027 0.07331356 -4.7337685 0.017386615 -0.19763424 -0.043125927 0.074434794 -0.026396014
0.535068 7.7373233 1.2075307 2.7053964 -12.705711 0.27179626 -0.37590578 3.2862713
-0.046167757 -4.679386 0.5374003 0.62029934 -5.249922 2.1813552 -0.35036618 7.8115745
-0.09688637 0.07337854 8.164335 2.6411161 -8.279832 0.32178617 -0.07313843 0.45811033
0.11118557 -7.670517 15.678492 0.52589357 -3.5314183 0.5108977 0.6103232 -0.0925673
0.025640137 -4.6182413 0.15574363 0.05572153 -0.06448783 2.5993562 6.7991905 0.19057271
0.22501646 0.2935324 10.739004 0.35704052 0.37671763 -0.66100484 -0.035108015 -0.13861904
8.594719 -2.7680962 5.0711484 -6.78546
00000000: 344e 4740 25f5 4ac1 8ed3 02be 3a48 2f3d
00000010: 5340 ee3e 697b a73d f5e5 953d 22c8 85bd
00000020: d70f 8a3c 873e 44bd 5660 fb3e 476d 873d
00000030: 9ef3 733d 2dd9 1b40 7bce 8c3e 132d 3ec1
00000040: 3610 66be 49b0 79bd 2917 dac0 961f 873e
00000050: 281c 77be 4ecf a53d 2392 8c40 5eb2 c640
00000060: 4578 143f 535b 153f a492 0240 b0f8 5f3c
00000070: c0a1 553d c87c f8c0 abb6 06bc cf31 b6bf
00000080: 74a0 cc3f 58d8 a0bc d555 cb3d b927 abbe
00000090: bd0d cb3d f406 5f3e ffb9 69bd 0e86 29bc
000000a0: fedb 2ebd 6b25 963d 087b 97c0 606e 8e3c
000000b0: a160 4abe d0a4 30bd 4571 983d 743c d8bc
000000c0: 37fa 083f 2798 f740 5e90 9a3f 3725 2d40
000000d0: 984a 4bc1 e128 8b3e b976 c0be 4552 5240
000000e0: 671a 3dbd 88bd 95c0 1193 093f f0cb 1e3f
000000f0: 5cff a7c0 539b 0b40 3263 b3be 6bf8 f940
00000100: 5c6c c6bd 7d47 963d 1ea1 0241 0c08 2940
00000110: 317a 04c1 28c1 a43e 9ac9 95bd 708d ea3e
00000120: 43b5 e33d e074 f5c0 1adb 7a41 f6a0 063f
00000130: c202 62c0 31ca 023f 243e 1c3f ed93 bdbd
00000140: 440b d23c a2c8 93c0 427b 1f3e 423c 643d
00000150: 3212 84bd da5b 2640 f892 d940 7e25 433e
00000160: b76a 663e e149 963e f6d2 2b41 04ce b63e
00000170: 22e1 c03e 9d37 29bf 6ccd 0fbd 26f2 0dbe
00000180: f883 0941 7d28 31c0 d946 a240 7d22 d9c0

train_data f4 [600, 1]
-0.9839786 -0.03070761 0.34045395 0.7730307 0.58878505 0.046728972 -0.25233644 0.79706275
0.060080107 -0.036048066 0.4152203 -0.7543391 0.37783712 -0.36982644 0.92523366 0.04138852
0.028037382 0.10280374 0.40186915 -0.73297733 -0.15086782 0.34579438 -0.85847795 0.081441924
-0.35113484 0.4339119 -0.07076102 -0.35914552 0.5674232 0.57009345 0.8718291 0.4846462
0.8611482 -0.28437918 0.4072096 0.965287 0.85046726 -0.83444595 0.5941255 -0.57810414
0.21495327 0.40453938 -0.78638184 0.85847795 -0.32977304 -0.42323098 -0.55941254 -0.71428573
0.5193592 -0.63951933 -0.2683578 0.87716955 0.09212283 0.5113485 0.31108144 0.5540721
-0.12683578 0.6528705 0.53004 -0.40186915 0.18024032 -0.9305741 -0.94926566 -0.48998666
-0.31108144 -0.86648864 0.14552736 -0.29506007 0.58077437 -0.22563417 -0.044058744 -0.5861148
-0.5246996 -0.3858478 -0.0040053404 -0.13217624 -0.87716955 0.63951933 -0.3084112 -0.052069426
0.8558077 0.44192258 -0.9626168 -0.74098796 -0.41789052 -0.14552736 0.3164219 -0.27903873
0.16421896 -0.30040053 0.5861148 -0.82643527 -0.28170896 0.29238984 -0.77837116 0.5754339
-0.081441924 -0.43124166 0.54339117 0.78638184 0.009345794 -0.25500667 -0.5674232 0.23898531
0.39118826 -0.7276369 0.38317758 0.6742323 -0.13751669 -0.39919892 -0.6715621 0.6635514
0.19359146 0.7303071 0.7810414 0.22563417 -0.7196262 -0.6555407 -0.79706275 0.42857143
-0.75967956 -0.18291055 -0.89586115 -0.20694259 -0.129506 -0.14285715 -0.53004 0.022696929
0.4926569 -0.017356476 -0.8558077 0.61815757 0.6208278 -0.1588785 -0.20961282 0.14018692
-0.6528705 -0.012016022 0.94926566 0.129506 -0.90387183 -0.29238984 0.917223 0.20961282
0.36982644 0.26568758 -0.6341789 -0.2763685 0.08678237 0.9385848 -0.27102804 -0.85046726
-0.72496665 0.1188251 -0.5460614 0.59946597 -0.76769024 -0.33778372 0.76502 -0.8638184
0.89586115 0.38851804 0.6128171 -0.24966623 0.12683578 -0.32443258 -0.4846462 0.6101469
0.9813084 0.20160213 0.13217624 0.30040053 0.5140187 0.9973298 -0.65821093 -0.0066755675
-0.6048064 -0.80774367 -0.96795726 -0.6662216 0.95727634 -0.9893191 0.28170896 -0.19359146
-0.188251 0.27369827 -0.24165554 0.6929239 -0.9118825 0.11348464 -0.078771695 0.16955942
-0.4926569 -0.47930574 0.88251 0.65020025 -0.7036048 0.62616825 0.71428573 -0.49799734
-0.54339117 -0.6288385 -0.65020025 -0.34579438 0.0040053404 0.3484646 0.6048064 0.48998666
0.16688919 -0.5834446 0.8397864 -0.16955942 -0.7463284 -1.0 -0.009345794 0.46862483
0.8931909 -0.3671562 -0.91455275 0.22296396 -0.38851804 -0.9012016 -0.59679574 -0.06275033
0.8104139 0.7516689 -0.5914553 0.77837116 0.16154873 -0.4552737 0.42056075 -0.025367156
0.6288385 0.5727637 0.188251 0.2763685 0.9305741 -0.61548734 0.17222963 0.799733
-0.3751669 0.6849132 -0.5220294 0.19626169 0.5273698 0.86915886 0.506008 0.70627505
0.23364486 0.55941254 -0.7917223 -0.4339119 -0.8424566 -0.46862483 -0.53271025 -0.24432577
00000000: 06e6 7bbf 878e fbbc fb4f ae3e 57e5 453f
00000010: 9eba 163f e166 3f3d 3e32 81be 4e0c 4c3f
00000020: 8f16 763d 23a7 13bd c197 d43e 5e1c 41bf
00000030: de73 c13e e459 bdbe 1ddc 6c3f 0287 293d
00000040: a7ae e53c c48a d23d cbc1 cd3e 67a4 3bbf
00000050: 187d 1abe f60b b13e 36c5 5bbf 06cb a63d
00000060: f2c7 b3be b329 de3e 27eb 90bd ece1 b7be
00000070: a642 113f a5f1 113f 3130 5f3f 8c23 f83e
00000080: 3574 5c3f 269a 91be c77d d03e 0d1d 773f
00000090: 39b8 593f 409e 55bf 9c18 183f a2fe 13bf
000000a0: b61c 5c3e c91f cf3e 5250 49bf 36c5 5b3f
000000b0: 03d8 a8be bbb1 d8be a935 0fbf 6edb 36bf
000000c0: b9f4 043f 8ab7 23bf 3266 89be 2f8e 603f
000000d0: e5aa bc3d bce7 023f 1146 9f3e abd7 0d3f
000000e0: 3de1 01be 8522 273f b4b0 073f cbc1 cdbe
000000f0: eb90 383e 1b3a 6ebf 1303 73bf 88df fabe
00000100: 1146 9fbe 33d2 5dbf 2005 153e 1d12 97be
00000110: a1ad 143f a50c 67be f176 34bd 9f0b 16bf
00000120: b752 06bf d88d c5be 3b3f 83bb 3559 07be
00000130: 2f8e 60bf 8ab7 233f 13e8 9dbe c046 55bd
00000140: 3716 5b3f ad43 e23e 0e6e 76bf 63b1 3dbf
00000150: bff5 d5be 2005 15be 0d02 a23e 2ade 8ebe
00000160: 0429 283e 19ce 99be 9f0b 163f 4391 53bf
00000170: 283c 90be 1fb4 953e 5543 47bf a34f 133f
00000180: 06cb a6bd b5cb dcbe af1b 0b3f 5250 493f
00000190: 1a1f 193c 3c90 82be a642 11bf 91b8 743e
000001a0: d449 c83e 6946 3abf da2f c43e 7d9a 2c3f
000001b0: 2dd1 0cbe cd63 ccbe 7eeb 2bbf 81de 293f
000001c0: d73c 463e 68f5 3a3f 54f2 473f a50c 673e
000001d0: 6c39 38bf 84d1 27bf 4e0c 4cbf b76d db3e
000001e0: 5c7a 42bf e74c 3bbe 2857 65bf c2e8 53be
000001f0: 399d 04be 2549 12be b4b0 07bf e9ee b93c
00000200: 863d fc3e 2b2f 8ebc 3716 5bbf 933f 1e3f
00000210: 92ee 1e3f 0cb1 22be bea4 56be 298d 0f3e
00000220: 8522 27bf d9de 44bc 1303 733f 399d 043e
00000230: 2564 67bf 1fb4 95be 20cf 6a3f bea4 563e
00000240: e459 bd3e 3408 883e 8c59 22bf 2c80 8dbe
00000250: f5ba b13d 1847 703f 30c4 8abe 39b8 59bf
00000260: 6a97 39bf 935a f33d aeca 0bbf 9a76 193f
00000270: 5987 44bf fdf1 acbe 5ad8 433f 3423 5dbf
00000280: 2857 653f d6eb c63e 95e1 1c3f 81a8 7fbe
00000290: 3de1 013e 071c a6be 8c23 f8be 9632 1c3f
000002a0: 0737 7b3f ca70 4e3e 3559 073e 19ce 993e
000002b0: bb96 033f 0151 7f3f 8380 28bf b8be dabb
000002c0: 98d4 1abf 4ac8 4ebf 0ccc 77bf 808d 2abf
000002d0: 1010 753f 0444 7dbf 283c 903e d73c 46be
000002e0: dfc4 40be 2e22 8c3e 8d74 77be 7663 313f
000002f0: 2271 69bf a36a e83d 0e53 a1bd fca0 2d3e
00000300: 863d fcbe 9067 f5be 2dec 613f 8673 263f
00000310: 721f 34bf 904c 203f 6edb 363f 82f9 febe
00000320: af1b 0bbf 8ffb 20bf 8673 26bf f60b b1be
00000330: 3b3f 833b f469 b23e 98d4 1a3f 88df fa3e
00000340: 00e5 2a3e a05c 15bf 3efc 563f fca0 2dbe
00000350: 610f 3fbf 0000 80bf 1a1f 19bc 98ef ef3e
00000360: 29a8 643f e6fb bbbe 2120 6abf aa50 643e
00000370: d6eb c6be 26b5 66bf 9bc7 18bf 3f83 80bd
00000380: 4977 4f3f 5f6d 403f 9d69 17bf 5543 473f
00000390: 086d 253e a219 e9be bd53 d73e c8ce cfbc
000003a0: 8ffb 203f a4a0 123f dfc4 403e 2c80 8d3e
000003b0: 1b3a 6e3f 9490 1dbf f75c 303e 4dbb 4c3f
000003c0: e015 c0be 7956 2f3f b8a3 05bf d3f8 483e
000003d0: b501 073f 3281 5e3f be89 013f 71ce 343f
000003e0: 9940 6f3e a935 0f3f 50ae 4abf b329 debe
000003f0: 3cab 57bf 98ef efbe b35f 08bf 8930 7abe

train_targets f4 [600, 1]
0.05037514 -0.096771196 1.8251538 -0.8648373 -3.4917133 0.14786716 -1.0147891 -0.74073666
0.19102104 -0.113734975 3.665349 0.9731015 2.4764159 -2.307411 -0.23930258 0.13076362
0.08831054 0.334686 3.1403098 1.1131138 -0.51296437 1.9001232 0.4764179 0.26159057
-1.9800304 4.7470393 -0.22603808 -2.1103847 -4.650254 -4.467581 -0.42593312 20.71558
-0.4661658 -1.243227 3.3326938 -0.10948834 -0.5076777 0.5726992 -3.282613 3.993334
0.80091006 3.2338922 0.7940482 -0.4764179 -1.6881592 -4.0656266 5.2952585 1.2539604
-16.422073 2.133464 -1.1225492 -0.40625063 0.29777297 -28.036833 1.482263 -5.8300347
-0.4209866 -1.9196167 -10.564706 -3.1403098 0.6356789 0.22163354 0.16075009 -31.77806
-1.482263 0.44589895 0.49195102 -1.3323987 -3.855777 -0.8575322 -0.1393054 3.6057203
12.861373 -2.6678915 -0.012583813 -0.44087997 0.40625063 -2.133464 -1.4557719 -0.16505578
-0.4867522 5.41983 0.117985666 1.05829 -3.7902834 -0.49195102 1.5372757 -1.2013867
0.5671424 -1.3800304 -3.6057203 0.60661566 -1.2220924 1.3093742 0.8359279 -4.140427
-0.26159057 -4.5571713 -7.2903233 -0.7940482 0.02936912 -1.0319632 4.650254 0.93308157
2.8104813 1.1513976 2.6012836 -1.6407207 -0.46106988 -3.0515316 1.6721247 -1.7718747
0.6962214 -1.1320739 -0.82177615 0.8575322 1.211687 1.8809379 0.74073666 4.381286
0.9409587 -0.64752084 0.3393568 -0.76040846 -0.43089733 -0.48157462 10.564706 0.071425594
43.34033 -0.05458108 0.4867522 -2.5690587 -2.506647 -0.5451754 -0.77373314 0.4712817
1.9196167 -0.037767384 -0.16075009 0.43089733 0.31152412 -1.3093742 -0.26607692 0.77373314
2.307411 1.1037661 2.2300746 -1.1810942 0.2795969 -0.19537199 -1.1416894 0.5076777
1.1710982 0.39166456 6.862251 -3.0953443 0.89459807 -1.7893677 -0.909815 0.45599362
-0.3393568 2.737549 -2.7023256 -0.997905 0.4209866 -1.625341 -20.71558 -2.773591
-0.058788944 0.734261 0.44087997 1.3800304 -22.691423 -0.008388963 1.8434608 -0.020974988
2.9265678 0.690012 0.1010066 1.737657 -0.13503209 0.03356766 1.2220924 -0.6962214
-0.6715967 1.1611999 -0.94889814 -1.4427679 0.28412452 0.37243786 -0.2526472 0.5895316
-43.34033 -15.359878 -0.38683465 -1.9595617 1.3441048 -2.3893726 -1.2539604 -158.94064
7.2903233 2.3341963 1.9595617 -1.9001232 0.012583813 1.9394268 -2.9265678 31.77806
0.5782827 3.7268398 -0.5506289 -0.5895316 1.0233394 1.2246469e-16 -0.02936912 10.112404
-0.34873858 -2.2553654 0.2750799 0.8430783 -2.737549 0.3207513 3.1864758 -0.19973005
-0.67770016 -0.98956865 3.3841949 -0.8359279 0.5561077 -7.06994 3.9234238 -0.079862416
-2.3341963 -4.298106 0.6715967 1.1810942 -0.22163354 2.6342196 0.6008923 -0.727825
-2.4177983 -1.5232594 14.426263 0.7087499 -11.60128 -0.43587953 -52.97462 -1.3208227
0.90217775 -5.2952585 0.7670494 -4.7470393 0.53974676 -10.112404 9.69691 -0.9649685
00000000: 2a56 4e3d fa2f c6bd a49e e93f fa65 5dbf
00000010: 3b78 5fc0 7d6a 173e 9ce4 81bf eba0 3dbf
00000020: 059b 433e e2ed e8bd 1495 6a40 2e1d 793f
00000030: 997d 1e40 9fac 13c0 bc0b 75be e6e6 053e
00000040: 28dc b43d f75b ab3e d6fa 4840 837a 8e3f
00000050: a251 03bf 3d37 f33f 0ced f33e 33ef 853e
00000060: a371 fdbf bfe7 9740 8776 67be 8b10 07c0
00000070: e1ce 94c0 6cf6 8ec0 e813 dabe 82b9 a541
00000080: 49ad eebe 1022 9fbf db4a 5540 6c3b e0bd
00000090: 2af7 01bf 6a9c 123f 5516 52c0 c992 7f40
000000a0: 7108 4d3f 17f8 4e40 be46 4b3f 0ced f3be
000000b0: 9a15 d8bf 9d19 82c0 c272 a940 c681 a03f
000000c0: 6860 83c1 ad8a 0840 b1af 8fbf 1500 d0be
000000d0: b375 983e 6f4b e0c1 cbba bd3f a58f bac0
000000e0: 8e8b d7be 00b6 f5bf 0909 29c1 d6fa 48c0
000000f0: dabb 223f e7f3 623e ac9b 243e 7839 fec1
00000100: cbba bdbf de4c e43e 01e1 fb3e 0a8c aabf
00000110: 0dc5 76c0 3b87 5bbf 13a6 0ebe 1fc4 6640
00000120: 2fc8 4d41 bcbe 2ac0 562c 4ebc 05bb e1be
00000130: 1500 d03e ad8a 08c0 bc56 babf 6204 29be
00000140: 9637 f9be 3f6f ad40 78a2 f13d 0c76 873f
00000150: 0194 72c0 01e1 fbbe 73c5 c43f 0ac7 99bf
00000160: 3f30 113f d6a4 b0bf 1fc4 66c0 2a4b 1b3f
00000170: 866d 9cbf 9399 a73f 5fff 553f 617e 84c0
00000180: 33ef 85be 59d4 91c0 544a e9c0 be46 4bbf
00000190: 8297 f03c 5f17 84bf e1ce 9440 6fde 6e3f
000001a0: edde 3340 ff60 933f 6e7b 2640 2303 d2bf
000001b0: 5a11 ecbe 4b4c 43c0 2f08 d63f cacc e2bf
000001c0: 913b 323f cce7 90bf ec5f 52bf 3b87 5b3f
000001d0: 8f18 9b3f 93c2 f03f eba0 3d3f 7f33 8c40
000001e0: abe2 703f edc3 25bf 2dc0 ad3e 21aa 42bf
000001f0: 939e dcbe f390 f6be 0909 2941 9547 923d
00000200: 7f5c 2d42 6990 5fbd 9637 f93e 756b 24c0
00000210: e86c 20c0 9d90 0bbf 6013 46bf d64b f13e
00000220: 00b6 f53f f9b1 1abd ac9b 24be 939e dc3e
00000230: 1780 9f3e 9399 a7bf 3c3b 88be 6013 463f
00000240: 9fac 1340 3548 8d3f 8bb9 0e40 182e 97bf
00000250: 5327 8f3e 980f 48be e122 92bf 2af7 013f
00000260: 8ce6 953f 4288 c83e 8f97 db40 1f1a 46c0
00000270: 6104 653f 000a e5bf a3e9 68bf ff77 e93e
00000280: 2dc0 adbe 0134 2f40 e7f2 2cc0 b476 7fbf
00000290: 8e8b d73e 2d0b d0bf 82b9 a5c1 8482 31c0
000002a0: adcc 70bd 87f8 3b3f 05bb e13e d6a4 b03f
000002b0: 0988 b5c1 dc71 09bc 86f6 eb3f bdd3 abbc
000002c0: e34c 3b40 a0a4 303f 8cdc ce3d 8b6b de3f
000002d0: da45 0abe 3e7e 093d 866d 9c3f 913b 32bf
000002e0: c3ed 2bbf 33a2 943f fdea 72bf 9eac b8bf
000002f0: c578 913e 2db0 be3e f95a 81be 8beb 163f
00000300: 7f5c 2dc2 0fc2 75c1 310f c6be ebd2 fabf
00000310: a00b ac3f 7beb 18c0 c681 a0bf cef0 1ec3
00000320: 544a e940 7963 1540 ebd2 fa3f 3d37 f3bf
00000330: 562c 4e3c 233f f83f e34c 3bc0 7839 fe41
00000340: 560a 143f 8b84 6e40 04f6 0cbf 8beb 16bf
00000350: c9fc 823f 3231 0d25 8297 f0bc 68cc 2141
00000360: dd8d b2be e857 10c0 46d7 8c3e fbd3 573f
00000370: 0134 2fc0 8439 a43e 38ef 4b40 0986 4cbe
00000380: c27d 2dbf 5f54 7dbf a696 5840 5fff 55bf
00000390: 135d 0e3f f33c e2c0 6019 7b40 e88e a3bd
000003a0: 7963 15c0 168a 89c0 c3ed 2b3f 182e 973f
000003b0: e7f3 62be 0e97 2840 14d4 193f bd52 3abf
000003c0: 35bd 1ac0 2afa c2bf f9d1 6641 a270 353f
000003d0: d89e 39c1 9a2b dfbe 03e6 53c2 b810 a9bf
000003e0: 1ff5 663f c272 a9c0 595d 443f bfe7 97c0
000003f0: d82c 0a3f 68cc 21c1 8b26 1b41 2d08 77bf

test_data f4 [150, 1]
3.855777 1.6563137 -1.551474 0.113734975 0.18667705 1.4046813 -5.9804726 -2.1808856
1.2013867 -6.666183 -0.6181503 25.082937 -0.8721956 0.997905 0.8502795 -0.12649983
0.23487242 1.6101695 0.17800933 0.096771196 0.26607692 -0.89459807 -3.008826 4.5571713
-2.8869357 -9.69691 -0.18233988 -0.8796079 1.7546399 -6.1386523 -2.0008419 0.78723186
-12.861373 -2.8104813 0.909815 5.8300347 4.2178717 -1.1037661 0.05458108 -0.53434265
1.2648071 -0.067211054 0.6298052 -0.24374163 -0.74725276 -0.6534901 8.631121 0.78046036
-1.2246469e-16 -0.6239625 -8.631121 -5.0620065 -0.61236817 0.42593312 -0.4712817 0.6181503
-2.5375206 1.2868501 -4.381286 0.41114563 0.27057332 -0.5561077 -0.025171611 -0.40137228
19.055649 1.8071251 -0.7538098 -0.9813012 3.7902834 -5.41983 0.71507 -0.56161207
0.98956865 0.18233988 1.4557719 0.06299889 0.74725276 -1.8251538 1.551474 -0.45093673
-0.302345 0.7538098 2.0877104 0.037767384 -0.80781823 -0.78723186 0.15215594 -0.5951978
1.7209197 -2.4468062 1.0945045 1.4427679 2.4177983 4.467581 1.0853275 1.1320739
-0.21723719 -1.5804327 95.362144 2.8869357 -0.14786716 8.040547 0.35345 0.025171611
1.625341 0.2526472 1.4957567 -1.3679179 -0.041968442 -1.5952016 -0.5726992 -0.5782827
1.2326051 0.82177615 2.0435314 -0.35345 0.4971713 7.5246096 -1.3441048 -0.20409545
-0.4971713 -0.34404093 0.80781823 -2.2300746 -0.690012 1.1225492 0.9649685 0.058788944
-1.7209197 1.3922839 -1.0853275 -0.53974676 -0.1435837 0.5506289 -2.2052526 -0.3161316
1.4689358 -13.599187 -0.5289627 1.5952016 -2.4764159 -0.39651036 2.0654294 -0.13076362
-1.862053 -0.91751075 -1.4046813 -0.6415839 0.067211054 0.53434265
00000000: 0dc5 7640 1602 d43f b396 c6bf e2ed e83d
00000010: 4528 3f3e 99cc b33f 0860 bfc0 a193 0bc0
00000020: 0ac7 993f 5f51 d5c0 193f 1ebf dba9 c841
00000030: 3648 5fbf b476 7f3f ebab 593f 2c89 01be
00000040: 6582 703e 091a ce3f 1448 363e fa2f c63d
00000050: 3c3b 883e 6104 65bf 9b90 40c0 59d4 9140
00000060: 8ec3 38c0 8b26 1bc1 4eb7 3abe fc2d 61bf
00000070: 0a98 e03f d76f c4c0 cb0d 00c0 0788 493f
00000080: 2fc8 4dc1 edde 33c0 a3e9 683f a58f ba40
00000090: cef8 8640 3548 8dbf 6990 5f3d aeca 08bf
000000a0: 33e5 a13f f3a5 89bd ea3a 213f 6897 79be
000000b0: f54b 3fbf 214b 27bf 1219 0a41 40cc 473f
000000c0: 3231 0da5 02bc 1fbf 1219 0ac1 f5fb a1c0
000000d0: 29c4 1cbf e813 da3e d64b f1be 193f 1e3f
000000e0: bd66 22c0 81b7 a43f 7f33 8cc0 ae81 d23e
000000f0: 9688 8a3e 135d 0ebf b234 cebc ab80 cdbe
00000100: f871 9841 e04f e73f aef9 40bf 8e36 7bbf
00000110: 0194 7240 3f6f adc0 d40e 373f cfc5 0fbf
00000120: 5f54 7d3f 4eb7 3a3e bc56 ba3f 9005 813d
00000130: f54b 3f3f a49e e9bf b396 c63f 2ee1 e6be
00000140: f7cc 9abe aef9 403f 0c9d 0540 f9b1 1a3d
00000150: 2dcd 4ebf 0788 49bf c4ce 1b3e e25e 18bf
00000160: 1947 dc3f 7998 1cc0 b918 8c3f 9eac b83f
00000170: 35bd 1a40 6cf6 8e40 03ec 8a3f cce7 903f
00000180: 6d73 5ebe 9e4b cabf 6bb9 be42 8ec3 3840
00000190: 7d6a 17be 15a6 0041 66f7 b43e b234 ce3c
000001a0: 2d0b d03f f95a 813e f574 bf3f ef17 afbf
000001b0: 1ae7 2bbd 912f ccbf 6a9c 12bf 560a 14bf
000001c0: 01c6 9d3f ec5f 523f 38c9 0240 66f7 b4be
000001d0: 3d8d fe3e 9ac9 f040 a00b acbf 66fe 50be
000001e0: 3d8d febe 2226 b0be 2dcd 4e3f 8bb9 0ec0
000001f0: a0a4 30bf b1af 8f3f 2d08 773f adcc 703d
00000200: 1947 dcbf 5c36 b23f 03ec 8abf d82c 0abf
00000210: 9b07 13be 04f6 0c3f dc22 0dc0 00dc a1be
00000220: 1706 bc3f 4596 59c1 196a 07bf 912f cc3f
00000230: 997d 1ec0 6803 cbbe ff2f 0440 e6e6 05be
00000240: c157 eebf fce1 6abf 99cc b3bf d83e 24bf
00000250: f3a5 893d aeca 083f

0.weight f4 [100, 1]
6.158992 -14.703937 -0.1596439 0.43671393 0.556068 -0.8674735 0.1280365 0.08306682
0.020139536 0.09024787 0.5866935 -0.82240033 0.5141132 -19.627449 0.32863784 -13.777953
-0.28076363 -0.07617364 10.633096 0.3153767 -0.30153346 0.09674836 8.786468 11.968048
0.6930442 0.69718784 -16.444206 -0.8854648 0.06232742 -9.010723 -0.0102772415 10.808259
-12.8852215 -0.5262548 0.24803615 -0.41779965 0.4599061 0.2602694 -0.07130415 -0.012931747
-0.053343624 0.06565821 35.944992 0.57363343 -0.24702111 0.47235572 0.17089319 -0.0118306875
0.6393963 15.091469 -9.732746 -21.80571 19.581573 0.32479513 -0.4698157 -26.487547
-0.33182478 35.532032 0.64219105 0.74124753 -6.096852 -17.581879 -0.43779632 15.004604
-0.12107937 0.6625731 15.2003565 -21.287579 -9.60354 0.38453364 0.8229411 0.54743516
0.13286577 -8.902136 -14.937948 0.62843275 26.81512 0.6105219 0.72932816 -0.30940425
-0.1014142 35.067764 0.18611403 0.06658818 -0.08058289 -20.950932 13.069831 0.22773258
0.26889345 0.35076624 20.160505 0.42665955 0.45017248 5.0191894 0.28781772 -0.17321149
16.207443 21.01902 9.976947 -7.8665934
00000000: 7616 c540 5343 6bc1 b179 23be f898 df3e
00000010: 795a 0e3f be12 5ebf 001c 033e f01e aa3d
00000020: abfb a43c e0d3 b83d 8c31 163f d488 52bf
00000030: ec9c 033f 0405 9dc1 3843 a83e 7f72 5cc1
00000040: 40c0 8fbe ed00 9cbd 2921 2a41 0e79 a13e
00000050: 9862 9abe 0124 c63d 5f95 0c41 207d 3f41
00000060: 586b 313f e77a 323f bc8d 83c1 d2ad 62bf
00000070: 094b 7f3d ec2b 10c1 e061 28bc a1ee 2c41
00000080: de29 4ec1 a2b8 06bf 30fd 7d3e d6e9 d5be
00000090: d078 eb3e 0842 853e e907 92bd aedf 53bc
000000a0: d87e 5abd d077 863d acc7 0f42 a4d9 123f
000000b0: 1af3 7cbe 9cd8 f13e a0fe 2e3e 80d5 41bc
000000c0: 7aaf 233f a876 7141 54b9 1bc1 1872 aec1
000000d0: 10a7 9c41 8c4b a63e af8b f0be 7fe6 d3c1
000000e0: f0e4 a9be cd20 0e42 a266 243f 66c2 3d3f
000000f0: 6919 c3c0 b0a7 8cc1 d726 e0be dc12 7041
00000100: 76f8 f7bd 649e 293f a934 7341 f64c aac1
00000110: 1aa8 19c1 98e1 c43e 45ac 523f b624 0c3f
00000120: f70d 083e 266f 0ec1 d601 6fc1 f8e0 203f
00000130: 5e85 d641 2a4b 1c3f 40b5 3a3f 3c6a 9ebe
00000140: 40b2 cfbd 6445 0c42 ad94 3e3e 625f 883d
00000150: a408 a5bd 829b a7c1 071e 5141 bb32 693e
00000160: 67ac 893e a297 b33e b748 a141 1f73 da3e
00000170: 027d e63e 339d a040 d85c 933e 5a5e 31be
00000180: d8a8 8141 f426 a841 93a1 1f41 22bb fbc0

0.bias f4 [100]
-3.1330256 -7.478942 0.06340994 -0.85684824 0.24124978 -0.8704958 -0.46080685 -0.3664577
0.008737426 -0.814538 0.2545476 -0.9392122 -0.7437767 -8.933527 0.14257845 -7.0055575
0.11145027 0.030252561 -6.391356 0.13682182 0.119778536 0.04197424 -4.4789357 -5.6347227
0.30067778 0.3024725 -7.484665 -0.94191015 0.027038196 -4.5824094 0.004073968 -5.0453243
-5.86482 -0.82704055 -0.98416865 0.16575415 -0.9108765 0.112916954 0.02831886 0.0051302626
0.021187993 -0.55667055 -16.77923 -0.908057 0.09803163 -0.8593863 -0.3580873 -0.35250616
0.2774043 -7.109559 -4.429931 -9.925005 -10.926393 0.14091007 0.18638991 -12.055962
-0.5228801 -16.586369 0.27860948 0.32159182 -3.1012983 -8.002525 0.17389421 -7.676878
0.048062325 -0.8726374 -7.7915807 -9.689196 -4.884127 0.16682202 -0.82077485 0.23750608
0.057643496 -4.5281878 -8.575595 0.2726476 -12.517325 0.2648706 0.31641895 -0.9884623
-0.38275445 -16.369713 0.080743566 0.028885882 0.03200381 -9.535987 -6.647352 0.09880106
0.11665276 0.15218051 -10.316308 0.18509881 0.19530721 -2.3429754 -0.5971503 0.06879794
-8.313266 -9.811715 -5.076374 -4.0013328
00000000: 7e83 48c0 7e53 efc0 12dd 813d 685a 5bbf
00000010: 2f0a 773e d0d8 5ebf e0ee ebbe 58a0 bbbe
00000020: 6c27 0f3c 9085 50bf 1054 823e 3670 70bf
00000030: 2668 3ebf baef 0ec1 1600 123e 872d e0c0
00000040: 0a40 e43d 38d4 f73c fd85 ccc0 051b 0c3e
00000050: 734e f53d 2eed 2b3d 7153 8fc0 a64f b4c0
00000060: 70f2 993e addd 9a3e 6082 efc0 0621 71bf
00000070: 357f dd3c 19a3 92c0 ec7e 853b 4c73 a1c0
00000080: 9bac bbc0 eeb8 53bf 7af2 7bbf 75bb 293e
00000090: 342f 69bf 0141 e73d f4fc e73c c31b a83b
000000a0: 7192 ad3c f681 0ebf dd3b 86c1 6c76 68bf
000000b0: cfc4 c83d be00 5cbf 3857 b7be b07b b4be
000000c0: f007 8e3e 8281 e3c0 ffc1 8dc0 d2cc 1ec1
000000d0: 81d2 2ec1 bb4a 103e ffdc 3e3e 38e5 40c1
000000e0: 78db 05bf e2b0 84c1 e7a5 8e3e afa7 a43e
000000f0: ac7b 46c0 580a 00c1 5311 323e fca8 f5c0
00000100: 00dd 443d 2a65 5fbf a154 f9c0 f206 1bc1
00000110: c54a 9cc0 64d3 2a3e 4d1e 52bf cb34 733e
00000120: 961b 6c3d eae6 90c0 a335 09c1 7798 8b3e
00000130: f746 48c1 1f9d 873e aa01 a23e de0b 7dbf
00000140: 64f8 c3be 2cf5 82c1 e25c a53d 16a2 ec3c
00000150: 6d16 033d 6793 18c1 1cb7 d4c0 3658 ca3d
00000160: a4e7 ee3d 35d5 1b3e 990f 25c1 8b8a 3d3e
00000170: 9dfe 473e 4ff3 15c0 d8de 18bf efe5 8c3d
00000180: 2303 05c1 c9fc 1cc1 a871 a2c0 eb0a 80c0

2.weight f4 [1, 100]
3.1141481 -12.68485 -0.12776014 0.04279349 0.4653345 0.081778355 0.073192514 -0.06532313
0.016853256 -0.047911193 0.49096936 0.0661264 0.059558503 2.4351304 0.27501282 -11.886004
-0.22467121 -0.060959134 -6.815327 0.26391286 -0.24131835 0.08096181 4.392839 6.2092733
0.57996017 0.58342475 2.0402002 0.013670132 0.05215621 -7.765232 -0.008222262 -1.423395
1.5986466 -0.01963441 0.099284805 -0.33428743 0.0991473 0.21779996 -0.057062145 -0.010346903
-0.04269027 0.07331356 -4.7337685 0.017386615 -0.19763424 -0.043125927 0.074434794 -0.026396014
0.535068 7.7373233 1.2075307 2.7053964 -12.705711 0.27179626 -0.37590578 3.2862713
-0.046167757 -4.679386 0.5374003 0.62029934 -5.249922 2.1813552 -0.35036618 7.8115745
-0.09688637 0.07337854 8.164335 2.6411161 -8.279832 0.32178617 -0.07313843 0.45811033
0.11118557 -7.670517 15.678492 0.52589357 -3.5314183 0.5108977 0.6103232 -0.0925673
0.025640137 -4.6182413 0.15574363 0.05572153 -0.06448783 2.5993562 6.7991905 0.19057271
0.22501646 0.2935324 10.739004 0.35704052 0.37671763 -0.66100484 -0.035108015 -0.13861904
8.594719 -2.7680962 5.0711484 -6.78546
00000000: 344e 4740 25f5 4ac1 8ed3 02be 3a48 2f3d
00000010: 5340 ee3e 697b a73d f5e5 953d 22c8 85bd
00000020: d70f 8a3c 873e 44bd 5660 fb3e 476d 873d
00000030: 9ef3 733d 2dd9 1b40 7bce 8c3e 132d 3ec1
00000040: 3610 66be 49b0 79bd 2917 dac0 961f 873e
00000050: 281c 77be 4ecf a53d 2392 8c40 5eb2 c640
00000060: 4578 143f 535b 153f a492 0240 b0f8 5f3c
00000070: c0a1 553d c87c f8c0 abb6 06bc cf31 b6bf
00000080: 74a0 cc3f 58d8 a0bc d555 cb3d b927 abbe
00000090: bd0d cb3d f406 5f3e ffb9 69bd 0e86 29bc
000000a0: fedb 2ebd 6b25 963d 087b 97c0 606e 8e3c
000000b0: a160 4abe d0a4 30bd 4571 983d 743c d8bc
000000c0: 37fa 083f 2798 f740 5e90 9a3f 3725 2d40
000000d0: 984a 4bc1 e128 8b3e b976 c0be 4552 5240
000000e0: 671a 3dbd 88bd 95c0 1193 093f f0cb 1e3f
000000f0: 5cff a7c0 539b 0b40 3263 b3be 6bf8 f940
00000100: 5c6c c6bd 7d47 963d 1ea1 0241 0c08 2940
00000110: 317a 04c1 28c1 a43e 9ac9 95bd 708d ea3e
00000120: 43b5 e33d e074 f5c0 1adb 7a41 f6a0 063f
00000130: c202 62c0 31ca 023f 243e 1c3f ed93 bdbd
00000140: 440b d23c a2c8 93c0 427b 1f3e 423c 643d
00000150: 3212 84bd da5b 2640 f892 d940 7e25 433e
00000160: b76a 663e e149 963e f6d2 2b41 04ce b63e
00000170: 22e1 c03e 9d37 29bf 6ccd 0fbd 26f2 0dbe
00000180: f883 0941 7d28 31c0 d946 a240 7d22 d9c0
