bezier.pt (torch, 13286 bytes, 12 tensors)

weight f4 [100, 1]
000000 39 bb 46 3e 5f 5d 37 3f 2b 2e 0b bf 4c 9f 11 bf
       0.19407357 0.7162685 -0.5436732 -0.5688369
000010 1a 1b 16 3f c0 02 46 bc e8 8c 30 3f 3f 44 10 3f
       0.58635104 -0.012085617 0.68965006 0.56354135
000020 a3 6e 53 be 76 b4 e1 be bc ec 16 3f 54 81 25 be
       -0.20647673 -0.44082993 0.5895498 -0.16162616
000030 fc 68 35 bf d5 9e d2 be a2 b1 64 3e eb c8 2d 3f
       -0.7086332 -0.41136804 0.22333387 0.678847
000040 b6 57 47 bf 15 b8 ed 3e f5 a2 3f bf 48 54 2a be
       -0.7786821 0.46429506 -0.7485803 -0.16633713
000050 a4 91 21 bf da c5 44 3d c2 8a 2d 3f cc a2 2d bf
       -0.63112855 0.04804025 0.6778985 -0.67826533
000060 ff e5 68 be 97 3a ed be fe a6 7c bf 79 4b 02 be
       -0.22743987 -0.46333763 -0.9869231 -0.12724103
000070 4c 41 11 bd 16 f8 c1 3d a0 71 3e 3e 5a 7d 36 bf
       -0.035462663 0.09471147 0.18598032 -0.7128502
000080 c2 49 1b bf de 2a 1f bf 2b a0 44 3e 44 79 43 3f
       -0.6065942 -0.62174785 0.19201724 0.7635691
000090 d9 74 bf be 32 29 39 3f 95 c0 a6 3e 21 76 ee 3e
       -0.37393835 0.72328484 0.32568803 0.465745
0000a0 ab ac 61 3f da 8f 0b bf 21 5d a8 3d 78 e6 ee 3e
       0.88154095 -0.54516375 0.08220888 0.4666021
0000b0 74 f8 03 3f c2 7d 3b bf b8 f2 2f bf 9c 24 d6 3e
       0.51550984 -0.73238766 -0.68729734 0.41824806
0000c0 23 73 0c 3f 60 aa ab bd ab 7a 5e be 00 00 01 3c
       0.54863185 -0.08382106 -0.21726482 0.007873535
0000d0 b6 11 da 3d 0c 49 da 3e 6d 95 d8 3e 5c af 81 3d
       0.10647909 0.42633855 0.42301503 0.06332275
0000e0 b2 78 ae be 72 9f 4a bf 3f 7c ca 3c 7d f6 a2 bd
       -0.34076458 -0.79149544 0.024717448 -0.0795717
0000f0 b4 a7 5c 3e 5e 7a 10 bf 32 2b 53 3f b2 60 22 3f
       0.21548349 -0.5643672 0.82487786 0.63428795
000100 fb 97 5d bf c8 c2 c8 be cb 7b ab bd 20 b7 e7 3e
       -0.8656003 -0.39211106 -0.08373221 0.452569
000110 f2 b0 05 bf 0f e8 98 be e8 80 63 be ac f7 8d 3e
       -0.5222312 -0.29864547 -0.22217143 0.2772802
000120 11 fa 03 3f cd 92 06 3f ca d7 63 be e1 57 11 be
       0.51553446 0.5256775 -0.22250286 -0.1419368
000130 6e 27 37 be ae fb 07 3f b4 5c 01 bf ea aa 11 3f
       -0.17886135 0.5311841 -0.5053208 0.5690142
000140 48 33 f6 3e d8 fe 89 3e 0e 9e ed be d9 7b 02 3f
       0.48086 0.26952243 -0.4640965 0.50970227
000150 65 a2 8d be b8 d7 90 bc af b1 bd 3e ca 2f 12 bf
       -0.2766296 -0.017680988 0.37049624 -0.5710417
000160 f8 b8 d6 bb aa 58 f1 3e 7e 4d 52 bd 42 0e 26 bf
       -0.0065528117 0.47137958 -0.051343434 -0.64865506
000170 f3 41 c5 be dc 3e 0b 3f 9c c0 09 bf e6 b8 40 be
       -0.38526878 0.5439279 -0.53809524 -0.18820533
000180 36 6e 34 be 9b 49 27 bf 64 ae 88 be 4c 61 17 bf
       -0.17620167 -0.6534669 -0.2669555 -0.5913284

bias f4 [100]
000000 7f ad ec 3e dc d4 e3 3e 89 63 cc be 8c 7f 39 3d
       0.46226117 0.44498336 -0.3991969 0.045287654
000010 25 a0 8d 3e 85 0f 69 be c3 c1 dc bd 85 8e 60 be
       0.27661243 -0.22759826 -0.107791446 -0.21929367
000020 e3 3b fa 3e e8 88 10 bf 5a 10 27 be ec d9 29 bf
       0.48873815 -0.564589 -0.16314831 -0.6634815
000030 11 3c ae be d0 a1 60 bf 78 cc 0d bf 6a ad 2d 3f
       -0.34030202 -0.87746906 -0.5539012 0.67842734
000040 9e 16 a2 3e 81 df c7 be dd e8 42 bf c3 da 1f be
       0.3165788 -0.39037707 -0.7613657 -0.15610795
000050 6d d1 1c 3f a5 4f ba be 9c e2 be be 9d 17 de 3e
       0.6125706 -0.3638889 -0.37282264 0.4337739
000060 70 96 2b 3e 40 5a 41 be 83 0d 10 bf 23 59 45 3f
       0.16756606 -0.18882084 -0.5627062 0.77089137
000070 eb 74 f3 be 59 08 b2 3e 54 7e 2f bf 55 90 dd bd
       -0.4755014 0.34771994 -0.68552136 -0.10818545
000080 11 5f 45 3f c7 dc 3f bf ab 11 5f bf 22 ab db 3e
       0.77098185 -0.74946254 -0.87136334 0.42904
000090 e2 18 2a be bd e6 57 bf 7c 75 a2 be e6 81 88 be
       -0.16611055 -0.84336454 -0.31730258 -0.26661605
0000a0 74 51 5a bc 2b 32 1b 3f 38 0b 69 3e 70 b3 e6 3e
       -0.013325084 0.60623425 0.22758186 0.45058775
0000b0 68 e0 4a bf ad 14 26 3f 02 f1 41 bf e9 27 a4 be
       -0.79248667 0.648753 -0.75758374 -0.320617
0000c0 4f 5e ee 3d c5 c0 c0 3e 17 06 52 bf 0a ee 16 bf
       0.11639082 0.3764707 -0.8204054 -0.5895697
0000d0 94 a9 a8 bc 20 b6 08 bf fc 91 1f 3f c7 bd b7 be
       -0.020588674 -0.534029 0.6233213 -0.35886976
0000e0 77 7c f6 3d 17 d0 18 3e 9f 1d 17 3f dc 2a 62 bf
       0.120354585 0.1492313 0.59029573 -0.8834665
0000f0 51 2e bd 3e d9 b8 51 bf fe ee 3e be 65 0a 91 3d
       0.369494 -0.8192268 -0.18645856 0.07082061
000100 55 73 dd 3e 77 ce ea be f5 2a 0b 3f 8f 80 3c 3d
       0.43252054 -0.45860645 0.5436242 0.04602104
000110 a1 24 0f bf 06 bf df be 1b ba 05 bf 45 3e 20 bf
       -0.55915266 -0.43700427 -0.522371 -0.62595016
000120 e2 68 98 be cc 55 73 be 5d a1 44 3e 1f 69 b7 3e
       -0.2976752 -0.23763198 0.1920218 0.3582239
000130 8b 83 44 3f d6 d1 e0 3d 78 4e 14 bf a3 70 64 bf
       0.7676322 0.10977523 -0.57932234 -0.8923437
000140 56 db 84 3e 79 23 98 3e d1 0e 9f be 70 97 0c 3f
       0.2594859 0.29714563 -0.31065992 0.54918575
000150 08 fa f8 bd b0 42 a5 be 4b 54 94 be fd a6 46 3d
       -0.12157065 -0.3227744 -0.2897056 0.048499096
000160 97 e5 37 bf 31 55 50 bf 32 5e 25 bf 4e 1c 1e 3f
       -0.718347 -0.8137999 -0.64596856 0.6176194
000170 80 e6 8d be a8 f7 20 3f 22 c8 7f 3e de ed 0e 3f
       -0.2771492 0.62877893 0.24978688 0.55831707
000180 cd 62 08 bd 35 46 9b 3e 5f 72 23 3f 39 d8 6a 3e
       -0.03329735 0.30327 0.6384639 0.22934045

weight f4 [1, 100]
000000 f7 e9 11 bd 2f 2b ae 3d 86 33 00 3d 04 0f b7 3d
       -0.035623517 0.0850433 0.031299137 0.08938411
000010 54 92 21 be 2a 06 f8 3c 7c b9 62 bd 7b 6e 6b 3d
       -0.15778476 0.030276377 -0.055352673 0.05747841
000020 1b 3f b9 3d 25 1a 21 3c 61 43 05 be c0 a0 95 3c
       0.090452395 0.0098328935 -0.13013984 0.018265128
000030 6e 3d c6 bd 80 a7 d8 3c 00 fc 70 b8 27 78 bd 3d
       -0.096796855 0.026447058 -5.7455152e-05 0.09251433
000040 36 df 05 3d 86 9e 9a bb 6e 3c 3c 3d 1d d5 89 3d
       0.032683574 -0.0047186045 0.045956068 0.06730101
000050 a4 ef b2 bd 3c 86 d6 bc 05 6b 0a bb a5 d9 8c bc
       -0.08737114 -0.026187055 -0.0021120918 -0.017193625
000060 d1 7a 70 bd fe 3d 88 bc 4a 1e 98 bd 7c f1 e0 bb
       -0.058710877 -0.016631123 -0.07427652 -0.0068647247
000070 d8 99 28 bd 45 e9 ca 3d db c2 93 bc aa 16 ea bd
       -0.04116234 0.09907774 -0.01803725 -0.11430104
000080 0d cf b3 3c cc 04 a2 bd 06 78 3f bc ea 52 38 3e
       0.021949315 -0.07911071 -0.011686331 0.18000379
000090 3d b6 00 3c e9 36 1e 3d 36 3a 97 bd 85 ae 97 3d
       0.007855949 0.038626585 -0.0738415 0.07406334
0000a0 8c 08 44 3e 79 46 03 be 54 77 b0 3d b5 82 3a bd
       0.19143885 -0.12819852 0.0861651 -0.04553481
0000b0 ed 3f 17 bd 84 b3 93 bd a8 16 65 3c cb cc 77 3b
       -0.0369262 -0.07211974 0.013982452 0.0037811275
0000c0 ed 1d 9f 3d e0 23 07 3d fa 6e 66 3d 8f 98 05 bd
       0.0776938 0.032993197 0.05625818 -0.032616194
0000d0 1e 44 f4 bd c2 25 8e bd 9e 12 73 bc 76 b5 71 bc
       -0.11927055 -0.069407955 -0.014835982 -0.014752736
0000e0 0b 28 a3 3b da 78 e7 bd 76 d9 64 3d f4 f4 3d 3d
       0.0049791387 -0.113023475 0.05587145 0.046376184
0000f0 96 82 6d 3c ee 4b 7b 3c 45 a8 ed 3d 3b 7e fe 3d
       0.014496466 0.015337927 0.116043605 0.1242642
000100 fe 8c 1b be f0 99 a7 bd ac 7d 83 3d df fc 8b bd
       -0.15190503 -0.08183658 0.064204544 -0.06835341
000110 30 c0 9a 3d 78 16 ac bc b6 35 9b bd df 0f 62 bd
       0.07556188 -0.021006808 -0.07578604 -0.055190917
000120 03 4f bf 3d 2f a0 f9 3d 53 13 57 3d 8e 96 4c bd
       0.09341242 0.12188756 0.052508663 -0.049948268
000130 55 b7 0d bd 79 e6 ba 3c dd 8e 43 bd 2a 3c 96 bd
       -0.034598667 0.022814976 -0.047743667 -0.07335694
000140 44 e0 8e 3d d9 c8 d8 3d 27 52 bc bd 55 7c d1 3c
       0.06976369 0.10585184 -0.09195357 0.025571981
000150 6d 8b 6c bd a4 8e db bc 81 7e c2 3c ab 59 7d 3d
       -0.057750154 -0.026801415 0.023741962 0.061853092
000160 c5 d4 70 bc 14 d0 01 bd ac 9a 20 bb 67 ed 9e bb
       -0.014699166 -0.03169258 -0.0024506254 -0.004850078
000170 ca e0 8e bd e1 1b 2e 3d 86 b4 c1 bd e2 1c 72 3c
       -0.06976469 0.042507056 -0.0945826 0.014777394
000180 3d 30 b9 3c a4 7d aa 3d 4e 82 56 3d 52 45 a4 3d
       0.02260601 0.08324745 0.052370362 0.08021034

train_data f4 [600, 1]
000000 83 00 86 3e 68 79 01 3f ea 95 3d 3e d3 89 36 bf
       0.26172265 0.50575876 0.18514219 -0.71304053
000010 31 dd 04 3f 09 52 6b 3f 47 13 7a 3f 87 e7 9d 3e
       0.5190001 0.9192205 0.97685665 0.30840704
000020 bc 5d 0e bf 84 57 66 3f d6 de ba be ac 0a 26 be
       -0.5561178 0.8997729 -0.36498135 -0.16215008
000030 20 3b 53 bf 38 69 b2 be 71 9a b2 be aa fe b5 be
       -0.8251209 -0.348459 -0.34883454 -0.35545856
000040 ff 49 99 be 3d 3d 7c 3f b8 ec 57 bf 69 eb de be
       -0.29939267 0.9853094 -0.8434558 -0.4353898
000050 97 dd 24 3f 5a 3d eb be 13 22 e8 3e eb 1b 0e 3f
       0.6440062 -0.45945245 0.45338497 0.5551135
000060 4a 4f 68 3f c1 cd 4a 3f cc 96 4b 3f 71 66 3f be
       0.90745986 0.79220206 0.7952697 -0.18691422
000070 84 97 4f 3f b8 44 90 3e 10 c5 38 3f 51 1e 09 be
       0.8109057 0.28177428 0.72175694 -0.13390471
000080 fb 7d ea 3e 58 b1 22 bf f0 1a 04 3f 9f 3a ba bd
       0.4579924 -0.63551855 0.51603603 -0.09093212
000090 50 99 c7 3e cc 51 4f bf e1 7e 10 3e 33 ee 40 be
       0.38984156 -0.8098419 0.141109 -0.18840866
0000a0 ef 1e 64 3f 22 9b e9 be 30 11 c4 3e b2 90 73 3f
       0.891097 -0.4562617 0.38294363 0.9514266
0000b0 2a bc 1d bd e5 22 cc bd 60 74 7a be 8e 18 33 bf
       -0.038509525 -0.09967593 -0.24458456 -0.6995934
0000c0 0d 06 5e 3f 0f 08 60 be 79 82 0a 3f a8 88 ff be
       0.8672798 -0.21878074 0.54105335 -0.49908948
0000d0 d5 67 d8 3e d4 85 58 3f c0 91 1c bf 04 87 b4 3e
       0.42266718 0.84579206 -0.61159897 0.3525926
0000e0 b8 27 84 be c3 f4 31 bf b5 a5 8a be 5e b1 85 be
       -0.25811553 -0.695141 -0.2707955 -0.26111883
0000f0 85 4d 7a 3e 7d a8 ad 3e 8a 08 a7 3e 85 4c 77 3f
       0.24443634 0.3391761 0.32623702 0.96601135
000100 e6 82 eb be 60 ab 04 3d 41 3d 70 3f 0d ab 22 3f
       -0.45998305 0.03239 0.93843466 0.6354225
000110 74 f4 31 3e c5 19 39 bf f3 5c 6f 3f e3 d4 d8 bd
       0.17378408 -0.72304946 0.93501204 -0.1058748
000120 64 64 4c bf da 6b 26 3f af fe 24 3f 16 10 0b 3e
       -0.79840684 0.6500832 0.64451116 0.13580355
000130 d2 ba 12 bf 4c 17 d8 be af 78 c7 be 95 a0 3c 3f
       -0.57316315 -0.42205274 -0.38959262 0.7368253
000140 e7 9c f5 be 51 aa d9 3e 09 24 0f bf 5a d2 09 3f
       -0.4797127 0.42512754 -0.5591436 0.53836596
000150 42 3f 12 bf 74 4b 39 3f f9 94 13 3f d4 71 44 bf
       -0.57127774 0.7238076 0.5764919 -0.7673619
000160 5f da d3 bd 68 ed 0a be 35 4b 6d 3e 87 5e 5a 3f
       -0.10344385 -0.13567126 0.2317322 0.8530049
000170 4b 82 a6 ba 8b ea 5d 3f 3d f9 88 bd ce c8 ef 3d
       -0.0012703625 0.8668601 -0.066881634 0.11708222
000180 fb 91 77 3f 9d 42 23 bf d4 13 09 3e 79 7c 78 bf
       0.96707124 -0.6377352 0.1338647 -0.9706493
000190 63 38 96 be 93 8e 76 be 0a 95 53 bf d6 7e db 3d
       -0.29339895 -0.24077825 -0.8264929 0.107175514
0001a0 11 50 b5 be 11 b4 91 be a8 7f 28 be c5 2b 66 bf
       -0.35412648 -0.28457692 -0.16454947 -0.89910537
0001b0 f1 dc f9 be a0 6f 07 3d d0 9f 23 bf 1d 45 7c 3f
       -0.48801377 0.03306544 -0.6391573 0.9854296
0001c0 0f e0 6a bf f0 40 2a bd 4d 57 1d 3f c9 69 ec bd
       -0.91748136 -0.041565835 0.61461335 -0.115436144
0001d0 fa 99 f5 be 57 c8 73 bf 49 44 c4 be ba 81 10 bf
       -0.47969037 -0.9522757 -0.38333347 -0.5644795
0001e0 f5 c2 7a 3f ba f1 1d bf 0e 04 40 3d 78 6d 56 3f
       0.9795373 -0.6169697 0.046878867 0.83760786
0001f0 a7 03 41 3f 0c 07 05 3d b4 f1 4e bf f1 bd 28 3c
       0.753962 0.032477424 -0.8083756 0.010299192
000200 f9 25 08 3f e1 a1 6f 3f 85 33 1f bf 15 18 05 3e
       0.5318294 0.9360638 -0.6218799 0.12997468
000210 20 81 6f 3e 2a 61 2a 3e 6d 0c b8 3e 49 69 64 bf
       0.23389101 0.16638628 0.3594698 -0.8922315
000220 c9 3f 5f bf 61 7a 0c bf 05 3d 0b bf 14 d1 33 be
       -0.87206703 -0.54874235 -0.54389983 -0.17560226
000230 a9 27 1a 3f ef 52 e6 3d d8 ae 38 bf d7 10 53 bf
       0.60216767 0.11246287 -0.7214179 -0.8244757
000240 e0 da 61 bf 3a a1 62 3f aa a8 d6 3e 11 90 28 3f
       -0.882246 0.8852726 0.41925555 0.6584483
000250 6b ce 85 be 59 5e 5e bf 70 3f 7a bf 5a eb 9f 3e
       -0.26134047 -0.86862713 -0.9775305 0.31234246
000260 f5 5c 3e 3f 98 3c 1e bd 04 38 6b bf ed e5 dd be
       0.7436059 -0.038632005 -0.9188235 -0.43339482
000270 a1 2f dc be 37 af 68 bf aa e8 25 bf d6 ae 57 bf
       -0.43005088 -0.90892357 -0.6480814 -0.84251153
000280 80 38 0e 3f fb bd ee be 70 93 7b bf 49 5d 57 3f
       0.5555496 -0.4662932 -0.98271847 0.84126717
000290 dd 72 9c 3e b7 95 e0 be 88 fa b2 bd 1e d0 ff be
       0.30556384 -0.43864223 -0.08739191 -0.49963468
0002a0 5f d7 63 3f 8b f7 34 3f a2 da b6 3c e6 00 b1 be
       0.89000505 0.7069022 0.02232105 -0.34570998
0002b0 b1 49 c4 3d 96 ae 60 bf 36 42 15 be d1 90 2c 3f
       0.09584368 -0.87766397 -0.14576039 0.6740847
0002c0 19 07 1a be 35 60 be be a3 7f 2d 3f d6 ec d6 bd
       -0.1504177 -0.37182775 0.67772883 -0.104943916
0002d0 d2 c2 7d 3e 34 91 21 3f 7e 02 71 3f 54 b9 1b 3c
       0.2478135 0.6311219 0.9414443 0.009504635
0002e0 10 94 48 bf a8 0b 43 3e 4c d8 1d bf 0d 84 9b be
       -0.78350925 0.19047415 -0.6165817 -0.30374184
0002f0 e8 f4 4d be 7a c9 00 be a6 6c 88 3e 01 d6 84 bd
       -0.20112956 -0.12576857 0.26645392 -0.064861305
000300 28 6a 3e bf e7 90 f2 3e 81 5f f8 3e c3 6b 4e 3f
       -0.7438073 0.47376177 0.48510364 0.8063318
000310 e5 b0 7e 3e 28 d9 b0 3e bc eb c7 be 19 96 5d bd
       0.24872167 0.34540677 -0.3904704 -0.054098222
000320 37 c8 00 3e ea f9 0c bf ef b5 73 bf 8b d4 a0 3e
       0.12576376 -0.5506884 -0.95199484 0.31412157
000330 1b 1e e1 be 13 b0 b9 3e 56 bd d5 3e 45 e9 12 bf
       -0.4396828 0.36267146 0.41746014 -0.5738719
000340 0d f7 a6 3d a0 1a 0d bf c6 73 2f bf ed 49 57 3f
       0.0815259 -0.5511875 -0.6853603 0.84097177
000350 60 d8 48 bf e2 67 0c bf 61 6d 05 3f b8 44 06 bf
       -0.7845516 -0.5484601 0.52120024 -0.52448606
000360 8d 9a 2e 3f fa 6c 24 3e d9 38 f3 3e 6d 04 4b bf
       0.68204576 0.16057196 0.4750431 -0.7930363
000370 58 06 36 bf 8b b8 5e 3e 6f 4d cd be 24 9e 01 be
       -0.7110343 0.21750085 -0.4009814 -0.12657982
000380 72 ba 2a 3f 6c ca aa be 05 c6 e7 bc 26 03 b5 3e
       0.6669074 -0.3335756 -0.028292665 0.35353965
000390 83 68 fb 3e 26 b5 02 bf ff d0 29 3f 22 24 57 bf
       0.49103174 -0.5105766 0.6633453 -0.8403951
0003a0 c3 18 15 bf bf 32 29 bf ad 99 02 be 66 c4 6d bf
       -0.5824091 -0.6609306 -0.12753935 -0.92877805
0003b0 2b 21 97 3e ee 26 f7 bd 24 f5 33 3f fa b3 3f 3f
       0.29517493 -0.12067972 0.7029593 0.74884
0003c0 9d ce 59 be 13 45 76 bf e5 8e 92 3e 28 ad 1c be
       -0.21270223 -0.9619915 0.28624645 -0.15300429
0003d0 07 5b 41 bf 10 4f 48 3c 5b c0 b7 be 90 26 2c bd
       -0.7552952 0.012225881 -0.35888943 -0.042028964
0003e0 be b5 3f 3f 03 31 b9 3e 47 35 96 be 16 9e dc 3d
       0.7488669 0.36170205 -0.29337522 0.1077234
0003f0 c9 8b 1a 3f cf df de 3b 2f f0 6a 3f d2 2e 56 bf
       0.60369545 0.0068015824 0.9177274 -0.8366519

train_targets f4 [600, 1]
000000 11 24 28 3f ac 65 02 3f 56 cf 27 3f b6 99 0e bf
       0.6568003 0.5093639 0.65550745 -0.55703294
000010 be c5 0a 3f 1f 5f 92 3f f2 59 86 3f ca eb 1d 3f
       0.5420798 1.1435279 1.0496199 0.6168791
000020 3b ab d2 bd 11 3e 95 3f 08 6d 1e 3d 6d be 24 be
       -0.10286566 1.1659566 0.0386782 -0.16088267
000030 9e ba 33 bf c5 d8 dd 3c 58 55 e0 3c 33 db 04 3d
       -0.7020663 0.027080903 0.027384445 0.032435607
000040 46 f6 dd bc c5 45 84 3f 19 59 2e bf 97 a4 3c 3d
       -0.027094971 1.0333792 -0.681047 0.046055403
000050 2c 21 6f 3f b7 c4 05 3d b8 c4 e3 3e 1e c3 26 3f
       0.9340999 0.032658305 0.44486022 0.65141475
000060 64 30 94 3f eb 26 98 3f 45 61 98 3f 37 10 2b be
       1.1577268 1.1886877 1.1904684 -0.16705404
000070 e3 41 99 3f b9 a9 24 3f f0 e3 8d 3f c9 f3 f9 bd
       1.1973232 0.64321476 1.1085186 -0.122047015
000080 c8 51 e4 3e 4d f0 9d be 2e c8 08 3f 21 1d fc bb
       0.44593644 -0.30847397 0.5343045 -0.007693902
000090 b9 32 ff 3e 01 22 36 bf b0 ac 1d 3f 96 a7 2a be
       0.49843386 -0.71145636 0.61591625 -0.16665491
0000a0 e9 4c 96 3f b6 f5 0e 3d 67 42 02 3f c5 36 8c 3f
       1.1742221 0.034902297 0.5088257 1.0954214
0000b0 08 50 30 3e 13 24 0f bd d4 11 df bd 31 cc 03 bf
       0.1721803 -0.034946512 -0.10892072 -0.51483446
0000c0 76 79 98 3f 91 fd 12 be 36 39 1b 3f 5f 49 e9 bb
       1.1912067 -0.1435454 0.6063417 -0.007119342
0000d0 14 5b ea 3e 29 80 99 3f 53 28 74 be 33 63 0e 3f
       0.45772612 1.1992236 -0.23843507 0.55620116
0000e0 00 0c b5 bd e7 1f 00 bf a6 15 8d bd 25 93 ab bd
       -0.088401794 -0.5004868 -0.06888895 -0.08377675
0000f0 28 f9 29 3f c9 8b 13 3f e8 32 18 3f d7 ef 88 3f
       0.6639581 0.5763517 0.59452677 1.0698193
000100 e6 2e 04 3d 5d 8b cb 3e ac e4 8e 3f ac e1 68 3f
       0.03227129 0.39754763 1.1163535 0.9096935
000110 20 e4 25 3f a7 38 16 bf 90 8e 8f 3f 8e 30 5a bd
       0.64801216 -0.58680195 1.1215382 -0.05326896
000120 5f 6c 36 bf 3a 68 73 3f 5d 7d 6f 3f 94 f6 1b 3f
       -0.7125911 0.9508091 0.93550664 0.60923123
000130 e0 90 0f be ad b5 4c 3d fb 1d 49 3d e9 e4 90 3f
       -0.14020109 0.049977947 0.049100857 1.1319858
000140 4b 06 77 3c ca 41 e9 3e a4 a6 df bd 61 17 19 3f
       0.015077184 0.45558006 -0.10920456 0.598013
000150 8a 23 0b be 30 53 8e 3f b6 f6 38 3f a8 ef 2f bf
       -0.13587776 1.1119137 0.7225145 -0.6872506
000160 d4 34 3d bd a4 76 00 be d2 9d 2a 3f 7e 41 99 3f
       -0.04619296 -0.12545258 0.66647065 1.1973112
000170 62 0f 98 3e c7 80 98 3f 49 90 95 3d 5a 15 15 3f
       0.29699236 1.19143 0.07302911 0.58235705
000180 6b b0 88 3f d8 69 a1 be bf 4f 1b 3f 23 76 ef be
       1.0678838 -0.31526065 0.6066856 -0.4676982
000190 43 0d 11 bd 55 84 ea bd 7d 69 33 bf ce e9 10 3f
       -0.035413038 -0.114510216 -0.7008284 0.5660676
0001a0 a0 e2 00 3d 17 32 45 bd 39 80 26 be 04 8d 15 bf
       0.031466126 -0.048143473 -0.1625985 -0.584183
0001b0 18 8e cb 3b ad 80 cc 3e a7 a7 a3 be 22 3e 84 3f
       0.0062120073 0.39941922 -0.31963846 1.0331461
0001c0 e3 e5 0c bf 92 69 25 3e 49 d1 58 3f e6 f2 a2 bd
       -0.5503828 0.16153553 0.84694344 -0.079564855
0001d0 dc 64 77 3c 5b 66 fc be b1 7f 41 3d fd 2a f7 bd
       0.01509973 -0.4929684 0.047240917 -0.12068746
0001e0 73 b2 85 3f 02 da 81 be fb 68 df 3e f4 a7 99 3f
       1.0445083 -0.2536164 0.4363478 1.200438
0001f0 ad c6 93 3f 29 ab cb 3e 0a 3f 36 bf f5 8b aa 3e
       1.1545006 0.39779022 -0.7118994 0.33309904
000200 eb 08 14 3f db 5a 8f 3f c7 1a 89 be 2d f6 19 3f
       0.5782611 1.1199602 -0.26778242 0.6014126
000210 ae 8c 2a 3f 94 61 24 3f 95 a7 0b 3f 80 da 18 bf
       0.6662091 0.6421139 0.54552585 -0.59708405
000220 05 6d 22 bf 99 1a b4 bd e3 de a0 bd ec 59 2b be
       -0.634476 -0.087941356 -0.07855012 -0.16733521
000230 1a ae 4e 3f 3b 2f 13 3f 93 02 15 bf 66 df 33 bf
       0.8073441 0.5749394 -0.5820705 -0.70262754
000240 32 a4 1d bf 81 ee 96 3f 8f 03 ec 3e e7 16 79 3f
       -0.6157867 1.1791536 0.46096465 0.9730057
000250 10 e0 aa bd 7c 00 24 bf fd 25 eb be 22 bc 1c 3f
       -0.08343518 -0.6406324 -0.4592742 0.6122457
000260 40 1a 92 3f 62 e0 2f 3e 8e 48 0c bf 7a b2 3f 3d
       1.1414261 0.17175439 -0.5479821 0.046801068
000270 90 4d 44 3d 66 e1 10 bf 1d ec b1 be f5 ad 2e bf
       0.047925532 -0.5659393 -0.34750453 -0.6823419
000280 cb 20 27 3f 7c 2e e0 3c c0 18 e8 be 47 9a 99 3f
       0.65284413 0.027365915 -0.45331383 1.2000207
000290 c5 bf 1e 3f 29 2c 37 3d dc c8 74 3b 28 1f 00 bc
       0.6201137 0.04471985 0.0037351167 -0.007819928
0002a0 74 6c 96 3f 2d 80 8a 3f 80 e5 bc 3e 77 30 cb 3c
       1.1751847 1.0820366 0.36893845 0.024803383
0002b0 e7 b1 0b 3f 34 d0 1f bf d0 e4 11 be ff 85 81 3f
       0.5456833 -0.6242707 -0.14247441 1.0119017
0002c0 50 76 18 be 5d b7 2d 3d af 9e 82 3f 81 29 4f bd
       -0.14888883 0.042411197 1.0204676 -0.05057669
0002d0 9b b3 29 3f ff a9 65 3f 73 4b 8e 3f 61 4d a9 3e
       0.6628968 0.8971252 1.1116775 0.33066848
0002e0 42 a8 34 bf 31 8b 28 3f c8 48 81 be 29 17 ae bc
       -0.7056924 0.6583739 -0.2525084 -0.021251278
0002f0 0a 06 24 be 6e ab d6 bd 12 73 27 3f 31 ee a3 3d
       -0.16017929 -0.10481916 0.6540996 0.08004416
000300 94 3d 24 bf 00 aa e9 3e 86 de f0 3e c7 0c 99 3f
       -0.6415646 0.45637512 0.47044772 1.1957024
000310 10 9f 29 3f 6e 2f 11 3f e5 01 4a 3d 3f f8 f0 3d
       0.66258335 0.56712997 0.049318213 0.11766099
000320 c5 6f 18 3f 00 05 bc bd ea 9c fc be 0e 2f 1c 3f
       0.59545547 -0.09180641 -0.49338466 0.610093
000330 37 4b 35 3d cc 5e 0a 3f 28 f2 ec 3e 24 3e 11 be
       0.044261184 0.540509 0.462785 -0.14183861
000340 74 6b 04 3f 2d 11 be bd 9a eb ef be a1 9b 99 3f
       0.5172646 -0.0928062 -0.46859437 1.2000619
000350 af dc 34 bf f6 f6 b2 bd fe 49 0c 3f 88 e7 34 bd
       -0.70649236 -0.0873851 0.54800403 -0.044166118
000360 0d e3 83 3f ea 0c 23 3f 75 56 ea 3e b0 12 36 bf
       1.0303665 0.6369158 0.45769086 -0.71122265
000370 17 06 0d bf 4c 9f 2a 3f d5 40 51 3d c7 69 da bd
       -0.5508742 0.6664932 0.05108722 -0.10664707
000380 f0 95 7e 3f 58 e4 5e 3c b8 6d 54 3e 8c 03 0e 3f
       0.99447536 0.013604246 0.2074498 0.5547416
000390 d5 b9 f5 3e 30 72 ba bc 66 4d 7c 3f 44 67 2f bf
       0.4799334 -0.022759527 0.985556 -0.68516946
0003a0 d4 fa 25 be 93 fb c6 be 35 c7 de bd ce d3 07 bf
       -0.16208965 -0.3886381 -0.108778395 -0.53057563
0003b0 68 8f 21 3f 5e 1b be bd a4 87 89 3f 70 f9 92 3f
       0.63109446 -0.092825636 1.0744519 1.1482372
0003c0 b3 b9 19 be 94 4e f5 be ec b1 23 3f 5b b2 1b be
       -0.15012245 -0.47911513 0.6394336 -0.15204756
0003d0 39 99 2a bf 61 8c ad 3e f1 a3 0e 3d fc c1 23 3e
       -0.6664005 0.33896163 0.034824315 0.15991968
0003e0 8d fa 92 3f 7e c2 0a 3f 5f 30 11 bd 4b 27 11 3f
       1.1482712 0.5420302 -0.03544652 0.5670058
0003f0 3f f1 4f 3f 52 0a a5 3e a7 9d 92 3f 89 9d 30 bf
       0.8122749 0.32234436 1.1454362 -0.6899038

test_data f4 [150, 1]
000000 22 a2 23 3f e8 53 2d bf b6 38 ec bd b2 4b d1 be
       0.6391927 -0.67706156 -0.11534254 -0.40878063
000010 6a 6c 4c 3f da fd 33 bf 47 11 df bd 96 9c 80 3f
       0.79852927 -0.7030922 -0.10891967 1.0047786
000020 59 30 4d 3d 74 90 2b 3f 46 4c 0d 3d c0 5b 36 bf
       0.050094936 0.6701729 0.03449657 -0.7123375
000030 c8 4d 90 3f e7 0b 86 3f 3c e5 4e 3f 4b 0c 2e 3e
       1.1273737 1.0472382 0.80818534 0.16996877
000040 61 6c 36 bf 7a 04 8d 3f 67 27 89 3f 0f be 1d 3f
       -0.71259123 1.1016991 1.071515 0.6161813
000050 ce 24 15 3f 3f b9 a7 be d6 8d d6 bb 29 43 34 bc
       0.58259284 -0.3275852 -0.00654767 -0.01100234
000060 37 00 46 3f 4b c9 90 3f c7 0e 21 3f b6 90 d5 3a
       0.7734408 1.131143 0.62913173 0.0016293738
000070 d6 47 2d bf da ea 16 bf 80 dc 21 3f 18 ea ec 3e
       -0.6768774 -0.58952105 0.6322708 0.4627235
000080 87 d3 04 3f ff 67 01 bf 60 2b 2a bf cc 0a 73 be
       0.51885265 -0.5054931 -0.66472435 -0.23734587
000090 84 18 e8 3e 0e 98 06 bf 1c dc d1 bd b9 99 12 3f
       0.45331204 -0.5257577 -0.10247061 0.5726581
0000a0 9a 51 d5 be d6 f2 1d 3f 72 cc 05 3f a3 00 d4 3e
       -0.4166382 0.61698663 0.52265084 0.41406736
0000b0 5d 16 18 be 7c f2 11 3f 67 b2 ef bc a4 34 e2 3e
       -0.14852281 0.57010627 -0.029259874 0.44180787
0000c0 a2 d7 18 3f ef 24 e4 3e d7 e0 25 3f dc 04 e4 3e
       0.5970403 0.44559428 0.64796203 0.44534957
0000d0 33 a1 2a 3f 5e ed 14 bf 18 e1 08 3f 1a 32 87 3f
       0.6665222 -0.58174694 0.53468466 1.0562165
0000e0 34 b0 23 3d f4 ff 82 3f e1 02 32 3e 10 00 12 be
       0.039962962 1.0234361 0.1738391 -0.14257836
0000f0 54 63 03 3f 01 4d 03 bf 9c 40 94 3f df 40 36 3b
       0.5132344 -0.51289374 1.1582217 0.0027809662
000100 05 21 41 bc b5 71 8b 3f 54 35 ec be 51 59 11 3f
       -0.011787658 1.0894076 -0.46134436 0.5677691
000110 40 cc cd 3c 60 82 00 3f 59 20 9e 3c ca 04 22 3f
       0.025121808 0.50198936 0.019302534 0.6328856
000120 34 a6 af be 6b 8a 07 be da fb e3 3e 52 7b 36 bf
       -0.3430649 -0.13236396 0.44528085 -0.7128192
000130 cb f2 90 3e 13 1d 99 3f 66 cc 22 3d 0f 44 ef 3e
       0.28310236 1.1961998 0.03974571 0.46731612
000140 93 e4 90 3f af 0f 29 3f fa 7a b0 bd 2e 7b d1 bd
       1.1319755 0.66039556 -0.08617206 -0.10228573
000150 5f 6e 80 3f d8 39 8f 3f 08 c4 e1 bd 43 5b 34 bf
       1.0033683 1.1189528 -0.11023718 -0.70451754
000160 a1 77 fb 3e 39 22 94 be 86 5a 98 3d 97 4b 0e bf
       0.49114707 -0.2893236 0.07439141 -0.5558409
000170 00 78 f0 be 77 d7 0f 3f 10 51 8d 3f 30 bd 2e bf
       -0.46966553 0.5618815 1.1040363 -0.6825743
000180 97 51 fd be c1 23 86 3f 6e 40 ef 3d ea 73 0a bf
       -0.4947631 1.0479661 0.11682211 -0.5408312
000190 e9 22 52 3d cb 47 4f 3f c1 86 13 3f a9 7f ef 3e
       0.051302824 0.8096892 0.57627493 0.46777084
0001a0 da f0 23 3f ad fc 69 3e 52 e5 16 3f b6 e5 ca be
       0.64039385 0.22850294 0.58943665 -0.3962838
0001b0 e5 d8 26 3f 72 ae f5 bd d4 01 29 be 97 ec 0a be
       0.65174705 -0.119961634 -0.16504604 -0.13566814
0001c0 7d 0c 98 3f 61 22 99 3f 2d 20 7d be 62 bd 8e 3f
       1.1878811 1.1963617 -0.24719305 1.1151545
0001d0 9c 6e 2c bf 0e b7 9d 3e ec d6 3e 3d d7 18 f8 be
       -0.67356277 0.30803722 0.046591684 -0.4845645
0001e0 e0 60 8f 3f dc 37 ec be fa 1d f8 3e 8e ab 36 3f
       1.1201439 -0.46136367 0.4846037 0.7135552
0001f0 56 7a 1d bf 9e 34 16 3f dd 61 0f be 0e 4a 9b bd
       -0.61514795 0.5867404 -0.14002176 -0.07582484
000200 6b bc 29 3f 93 6d 93 3f 99 0a 94 3f c9 28 fb 3e
       0.6630313 1.1517814 1.1565734 0.49054554
000210 a2 74 97 3f 69 55 c9 bc 52 1d 5d bd 6c a9 95 3d
       1.1832469 -0.02457686 -0.05398304 0.07307705
000220 b8 d6 87 3f 43 6a e0 3c 7f 26 99 3f 93 51 5b be
       1.0612402 0.02739442 1.1964873 -0.21417837
000230 06 18 a7 be 31 52 e6 bd b6 6e 2a 3f 43 af 99 3f
       -0.32635516 -0.112461455 0.6657518 1.2006611
000240 6a 59 2b 3d e6 2b 07 be 78 8c 06 3f 97 a0 16 3f
       0.04183332 -0.1320034 0.5255809 0.5883879
000250 19 19 84 3f 4c 1c 52 3d
       1.0320159 0.051296517

0.weight f4 [100, 1]
000000 39 bb 46 3e 5f 5d 37 3f 2b 2e 0b bf 4c 9f 11 bf
       0.19407357 0.7162685 -0.5436732 -0.5688369
000010 1a 1b 16 3f c0 02 46 bc e8 8c 30 3f 3f 44 10 3f
       0.58635104 -0.012085617 0.68965006 0.56354135
000020 a3 6e 53 be 76 b4 e1 be bc ec 16 3f 54 81 25 be
       -0.20647673 -0.44082993 0.5895498 -0.16162616
000030 fc 68 35 bf d5 9e d2 be a2 b1 64 3e eb c8 2d 3f
       -0.7086332 -0.41136804 0.22333387 0.678847
000040 b6 57 47 bf 15 b8 ed 3e f5 a2 3f bf 48 54 2a be
       -0.7786821 0.46429506 -0.7485803 -0.16633713
000050 a4 91 21 bf da c5 44 3d c2 8a 2d 3f cc a2 2d bf
       -0.63112855 0.04804025 0.6778985 -0.67826533
000060 ff e5 68 be 97 3a ed be fe a6 7c bf 79 4b 02 be
       -0.22743987 -0.46333763 -0.9869231 -0.12724103
000070 4c 41 11 bd 16 f8 c1 3d a0 71 3e 3e 5a 7d 36 bf
       -0.035462663 0.09471147 0.18598032 -0.7128502
000080 c2 49 1b bf de 2a 1f bf 2b a0 44 3e 44 79 43 3f
       -0.6065942 -0.62174785 0.19201724 0.7635691
000090 d9 74 bf be 32 29 39 3f 95 c0 a6 3e 21 76 ee 3e
       -0.37393835 0.72328484 0.32568803 0.465745
0000a0 ab ac 61 3f da 8f 0b bf 21 5d a8 3d 78 e6 ee 3e
       0.88154095 -0.54516375 0.08220888 0.4666021
0000b0 74 f8 03 3f c2 7d 3b bf b8 f2 2f bf 9c 24 d6 3e
       0.51550984 -0.73238766 -0.68729734 0.41824806
0000c0 23 73 0c 3f 60 aa ab bd ab 7a 5e be 00 00 01 3c
       0.54863185 -0.08382106 -0.21726482 0.007873535
0000d0 b6 11 da 3d 0c 49 da 3e 6d 95 d8 3e 5c af 81 3d
       0.10647909 0.42633855 0.42301503 0.06332275
0000e0 b2 78 ae be 72 9f 4a bf 3f 7c ca 3c 7d f6 a2 bd
       -0.34076458 -0.79149544 0.024717448 -0.0795717
0000f0 b4 a7 5c 3e 5e 7a 10 bf 32 2b 53 3f b2 60 22 3f
       0.21548349 -0.5643672 0.82487786 0.63428795
000100 fb 97 5d bf c8 c2 c8 be cb 7b ab bd 20 b7 e7 3e
       -0.8656003 -0.39211106 -0.08373221 0.452569
000110 f2 b0 05 bf 0f e8 98 be e8 80 63 be ac f7 8d 3e
       -0.5222312 -0.29864547 -0.22217143 0.2772802
000120 11 fa 03 3f cd 92 06 3f ca d7 63 be e1 57 11 be
       0.51553446 0.5256775 -0.22250286 -0.1419368
000130 6e 27 37 be ae fb 07 3f b4 5c 01 bf ea aa 11 3f
       -0.17886135 0.5311841 -0.5053208 0.5690142
000140 48 33 f6 3e d8 fe 89 3e 0e 9e ed be d9 7b 02 3f
       0.48086 0.26952243 -0.4640965 0.50970227
000150 65 a2 8d be b8 d7 90 bc af b1 bd 3e ca 2f 12 bf
       -0.2766296 -0.017680988 0.37049624 -0.5710417
000160 f8 b8 d6 bb aa 58 f1 3e 7e 4d 52 bd 42 0e 26 bf
       -0.0065528117 0.47137958 -0.051343434 -0.64865506
000170 f3 41 c5 be dc 3e 0b 3f 9c c0 09 bf e6 b8 40 be
       -0.38526878 0.5439279 -0.53809524 -0.18820533
000180 36 6e 34 be 9b 49 27 bf 64 ae 88 be 4c 61 17 bf
       -0.17620167 -0.6534669 -0.2669555 -0.5913284

0.bias f4 [100]
000000 7f ad ec 3e dc d4 e3 3e 89 63 cc be 8c 7f 39 3d
       0.46226117 0.44498336 -0.3991969 0.045287654
000010 25 a0 8d 3e 85 0f 69 be c3 c1 dc bd 85 8e 60 be
       0.27661243 -0.22759826 -0.107791446 -0.21929367
000020 e3 3b fa 3e e8 88 10 bf 5a 10 27 be ec d9 29 bf
       0.48873815 -0.564589 -0.16314831 -0.6634815
000030 11 3c ae be d0 a1 60 bf 78 cc 0d bf 6a ad 2d 3f
       -0.34030202 -0.87746906 -0.5539012 0.67842734
000040 9e 16 a2 3e 81 df c7 be dd e8 42 bf c3 da 1f be
       0.3165788 -0.39037707 -0.7613657 -0.15610795
000050 6d d1 1c 3f a5 4f ba be 9c e2 be be 9d 17 de 3e
       0.6125706 -0.3638889 -0.37282264 0.4337739
000060 70 96 2b 3e 40 5a 41 be 83 0d 10 bf 23 59 45 3f
       0.16756606 -0.18882084 -0.5627062 0.77089137
000070 eb 74 f3 be 59 08 b2 3e 54 7e 2f bf 55 90 dd bd
       -0.4755014 0.34771994 -0.68552136 -0.10818545
000080 11 5f 45 3f c7 dc 3f bf ab 11 5f bf 22 ab db 3e
       0.77098185 -0.74946254 -0.87136334 0.42904
000090 e2 18 2a be bd e6 57 bf 7c 75 a2 be e6 81 88 be
       -0.16611055 -0.84336454 -0.31730258 -0.26661605
0000a0 74 51 5a bc 2b 32 1b 3f 38 0b 69 3e 70 b3 e6 3e
       -0.013325084 0.60623425 0.22758186 0.45058775
0000b0 68 e0 4a bf ad 14 26 3f 02 f1 41 bf e9 27 a4 be
       -0.79248667 0.648753 -0.75758374 -0.320617
0000c0 4f 5e ee 3d c5 c0 c0 3e 17 06 52 bf 0a ee 16 bf
       0.11639082 0.3764707 -0.8204054 -0.5895697
0000d0 94 a9 a8 bc 20 b6 08 bf fc 91 1f 3f c7 bd b7 be
       -0.020588674 -0.534029 0.6233213 -0.35886976
0000e0 77 7c f6 3d 17 d0 18 3e 9f 1d 17 3f dc 2a 62 bf
       0.120354585 0.1492313 0.59029573 -0.8834665
0000f0 51 2e bd 3e d9 b8 51 bf fe ee 3e be 65 0a 91 3d
       0.369494 -0.8192268 -0.18645856 0.07082061
000100 55 73 dd 3e 77 ce ea be f5 2a 0b 3f 8f 80 3c 3d
       0.43252054 -0.45860645 0.5436242 0.04602104
000110 a1 24 0f bf 06 bf df be 1b ba 05 bf 45 3e 20 bf
       -0.55915266 -0.43700427 -0.522371 -0.62595016
000120 e2 68 98 be cc 55 73 be 5d a1 44 3e 1f 69 b7 3e
       -0.2976752 -0.23763198 0.1920218 0.3582239
000130 8b 83 44 3f d6 d1 e0 3d 78 4e 14 bf a3 70 64 bf
       0.7676322 0.10977523 -0.57932234 -0.8923437
000140 56 db 84 3e 79 23 98 3e d1 0e 9f be 70 97 0c 3f
       0.2594859 0.29714563 -0.31065992 0.54918575
000150 08 fa f8 bd b0 42 a5 be 4b 54 94 be fd a6 46 3d
       -0.12157065 -0.3227744 -0.2897056 0.048499096
000160 97 e5 37 bf 31 55 50 bf 32 5e 25 bf 4e 1c 1e 3f
       -0.718347 -0.8137999 -0.64596856 0.6176194
000170 80 e6 8d be a8 f7 20 3f 22 c8 7f 3e de ed 0e 3f
       -0.2771492 0.62877893 0.24978688 0.55831707
000180 cd 62 08 bd 35 46 9b 3e 5f 72 23 3f 39 d8 6a 3e
       -0.03329735 0.30327 0.6384639 0.22934045

2.weight f4 [1, 100]
000000 f7 e9 11 bd 2f 2b ae 3d 86 33 00 3d 04 0f b7 3d
       -0.035623517 0.0850433 0.031299137 0.08938411
000010 54 92 21 be 2a 06 f8 3c 7c b9 62 bd 7b 6e 6b 3d
       -0.15778476 0.030276377 -0.055352673 0.05747841
000020 1b 3f b9 3d 25 1a 21 3c 61 43 05 be c0 a0 95 3c
       0.090452395 0.0098328935 -0.13013984 0.018265128
000030 6e 3d c6 bd 80 a7 d8 3c 00 fc 70 b8 27 78 bd 3d
       -0.096796855 0.026447058 -5.7455152e-05 0.09251433
000040 36 df 05 3d 86 9e 9a bb 6e 3c 3c 3d 1d d5 89 3d
       0.032683574 -0.0047186045 0.045956068 0.06730101
000050 a4 ef b2 bd 3c 86 d6 bc 05 6b 0a bb a5 d9 8c bc
       -0.08737114 -0.026187055 -0.0021120918 -0.017193625
000060 d1 7a 70 bd fe 3d 88 bc 4a 1e 98 bd 7c f1 e0 bb
       -0.058710877 -0.016631123 -0.07427652 -0.0068647247
000070 d8 99 28 bd 45 e9 ca 3d db c2 93 bc aa 16 ea bd
       -0.04116234 0.09907774 -0.01803725 -0.11430104
000080 0d cf b3 3c cc 04 a2 bd 06 78 3f bc ea 52 38 3e
       0.021949315 -0.07911071 -0.011686331 0.18000379
000090 3d b6 00 3c e9 36 1e 3d 36 3a 97 bd 85 ae 97 3d
       0.007855949 0.038626585 -0.0738415 0.07406334
0000a0 8c 08 44 3e 79 46 03 be 54 77 b0 3d b5 82 3a bd
       0.19143885 -0.12819852 0.0861651 -0.04553481
0000b0 ed 3f 17 bd 84 b3 93 bd a8 16 65 3c cb cc 77 3b
       -0.0369262 -0.07211974 0.013982452 0.0037811275
0000c0 ed 1d 9f 3d e0 23 07 3d fa 6e 66 3d 8f 98 05 bd
       0.0776938 0.032993197 0.05625818 -0.032616194
0000d0 1e 44 f4 bd c2 25 8e bd 9e 12 73 bc 76 b5 71 bc
       -0.11927055 -0.069407955 -0.014835982 -0.014752736
0000e0 0b 28 a3 3b da 78 e7 bd 76 d9 64 3d f4 f4 3d 3d
       0.0049791387 -0.113023475 0.05587145 0.046376184
0000f0 96 82 6d 3c ee 4b 7b 3c 45 a8 ed 3d 3b 7e fe 3d
       0.014496466 0.015337927 0.116043605 0.1242642
000100 fe 8c 1b be f0 99 a7 bd ac 7d 83 3d df fc 8b bd
       -0.15190503 -0.08183658 0.064204544 -0.06835341
000110 30 c0 9a 3d 78 16 ac bc b6 35 9b bd df 0f 62 bd
       0.07556188 -0.021006808 -0.07578604 -0.055190917
000120 03 4f bf 3d 2f a0 f9 3d 53 13 57 3d 8e 96 4c bd
       0.09341242 0.12188756 0.052508663 -0.049948268
000130 55 b7 0d bd 79 e6 ba 3c dd 8e 43 bd 2a 3c 96 bd
       -0.034598667 0.022814976 -0.047743667 -0.07335694
000140 44 e0 8e 3d d9 c8 d8 3d 27 52 bc bd 55 7c d1 3c
       0.06976369 0.10585184 -0.09195357 0.025571981
000150 6d 8b 6c bd a4 8e db bc 81 7e c2 3c ab 59 7d 3d
       -0.057750154 -0.026801415 0.023741962 0.061853092
000160 c5 d4 70 bc 14 d0 01 bd ac 9a 20 bb 67 ed 9e bb
       -0.014699166 -0.03169258 -0.0024506254 -0.004850078
000170 ca e0 8e bd e1 1b 2e 3d 86 b4 c1 bd e2 1c 72 3c
       -0.06976469 0.042507056 -0.0945826 0.014777394
000180 3d 30 b9 3c a4 7d aa 3d 4e 82 56 3d 52 45 a4 3d
       0.02260601 0.08324745 0.052370362 0.08021034

0.weight f4 [100, 1]
000000 c8 ad cb 3e 3c 33 6b 3e c6 20 11 bf 45 95 8c be
       0.39781022 0.22968763 -0.56690633 -0.27457634
000010 b8 4a 53 bf 92 f0 48 bf 74 78 72 3f 9f 84 da 3e
       -0.82535887 -0.7849208 0.94715047 0.42679307
000020 9e b1 be 3e bc e8 35 3f f9 bd 66 bf 00 43 ed bd
       0.37244886 0.7105825 -0.90133625 -0.11585045
000030 75 1c 1e bd 44 05 d3 3e 03 05 6e bf 8a 6f e0 bd
       -0.038601357 0.41214955 -0.929764 -0.109587744
000040 39 28 64 bf 5a b6 08 3f f9 ce fb be 62 5c c7 3e
       -0.89123875 0.53403246 -0.49181345 0.3893767
000050 08 4a 85 be 0e 0d cd 3e 56 d0 2a 3e d4 95 0c bf
       -0.26033044 0.40049022 0.16681036 -0.5491612
000060 27 72 15 be 21 71 14 3f 50 db 71 bf 76 8f 63 be
       -0.14594327 0.5798512 -0.9447527 -0.22222695
000070 58 e0 1a bf d3 30 12 bf 50 60 8c 3d d1 d8 7d bf
       -0.6049857 -0.5710575 0.06854308 -0.9915896
000080 2f ba f8 3e 00 10 eb 39 bc a2 b4 3e 7d 5e d2 3e
       0.48579547 0.00044834614 0.35280406 0.41087714
000090 05 41 3a bf e8 d8 32 be bf 32 2a bf e4 6e 15 bf
       -0.7275546 -0.17465556 -0.6648368 -0.5837233
0000a0 c9 ff c2 3e 8b 8a 7a 3f 8f 37 26 bf 47 dd 67 be
       0.38085774 0.9786765 -0.64928526 -0.22643004
0000b0 00 dd 8d 3d 24 60 bd 3e a0 e7 1b 3f 07 d9 e5 bd
       0.06926918 0.36987412 0.60900307 -0.11223035
0000c0 45 dd 1a 3e 12 bc 1f 3f b0 c5 ee bd 43 bb 24 bf
       0.1512347 0.6239635 -0.116588 -0.6434824
0000d0 0f 0d 22 bf 57 be 79 3d b3 f7 30 3f 51 98 7a 3f
       -0.63301176 0.060972538 0.6912796 0.97888666
0000e0 e9 c6 fd be 43 b9 2c bf 16 f8 e8 be 2d e2 22 bf
       -0.4956582 -0.67470187 -0.45501775 -0.63626367
0000f0 c3 1e 04 bf 45 0b 88 3f 02 1a 73 3f 2d 02 00 3e
       -0.5160944 1.0628439 0.9496156 0.1250083
000100 a7 9a 3e bf 3a ad 44 bf de 1c 49 bf af cc 1a 3f
       -0.7445473 -0.7682682 -0.7855967 0.6046857
000110 dc 11 0c 3e ca 48 df 3e 3b ad 5a bf c3 36 7d bf
       0.13678688 0.4361022 -0.8542058 -0.98911685
000120 3d f1 7f 3f af 11 d5 3e 88 a7 ab be dd 3e 18 bf
       0.99977475 0.41615054 -0.33526254 -0.5947092
000130 79 f3 d6 bd 91 c9 28 3f 8c d3 b7 be c2 67 79 3f
       -0.104956575 0.65932566 -0.35903585 0.97423947
000140 35 4c 2f 3d 1e 77 38 bf 3c f1 65 bf e1 2e 0e bf
       0.042797286 -0.7205676 -0.8982122 -0.5554028
000150 9d 8f ed 3e c2 f0 bb be 3a f7 4d be a6 f9 02 bf
       0.4639863 -0.3670712 -0.2011384 -0.51162183
000160 b7 bb 9c 3e 9e 44 48 3f a6 aa 5a bf 7c ff bd 3e
       0.30611965 0.782297 -0.8541664 0.37108982
000170 2e 25 00 bf eb 35 ea be 26 42 c5 be 79 be 30 bf
       -0.5005673 -0.4574426 -0.3852703 -0.6904064
000180 cb 24 85 3f c4 78 dd 3e 2f 35 57 bf 18 83 65 3f
       1.0401853 0.432562 -0.84065527 0.8965316

0.bias f4 [100]
000000 f2 59 d0 3e b1 4c ea be ad 7e 57 3f 27 20 7d bf
       0.40693623 -0.45761636 0.84177667 -0.98877186
000010 de a6 d1 be 07 70 43 be 8e 0f 3e be fb 4e 80 3d
       -0.40947622 -0.19085704 -0.18560621 0.06265064
000020 08 0c 7a 3d 4e 49 5e 3f 1a 3d 1e bb d8 54 27 be
       0.06104663 0.86830604 -0.0024145306 -0.16340959
000030 37 11 f7 3c f8 2e 16 bf 02 d4 6a bf dc 94 31 3f
       0.030159576 -0.5866542 -0.9172975 0.69367766
000040 39 0a 9a bd 9a 70 84 be 2a 38 72 be e6 8c ed 3e
       -0.07521481 -0.25867158 -0.23654237 0.4639656
000050 37 1e 61 3f 60 b3 73 bc 56 c9 00 3f 5b 7b 63 3f
       0.8793673 -0.014874309 0.50307214 0.888601
000060 94 e6 7a bf 8a 0c b1 3e d6 ab 50 bf 02 65 82 bd
       -0.98008084 0.3457988 -0.815122 -0.06366922
000070 58 91 99 be 7f 0e 1b bf 38 9e 47 bf 4e 02 34 3f
       -0.299937 -0.60568994 -0.779758 0.70316017
000080 a3 a7 03 3e c4 5b 2c bf 9e 06 69 bf 24 9f 1a bf
       0.12856917 -0.67327523 -0.9102572 -0.6039908
000090 1e 4a 06 3e 74 1e 01 bf 89 8c 17 3e e9 93 b8 bd
       0.13114211 -0.5043709 0.14799704 -0.090125866
0000a0 0f 03 40 bf 50 43 88 3e 69 91 a5 3e 36 2c 0b bf
       -0.7500467 0.26613855 0.32337502 -0.54364336
0000b0 a8 0c 81 be 92 74 2a 3e 70 03 cd be 4c c3 7d be
       -0.25204968 0.1664603 -0.40041685 -0.24781531
0000c0 af a9 9a 3e eb bf 9e 3e 74 59 09 bf af 18 03 bf
       0.30207583 0.31005797 -0.5365212 -0.5120954
0000d0 9d 00 ea 3d ff 43 cb 3d 19 d3 0a 3f 1c 88 e9 be
       0.11425898 0.099250786 0.5422836 -0.45611656
0000e0 96 49 2a 3f e6 81 a2 3e 3d c8 c3 be 9b 2f f9 be
       0.66518533 0.3173973 -0.38238707 -0.48669133
0000f0 23 6b 36 bf 5e cf 0d bf 08 e3 41 3f f5 a8 23 be
       -0.7125723 -0.5539454 0.7573705 -0.1598242
000100 a0 e1 35 bf 77 cd 16 3f 1b 5d 24 3f d5 df 20 bf
       -0.710474 0.58907264 0.6420457 -0.6284154
000110 bb 64 db bb e7 97 95 bd 1e f9 ff be 93 15 0f bf
       -0.0066953576 -0.07304364 -0.4999475 -0.55892295
000120 2a e9 3c bf a9 7a f2 bd c0 ea 66 bd 14 be 65 bf
       -0.7379328 -0.11839802 -0.05637622 -0.8974316
000130 61 ac ed 3e 7b 82 08 3f dc 69 02 be 87 d4 59 bf
       0.46420577 0.533241 -0.12735695 -0.85089916
000140 de fc 1d bf 93 7e 61 bf 9e 41 2d 3f c8 86 fc 3d
       -0.6171397 -0.8808376 0.6767825 0.12330395
000150 3e d6 84 3e e0 83 96 3e 80 73 ec be 6c b4 55 bf
       0.25944704 0.29397488 -0.4618187 -0.83478427
000160 df 4e db bd 90 da bc bd 28 d7 e1 be fd 40 ac 3e
       -0.10708403 -0.09221375 -0.44109464 0.33643332
000170 08 c2 2c bf 91 37 20 3f d2 2f 02 bf dd f9 0d 3e
       -0.6748357 0.6258479 -0.5085422 0.13864847
000180 43 dc 55 3f 27 6d d4 be c9 a7 53 3f 17 c0 08 bf
       0.8353922 -0.41489527 0.82677895 -0.53418106

2.weight f4 [1, 100]
000000 05 c4 d0 3d 5e e8 f8 3c c3 b5 80 bd 8f 77 b8 3d
       0.10193638 0.030384239 -0.06284668 0.09007179
000010 c6 2e 11 be 01 df 86 3d 32 dc 96 3d 2b 75 ae 3d
       -0.14177999 0.06585503 0.07366218 0.08518442
000020 11 a2 08 3e 48 b4 94 3b b8 32 47 3d 38 e3 ca bc
       0.13343073 0.0045380928 0.048632354 -0.02476655
000030 7c b3 b9 bc 5a 99 53 3d c3 90 c9 bd a7 40 73 3d
       -0.022668593 0.05165992 -0.09842064 0.05938783
000040 00 d7 37 b5 6b b6 ef 3d ff ef 0b be 5d b1 39 bd
       -6.848568e-07 0.11704715 -0.1366577 -0.045335162
000050 a3 ea 9f bd 0a 43 a0 bb 40 09 56 3d a9 c4 07 be
       -0.07808425 -0.004890804 0.052254915 -0.13258614
000060 03 3d e8 bc 39 7f 1a 3c af b3 55 3b ce b0 e9 3c
       -0.028349405 0.009429746 0.003260832 0.02852669
000070 e9 ef 25 be 21 9e 8e 3b b0 54 49 bc d0 6f 99 bd
       -0.162048 0.0043523465 -0.0122882575 -0.0749203
000080 c6 c9 5e 3d b0 8b 2b bc 68 1d c8 bd 74 db 2b 3e
       0.054391645 -0.010470316 -0.09771234 0.16782933
000090 5a 80 42 be 22 5d 3b 3d 10 1b 04 bc 0e 33 5c 3e
       -0.18994275 0.045743115 -0.008063093 0.21503851
0000a0 64 a5 8a 3d 28 38 92 3d 05 11 19 3e 7f 0f d8 3b
       0.06769827 0.07139617 0.14947899 0.006593644
0000b0 d4 1b 80 3c da 24 ad bd 48 b8 20 3d 72 7b 54 3d
       0.01563827 -0.084542945 0.039238244 0.05187554
0000c0 48 63 2b 3e f6 59 88 bd 5a cf 19 3d 9c df 04 3e
       0.16737092 -0.06657784 0.03755126 0.12975925
0000d0 99 65 1c be 54 69 45 3d 69 73 98 3e f5 c2 48 3d
       -0.15273131 0.04819615 0.2977555 0.04901405
0000e0 6b eb 6e bd 9c 64 60 3d 4b 66 41 bc 8d b6 2c 3d
       -0.05832998 0.05478345 -0.011804174 0.04216628
0000f0 6a dc e8 3d 90 e0 18 3e f9 ee 9e 3e ba dd 22 bd
       0.11370166 0.14929414 0.31041697 -0.039762236
000100 fc 40 e8 bd 23 b4 38 be f0 3c e2 bd 92 76 4f 3d
       -0.1134052 -0.18037467 -0.11046779 0.050650187
000110 bb dd 3b 3c 62 90 70 bd 6a 35 1d bd 31 88 ce bd
       0.011466439 -0.058731444 -0.038381018 -0.1008457
000120 1c 67 5f bd 74 b0 af 3c 61 ec f9 3d bf 4f 5c bd
       -0.054541692 0.021446444 0.12203289 -0.05378699
000130 89 2e 51 bc c4 d5 85 3e d7 27 32 3d 78 22 cd 3c
       -0.0127674425 0.26139653 0.043495025 0.02504085
000140 7a 6b 8b bc 15 ee c5 3d 0a af 17 be c4 76 1f bd
       -0.017019022 0.09664551 -0.14812866 -0.038931623
000150 d0 4b 8a bd fe 8a c6 bd 7a 16 04 3d cf 04 31 bd
       -0.06752741 -0.096944794 0.032247998 -0.043217476
000160 fd fc 2f bc 98 f3 be bd 91 dc 56 bd 8d 7d 8a bc
       -0.010741469 -0.093238056 -0.052456442 -0.01690557
000170 b1 73 84 3c 60 0e 1c 3e 3c 68 c4 bc 48 e8 0c be
       0.016168447 0.15239859 -0.023975484 -0.13760483
000180 3f e0 67 3e 96 3b 08 3c e0 c9 cf 3b 5d 09 aa 3c
       0.22644137 0.008314988 0.006341204 0.020756418
