UAT Code/state2.pt (torch, 10937 bytes, 9 tensors)

weight f4 [100, 1]
-1.0629246 -0.17255722 -0.23890197 -0.7435009 -0.07130303 0.8959623 0.51990604 0.6814788
0.5960648 1.18527 -1.024576 0.39177024 0.41436708 0.7224128 0.39762622 0.487708
0.73391134 -0.79575956 -1.0435065 0.3357771 0.16313505 0.59343517 1.0536197 -0.65897906
1.1915461 0.6577192 -0.7237181 0.29800773 0.38285863 -1.0480502 0.4105847 0.43460608
-0.6913405 -1.1240675 1.0127894 0.7799069 0.11554575 0.26024765 -0.27257654 0.76987135
-0.8404248 0.22860004 0.6325754 -0.59507805 -0.43986446 1.0365988 -0.82351154 -0.26163423
0.5504702 -0.119285755 0.98794323 0.45324156 -0.08681142 -0.45008302 -0.043907885 -0.85527587
-0.82778907 0.6156496 0.89832 -0.41682658 0.39341044 0.6252934 -0.53847003 -0.5316118
0.25362706 -0.6747433 -0.9521141 -0.15667021 0.6696936 0.80454105 0.9930422 -0.20331816
0.06530314 0.26271713 0.10100794 1.0162592 -0.4723197 -0.7857862 0.21942127 0.83278245
-0.16015112 -0.6764424 0.46414217 -0.6093179 1.1070902 -1.0172249 -0.2103213 -0.18284631
-0.42241222 0.33412206 0.09012154 0.06349826 0.81625426 -0.9717244 -0.049055934 0.8666342
-1.0238148 -0.17459321 0.5116882 0.9233487
00000000: ea0d 88bf d7b2 30be b8a2 74be 1356 3ebf
00000010: 5307 92bd c95d 653f 9018 053f 6575 2e3f
00000020: b497 183f edb6 973f 4e25 83bf 1c96 c83e
00000030: ec27 d43e 0cf0 383f aa95 cb3e ddb4 f93e
00000040: 9de1 3b3f e6b6 4bbf 9f91 85bf faea ab3e
00000050: e00c 273e 5eeb 173f 03dd 863f dab2 28bf
00000060: 9584 983f 4960 283f 9745 39bf 7894 983e
00000070: 0c06 c43e 8226 86bf 2838 d23e b084 de3e
00000080: b1fb 30bf 72e1 8fbf 15a3 813f fba7 473f
00000090: 40a3 ec3d 2e3f 853e 278f 8bbe 4a16 453f
000000a0: 1426 57bf 2116 6a3e 76f0 213f 0957 18bf
000000b0: ea35 e1be 45af 843f a7d1 52bf ecf4 85be
000000c0: 9deb 0c3f 174c f4bd d9e9 7c3f 470f e83e
000000d0: 30ca b1bd 4871 e6be c1d8 33bd 5cf3 5abf
000000e0: fce9 53bf 369b 1d3f 4df8 653f 4b6a d5be
000000f0: 186d c93e 3a13 203f 2cd9 09bf b617 08bf
00000100: 68db 813e fabb 2cbf c0bd 73bf 286e 20be
00000110: 0a71 2b3f 67f6 4d3f 0338 7e3f a332 50be
00000120: a7bd 853d dc82 863e 40dd ce3d c814 823f
00000130: e3d3 f1be 4929 49bf f8af 603e 3b31 553f
00000140: a8fe 23be 542b 2dbf 0ba4 ed3e 42fc 1bbf
00000150: 22b5 8d3f 6d34 82bf 785e 57be 103c 3bbe
00000160: 6a46 d8be 0c12 ab3e a491 b83d 600b 823d
00000170: 0af6 503f eec2 78bf e0ee 48bd bddb 5d3f
00000180: 5d0c 83bf 90c8 32be fffd 023f 9560 6c3f

bias f4 [100]
0.49487847 0.36310974 0.55219567 0.10556472 0.7011137 -0.4249939 -0.7866919 -0.12579751
-0.96207106 0.18090428 -0.4792961 -0.46704566 -0.19651045 -0.7229477 0.60986394 0.6751155
0.8146757 0.60834736 -0.48795632 0.26411897 -0.74625254 -0.96338594 0.16063923 0.0941359
-0.5648929 0.10030691 -0.57152164 0.63912135 -0.5806503 -0.8269068 -0.31443438 0.34174716
0.68355274 -0.5261382 0.1548214 -0.5978421 -0.19525683 0.624827 -0.12739387 -0.9597926
-0.13575016 -0.108442664 -0.7323898 0.641248 0.50404245 -0.7967695 0.8141543 -0.8615931
-0.4212951 0.6185597 -0.15163301 0.6655044 -0.29653907 -0.82500756 0.4668173 -0.67484516
-0.9201957 -0.7245405 -0.1377983 0.3184806 -0.30095384 -0.11238781 -0.58176756 -0.72402513
-0.53232217 -0.78878653 -0.15389156 -0.15577953 0.65796727 -0.61528325 0.7790929 0.45792225
0.7186868 -0.28470194 -0.8319994 0.44978204 0.6158339 0.6629226 -0.3487991 -0.6819342
-0.54088736 0.09770532 0.6167076 -0.28538465 -0.17025854 -0.8029743 -0.76735973 -0.38051105
0.32303938 -0.46105444 0.08947471 -0.27868104 0.6420804 0.7428553 -0.98423195 0.681673
0.47530875 -0.56335044 -0.24252565 -0.70702136
00000000: b660 fd3e 85e9 b93e b25c 0d3f 5132 d83d
00000010: 307c 333f cd98 d9be a464 49bf 10d1 00be
00000020: 4a4a 76bf f93e 393e 4c66 f5be 9c20 efbe
00000030: 093a 49be 1a13 39bf 0b20 1c3f 5fd4 2c3f
00000040: 968e 503f a7bc 1b3f 69d5 f9be 9a3a 873e
00000050: 680a 3fbf 76a0 76bf 9c7e 243e 53ca c03d
00000060: d29c 10bf b66d cd3d 3e4f 12bf 759d 233f
00000070: 80a5 14bf 2ab0 53bf 8bfd a0be 7cf9 ae3e
00000080: 50fd 2e3f feb0 06bf 8089 1e3e 2e0c 19bf
00000090: 68f1 47be aaf4 1f3f 8a73 02be f8b4 75bf
000000a0: 1702 0bbe 3017 debd e67d 3bbf d428 243f
000000b0: ed08 013f 16f9 4bbf 6b6c 503f 5e91 5cbf
000000c0: feb3 d7be ee59 1e3f af45 1bbe 7f5e 2a3f
000000d0: f8d3 97be b233 53bf ad02 ef3e a7c2 2cbf
000000e0: f291 6bbf 7c7b 39bf ff1a 0dbe e40f a33e
000000f0: 9f16 9abe 952b e6bd b8ee 14bf b659 39bf
00000100: 4446 08bf eaed 49bf c095 1dbe ab84 1fbe
00000110: 8b70 283f 3483 1dbf a272 473f c974 ea3e
00000120: dcfb 373f 74c4 91be eafd 54bf d549 e63e
00000130: 4aa7 1d3f 4cb5 293f cc95 b2be 3d93 2ebf
00000140: 9877 0abf ba19 c83d 8de0 1d3f f01d 92be
00000150: 4158 2ebe b98f 4dbf b071 44bf 58d2 c2be
00000160: 6b65 a53e 540f ecbe 843e b73d 48af 8ebe
00000170: 625f 243f c42b 3e3f a0f6 7bbf 1f82 2e3f
00000180: ab5b f33e bc37 10bf a558 78be 5aff 34bf

weight f4 [1, 100]
0.64340967 0.041039664 0.055281494 -0.34807363 -0.047883693 0.50688064 -0.052804496 -0.37841627
-0.051987078 0.67677844 -0.568894 0.0904594 0.29000697 0.05820962 -0.009882411 -0.003825
-0.03357949 -0.33361718 -0.5069035 0.11102308 0.049161963 -0.05308354 0.53285486 -0.33543456
0.741601 0.3076719 0.29201096 -0.11171411 -0.061740186 0.6285503 -0.27411005 0.14151804
0.06208664 -0.6857438 0.6440062 -0.29509878 0.08688059 -0.026874717 -0.118685424 -0.086868726
0.48917684 0.1532823 0.08086283 0.05861121 -0.030765384 -0.4194171 0.06841564 -0.054201413
-0.2924974 -0.032387514 -0.6351722 -0.08905988 -0.043014288 0.06345495 0.01788937 0.45847824
0.05315704 0.022854127 -0.58074325 -0.16082473 -0.17931691 -0.3599362 0.08087171 -0.019469596
-0.075753555 -0.086707845 0.6195615 -0.09122815 -0.12802279 -0.30908686 0.47960958 -0.05868084
-0.039406575 0.075346194 0.020199537 -0.64235014 -0.0495484 -0.06688563 0.011776343 -0.12372482
0.06081862 -0.4003995 -0.12312123 -0.42032108 -0.7004879 0.53693557 -0.016170159 0.07872597
-0.1825223 -0.09328754 -0.028595842 0.05843059 0.28079087 -0.4054868 -0.02383671 0.28595468
0.5827024 0.06892396 0.32014644 -0.4022823
00000000: 7fb6 243f 3519 283d d96e 623d b536 b2be
00000010: b121 44bd eec2 013f 8749 58bd c7bf c1be
00000020: 67f0 54bd 5a41 2d3f 0aa3 11bf c742 b93d
00000030: cb7b 943e 366d 6e3d d6e9 21bc daac 7abb
00000040: a68a 09bd dfcf aabe 6ec4 01bf 1260 e33d
00000050: 0e5e 493d 206e 59bd 2d69 083f 14be abbe
00000060: 90d9 3d3f 2c87 9d3e 7682 953e 5eca e4bd
00000070: 47e3 7cbd ace8 203f 2758 8cbe 1bea 103e
00000080: 904e 7e3d e88c 2fbf 97dd 243f 3017 97be
00000090: 73ee b13d 5e28 dcbc 5811 f3bd 3be8 b1bd
000000a0: 6375 fa3e 09f6 1c3e 699b a53d 4f12 703d
000000b0: b007 fcbc d7bd d6be 801d 8c3d 4d02 5ebd
000000c0: 38c2 95be c5a8 04bd a59a 22bf 0765 b6bd
000000d0: c02f 30bd abf4 813d ba8c 923c a9bd ea3e
000000e0: 32bb 593d 9438 bb3c 97ab 14bf 3daf 24be
000000f0: da9e 37be 8f49 b8be 11a0 a53d b47e 9fbc
00000100: ae24 9bbd e293 b1bd 959b 1e3f d3d5 babd
00000110: 6818 03be a240 9ebe 638f f53e 525b 70bd
00000120: ca68 21bd 1b4f 9a3d 8079 a53c 0f71 24bf
00000130: 43f3 4abd 55fb 88bd 90f1 403c 7063 fdbd
00000140: f21c 793d 2a01 cdbe fc26 fcbd 5334 d7be
00000150: 2d53 33bf 9c74 093f 4877 84bc 153b a13d
00000160: 20e7 3abe 8a0d bfbd d441 eabc ea54 6f3d
00000170: d2c3 8f3e f79b cfbe 3445 c3bc a768 923e
00000180: fc2b 153f 0128 8d3d 3cea a33e f2f7 cdbe

train_data f4 [600, 1]
-0.97579426 -0.05433754 0.23187421 0.4297107 0.32623702 0.27750129 -0.034791104 0.6189984
0.8530049 -0.6671235 0.16449837 0.859276 -0.47969037 -0.01174896 -0.8283091 0.9549603
-0.43864223 0.3940948 0.753962 -0.99260706 -0.13390471 -0.0056001465 -0.31171414 0.7368253
0.5190001 -0.6136657 0.5917939 -0.4037506 0.9145353 0.069783375 0.4750431 -0.89910537
0.47376177 -0.9540347 -0.4797127 -0.064861305 -0.365332 0.51603603 -0.54928327 0.11904425
-0.98271847 -0.17560226 -0.7126508 -0.96910745 0.10535464 0.84579206 -0.013589726 -0.24077825
-0.97658366 -0.89770234 -0.5506884 -0.8618403 -0.7669915 -0.63196576 0.3525926 -0.84044325
-0.1979399 0.9487919 0.5608059 -0.8543897 -0.7618347 -0.88258904 0.24872167 0.41925555
0.7952697 0.8109057 -0.61471164 0.0469314 -0.5035941 0.24741288 -0.0012703625 0.0022179408
-0.22531183 -0.78963405 0.27025878 -0.7969232 -0.8098419 0.60401696 0.24531536 0.70327103
-0.60786027 -0.7643418 -0.4009814 -0.17107175 -0.66952753 0.7239184 0.18514219 0.5865247
-0.9024988 0.29719082 0.39683378 -0.042028964 0.6500832 -0.5584042 -0.6169697 0.60216767
0.48510364 -0.43005088 0.21690662 -0.1361206 -0.104943916 0.009504635 -0.15300429 -0.39524844
0.032477424 0.21035482 0.26869777 -0.348459 0.1419901 -0.26134047 -0.6853603 -0.6413279
0.72702307 0.7516982 -0.6520395 -0.45945245 -0.038032323 -0.31108543 0.90614784 0.6024279
-0.266279 -0.24458456 0.9853094 0.9014222 0.96601135 0.65650904 -0.23687126 -0.18221481
0.9414443 0.8852726 0.21750085 0.93921304 0.41746014 -0.027722167 0.5125907 -0.80500895
-0.29337522 0.9192205 -0.9775305 0.891097 0.8672798 -0.7648374 -0.49100494 -0.48801377
0.5293005 -0.16243684 0.08091915 -0.78595096 0.32722393 -0.25534523 0.9526494 0.9877218
-0.37182775 0.8997729 -0.86862713 -0.022103755 -0.58339065 -0.3654032 0.57720506 0.48382983
0.9177274 0.8756014 0.6963606 -0.066074714 0.49103174 -0.4353898 0.119907476 0.43767315
0.96548694 0.24595493 0.12367682 -0.54389983 -0.066881634 0.88254845 -0.22252792 0.50575876
0.5738145 -0.34884694 0.8873652 -0.29496533 0.03239 -0.06648882 -0.8014991 0.4128747
-0.90579116 0.22565827 -0.87206703 0.5851416 0.54059935 0.049008034 0.87426406 -0.629179
-0.24680653 0.7546643 -0.7697983 -0.10344385 0.8186933 0.03842985 0.95990586 0.72175694
0.16440001 -0.2401338 -0.30265805 0.33390668 0.41752735 0.15274002 0.60369545 0.6246027
-0.40386444 0.35109475 0.7336821 0.0068015824 -0.36682445 -0.29957545 0.141109 0.2478135
-0.9619915 -0.8922315 -0.8423834 0.89000505 0.09012311 -0.82170874 -0.6926056 0.19198106
-0.9039554 -0.7419611 -0.9522757 -0.92877805 0.3416934 -0.6713904 0.26645392 0.1737167
0.11723234 -0.81475437 -0.606283 0.38745433 0.39310545 -0.16454947 0.052085716 -0.09093212
-0.17026903 -0.5824091 0.9795373 -0.9446841 -0.6218799 -0.49908948 -0.5485629 0.49366823
-0.29339895 0.97685665 -0.48819357 0.11708222 -0.21961896 -0.77948236 -0.7438073 0.9186575
00000000: a7cd 79bf 0a91 5ebd 6f70 6d3e 0a03 dc3e
00000010: 8a08 a73e a614 8e3e 1e81 0ebd ae76 1e3f
00000020: 875e 5a3f 9bc8 2abf 4372 283e 83f9 5b3f
00000030: fa99 f5be b67e 40bc 110c 54bf 4778 743f
00000040: b795 e0be cbc6 c93e a703 413f 7f1b 7ebf
00000050: 511e 09be 6f81 b7bb ff98 9fbe 95a0 3c3f
00000060: 31dd 043f 3219 1dbf ce7f 173f 66b8 cebe
00000070: fc1e 6a3f 96ea 8e3d d938 f33e c52b 66bf
00000080: e790 f23e 9e3b 74bf e79c f5be 01d6 84bd
00000090: cc0c bbbe f01a 043f d49d 0cbf 79cd f33d
000000a0: 7093 7bbf 14d1 33be 4870 36bf 6d17 78bf
000000b0: 2cc4 d73d d485 583f 71a7 5ebc 938e 76be
000000c0: 6301 7abf d2cf 65bf eaf9 0cbf 91a1 5cbf
000000d0: 8e59 44bf 82c8 21bf 0487 b43e 4a27 57bf
000000e0: c2b0 4abe 07e4 723f fa90 0f3f 49b9 5abf
000000f0: 9907 43bf 5bf1 61bf e5b0 7e3e aaa8 d63e
00000100: cc96 4b3f 8497 4f3f be5d 1dbf 243b 403d
00000110: 8beb 00bf cd59 7d3e 4b82 a6ba df5a 113b
00000120: 25b8 66be 7525 4abf 5c5f 8a3e 2903 4cbf
00000130: cc51 4fbf dba0 1a3f f333 7b3e 9209 343f
00000140: bb9c 1bbf e7ab 43bf 6f4d cdbe 6f2d 2fbe
00000150: 2866 2bbf b752 393f ea95 3d3e 7c26 163f
00000160: 290a 67bf 6529 983e cc2d cb3e 9026 2cbd
00000170: da6b 263f 94f3 0ebf baf1 1dbf a927 1a3f
00000180: 815f f83e a12f dcbe c51c 5e3e 3363 0bbe
00000190: d6ec d6bd 54b9 1b3c 28ad 1cbe 015e cabe
000001a0: 0c07 053d 4167 573e c192 893e 3869 b2be
000001b0: da65 113e 6bce 85be c673 2fbf 112e 24bf
000001c0: 2f1e 3a3f 4b6f 403f 10ec 26bf 5a3d ebbe
000001d0: c8c7 1bbd 9746 9fbe 4ef9 673f b738 1a3f
000001e0: b955 88be 6074 7abe 3d3d 7c3f 9bc3 663f
000001f0: 854c 773f fa10 283f 618e 72be 8596 3abe
00000200: 7e02 713f 3aa1 623f 8bb8 5e3e 4470 703f
00000210: 56bd d53e 9919 e3bc 2539 033f 1115 4ebf
00000220: 4735 96be 0952 6b3f 703f 7abf ef1e 643f
00000230: 0d06 5e3f 62cc 43bf 0065 fbbe f1dc f9be
00000240: 3d80 073f d855 26be f0b8 a53d 1534 49bf
00000250: e589 a73e 9cbc 82be d5e0 733f 56db 7c3f
00000260: 3560 bebe 8457 663f 595e 5ebf ef12 b5bc
00000270: 1759 15bf 2116 bbbe b6c3 133f 8bb8 f73e
00000280: 2ff0 6a3f 6a27 603f b044 323f 2e52 87bd
00000290: 8368 fb3e 69eb debe 0d92 f53d b216 e03e
000002a0: 272a 773f 9cdb 7b3e 464a fd3d 053d 0bbf
000002b0: 3df9 88bd b2ee 613f 5cde 63be 6879 013f
000002c0: 82e5 123f 119c b2be 5e2a 633f b205 97be
000002d0: 60ab 043d 4a2b 88bd 0c2f 4dbf 5064 d33e
000002e0: eee1 67bf f612 673e c93f 5fbf d7cb 153f
000002f0: b864 0a3f a6bc 483d c5cf 5f3f e011 21bf
00000300: daba 7cbe ae31 413f 8011 45bf 5fda d3bd
00000310: e295 513f 9e68 1d3d 64bc 753f 10c5 383f
00000320: 7a58 283e a3e5 75be fff5 9abe d1f5 aa3e
00000330: 25c6 d53e e167 1c3e c98b 1a3f f6e5 1f3f
00000340: 52c7 cebe b1c2 b33e 97d2 3b3f cfdf de3b
00000350: 6ad0 bbbe f461 99be e17e 103e d2c2 7d3e
00000360: 1345 76bf 4969 64bf 70a6 57bf 5fd7 633f
00000370: 7792 b83d 815b 52bf 9a4e 31bf af96 443e
00000380: 9f69 67bf 2af1 3dbf 57c8 73bf 66c4 6dbf
00000390: 70f2 ae3e 3ee0 2bbf a66c 883e cae2 313e
000003a0: 8217 f03d be93 50bf 5d35 1bbf 6a60 c63e
000003b0: 1e45 c93e a87f 28be d557 553d 9f3a babd
000003c0: 015b 2ebe c318 15bf f5c2 7a3f d1d6 71bf
000003d0: 8533 1fbf a888 ffbe 9e6e 0cbf 15c2 fc3e
000003e0: 6338 96be 4713 7a3f 82f4 f9be cec8 ef3d
000003f0: cbe3 60be 288c 47bf 286a 3ebf 232d 6b3f

train_targets f4 [600, 1]
-0.46134436 0.11682211 0.6664555 0.45203653 0.59452677 0.6465754 0.18507938 0.86055535
1.1973112 -0.40878063 0.6404804 1.1950083 0.01509973 0.263051 -0.69909847 1.0894076
0.04471985 0.4922307 1.1545006 -0.44290397 -0.122047015 0.28310236 -0.01100234 1.1319858
0.5420798 -0.24423762 0.7734408 0.051296517 1.1494138 0.4917515 0.45769086 -0.584183
0.45637512 -0.49038136 0.015077184 0.08004416 0.038884845 0.5343045 -0.08901043 0.58541346
-0.45331383 -0.16733521 -0.5558409 -0.46966553 0.562918 1.1992236 0.2569779 -0.114510216
-0.46039847 -0.5868116 -0.09180641 -0.6524373 -0.6866972 -0.2976931 0.55620116 -0.6851063
-0.16229296 1.0998195 0.6701729 -0.66472435 -0.67841184 -0.61514795 0.66258335 0.46096465
1.1904684 1.1973232 -0.24719305 0.43648326 -0.0130325435 0.6630313 0.29699236 0.30803722
-0.13566814 -0.70970625 0.65169954 -0.7123375 -0.71145636 0.8133102 0.66369766 1.0750601
-0.2280666 -0.6825743 0.05108722 -0.1660148 -0.4166382 1.1120954 0.65550745 0.7559918
-0.5778429 0.6290691 0.48833963 0.15991968 0.9508091 -0.107643925 -0.2536164 0.8073441
0.47044772 0.047925532 0.66642976 -0.12629913 -0.05057669 0.33066848 -0.15204756 0.05031336
0.39779022 0.6653874 0.65270865 0.027080903 0.61698663 -0.08343518 -0.46859437 -0.32635516
1.1171097 1.1517814 -0.360062 0.032658305 0.1738391 -0.011787658 1.159191 0.80818534
-0.07582484 -0.10892072 1.0333792 1.1642619 1.0698193 0.96794444 -0.120118126 -0.16777138
1.1116775 1.1791536 0.6664932 1.1151545 0.462785 0.20940156 0.5255809 -0.71259123
-0.03544652 1.1435279 -0.4592742 1.1742221 1.1912067 -0.68336713 0.0027809662 0.0062120073
0.5708361 -0.16110083 0.51599485 -0.7074909 0.5931932 -0.09265597 1.093355 1.028688
0.042411197 1.1659566 -0.6406324 0.22850294 -0.16448005 0.038926583 0.72490036 0.4685972
1.1454362 1.1862329 1.0612402 0.07582842 0.4799334 0.046055403 0.5867404 0.44741723
1.0707735 0.6635012 0.59240717 -0.07855012 0.07302911 1.1812881 -0.13911922 0.5093639
0.7135552 0.02739442 1.1774392 -0.03321124 0.39754763 0.07439141 -0.71281856 0.46777084
-0.5717236 0.6668421 -0.634476 0.75139254 0.6049268 0.44180787 1.1871022 -0.2893236
-0.10561021 1.1553285 -0.69074845 -0.04619296 1.1993511 0.41406736 1.0807811 1.1085186
0.64039385 -0.11544496 -0.022691542 0.58392644 0.4627155 0.62913173 0.8122749 0.8776621
0.051302824 0.55850124 1.1273737 0.32234436 0.03974571 -0.02684602 0.61591625 0.6628968
-0.47911513 -0.59708405 -0.682516 1.1751847 0.53468466 -0.7048786 -0.49226004 0.65910846
-0.57513106 -0.6371684 -0.4929684 -0.53057563 0.5726581 -0.42273813 0.6540996 0.64796203
0.58259284 -0.70936406 -0.22374251 0.50198936 0.49365717 -0.1625985 0.4495892 -0.007693902
-0.16569175 -0.16208965 1.0445083 -0.50451756 -0.26778242 -0.007119342 -0.08758749 0.4846037
-0.035413038 1.0496199 0.006009286 0.58235705 -0.14257836 -0.7021523 -0.6415646 1.144251
00000000: 5435 ecbe 6e40 ef3d d49c 2a3f 5571 e73e
00000010: e832 183f f785 253f 7385 3d3e 5b4d 5c3f
00000020: 7e41 993f b24b d1be 86f6 233f 08f6 983f
00000030: dc64 773c 9fae 863e 1ef8 32bf b571 8b3f
00000040: 292c 373d aa05 fc3e adc6 933f 4fc4 e2be
00000050: c9f3 f9bd cbf2 903e 2943 34bc e9e4 903f
00000060: bec5 0a3f 6d19 7abe 3700 463f 4c1c 523d
00000070: fe1f 933f dac6 fb3e 7556 ea3e 048d 15bf
00000080: 00aa e93e 4413 fbbe 4b06 773c 31ee a33d
00000090: b745 1f3d 2ec8 083f 1a4b b6bd a8dd 153f
000000a0: c018 e8be ec59 2bbe 974b 0ebf 0078 f0be
000000b0: 651b 103f 2980 993f 9b92 833e 5584 eabd
000000c0: 59b9 ebbe 4939 16bf 0005 bcbd 2206 27bf
000000d0: 63cb 2fbf 3b6b 98be 3363 0e3f 2063 2fbf
000000e0: 2030 26be e3c6 8c3f 7490 2b3f 602b 2abf
000000f0: 66ac 2dbf 567a 1dbf 109f 293f 8f03 ec3e
00000100: 4561 983f e341 993f 2d20 7dbe bc7a df3e
00000110: 7386 55bc 6bbc 293f 620f 983e 0eb7 9d3e
00000120: 97ec 0abe 4faf 35bf c8d5 263f c05b 36bf
00000130: 0122 36bf 1935 503f 17e8 293f 929b 893f
00000140: 4a8a 69be 30bd 2ebf d540 513d c9ff 29be
00000150: 9a51 d5be 2459 8e3f 56cf 273f ae88 413f
00000160: 83ed 13bf ac0a 213f a707 fa3e fcc1 233e
00000170: 3a68 733f 6b74 dcbd 02da 81be 1aae 4e3f
00000180: 86de f03e 904d 443d 249b 2a3f 8f54 01be
00000190: 8129 4fbd 614d a93e 5bb2 1bbe 6215 4e3d
000001a0: 29ab cb3e d456 2a3f ea17 273f c5d8 dd3c
000001b0: d6f2 1d3f 10e0 aabd 9aeb efbe 0618 a7be
000001c0: 73fd 8e3f 936d 933f 0c5a b8be b7c4 053d
000001d0: e102 323e 0521 41bc 5f60 943f 3ce5 4e3f
000001e0: 0e4a 9bbd d411 dfbd c545 843f 8906 953f
000001f0: d7ef 883f 35cb 773f 7e00 f6bd 43cc 2bbe
00000200: 734b 8e3f 81ee 963f 4c9f 2a3f 62bd 8e3f
00000210: 28f2 ec3e 5d6d 563e 788c 063f 616c 36bf
00000220: 5f30 11bd 1f5f 923f fd25 ebbe e94c 963f
00000230: 7679 983f 26f1 2ebf df40 363b 188e cb3b
00000240: 5122 123f 9ef7 24be 3d18 043f 201e 35bf
00000250: 82db 173f 6ac2 bdbd 0ef3 8b3f 0cac 833f
00000260: 5db7 2d3d 113e 953f 7c00 24bf adfc 693e
00000270: 756d 28be 7b71 1f3d 1293 393f f9eb ef3e
00000280: a79d 923f 7bd6 973f b8d6 873f ee4b 9b3d
00000290: d5b9 f53e 97a4 3c3d 9e34 163f df13 e53e
000002a0: 1b0f 893f 37db 293f ffa7 173f e3de a0bd
000002b0: 4990 953d 7334 973f 4575 0ebe ac65 023f
000002c0: 8eab 363f 436a e03c 54b6 963f 8208 08bd
000002d0: 5d8b cb3e 865a 983d 477b 36bf a97f ef3e
000002e0: 7a5c 12bf 2ab6 2a3f 056d 22bf 435b 403f
000002f0: 7cdc 1a3f a434 e23e f7f2 973f 3922 94be
00000300: 2a4a d8bd cee1 933f e4d4 30bf d434 3dbd
00000310: 5684 993f a300 d43e 0957 8a3f f0e3 8d3f
00000320: daf0 233f 686e ecbd 9de3 b9bc 347c 153f
00000330: 0ce9 ec3e c70e 213f 3ff1 4f3f 77ae 603f
00000340: e922 523d f0f9 0e3f c84d 903f 520a a53e
00000350: 66cc 223d 2fec dbbc b0ac 1d3f 9bb3 293f
00000360: 944e f5be 80da 18bf 5eb9 2ebf 746c 963f
00000370: 18e1 083f ed72 34bf 8209 fcbe 55bb 283f
00000380: ca3b 13bf 781d 23bf 5b66 fcbe ced3 07bf
00000390: b999 123f 2271 d8be 1273 273f d7e0 253f
000003a0: ce24 153f e298 35bf c21c 65be 6082 003f
000003b0: a2c0 fc3e 3980 26be 8e30 e63e 211d fcbb
000003c0: 19ab 29be d4fa 25be 73b2 853f 1028 01bf
000003d0: c71a 89be 5f49 e9bb 1261 b3bd fa1d f83e
000003e0: 430d 11bd f259 863f 8be9 c43b 5a15 153f
000003f0: 1000 12be 41c0 33bf 943d 24bf d176 923f

test_data f4 [150, 1]
-0.16068752 -0.027094971 1.0563889 0.40023568 0.5547416 0.024803383 -0.5393124 -0.11023718
-0.06380765 1.1924249 0.5660676 1.1496099 0.59545547 -0.007895642 -0.31526065 1.007723
-0.02435792 -0.024970394 -0.16705404 0.38130462 1.1964873 -0.44474983 1.200438 -0.4845645
0.57010627 0.48162758 0.034902297 -0.51153255 0.03227129 -0.5052562 -0.12545258 0.0431647
0.6161813 -0.30847397 -0.16416794 1.1119137 -0.14852281 -0.5479821 -0.6242707 0.39941922
-0.044166118 -0.55703294 1.2000207 0.66012615 0.6604022 0.6063417 0.6175455 0.73686135
-0.16309398 1.071515 -0.70451754 0.5883879 0.2074498 -0.029259874 -0.7008284 0.04148312
-0.21417837 0.6662091 1.1944708 -0.70262754 -0.14247441 0.049318213 0.046801068 0.0034904326
0.047768265 0.017793227 -0.7077636 -0.112461455 1.0331461 -0.16665491 0.45877728 -0.12142735
0.4453575 -0.0035943403 -0.44992846 -0.19217654 -0.44474941 -0.7125911 -0.6895691 0.7179032
-0.6661871 0.6568003 -0.13140795 0.013604246 1.1548305 1.0954214 0.6201137 1.131143
-0.4676982 -0.5054931 1.200416 -0.6157867 0.6365744 -0.49338466 0.4657468 0.6050288
-0.108778395 0.5216913 0.44528085 -0.53410435 1.1573557 0.5456833 0.5845298 -0.3886381
-0.51289374 1.0320159 0.7071028 0.04553493 -0.5508742 0.41479668 1.0047786 1.1040363
1.1582217 0.16153553 0.44534957 -0.087941356 0.9991317 1.1199602 0.9167891 1.2006822
1.0033683 0.11766099 0.4627235 -0.5659393 -0.10247061 1.048777 -0.50819933 0.89462304
-0.3962838 0.033886384 0.5970403 -0.088401794 -0.6951287 1.1946361 0.8971252 0.5067949
1.1832469 1.2006611 0.4363478 -0.6802796 1.1482372 -0.16504604 0.027365915 1.0694565
-0.7030922 -0.1813284 -0.5820705 -0.50691193 -0.02457686 0.6129388
00000000: 458b 24be 46f6 ddbc c037 873f b1eb cc3e
00000010: 8c03 0e3f 7730 cb3c 6110 0abf 08c4 e1bd
00000020: 96ad 82bd 61a1 983f cee9 103f 6b26 933f
00000030: c56f 183f b95c 01bc d869 a1be 11fd 803f
00000040: 438a c7bc b68e ccbc 3710 2bbe 5c3a c33e
00000050: 7f26 993f 40b6 e3be f4a7 993f d718 f8be
00000060: 7cf2 113f e497 f63e b6f5 0e3d ccf3 02bf
00000070: e62e 043d 7858 01bf a476 00be 78cd 303d
00000080: 0fbe 1d3f 4df0 9dbe a41b 28be 3053 8e3f
00000090: 5d16 18be 8e48 0cbf 34d0 1fbf ad80 cc3e
000000a0: 88e7 34bd b699 0ebf 479a 993f 07fe 283f
000000b0: 1e10 293f 3639 1b3f 7617 1e3f f2a2 3c3f
000000c0: 1c02 27be 6727 893f 435b 34bf 97a0 163f
000000d0: b86d 543e 67b2 efbc 7d69 33bf 34ea 293d
000000e0: 9351 5bbe ae8c 2a3f 6be4 983f 66df 33bf
000000f0: d0e4 11be e501 4a3d 7ab2 3f3d bebf 643b
00000100: a8a8 433d 1ac3 913c ff2f 35bf 3152 e6bd
00000110: 223e 843f 96a7 2abe dbe4 ea3e e7ae f8bd
00000120: e605 e43e 068f 6bbb 065d e6be edc9 44be
00000130: 32b6 e3be 5f6c 36bf 9a87 30bf 81c8 373f
00000140: 3d8b 2abf 1124 283f ce8f 06be 58e4 5e3c
00000150: 7cd1 933f c536 8c3f c5bf 1e3f 4bc9 903f
00000160: 2376 efbe ff67 01bf 3ba7 993f 32a4 1dbf
00000170: 8af6 223f ea9c fcbe 5d76 ee3e 2be3 1a3f
00000180: 35c7 debd 908d 053f dafb e33e 10bb 08bf
00000190: 3b24 943f e7b1 0b3f bfa3 153f 93fb c6be
000001a0: 014d 03bf 1919 843f b004 353f d682 3a3d
000001b0: 1706 0dbf 3b60 d43e 969c 803f 1051 8d3f
000001c0: 9c40 943f 9269 253e dc04 e43e 991a b4bd
000001d0: 18c7 7f3f db5a 8f3f b1b2 6a3f f4af 993f
000001e0: 5f6e 803f 3ff8 f03d 18ea ec3e 66e1 10bf
000001f0: 1cdc d1bd 533e 863f 5a19 02bf 0406 653f
00000200: b6e5 cabe 73cc 0a3d a2d7 183f 000c b5bd
00000210: f4f3 31bf d6e9 983f ffa9 653f 50bd 013f
00000220: a274 973f 43af 993f fb68 df3e ce26 2ebf
00000230: 70f9 923f d401 29be 7c2e e03c f3e3 883f
00000240: dafd 33bf 27ae 39be 9302 15bf fbc4 01bf
00000250: 6955 c9bc 8fe9 1c3f

0.weight f4 [100, 1]
-1.0629246 -0.17255722 -0.23890197 -0.7435009 -0.07130303 0.8959623 0.51990604 0.6814788
0.5960648 1.18527 -1.024576 0.39177024 0.41436708 0.7224128 0.39762622 0.487708
0.73391134 -0.79575956 -1.0435065 0.3357771 0.16313505 0.59343517 1.0536197 -0.65897906
1.1915461 0.6577192 -0.7237181 0.29800773 0.38285863 -1.0480502 0.4105847 0.43460608
-0.6913405 -1.1240675 1.0127894 0.7799069 0.11554575 0.26024765 -0.27257654 0.76987135
-0.8404248 0.22860004 0.6325754 -0.59507805 -0.43986446 1.0365988 -0.82351154 -0.26163423
0.5504702 -0.119285755 0.98794323 0.45324156 -0.08681142 -0.45008302 -0.043907885 -0.85527587
-0.82778907 0.6156496 0.89832 -0.41682658 0.39341044 0.6252934 -0.53847003 -0.5316118
0.25362706 -0.6747433 -0.9521141 -0.15667021 0.6696936 0.80454105 0.9930422 -0.20331816
0.06530314 0.26271713 0.10100794 1.0162592 -0.4723197 -0.7857862 0.21942127 0.83278245
-0.16015112 -0.6764424 0.46414217 -0.6093179 1.1070902 -1.0172249 -0.2103213 -0.18284631
-0.42241222 0.33412206 0.09012154 0.06349826 0.81625426 -0.9717244 -0.049055934 0.8666342
-1.0238148 -0.17459321 0.5116882 0.9233487
00000000: ea0d 88bf d7b2 30be b8a2 74be 1356 3ebf
00000010: 5307 92bd c95d 653f 9018 053f 6575 2e3f
00000020: b497 183f edb6 973f 4e25 83bf 1c96 c83e
00000030: ec27 d43e 0cf0 383f aa95 cb3e ddb4 f93e
00000040: 9de1 3b3f e6b6 4bbf 9f91 85bf faea ab3e
00000050: e00c 273e 5eeb 173f 03dd 863f dab2 28bf
00000060: 9584 983f 4960 283f 9745 39bf 7894 983e
00000070: 0c06 c43e 8226 86bf 2838 d23e b084 de3e
00000080: b1fb 30bf 72e1 8fbf 15a3 813f fba7 473f
00000090: 40a3 ec3d 2e3f 853e 278f 8bbe 4a16 453f
000000a0: 1426 57bf 2116 6a3e 76f0 213f 0957 18bf
000000b0: ea35 e1be 45af 843f a7d1 52bf ecf4 85be
000000c0: 9deb 0c3f 174c f4bd d9e9 7c3f 470f e83e
000000d0: 30ca b1bd 4871 e6be c1d8 33bd 5cf3 5abf
000000e0: fce9 53bf 369b 1d3f 4df8 653f 4b6a d5be
000000f0: 186d c93e 3a13 203f 2cd9 09bf b617 08bf
00000100: 68db 813e fabb 2cbf c0bd 73bf 286e 20be
00000110: 0a71 2b3f 67f6 4d3f 0338 7e3f a332 50be
00000120: a7bd 853d dc82 863e 40dd ce3d c814 823f
00000130: e3d3 f1be 4929 49bf f8af 603e 3b31 553f
00000140: a8fe 23be 542b 2dbf 0ba4 ed3e 42fc 1bbf
00000150: 22b5 8d3f 6d34 82bf 785e 57be 103c 3bbe
00000160: 6a46 d8be 0c12 ab3e a491 b83d 600b 823d
00000170: 0af6 503f eec2 78bf e0ee 48bd bddb 5d3f
00000180: 5d0c 83bf 90c8 32be fffd 023f 9560 6c3f

0.bias f4 [100]
0.49487847 0.36310974 0.55219567 0.10556472 0.7011137 -0.4249939 -0.7866919 -0.12579751
-0.96207106 0.18090428 -0.4792961 -0.46704566 -0.19651045 -0.7229477 0.60986394 0.6751155
0.8146757 0.60834736 -0.48795632 0.26411897 -0.74625254 -0.96338594 0.16063923 0.0941359
-0.5648929 0.10030691 -0.57152164 0.63912135 -0.5806503 -0.8269068 -0.31443438 0.34174716
0.68355274 -0.5261382 0.1548214 -0.5978421 -0.19525683 0.624827 -0.12739387 -0.9597926
-0.13575016 -0.108442664 -0.7323898 0.641248 0.50404245 -0.7967695 0.8141543 -0.8615931
-0.4212951 0.6185597 -0.15163301 0.6655044 -0.29653907 -0.82500756 0.4668173 -0.67484516
-0.9201957 -0.7245405 -0.1377983 0.3184806 -0.30095384 -0.11238781 -0.58176756 -0.72402513
-0.53232217 -0.78878653 -0.15389156 -0.15577953 0.65796727 -0.61528325 0.7790929 0.45792225
0.7186868 -0.28470194 -0.8319994 0.44978204 0.6158339 0.6629226 -0.3487991 -0.6819342
-0.54088736 0.09770532 0.6167076 -0.28538465 -0.17025854 -0.8029743 -0.76735973 -0.38051105
0.32303938 -0.46105444 0.08947471 -0.27868104 0.6420804 0.7428553 -0.98423195 0.681673
0.47530875 -0.56335044 -0.24252565 -0.70702136
00000000: b660 fd3e 85e9 b93e b25c 0d3f 5132 d83d
00000010: 307c 333f cd98 d9be a464 49bf 10d1 00be
00000020: 4a4a 76bf f93e 393e 4c66 f5be 9c20 efbe
00000030: 093a 49be 1a13 39bf 0b20 1c3f 5fd4 2c3f
00000040: 968e 503f a7bc 1b3f 69d5 f9be 9a3a 873e
00000050: 680a 3fbf 76a0 76bf 9c7e 243e 53ca c03d
00000060: d29c 10bf b66d cd3d 3e4f 12bf 759d 233f
00000070: 80a5 14bf 2ab0 53bf 8bfd a0be 7cf9 ae3e
00000080: 50fd 2e3f feb0 06bf 8089 1e3e 2e0c 19bf
00000090: 68f1 47be aaf4 1f3f 8a73 02be f8b4 75bf
000000a0: 1702 0bbe 3017 debd e67d 3bbf d428 243f
000000b0: ed08 013f 16f9 4bbf 6b6c 503f 5e91 5cbf
000000c0: feb3 d7be ee59 1e3f af45 1bbe 7f5e 2a3f
000000d0: f8d3 97be b233 53bf ad02 ef3e a7c2 2cbf
000000e0: f291 6bbf 7c7b 39bf ff1a 0dbe e40f a33e
000000f0: 9f16 9abe 952b e6bd b8ee 14bf b659 39bf
00000100: 4446 08bf eaed 49bf c095 1dbe ab84 1fbe
00000110: 8b70 283f 3483 1dbf a272 473f c974 ea3e
00000120: dcfb 373f 74c4 91be eafd 54bf d549 e63e
00000130: 4aa7 1d3f 4cb5 293f cc95 b2be 3d93 2ebf
00000140: 9877 0abf ba19 c83d 8de0 1d3f f01d 92be
00000150: 4158 2ebe b98f 4dbf b071 44bf 58d2 c2be
00000160: 6b65 a53e 540f ecbe 843e b73d 48af 8ebe
00000170: 625f 243f c42b 3e3f a0f6 7bbf 1f82 2e3f
00000180: ab5b f33e bc37 10bf a558 78be 5aff 34bf

2.weight f4 [1, 100]
0.64340967 0.041039664 0.055281494 -0.34807363 -0.047883693 0.50688064 -0.052804496 -0.37841627
-0.051987078 0.67677844 -0.568894 0.0904594 0.29000697 0.05820962 -0.009882411 -0.003825
-0.03357949 -0.33361718 -0.5069035 0.11102308 0.049161963 -0.05308354 0.53285486 -0.33543456
0.741601 0.3076719 0.29201096 -0.11171411 -0.061740186 0.6285503 -0.27411005 0.14151804
0.06208664 -0.6857438 0.6440062 -0.29509878 0.08688059 -0.026874717 -0.118685424 -0.086868726
0.48917684 0.1532823 0.08086283 0.05861121 -0.030765384 -0.4194171 0.06841564 -0.054201413
-0.2924974 -0.032387514 -0.6351722 -0.08905988 -0.043014288 0.06345495 0.01788937 0.45847824
0.05315704 0.022854127 -0.58074325 -0.16082473 -0.17931691 -0.3599362 0.08087171 -0.019469596
-0.075753555 -0.086707845 0.6195615 -0.09122815 -0.12802279 -0.30908686 0.47960958 -0.05868084
-0.039406575 0.075346194 0.020199537 -0.64235014 -0.0495484 -0.06688563 0.011776343 -0.12372482
0.06081862 -0.4003995 -0.12312123 -0.42032108 -0.7004879 0.53693557 -0.016170159 0.07872597
-0.1825223 -0.09328754 -0.028595842 0.05843059 0.28079087 -0.4054868 -0.02383671 0.28595468
0.5827024 0.06892396 0.32014644 -0.4022823
00000000: 7fb6 243f 3519 283d d96e 623d b536 b2be
00000010: b121 44bd eec2 013f 8749 58bd c7bf c1be
00000020: 67f0 54bd 5a41 2d3f 0aa3 11bf c742 b93d
00000030: cb7b 943e 366d 6e3d d6e9 21bc daac 7abb
00000040: a68a 09bd dfcf aabe 6ec4 01bf 1260 e33d
00000050: 0e5e 493d 206e 59bd 2d69 083f 14be abbe
00000060: 90d9 3d3f 2c87 9d3e 7682 953e 5eca e4bd
00000070: 47e3 7cbd ace8 203f 2758 8cbe 1bea 103e
00000080: 904e 7e3d e88c 2fbf 97dd 243f 3017 97be
00000090: 73ee b13d 5e28 dcbc 5811 f3bd 3be8 b1bd
000000a0: 6375 fa3e 09f6 1c3e 699b a53d 4f12 703d
000000b0: b007 fcbc d7bd d6be 801d 8c3d 4d02 5ebd
000000c0: 38c2 95be c5a8 04bd a59a 22bf 0765 b6bd
000000d0: c02f 30bd abf4 813d ba8c 923c a9bd ea3e
000000e0: 32bb 593d 9438 bb3c 97ab 14bf 3daf 24be
000000f0: da9e 37be 8f49 b8be 11a0 a53d b47e 9fbc
00000100: ae24 9bbd e293 b1bd 959b 1e3f d3d5 babd
00000110: 6818 03be a240 9ebe 638f f53e 525b 70bd
00000120: ca68 21bd 1b4f 9a3d 8079 a53c 0f71 24bf
00000130: 43f3 4abd 55fb 88bd 90f1 403c 7063 fdbd
00000140: f21c 793d 2a01 cdbe fc26 fcbd 5334 d7be
00000150: 2d53 33bf 9c74 093f 4877 84bc 153b a13d
00000160: 20e7 3abe 8a0d bfbd d441 eabc ea54 6f3d
00000170: d2c3 8f3e f79b cfbe 3445 c3bc a768 923e
00000180: fc2b 153f 0128 8d3d 3cea a33e f2f7 cdbe
