complete/sawtooth/state8.pt (torch, 10937 bytes, 9 tensors)

weight f4 [100, 1]
000000 c1 e1 fb 3e f9 d1 88 3d eb a7 ec 3e b4 a3 c4 be
       0.49195674 0.06680674 0.4622186 -0.38406146
000010 27 33 78 3f 89 70 71 bf 01 74 2f 3f 50 07 68 be
       0.9695305 -0.9431234 0.6853638 -0.2265904
000020 d4 1d be be f8 6f 89 bd 78 13 c1 3e c0 88 b2 3c
       -0.37132132 -0.067108095 0.37710166 0.021793723
000030 54 de f7 3e 02 49 38 bf a0 d0 7b 3f 20 a4 93 3e
       0.4841181 -0.719864 0.9836521 0.28836155
000040 84 4a d2 3e 81 39 0b 3f 74 27 cf be 6d bb 0f 3f
       0.41072476 0.5438462 -0.40459788 0.56145364
000050 87 14 c9 bd 38 72 7d 3e ff d4 c3 bf 5a 38 ef 3e
       -0.098183684 0.24750602 -1.5299376 0.4672268
000060 c0 96 fb bd b0 66 64 3e 3f ac 4b 3f 38 b3 5a be
       -0.12284613 0.22304797 0.795597 -0.21357429
000070 39 a6 a2 3e b6 42 47 bf eb 79 be be 51 a5 a0 3f
       0.31767443 -0.7783617 -0.3720239 1.255045
000080 d2 3a 91 be 62 c5 2b 3f 35 75 a0 bf 18 c3 32 be
       -0.2836519 0.6709806 -1.2535769 -0.17457235
000090 a5 dc 8e 3f 85 79 79 bf be c2 3b bf b2 68 31 bf
       1.1161085 -0.9745105 -0.7334403 -0.6930038
0000a0 ea 86 70 3e b0 4c 70 bf 19 a0 17 bf cc 55 42 bf
       0.23488966 -0.93867016 -0.59228665 -0.75912166
0000b0 80 8e 8f be f5 b5 72 bf e8 32 53 be 28 3f 30 bf
       -0.28038406 -0.94808894 -0.20624888 -0.6884637
0000c0 a0 38 85 bf d9 95 44 3f de 05 3d bf a6 25 30 bf
       -1.0407906 0.7679115 -0.7383708 -0.68807447
0000d0 f4 18 08 3f 5f 2a 69 3e 30 d9 5e 3f 42 3f 20 bf
       0.53163075 0.2277007 0.8705015 -0.62596524
0000e0 30 3c d3 be 0a f8 59 3f af 1c 3c 3f 20 05 71 bf
       -0.41256857 0.851441 0.7348127 -0.94148445
0000f0 f2 52 30 3f 42 9b e7 3e 36 5b 85 3e 11 32 ae 3e
       0.68876565 0.4523564 0.2604615 0.34022573
000100 a3 f3 b2 bf f5 fb 5c be 7b d8 97 bd c3 1d 44 be
       -1.3980602 -0.21580489 -0.07414337 -0.19151978
000110 ad b5 ac 3f 0d 89 94 3e b2 b3 46 bf 7c 6c 72 bf
       1.3492943 0.2901081 -0.77617943 -0.94696784
000120 6e 84 a5 be 36 b7 0d 3f b6 d4 13 bf e0 1e a2 bd
       -0.32327598 0.5535768 -0.57746446 -0.07916045
000130 b6 b2 63 3d 38 f2 8c 3e eb 8c 10 bf 7a 56 3f 3f
       0.055590354 0.27528548 -0.56465024 0.7474133
000140 1f 96 71 bf 40 ea 52 be e0 c9 15 be 8a 10 12 bf
       -0.9436969 -0.20597172 -0.1462779 -0.57056487
000150 82 ad 42 bf c8 ba 40 3f c8 bb 75 3e c7 0c 4b 3f
       -0.76046 0.75285006 0.23997414 0.7931637
000160 10 18 ad bd 83 09 32 be 1b e7 07 bf 60 3f ab 3d
       -0.08451855 -0.17386441 -0.53087014 0.08361697
000170 c3 01 e1 be 8e 7e 36 3d e8 15 cb be f2 d8 11 bf
       -0.43946657 0.044554286 -0.3966515 -0.5697166
000180 4e 4d 02 bf 95 ff 44 bc fb 40 ca 3e 48 81 b3 be
       -0.5089921 -0.012023826 0.395027 -0.3505957

bias f4 [100]
000000 7a 76 89 3e ff 41 23 3f b2 1a 82 be 62 a9 3e bf
       0.26848203 0.6377258 -0.25410992 -0.7447721
000010 86 0f 97 3e b6 d7 4d bd 14 63 bf 3e 04 0c 81 be
       0.2950403 -0.050254546 0.37380278 -0.2520448
000020 10 fc 7d be af 65 df 3d 63 85 0c 3f 10 88 a0 bd
       -0.24803185 0.109080665 0.5489103 -0.07838452
000030 c3 47 88 be f2 31 68 bf 1f 57 50 bf 44 8c 08 3e
       -0.2661725 -0.9070121 -0.81382936 0.13334757
000040 6e 7e bf bc 68 cd 3d 3f 48 d8 61 be ad 6b 26 3f
       -0.023375716 0.7414155 -0.22055161 0.6500805
000050 6c ed 8b 3e 06 00 38 bf fa 1f 9f bf 00 09 19 3f
       0.27329576 -0.71875036 -1.2431633 0.5977936
000060 bc 23 a2 be db 23 fb bd 3f 75 4b 3f b4 3d ca be
       -0.31667888 -0.12262698 0.7947578 -0.395002
000070 c7 cd 23 3f 24 5a 7a bf ec c5 4f be 1e e9 84 bf
       0.63985866 -0.97793794 -0.20290345 -1.0383642
000080 6b ea e6 3e ad 3d 4d be 63 84 84 3f be 9f 2e bf
       0.45100722 -0.20043059 1.0352901 -0.682125
000090 e9 ae aa be 98 8f e5 3e f3 7b 43 3f 79 34 70 3f
       -0.3333657 0.44836116 0.76361006 0.93830067
0000a0 51 43 70 3e 55 98 de be ec b8 a6 3e 71 03 d7 3e
       0.23463179 -0.43475595 0.3256296 0.41994813
0000b0 cc 1e b6 be c6 e2 4e bd 44 c3 b1 be fe 31 16 bd
       -0.3557037 -0.050509237 -0.34719288 -0.03666877
0000c0 d8 0d 63 bd 41 27 d8 be 8c 8e 43 bf 0b ea f2 3e
       -0.055433124 -0.42217448 -0.76389384 0.47444186
0000d0 ee 55 23 3e 60 c4 59 3f ef 2b f3 3e c4 63 27 bf
       0.15950748 0.8506527 0.47494456 -0.65386605
0000e0 74 54 14 bf 18 28 5c 3f 51 56 cd 3e 9c d2 74 bf
       -0.57941365 0.8599868 0.40104917 -0.95633864
0000f0 b6 55 4c 3f 57 ac 7e be 7b 80 62 3c b8 24 d0 bd
       0.79818285 -0.2487043 0.013824577 -0.101632535
000100 c8 ca 93 3f 54 f3 f0 bd 97 76 fa 3e ac 4f 79 3e
       1.1546259 -0.11765161 0.48918602 0.24346799
000110 ea 79 84 3e 41 7d 23 be a2 fa 56 bf 23 f0 de 3e
       0.25874263 -0.1596575 -0.83976185 0.43542585
000120 01 6f 34 be 01 b2 61 3f 73 8b a2 3e c0 43 70 bf
       -0.1762047 0.8816224 0.31747016 -0.9385338
000130 db 1f 04 3f 9c ce 0b bf 49 ef 74 3f b1 e9 46 3f
       0.5161111 -0.54612136 0.9567762 0.77700335
000140 d9 d1 04 3f a8 b9 93 be c0 44 78 be 4e 2a 13 3f
       0.518827 -0.28852582 -0.24244976 0.57486427
000150 dc 42 5a bf 82 ce 76 bf e0 50 86 be 9e 46 df be
       -0.8525827 -0.96408856 -0.26233578 -0.43608564
000160 a8 4f 39 be 0d f2 81 3e 61 45 29 3f 46 04 3b bf
       -0.18096793 0.25379983 0.6612149 -0.73053396
000170 2a 28 9b 3e 26 4f a3 3e 48 19 50 bf c4 de 28 bf
       0.3030408 0.31896323 -0.81288576 -0.65964913
000180 dc 80 05 bf 76 4a db 3e 1b ff e8 3e 7e 42 72 bf
       -0.5214975 0.42830247 0.4550713 -0.9463271

weight f4 [1, 100]
000000 19 50 20 be 86 bf b5 bc 7d ce f1 3d 3f e5 c1 3d
       -0.15655555 -0.022186052 0.11806963 0.09467553
000010 19 5e 29 be 8b 49 05 bf 72 53 86 be b2 ae 3d 3d
       -0.16539802 -0.5206534 -0.2623554 0.04630918
000020 3e a7 95 3d 46 62 b7 bd bb a4 64 3c 87 48 2b bd
       0.073072895 -0.08954291 0.01395529 -0.041817214
000030 28 07 05 3d 40 95 60 3b 13 cc 83 3f 27 9a 8e 3e
       0.032477528 0.0034268647 1.0296654 0.27851984
000040 78 b1 8f 3e b1 6c 9d 3b 4c 28 66 be f1 dc 72 bb
       0.28065085 0.004804217 -0.2247631 -0.003705796
000050 c2 42 08 be 41 71 cb 3d e0 fa ec bf d2 97 c4 3c
       -0.13306716 0.09933711 -1.8514061 0.023998175
000060 50 f2 93 bb a4 71 87 3d d0 86 12 3d b4 bc b6 3c
       -0.00451497 0.06613472 0.0357731 0.022306778
000070 30 4a e1 bd fb d4 a4 3d 88 3f 18 be c7 e1 9e 3f
       -0.11000478 0.08048435 -0.14867985 1.2412652
000080 44 78 fb bc 0a a7 de 3e b5 1f 90 3f 4a 3e 84 bd
       -0.030696996 0.43486816 1.1259676 -0.06457193
000090 49 38 1d 3f 17 3f 4e bf d0 03 3d be 61 9f 99 be
       0.6141401 -0.8056502 -0.18458486 -0.3000441
0000a0 f8 b7 4b 3d a9 1a 4c 3f 8c 17 b8 3d 32 3e 24 bc
       0.049735993 0.7972818 0.08988866 -0.010024594
0000b0 08 e3 c5 bc f2 de 04 bf c9 72 92 3d 22 7c c1 be
       -0.024156108 -0.5190269 0.071508 -0.37790018
0000c0 29 b5 0e bf d3 43 6a 3e bd e1 ad 3d be a5 e3 be
       -0.5574518 0.22877435 0.08490322 -0.4446239
0000d0 c5 ed 80 bd 88 3c f3 bc 49 ba 9b be 68 0c bf 3c
       -0.06295351 -0.02969195 -0.30415562 0.023321345
0000e0 20 3f b4 bc f5 bf 57 bd 7d b0 65 be 2b 8a 8d 3d
       -0.022002757 -0.0526733 -0.22430606 0.06911119
0000f0 e3 92 9b bd 10 5c 7e 3d d0 9b 39 be 6f 7d 56 3e
       -0.07596376 0.062099516 -0.18125844 0.20946287
000100 18 a9 a1 3f 78 9b 03 be 1f d1 61 bd 2c 48 06 be
       1.2629728 -0.12852275 -0.055131074 -0.13113469
000110 79 84 8b 3f d4 14 05 3c 38 72 84 3c 7e f1 cb be
       1.0899802 0.008122642 0.016167745 -0.3983268
000120 d5 31 37 be cc aa 13 be 01 aa bf 3d 32 2f 0a 3d
       -0.17890103 -0.14420623 0.093585975 0.033736415
000130 3c 3a 96 bd 74 d4 0b bd ad f7 9d be 68 0d d4 bd
       -0.07335326 -0.034138158 -0.30853024 -0.103541195
000140 77 b8 fc 3d a8 49 d8 bc f4 95 85 bc 71 47 29 be
       0.123398714 -0.02640231 -0.016306855 -0.16531159
000150 e2 b6 6d 3d 51 a1 92 3d 18 e1 c1 bd eb 8a b5 3d
       0.05803574 0.07159675 -0.09466761 0.08864387
000160 a6 05 13 bd a2 40 19 bd ba b0 4c be a6 7a 39 3d
       -0.03589406 -0.037415154 -0.19989291 0.045282982
000170 6f 53 95 be ad 69 56 bc 30 e1 77 3c 83 c9 31 bd
       -0.29165217 -0.0130867185 0.0151293725 -0.043405067
000180 98 ad 2b 3c d9 80 bb bd 51 39 0a 3a 84 43 e4 3c
       0.0104784 -0.09155435 0.0005272823 0.027864225

train_data f4 [600, 1]
000000 f5 6b ec be c0 af 03 3f a2 48 ed 3e 93 c3 bb 3e
       -0.46176115 0.5144005 0.46344477 0.3667265
000010 50 3d 69 bf f9 e7 79 bf 38 06 39 bf ea 7b 35 bf
       -0.9110918 -0.9761959 -0.72275114 -0.708922
000020 69 b0 03 be c4 1b 1b bf ef 7c 3d bf cf 64 49 bf
       -0.12860264 -0.6058924 -0.7401876 -0.78669447
000030 db 47 1c bf 00 5c 5f be 4d c4 30 bf 50 c1 62 3d
       -0.6104714 -0.21812439 -0.6904953 0.05536014
000040 db 9d 99 be b5 0e 26 bf de ee 6a 3e 77 87 7f 3f
       -0.30003247 -0.6486619 0.22942683 0.9981608
000050 33 34 d0 be 96 6f 0b bf 25 40 e0 be e7 ad 8f 3e
       -0.40664825 -0.5446714 -0.43798938 0.28062364
000060 c7 75 28 be e0 e3 fe be 13 d8 6c bd 72 c5 5c bf
       -0.16451178 -0.4978323 -0.057823252 -0.8623878
000070 99 5d 96 be 9b a3 57 be d7 5b a4 be f6 2c db 3c
       -0.29368284 -0.21058504 -0.32101318 0.026754837
000080 8f 33 33 bf 2c 58 0b bf 47 91 d0 be 88 7f 1e bf
       -0.7000055 -0.54431415 -0.40735838 -0.6191335
000090 22 8e a8 bd 3d e6 b5 bc dc a0 2e 3e c4 82 06 bf
       -0.08230235 -0.022204513 0.1705355 -0.5254328
0000a0 e7 33 59 bd bd 3c 28 bd f7 06 1a 3e 36 3a cc 3d
       -0.053028014 -0.04107355 0.1504172 0.0997204
0000b0 f9 61 42 3f f9 ab 86 be bc 63 d6 3e 9e 4f 1b bf
       0.75930744 -0.2630308 0.41872966 -0.6066836
0000c0 df 51 2d bf a3 79 61 bf 38 a9 03 bf dc d3 4c 3f
       -0.6770305 -0.8807623 -0.5143008 0.8001077
0000d0 e8 76 0c be 73 1b fe 3e 45 f7 82 3e 14 c1 32 3f
       -0.13717234 0.49630317 0.25579277 0.69825864
0000e0 d3 c4 54 bf 10 c1 0c 3f b6 ac fe 3e d7 d6 21 bf
       -0.8311283 0.5498209 0.49741143 -0.63218445
0000f0 d5 ec cd 3e ca 34 12 3f 4e 7a 64 bf 58 dc ab 3e
       0.4021975 0.571118 -0.8924912 0.33566546
000100 72 43 55 bf 50 f6 42 bf 81 83 66 3f 7c d1 26 3f
       -0.8330604 -0.76157093 0.9004441 0.651634
000110 15 86 cb be 3f 2f 70 bf 20 02 d5 be 19 22 ef be
       -0.39750734 -0.9382209 -0.41603184 -0.46705702
000120 c9 f8 69 bf e9 67 d8 bc 76 ae 1d bf 2b fb 40 bf
       -0.9139524 -0.026416736 -0.6159433 -0.7538325
000130 b2 93 66 bf 7e 72 2e 3f 4f 8e 29 3e 68 62 fd 3d
       -0.90069115 0.6814345 0.16558193 0.12372285
000140 cf 0e 2f be 13 fb 70 3e 70 94 78 3d 0b 18 7b be
       -0.17095493 0.23533277 0.060688436 -0.2452089
000150 db db eb 3e 75 ff d7 be 7c c8 35 bf d3 0a 22 bf
       0.46066174 -0.42187086 -0.7100904 -0.63297766
000160 58 cd 6f 3e 55 9a 53 3f 2b c2 5b 3e 9e 87 e0 bd
       0.23418176 0.82657367 0.21460788 -0.10963367
000170 05 a7 82 be 9d 03 8d 3e f0 9f 98 be 55 bb e7 ba
       -0.2551805 0.2754182 -0.29809523 -0.0017679731
000180 6a 73 3f 3f 7b 63 fa bd d3 cb 24 bf 05 3e d9 be
       0.7478548 -0.12226006 -0.6437351 -0.4243013
000190 ba b1 98 3e 2b bf 0e 3f de 13 3d 3f 28 32 6e bd
       0.29823095 0.5576045 0.7385844 -0.0581533
0001a0 3c 4a 1a 3f 0a 1d 78 bf ba ec 29 be 4a 41 1f bf
       0.6026952 -0.9691931 -0.1659421 -0.62209
0001b0 54 31 61 3f 0a 65 2a be 7a cb 6e bf 90 e8 3e bc
       0.87965894 -0.16640106 -0.9327923 -0.011652127
0001c0 03 d2 9e 3e 12 44 eb 3e d7 dd a0 bd 57 11 2f 3f
       0.310196 0.4595037 -0.078548126 0.68385834
0001d0 3a 91 98 3e 4a 70 4f 3f 39 5c 68 bf d4 c6 37 3f
       0.297983 0.81030715 -0.9076572 0.7178776
0001e0 71 f6 2c bf 44 9c 25 3f d5 e1 43 bf 03 4e 77 bf
       -0.6756354 0.6469157 -0.7651647 -0.9660341
0001f0 0d 30 5d bf 14 d3 95 3e a0 29 59 bf ae 32 dc 3e
       -0.86401445 0.29262602 -0.8482914 0.43007416
000200 3a 90 1a bf 6c 76 cb be a2 27 05 bf 5e d1 bb 3e
       -0.6037632 -0.39738786 -0.520136 0.36683172
000210 9a a4 00 bd 29 13 dd bd c8 e8 01 3f 97 4c 35 3f
       -0.031406976 -0.1079467 0.5074582 0.7081999
000220 88 8f 26 3f 33 7d 0f 3f 8d 33 5a be 75 fd 09 bf
       0.6506276 0.56050414 -0.21308728 -0.5390237
000230 c3 af 4c bf 33 d7 77 3f be 3a 86 be a4 11 19 be
       -0.7995569 0.9681274 -0.26216692 -0.14948136
000240 cf 4c 6c be c3 7e f3 be b3 4f 37 3e 04 e2 13 3d
       -0.23076175 -0.4755765 0.17901497 0.036104217
000250 f0 5c 70 bf 60 52 0a 3f 02 e4 8c be f4 98 28 bf
       -0.9389181 0.54031944 -0.27517706 -0.6585839
000260 73 0b 83 3e 94 5f d1 be 71 24 17 3f 8a 14 e3 3e
       0.25594673 -0.40893233 0.5903998 0.44351608
000270 b0 be 87 be e4 25 13 bf f1 19 6d 3f 4b de a6 3d
       -0.2651267 -0.5747969 0.9261771 0.08147868
000280 5d d1 e2 be ac b8 1a bf ff 64 7d be 4e 6d 56 bb
       -0.44300357 -0.60438037 -0.24745558 -0.003271896
000290 46 37 54 bf 9f 3b 20 be 80 6b 5b bf e9 68 3d 3f
       -0.8289684 -0.15647744 -0.85710907 0.73988205
0002a0 a5 8b af 3e 28 3d 94 3e 9f 51 71 bf da 4b 5b 3f
       0.34286228 0.2895291 -0.9426517 0.85662615
0002b0 f2 4e 6f bf f4 a0 53 3f bf fd d2 3e de 57 1b bf
       -0.93479836 0.8266747 0.41209218 -0.6068095
0002c0 91 72 9d 3e b8 4a 97 3e b5 30 40 3f a1 15 75 3f
       0.3075147 0.29549193 0.7507432 0.9573613
0002d0 be 41 55 bf 2e 90 f3 be 29 3c 23 3e f1 04 15 bf
       -0.8330344 -0.47570938 0.15940918 -0.58210665
0002e0 48 f9 d9 bd 6c 54 18 3d 02 d1 3b bf 5d 6d 3b bf
       -0.1064325 0.037189886 -0.73365796 -0.7321375
0002f0 50 b1 21 bf e2 2c a6 be 96 fb 3e bf 4a 26 ea 3e
       -0.6316118 -0.32456118 -0.7460264 0.45732337
000300 02 84 43 3f bf 16 47 3e 36 f1 9b be 03 69 aa 3e
       0.763733 0.1944227 -0.30457467 0.33283243
000310 5d 34 5e 3f 8f 6f a3 3e b1 eb 2f bf 5d 85 0f be
       0.8679865 0.3192105 -0.6871901 -0.14015718
000320 46 a0 0f 3f c5 92 5b 3f 5d be 19 3f 9d 86 02 3f
       0.5610393 0.8577083 0.60056096 0.50986654
000330 3c b3 a7 bc bd c1 b3 3d cf 8f 7c bf 36 2a 0d 3f
       -0.020471208 0.08777187 -0.98656934 0.55142534
000340 52 c9 a6 be d0 c4 60 3f 59 c9 11 3f 5d 15 55 bf
       -0.3257547 0.8780031 0.5694786 -0.8323572
000350 c7 c6 49 3e a0 52 7a 3f e9 ce 99 bd 7a d8 5b 3f
       0.19704734 0.97782326 -0.07510168 0.8587719
000360 90 6b 43 be 1c 69 1c 3f e5 1c 50 3d cd a2 15 bf
       -0.19084 0.61097884 0.050808806 -0.5845154
000370 75 4e 1b be 67 af cc 3e 6b f3 0c 3e f6 c3 4f 3f
       -0.15166648 0.3997757 0.13764732 0.8115839
000380 cc 35 4a 3f e5 1a 59 bf 93 be 27 bd a6 74 a5 bc
       0.7898834 -0.8480666 -0.04095323 -0.020197224
000390 13 91 f3 3e 02 db 8d 3e 8c 73 24 3f 16 07 36 3f
       0.4757162 0.27706152 0.6423881 0.7110456
0003a0 bb 54 aa 3e c4 1a 3b 3f 0f 42 bf 3e b6 c9 44 be
       0.3326777 0.73087716 0.37355086 -0.19217572
0003b0 ce f2 6f 3f 22 c8 93 3e f3 8b 40 bf ef 31 1f bf
       0.93729866 0.28863627 -0.75213546 -0.6218557
0003c0 77 99 02 3f cf f1 d0 3e df 58 42 3e 88 bb 7f bf
       0.5101542 0.40809485 0.18979214 -0.99895525
0003d0 a4 b8 24 3f 40 89 66 3e 17 30 2b bf 2e 92 b9 be
       0.6434424 0.22513294 -0.66870254 -0.3624434
0003e0 67 40 52 3f 79 24 48 3f 91 75 22 3f 76 89 e2 3e
       0.8212952 0.7818065 0.6346064 0.442455
0003f0 03 ac 01 bf 7f de 42 bf 94 cc d9 3e ed 5f af 3e
       -0.50653094 -0.7612075 0.42538893 0.34252873

train_targets f4 [600, 1]
000000 d4 af 31 bf 03 82 62 bf 88 22 35 3f a1 8d 87 bd
       -0.6940892 -0.8847963 0.70755816 -0.066188104
000010 03 d5 93 be c7 3f 4f bf bc 31 48 bf 51 df 2b bf
       -0.28873453 -0.8095669 -0.7820089 -0.6713763
000020 22 1a ec bc 89 87 1c 3e 78 e7 6b bf 89 d9 34 3f
       -0.028821055 0.15286078 -0.9215007 0.7064443
000030 47 09 ee 3d 01 b8 3e bf 67 22 06 bf 58 9f 0e bf
       0.11622863 -0.7449952 -0.52396244 -0.5571189
000040 94 88 19 3f b0 d6 41 be bd dd 55 3f b9 3b 7c 3f
       0.59974027 -0.18929553 0.8354147 0.9852863
000050 99 a1 81 be 52 83 24 3f 95 00 01 bf 63 48 41 bf
       -0.25318602 0.6426288 -0.50391513 -0.7550108
000060 1e d7 a1 be 7e 8f 7b bf f7 93 09 3f 65 a3 ce 3d
       -0.31609434 -0.98265827 0.537414 0.10089759
000070 9a 89 26 3f 37 47 2f bf 4a 21 dd 3e c3 34 49 bf
       0.65053713 -0.6846804 0.4318946 -0.78596133
000080 7b 9c 19 bf a2 3e 25 3f 3b 8a 84 be 0f 3c 40 3d
       -0.60004395 0.64548695 -0.2588671 0.046932276
000090 bd e3 ae 3e 71 86 52 3f 6f 83 ba 3e de e9 4b 3f
       0.34158126 0.8223639 0.364284 0.7965373
0000a0 0c 66 13 3f a1 e1 2b 3f b6 37 50 3e 28 17 4f be
       0.57577586 0.6714116 0.20333752 -0.20223677
0000b0 37 f0 6c bf 1b 50 65 3f e0 1d b3 3e 3d 0c 16 3e
       -0.9255404 0.89575356 0.3498373 0.14653106
0000c0 f2 1d d5 be 62 d1 3c bd 43 b6 62 3f 23 61 19 bf
       -0.4162441 -0.04609812 0.8855936 -0.59913844
0000d0 84 6e c7 bd ce 6d 78 3f ed 22 74 bf 9c 08 16 3f
       -0.09737876 0.9704255 -0.9536579 0.58606887
0000e0 cd b2 b3 3e 7c f7 19 bf d9 b2 7a 3f 50 6b 6b bd
       0.35097352 -0.60143256 0.9792915 -0.057475388
0000f0 51 cd 5e 3e 65 b3 dc be bd 49 0f be 43 1d a1 be
       0.2175801 -0.43105617 -0.13992973 -0.31467637
000100 e4 c8 ab 3e 82 4d 68 3f 24 70 50 3e 74 2f 5a 3e
       0.33551705 0.9074327 0.20355278 0.21307164
000110 50 61 38 be f6 79 01 bf 01 11 a8 be 64 88 3c bf
       -0.18005872 -0.5057672 -0.32825473 -0.73645616
000120 8c 8c 9f be 06 e6 49 3f 8c 62 94 3d aa 26 78 3f
       -0.31161916 0.7886661 0.07245359 0.96933997
000130 39 76 52 be e0 27 e7 3e 3d 39 a6 3e 06 66 27 bc
       -0.20552911 0.4514761 0.32465544 -0.010217195
000140 3a 3b bc be 27 f6 61 3f c8 b5 03 bf 17 30 76 bf
       -0.36763936 0.88266224 -0.5144925 -0.9616713
000150 6a 6f 2f 3f a8 fb bf be e1 43 2e bf da b4 82 bd
       0.6852938 -0.37496686 -0.68072325 -0.06382151
000160 b1 9a 5f 3f b4 5a c6 be 56 84 37 3f 10 c3 fb 3d
       0.87345415 -0.38741076 0.71686304 0.122930646
000170 ea 63 75 3f 8b f1 4b bf 3e 80 1d 3f 13 61 7c 3f
       0.9585558 -0.7966544 0.6152381 0.98585624
000180 4e 9b 7b 3f ac 90 b3 3c 55 7a 19 be 2c f0 c9 be
       0.9828385 0.02191957 -0.14988072 -0.3944105
000190 17 39 1d bf a9 06 0a bf f2 9e 68 3f ec e6 08 3f
       -0.6141524 -0.5391641 0.9086753 0.5347736
0001a0 88 b8 36 be 53 e8 40 bf e6 b2 a7 be 34 b6 be 3c
       -0.1784383 -0.753545 -0.32753676 0.02328024
0001b0 07 aa 18 3d 2a 94 a9 be a6 b7 ec be ee 22 68 3f
       0.037271526 -0.33120853 -0.46233863 0.906783
0001c0 f5 b7 04 bf 48 10 2d 3f 52 44 be 3e 68 15 f1 3e
       -0.51843196 0.6760297 0.371615 0.47086644
0001d0 19 bb 1d bf b4 7d 04 bf 93 c3 85 be a1 36 3e 3f
       -0.61613613 -0.5175431 -0.26125774 0.7430211
0001e0 0c 67 cf be 77 88 33 3e 55 f1 60 3f 19 70 3a bf
       -0.40508306 0.17532526 0.87868243 -0.728273
0001f0 ae fc b3 3d b0 b3 28 bf f3 cb 5a 3e 70 95 e1 3e
       0.08788429 -0.6589918 0.21366863 0.44059324
000200 cf f8 2d 3e c5 66 37 be f3 c2 56 3f 31 d4 85 bd
       0.16989444 -0.17910297 0.8389122 -0.06534613
000210 b3 ad 3f 3f 5b b3 0b 3e c3 b9 70 bf b5 64 2a 3f
       0.7487442 0.13642637 -0.9403345 0.66559917
000220 f4 f0 51 3e 68 16 04 bf 1a 67 34 bf 5a 14 30 3f
       0.20502073 -0.5159669 -0.7046982 0.68781054
000230 e7 81 1a 3f 9b b9 3e 3f 09 15 67 3f 22 8d 48 be
       0.60354465 0.7450196 0.9026647 -0.19585088
000240 9e 99 58 bf 0e fb 4d bf cd 3e dd 3e fe 0e 36 bf
       -0.846094 -0.80461204 0.43211976 -0.71116626
000250 7f e7 02 bf fe 6c 2d bf f6 6f 4c 3f 47 8f 89 be
       -0.51134485 -0.67744434 0.7985834 -0.26867124
000260 35 d2 73 bf a1 fc 8a be f0 b8 8d be 27 52 0c 3f
       -0.95242625 -0.27145866 -0.2768016 0.54812855
000270 40 05 61 3f bb a1 cd 3e 0e 9f d1 3e 6b 43 b2 be
       0.87898636 0.40162453 0.40941662 -0.3481706
000280 74 45 0b bf 8c ea 28 3e fe c9 7a bf 96 4c 79 3f
       -0.5440285 0.16495723 -0.97964466 0.97382486
000290 a0 8b bc 3e 7c ee 80 be ff 8f 12 3e 4a 47 6b 3f
       0.36825275 -0.2518195 0.14312743 0.91905653
0002a0 d8 a2 83 be 62 0b 2f bf f9 8c 0a bf cf 84 16 be
       -0.25710177 -0.68376744 -0.5412136 -0.146991
0002b0 20 ef f4 be ba f0 c5 be f7 ed 97 3e 3f 04 15 3e
       -0.47838688 -0.38660222 0.2967374 0.14552401
0002c0 bc 35 0a bf 21 d5 22 bf 5a 7a 7e bf 0a ad 28 3f
       -0.5398824 -0.6360646 -0.99405444 0.65889037
0002d0 26 e4 ab 3e b6 40 4e bf a3 f0 8c 3e ef b0 af 3e
       0.335725 -0.8056749 0.2752734 0.34314677
0002e0 de 1a 18 3e ca d5 33 bf 14 88 5e bf e8 6a 5b bf
       0.14853999 -0.7024809 -0.8692639 -0.8571
0002f0 d7 a7 58 bd f0 98 ce 3e ac dc 77 bf 27 99 28 3f
       -0.05289444 0.40351057 -0.96821094 0.6585869
000300 f4 df 63 bf 7d 2d 0e 3f 29 3b 10 3f e6 b7 ac be
       -0.890136 0.5553816 0.5634027 -0.33734053
000310 8a d1 65 bd 86 83 e4 be 0b bb fe be d3 55 f8 bd
       -0.056108035 -0.44631594 -0.49752077 -0.12125745
000320 d3 fd 02 bf 5e a7 0d be 6e 34 48 be 18 cb 6b bf
       -0.51168555 -0.13833377 -0.1955125 -0.9210677
000330 31 13 56 3f 87 7c 98 be 7c 7e 64 bf 4d ae 16 bf
       0.83623034 -0.29782507 -0.892555 -0.5885971
000340 6e b5 c9 3e 0f d0 c4 3c 6b 6a e3 be 2c aa ae 3e
       0.39396232 0.024024991 -0.44417128 0.34114206
000350 8e 8d 13 3f fd 94 52 3f 2e 62 cc 3e b4 f0 04 be
       0.5763787 0.8225859 0.39918655 -0.12982446
000360 20 d7 06 bf f8 b8 e5 bd 8d f1 17 bf 2a d3 a5 3e
       -0.52672005 -0.112169206 -0.5935295 0.32387668
000370 aa 73 5a be 69 f6 4a 3e b6 36 cf 3d 50 e0 01 bf
       -0.21333185 0.1982056 0.10117857 -0.507329
000380 a3 51 2e bf 66 a3 5c 3e b7 20 2c 3f d7 a2 56 3f
       -0.6809332 0.21546707 0.6723742 0.83842224
000390 4a 44 4e 3f f9 93 48 bf 73 71 0e 3e af 38 30 3f
       0.8057295 -0.7835079 0.13910465 0.6883649
0003a0 25 5a ad be 23 d6 58 3f d8 f0 3d bc 6b 93 09 bf
       -0.33857837 0.84701747 -0.011593066 -0.53740567
0003b0 e1 2c ff 3e 79 df 30 bf 69 a0 7b 3f 6c 11 ce 3c
       0.49838927 -0.6909099 0.9829164 0.025154792
0003c0 47 34 6b bf 7a 8e 87 3e bf b1 04 3f 40 dc 7d bf
       -0.91876644 0.26475888 0.5183372 -0.991642
0003d0 74 14 17 3e 80 12 4d 3f 70 01 b3 be 37 ba cd 3d
       0.14753896 0.80106354 -0.34962034 0.10045283
0003e0 93 f9 db be 3b dc 3e bf 56 64 9d 3d d8 25 0a 3f
       -0.42963848 -0.74554795 0.07685153 0.53963995
0003f0 e7 9f 72 3f 0a 0c 69 3f a3 64 ce 3e 95 00 85 be
       0.9477524 0.91033995 0.40311155 -0.25977007

test_data f4 [150, 1]
000000 e9 a1 5a bf 39 95 3a 3f 79 59 a6 be 0c 25 f5 3d
       -0.85403305 0.72883946 -0.32490137 0.11969957
000010 ff 9f c5 be 66 0d 71 bc df de 63 3f 4e f6 34 be
       -0.3859863 -0.014712667 0.8901195 -0.17672083
000020 2f 59 8a 3d bb 76 9d 3d 94 5b 45 bf ca 60 23 3e
       0.06755292 0.07688662 -0.7709286 0.15954891
000030 c9 1b 8b 3d 3a 8b 6b 3f c4 4d 11 3f 27 44 c1 3e
       0.06792409 0.9200932 0.56759286 0.3774731
000040 2c 41 a7 3e 94 1c a1 3e 1d 57 07 be ac 1d 96 be
       0.3266691 0.31467116 -0.13216825 -0.29319513
000050 e5 cb fc 3e c8 b5 b4 be 14 41 98 bd e4 80 58 3f
       0.4937431 -0.35294938 -0.07434288 0.8457167
000060 69 4b b2 be 9e b1 69 bf c7 c2 2d 3e 4a 72 b3 3e
       -0.34823158 -0.9128665 0.16968833 0.35048133
000070 e4 db a5 be 24 fc 59 bf 29 60 4f bf 2c b2 b0 3e
       -0.32394326 -0.8515036 -0.81006104 0.34510934
000080 da 3f 47 3e 75 67 a4 be 84 69 3a be 8b 6f b2 3e
       0.19457951 -0.3211018 -0.18204314 0.34850726
000090 6b 2c 66 3f 4e 75 54 be e6 b6 3d bf 3e 3e 63 bd
       0.89911526 -0.20747873 -0.74107206 -0.05547928
0000a0 a8 e4 7f be 90 d9 05 3f 83 68 93 3e 4b 91 80 be
       -0.24989569 0.522851 0.28790674 -0.2511085
0000b0 66 ff 6b bf 37 74 0e bf 21 33 b0 be 4a 31 5c 3f
       -0.9218658 -0.5564608 -0.34414008 0.8601271
0000c0 b5 7a 3f bf 44 62 47 be 1d b5 31 bf b6 3a 56 bf
       -0.7479661 -0.19471079 -0.6941698 -0.83683336
0000d0 c9 34 0c 3f 88 0c 48 3f c8 66 ea 3e 2c a7 73 bf
       0.54768044 0.7814412 0.4578154 -0.9517696
0000e0 54 97 12 3f 75 57 fe bc 07 49 7b bf d6 f6 ee bd
       0.5726216 -0.031047562 -0.98158306 -0.11668174
0000f0 b5 fa 20 bf ec 5d e0 3e e2 a3 1c bf a5 57 51 3f
       -0.6288255 0.43821657 -0.61187565 0.8177436
000100 57 47 55 3f 84 2e d7 3c e2 67 c0 3e 7a 33 b7 bc
       0.8331198 0.026267298 0.37579256 -0.022363413
000110 da ba 49 bf 3c 1a fb 3d cc d1 2b bf 4e 46 0c 3f
       -0.7880074 0.12260863 -0.67117 0.54794776
000120 1d 6a 67 3f 34 7e 1a 3f eb 25 96 3e 4c a0 c8 3d
       0.9039629 0.6034882 0.29325804 0.09796199
000130 19 e9 2c bf 59 f2 e8 be 11 77 43 bf 55 0c 8f 3c
       -0.6754318 -0.45497397 -0.76353556 0.017461935
000140 c0 17 f3 be 71 09 ac 3e 64 cf 7a bf b3 7b 02 3f
       -0.47479057 0.33600953 -0.979727 0.5097
000150 6e df 4c bf 8a a7 bf bd 28 60 1d 3f b5 f6 63 3f
       -0.80028427 -0.093581274 0.6147485 0.8904832
000160 48 11 9f 3e 58 0e 4f 3e b5 75 a4 be c2 7b ba 3e
       0.31067872 0.20220315 -0.32121053 0.36422545
000170 2a 2d 3c be 09 6c a8 bc f1 87 08 bf 54 53 14 3f
       -0.18376604 -0.020559328 -0.5333243 0.5793965
000180 4b 80 22 3d 5c 19 2f 3f c1 e3 29 3f c6 a9 52 bf
       0.03967313 0.6839807 0.6636315 -0.82290304
000190 02 c9 4f bf 13 60 60 3d a7 cd ab be fd 46 83 3e
       -0.8116609 0.054779124 -0.33555338 0.25640097
0001a0 0f d3 a7 3e 2e 68 09 3f 50 6f 68 3f 47 1d 79 3f
       0.32778212 0.5367459 0.9079485 0.973103
0001b0 07 26 5d bf 28 5d fa 3d c6 e9 10 3f 44 bb 11 3d
       -0.8638615 0.122247994 0.5660671 0.03557898
0001c0 04 1c 6d 3c 7a ec 31 bf 8f cf cf be 0f 01 09 bf
       0.0144720115 -0.6950146 -0.40588042 -0.5351724
0001d0 e5 f7 25 bf 5e fc 30 3f 04 5c 47 be e3 ae 6f be
       -0.6483138 0.6913508 -0.19468695 -0.23406558
0001e0 80 a0 e9 3e 2a 8c 80 be 15 d5 4d be 76 29 b4 3e
       0.45630264 -0.25106937 -0.20100816 0.35187882
0001f0 60 e5 a3 3e dd 70 6f be 6a ce 7d be 40 2e a4 3d
       0.32010937 -0.23382898 -0.24785772 0.08016634
000200 0d 86 ff be bc a6 b6 3d fd 6e 0a 3e cd 14 0c be
       -0.4990696 0.08918521 0.13518901 -0.1367981
000210 af ef 2a 3e 4a 98 af 3e 96 83 37 3f d3 f0 e9 3c
       0.16692995 0.34295875 0.7168516 0.028557217
000220 fc 84 65 3b 97 e6 bd bd 59 bb 19 be 55 72 6f 3f
       0.0035021892 -0.09272497 -0.15012874 0.9353383
000230 85 ad 15 be 12 5a 56 bf 81 17 b9 3d f7 69 80 3e
       -0.14616974 -0.83731186 0.09037686 0.25080845
000240 cc 77 24 bc 6f 6b 29 3d 21 68 da be 0b ac 4a 3f
       -0.010038327 0.041362222 -0.4265757 0.79168767
000250 f9 6f 63 bf fa ed f9 be
       -0.8884273 -0.48814374

0.weight f4 [100, 1]
000000 c1 e1 fb 3e f9 d1 88 3d eb a7 ec 3e b4 a3 c4 be
       0.49195674 0.06680674 0.4622186 -0.38406146
000010 27 33 78 3f 89 70 71 bf 01 74 2f 3f 50 07 68 be
       0.9695305 -0.9431234 0.6853638 -0.2265904
000020 d4 1d be be f8 6f 89 bd 78 13 c1 3e c0 88 b2 3c
       -0.37132132 -0.067108095 0.37710166 0.021793723
000030 54 de f7 3e 02 49 38 bf a0 d0 7b 3f 20 a4 93 3e
       0.4841181 -0.719864 0.9836521 0.28836155
000040 84 4a d2 3e 81 39 0b 3f 74 27 cf be 6d bb 0f 3f
       0.41072476 0.5438462 -0.40459788 0.56145364
000050 87 14 c9 bd 38 72 7d 3e ff d4 c3 bf 5a 38 ef 3e
       -0.098183684 0.24750602 -1.5299376 0.4672268
000060 c0 96 fb bd b0 66 64 3e 3f ac 4b 3f 38 b3 5a be
       -0.12284613 0.22304797 0.795597 -0.21357429
000070 39 a6 a2 3e b6 42 47 bf eb 79 be be 51 a5 a0 3f
       0.31767443 -0.7783617 -0.3720239 1.255045
000080 d2 3a 91 be 62 c5 2b 3f 35 75 a0 bf 18 c3 32 be
       -0.2836519 0.6709806 -1.2535769 -0.17457235
000090 a5 dc 8e 3f 85 79 79 bf be c2 3b bf b2 68 31 bf
       1.1161085 -0.9745105 -0.7334403 -0.6930038
0000a0 ea 86 70 3e b0 4c 70 bf 19 a0 17 bf cc 55 42 bf
       0.23488966 -0.93867016 -0.59228665 -0.75912166
0000b0 80 8e 8f be f5 b5 72 bf e8 32 53 be 28 3f 30 bf
       -0.28038406 -0.94808894 -0.20624888 -0.6884637
0000c0 a0 38 85 bf d9 95 44 3f de 05 3d bf a6 25 30 bf
       -1.0407906 0.7679115 -0.7383708 -0.68807447
0000d0 f4 18 08 3f 5f 2a 69 3e 30 d9 5e 3f 42 3f 20 bf
       0.53163075 0.2277007 0.8705015 -0.62596524
0000e0 30 3c d3 be 0a f8 59 3f af 1c 3c 3f 20 05 71 bf
       -0.41256857 0.851441 0.7348127 -0.94148445
0000f0 f2 52 30 3f 42 9b e7 3e 36 5b 85 3e 11 32 ae 3e
       0.68876565 0.4523564 0.2604615 0.34022573
000100 a3 f3 b2 bf f5 fb 5c be 7b d8 97 bd c3 1d 44 be
       -1.3980602 -0.21580489 -0.07414337 -0.19151978
000110 ad b5 ac 3f 0d 89 94 3e b2 b3 46 bf 7c 6c 72 bf
       1.3492943 0.2901081 -0.77617943 -0.94696784
000120 6e 84 a5 be 36 b7 0d 3f b6 d4 13 bf e0 1e a2 bd
       -0.32327598 0.5535768 -0.57746446 -0.07916045
000130 b6 b2 63 3d 38 f2 8c 3e eb 8c 10 bf 7a 56 3f 3f
       0.055590354 0.27528548 -0.56465024 0.7474133
000140 1f 96 71 bf 40 ea 52 be e0 c9 15 be 8a 10 12 bf
       -0.9436969 -0.20597172 -0.1462779 -0.57056487
000150 82 ad 42 bf c8 ba 40 3f c8 bb 75 3e c7 0c 4b 3f
       -0.76046 0.75285006 0.23997414 0.7931637
000160 10 18 ad bd 83 09 32 be 1b e7 07 bf 60 3f ab 3d
       -0.08451855 -0.17386441 -0.53087014 0.08361697
000170 c3 01 e1 be 8e 7e 36 3d e8 15 cb be f2 d8 11 bf
       -0.43946657 0.044554286 -0.3966515 -0.5697166
000180 4e 4d 02 bf 95 ff 44 bc fb 40 ca 3e 48 81 b3 be
       -0.5089921 -0.012023826 0.395027 -0.3505957

0.bias f4 [100]
000000 7a 76 89 3e ff 41 23 3f b2 1a 82 be 62 a9 3e bf
       0.26848203 0.6377258 -0.25410992 -0.7447721
000010 86 0f 97 3e b6 d7 4d bd 14 63 bf 3e 04 0c 81 be
       0.2950403 -0.050254546 0.37380278 -0.2520448
000020 10 fc 7d be af 65 df 3d 63 85 0c 3f 10 88 a0 bd
       -0.24803185 0.109080665 0.5489103 -0.07838452
000030 c3 47 88 be f2 31 68 bf 1f 57 50 bf 44 8c 08 3e
       -0.2661725 -0.9070121 -0.81382936 0.13334757
000040 6e 7e bf bc 68 cd 3d 3f 48 d8 61 be ad 6b 26 3f
       -0.023375716 0.7414155 -0.22055161 0.6500805
000050 6c ed 8b 3e 06 00 38 bf fa 1f 9f bf 00 09 19 3f
       0.27329576 -0.71875036 -1.2431633 0.5977936
000060 bc 23 a2 be db 23 fb bd 3f 75 4b 3f b4 3d ca be
       -0.31667888 -0.12262698 0.7947578 -0.395002
000070 c7 cd 23 3f 24 5a 7a bf ec c5 4f be 1e e9 84 bf
       0.63985866 -0.97793794 -0.20290345 -1.0383642
000080 6b ea e6 3e ad 3d 4d be 63 84 84 3f be 9f 2e bf
       0.45100722 -0.20043059 1.0352901 -0.682125
000090 e9 ae aa be 98 8f e5 3e f3 7b 43 3f 79 34 70 3f
       -0.3333657 0.44836116 0.76361006 0.93830067
0000a0 51 43 70 3e 55 98 de be ec b8 a6 3e 71 03 d7 3e
       0.23463179 -0.43475595 0.3256296 0.41994813
0000b0 cc 1e b6 be c6 e2 4e bd 44 c3 b1 be fe 31 16 bd
       -0.3557037 -0.050509237 -0.34719288 -0.03666877
0000c0 d8 0d 63 bd 41 27 d8 be 8c 8e 43 bf 0b ea f2 3e
       -0.055433124 -0.42217448 -0.76389384 0.47444186
0000d0 ee 55 23 3e 60 c4 59 3f ef 2b f3 3e c4 63 27 bf
       0.15950748 0.8506527 0.47494456 -0.65386605
0000e0 74 54 14 bf 18 28 5c 3f 51 56 cd 3e 9c d2 74 bf
       -0.57941365 0.8599868 0.40104917 -0.95633864
0000f0 b6 55 4c 3f 57 ac 7e be 7b 80 62 3c b8 24 d0 bd
       0.79818285 -0.2487043 0.013824577 -0.101632535
000100 c8 ca 93 3f 54 f3 f0 bd 97 76 fa 3e ac 4f 79 3e
       1.1546259 -0.11765161 0.48918602 0.24346799
000110 ea 79 84 3e 41 7d 23 be a2 fa 56 bf 23 f0 de 3e
       0.25874263 -0.1596575 -0.83976185 0.43542585
000120 01 6f 34 be 01 b2 61 3f 73 8b a2 3e c0 43 70 bf
       -0.1762047 0.8816224 0.31747016 -0.9385338
000130 db 1f 04 3f 9c ce 0b bf 49 ef 74 3f b1 e9 46 3f
       0.5161111 -0.54612136 0.9567762 0.77700335
000140 d9 d1 04 3f a8 b9 93 be c0 44 78 be 4e 2a 13 3f
       0.518827 -0.28852582 -0.24244976 0.57486427
000150 dc 42 5a bf 82 ce 76 bf e0 50 86 be 9e 46 df be
       -0.8525827 -0.96408856 -0.26233578 -0.43608564
000160 a8 4f 39 be 0d f2 81 3e 61 45 29 3f 46 04 3b bf
       -0.18096793 0.25379983 0.6612149 -0.73053396
000170 2a 28 9b 3e 26 4f a3 3e 48 19 50 bf c4 de 28 bf
       0.3030408 0.31896323 -0.81288576 -0.65964913
000180 dc 80 05 bf 76 4a db 3e 1b ff e8 3e 7e 42 72 bf
       -0.5214975 0.42830247 0.4550713 -0.9463271

2.weight f4 [1, 100]
000000 19 50 20 be 86 bf b5 bc 7d ce f1 3d 3f e5 c1 3d
       -0.15655555 -0.022186052 0.11806963 0.09467553
000010 19 5e 29 be 8b 49 05 bf 72 53 86 be b2 ae 3d 3d
       -0.16539802 -0.5206534 -0.2623554 0.04630918
000020 3e a7 95 3d 46 62 b7 bd bb a4 64 3c 87 48 2b bd
       0.073072895 -0.08954291 0.01395529 -0.041817214
000030 28 07 05 3d 40 95 60 3b 13 cc 83 3f 27 9a 8e 3e
       0.032477528 0.0034268647 1.0296654 0.27851984
000040 78 b1 8f 3e b1 6c 9d 3b 4c 28 66 be f1 dc 72 bb
       0.28065085 0.004804217 -0.2247631 -0.003705796
000050 c2 42 08 be 41 71 cb 3d e0 fa ec bf d2 97 c4 3c
       -0.13306716 0.09933711 -1.8514061 0.023998175
000060 50 f2 93 bb a4 71 87 3d d0 86 12 3d b4 bc b6 3c
       -0.00451497 0.06613472 0.0357731 0.022306778
000070 30 4a e1 bd fb d4 a4 3d 88 3f 18 be c7 e1 9e 3f
       -0.11000478 0.08048435 -0.14867985 1.2412652
000080 44 78 fb bc 0a a7 de 3e b5 1f 90 3f 4a 3e 84 bd
       -0.030696996 0.43486816 1.1259676 -0.06457193
000090 49 38 1d 3f 17 3f 4e bf d0 03 3d be 61 9f 99 be
       0.6141401 -0.8056502 -0.18458486 -0.3000441
0000a0 f8 b7 4b 3d a9 1a 4c 3f 8c 17 b8 3d 32 3e 24 bc
       0.049735993 0.7972818 0.08988866 -0.010024594
0000b0 08 e3 c5 bc f2 de 04 bf c9 72 92 3d 22 7c c1 be
       -0.024156108 -0.5190269 0.071508 -0.37790018
0000c0 29 b5 0e bf d3 43 6a 3e bd e1 ad 3d be a5 e3 be
       -0.5574518 0.22877435 0.08490322 -0.4446239
0000d0 c5 ed 80 bd 88 3c f3 bc 49 ba 9b be 68 0c bf 3c
       -0.06295351 -0.02969195 -0.30415562 0.023321345
0000e0 20 3f b4 bc f5 bf 57 bd 7d b0 65 be 2b 8a 8d 3d
       -0.022002757 -0.0526733 -0.22430606 0.06911119
0000f0 e3 92 9b bd 10 5c 7e 3d d0 9b 39 be 6f 7d 56 3e
       -0.07596376 0.062099516 -0.18125844 0.20946287
000100 18 a9 a1 3f 78 9b 03 be 1f d1 61 bd 2c 48 06 be
       1.2629728 -0.12852275 -0.055131074 -0.13113469
000110 79 84 8b 3f d4 14 05 3c 38 72 84 3c 7e f1 cb be
       1.0899802 0.008122642 0.016167745 -0.3983268
000120 d5 31 37 be cc aa 13 be 01 aa bf 3d 32 2f 0a 3d
       -0.17890103 -0.14420623 0.093585975 0.033736415
000130 3c 3a 96 bd 74 d4 0b bd ad f7 9d be 68 0d d4 bd
       -0.07335326 -0.034138158 -0.30853024 -0.103541195
000140 77 b8 fc 3d a8 49 d8 bc f4 95 85 bc 71 47 29 be
       0.123398714 -0.02640231 -0.016306855 -0.16531159
000150 e2 b6 6d 3d 51 a1 92 3d 18 e1 c1 bd eb 8a b5 3d
       0.05803574 0.07159675 -0.09466761 0.08864387
000160 a6 05 13 bd a2 40 19 bd ba b0 4c be a6 7a 39 3d
       -0.03589406 -0.037415154 -0.19989291 0.045282982
000170 6f 53 95 be ad 69 56 bc 30 e1 77 3c 83 c9 31 bd
       -0.29165217 -0.0130867185 0.0151293725 -0.043405067
000180 98 ad 2b 3c d9 80 bb bd 51 39 0a 3a 84 43 e4 3c
       0.0104784 -0.09155435 0.0005272823 0.027864225
