complete/sawtooth/state9.pt (torch, 10937 bytes, 9 tensors)

weight f4 [100, 1]
0	0x3f112b35	0.56706554
1	0xbf15b42d	-0.5847805
2	0x3f85bc7a	1.0448143
3	0x3e824b50	0.25448084
4	0x3dcb0e1b	0.099148
5	0x3e34a8f8	0.17642581
6	0xbe847344	-0.2586919
7	0x3ef5c85a	0.4800442
8	0x3f6e9f3f	0.9321174
9	0x3e6fc860	0.23416281
10	0xbdd53f6b	-0.10412487
11	0xbf6ed176	-0.9328836
12	0x3e49e218	0.19715154
13	0x3f8afd69	1.0858585
14	0xbf156fc1	-0.5837365
15	0xbf614a9e	-0.8800448
16	0xbef7e2cc	-0.4841522
17	0xbf2283ba	-0.6348225
18	0x3f886b14	1.0657678
19	0x3f3fa106	0.7485508
20	0x3eb54ee8	0.35411763
21	0xbe65327e	-0.22382542
22	0x3f31e465	0.6948913
23	0x3e110935	0.14163668
24	0xbcf5bd15	-0.029997388
25	0xbeae6582	-0.3406182
26	0xbf81690e	-1.0110185
27	0x3d707ee0	0.058714747
28	0x3f3512e9	0.7073198
29	0x3f988453	1.1915382
30	0xbf9a4492	-1.2052176
31	0xbeebd677	-0.4606206
32	0xbf3cc992	-0.7374507
33	0xbed8991c	-0.42304313
34	0xbe1a2dcc	-0.15056533
35	0xbf29bcfa	-0.6630398
36	0x3f0616b8	0.52378416
37	0x3d07e340	0.033175707
38	0xbcb95280	-0.022622347
39	0x3d43a8d8	0.047768444
40	0x3f581405	0.8440555
41	0x3f8723e6	1.055783
42	0x3f024854	0.50891614
43	0xbfb700b8	-1.4297094
44	0x3f098a0a	0.53726256
45	0xbecbbc8c	-0.39792287
46	0xbdb66670	-0.08906257
47	0x3f417e49	0.7558332
48	0x3f36459e	0.7119998
49	0x3ee6bcb3	0.4506584
50	0x3f1476ea	0.5799395
51	0xbebffd51	-0.37497953
52	0x3ea71396	0.3263213
53	0x3e642297	0.2227882
54	0xbe70c8f0	-0.23514152
55	0x3f4b9473	0.7952339
56	0x3f3967ca	0.72423995
57	0x3f15ed04	0.5856478
58	0x3f2aac32	0.66669
59	0xbe8784ec	-0.264686
60	0x3f271e60	0.65280724
61	0xbeacc2ad	-0.33742276
62	0x3f4be740	0.79649734
63	0x3e1fb070	0.1559465
64	0xbec0b167	-0.37635347
65	0x3e8f974c	0.28045118
66	0x3f279ddc	0.6547525
67	0x3efc1876	0.49237412
68	0x3cc57754	0.024104752
69	0x3f2b4d94	0.6691525
70	0x3f813cc4	1.0096669
71	0x3f696a3f	0.91177744
72	0xbf6c47e9	-0.92297226
73	0xbf21d129	-0.6320978
74	0x3e1c5928	0.15268385
75	0xbe99538d	-0.29946557
76	0xbf41aa39	-0.75650364
77	0xbe01220b	-0.12610643
78	0x3e0d27c9	0.13784708
79	0x3df0d2f0	0.11758983
80	0xbee91580	-0.45524216
81	0xbe25435a	-0.16138974
82	0x3d07074c	0.032965943
83	0xbf519281	-0.8186417
84	0x3f99b6a5	1.2008864
85	0x3e29d270	0.16584182
86	0xbe4a4558	-0.19753015
87	0x3e839ca9	0.2570546
88	0x3f1558ee	0.5833882
89	0xbd2b88a9	-0.041878376
90	0x3e907a69	0.28218392
91	0x3f0e0e3c	0.5549047
92	0xbf83bcb6	-1.0291965
93	0xbef98a90	-0.48738527
94	0xbef8885e	-0.4854154
95	0x3ee7f080	0.45300674
96	0xbca24540	-0.019808412
97	0xbe30f5f8	-0.1728133
98	0xbf29fecf	-0.6640443
99	0xbf1faf5c	-0.6237695

bias f4 [100]
0	0x3c8e67ed	0.01738354
1	0xbe89a079	-0.26880243
2	0xbf5d17f8	-0.863647
3	0xbf0a9ae0	-0.5414257
4	0x3f322004	0.695801
5	0xbe52af78	-0.20574749
6	0xbe89970c	-0.26873052
7	0xbecb2c0a	-0.39682037
8	0x3f24b466	0.64337766
9	0xbeb0c418	-0.34524608
10	0x3ebc6ea1	0.36803153
11	0x3e433d16	0.19066271
12	0xbf18d39a	-0.5969788
13	0xbd889d76	-0.06670658
14	0xbea5061c	-0.32231224
15	0xbefa88c1	-0.4893246
16	0x3dcacce5	0.09902362
17	0x3f4b6c91	0.79462534
18	0x3d05a73d	0.032630194
19	0xbd3c8644	-0.046026483
20	0xbf5d1444	-0.8635905
21	0x3e656049	0.22400011
22	0x3f3527b6	0.7076372
23	0x3f6edac1	0.9330254
24	0x3f036b12	0.5133525
25	0x3f29f590	0.66390324
26	0x3e97e62c	0.29667795
27	0xbf593984	-0.84853387
28	0xbf34e3d8	-0.7066016
29	0x3f78b54a	0.97151625
30	0xbd1305c8	-0.035894185
31	0x3ec2c436	0.38040322
32	0x3f1bec40	0.60907364
33	0xbf2e360c	-0.6805122
34	0x3f153793	0.58287925
35	0x3ee86b2d	0.4539427
36	0xbf7b802e	-0.9824246
37	0xbed68824	-0.41900742
38	0xbe6e05d0	-0.23244405
39	0x3d7a6845	0.061134595
40	0xbe7f370a	-0.2492334
41	0x3f3a7a90	0.72843266
42	0x3f51828b	0.8183982
43	0xbf94bba4	-1.1619763
44	0xbf09664f	-0.53671736
45	0xbdf48ff0	-0.119415164
46	0xbf1f4eb2	-0.62229455
47	0x3f057f4b	0.5214736
48	0x3f6c47cb	0.9229705
49	0x3f0e7851	0.5565234
50	0x3f2910ef	0.66041464
51	0x3f477a5a	0.7792107
52	0x3f69b3ec	0.91290164
53	0x3f213ecf	0.62986463
54	0xbddd7188	-0.1081267
55	0xbd47eed7	-0.04881176
56	0xbeca57be	-0.39520067
57	0xbf340cfa	-0.703323
58	0xbf468d3a	-0.77559245
59	0xbe8762ec	-0.2644266
60	0x3ee69789	0.45037487
61	0x3eacf0cd	0.33777466
62	0x3f6fe7aa	0.93712866
63	0xbeb03440	-0.34414864
64	0xbec07e32	-0.3759628
65	0xbf411d40	-0.75435257
66	0x3e99f97f	0.30073163
67	0x3f470aaa	0.7775065
68	0x3f609c07	0.8773808
69	0xbf5a5d14	-0.85298276
70	0x3f52c35e	0.82329357
71	0x3ce45775	0.027873734
72	0x3f015a25	0.50528175
73	0xbf21a782	-0.6314622
74	0xbefdb618	-0.4955299
75	0x3ea6825e	0.32521337
76	0x3f6d87f2	0.9278556
77	0x3f74f9c1	0.95693594
78	0x3ee0367d	0.4379157
79	0xbf50e8c6	-0.81605184
80	0x3f5bb8fa	0.85829127
81	0x3f1a2d2d	0.6022518
82	0x3d4d0c58	0.0500606
83	0x3ebb3f95	0.36571947
84	0xbf7e2417	-0.9927382
85	0xbe8b44c0	-0.2720089
86	0xbeabd528	-0.33561063
87	0xbe0f90b3	-0.14020042
88	0xbf3f27de	-0.7467021
89	0x3e031cc3	0.1280394
90	0x3f0d42ae	0.5517987
91	0xbeead98f	-0.4586911
92	0x3f599887	0.84998363
93	0xbf5b9e7c	-0.857887
94	0x3ecd465e	0.40092748
95	0xbf4123c8	-0.7544522
96	0x3e431d6e	0.19054195
97	0x3f15a1b7	0.5844988
98	0x3f35d5fe	0.7102965
99	0xbf48949c	-0.7835176

weight f4 [1, 100]
0	0xbe7a8696	-0.24465403
1	0x3e00f3e6	0.1259304
2	0x3f8d9f80	1.10643
3	0xbdbe8355	-0.09302393
4	0xbcdb3c50	-0.026762158
5	0xbdc97898	-0.098374546
6	0x3d0335aa	0.0320336
7	0x3edb01fb	0.42774948
8	0x3e73f852	0.23825195
9	0xbdb01140	-0.0859704
10	0x3d37416a	0.044740118
11	0xbf15222f	-0.58255285
12	0xbd8c9ef5	-0.06866256
13	0x3f20fee9	0.6288896
14	0xbdddcfde	-0.10830663
15	0xbe09eddc	-0.13469642
16	0xbec02f68	-0.37536168
17	0xbe2fe8f0	-0.17178702
18	0xbed868e7	-0.42267534
19	0x3ee7e08f	0.45288512
20	0xba129d00	-0.0005592853
21	0xbde59c1c	-0.11211416
22	0x3e6660cb	0.22497861
23	0x3bbb6850	0.005719222
24	0xbdc01e5f	-0.09380793
25	0xbe3f789a	-0.1869835
26	0x3ecfc508	0.4058001
27	0x3d529d9a	0.05141983
28	0xbd4422c7	-0.04788473
29	0xbf9b5735	-1.2135988
30	0xbf317ca1	-0.69330794
31	0x3ee67f8e	0.45019192
32	0x3f2b3c04	0.6688845
33	0x3db94ed5	0.09048239
34	0x3cba8d90	0.02277258
35	0xbecc89d8	-0.39948916
36	0xbd589e7a	-0.05288551
37	0x3dad1b73	0.08452501
38	0xbdc0b22f	-0.09408986
39	0xbcc0047b	-0.023439636
40	0x3f0414f7	0.5159449
41	0x3f1127ae	0.5670117
42	0x3d0527f8	0.03250882
43	0xbfcde0fb	-1.6084284
44	0xbd96b413	-0.07358565
45	0xbaede08e	-0.0018148588
46	0x3d62efe6	0.055404566
47	0x3ec50cf7	0.38486454
48	0x3daa25be	0.0830798
49	0x3e46d8d2	0.19418648
50	0x3dd2bb4a	0.10289629
51	0xbe5f6317	-0.21815144
52	0x3da47b4a	0.08031328
53	0x3d062375	0.03274866
54	0x3dd1616d	0.102236606
55	0x3ee7269e	0.4514665
56	0x3e9e57e1	0.3092642
57	0x3d900d3b	0.070337735
58	0xbd8a9a90	-0.06767762
59	0x3d563314	0.052294806
60	0x3eb1aec0	0.34703636
61	0xbe484ca0	-0.1956048
62	0x3def731a	0.11691876
63	0xbd88ca3c	-0.06679198
64	0x3c4ddafe	0.012564419
65	0xbda15986	-0.07878403
66	0x3f28afce	0.65893257
67	0x3e1dd280	0.1541233
68	0xbd0c76ce	-0.03429299
69	0x3d81cdfd	0.06338117
70	0xbf8707c6	-1.0549247
71	0xbeb1140e	-0.34585613
72	0x3e34780e	0.17623922
73	0x3da8503a	0.08218427
74	0x3d691792	0.056907244
75	0xbcb7c5cb	-0.022433182
76	0xbe2ece67	-0.17070924
77	0x3ca3c8c0	0.019993186
78	0x3dbe1e68	0.09283143
79	0x3d8c2c67	0.068444066
80	0xbe018b27	-0.12650739
81	0xbc94e1a5	-0.018174002
82	0x3b559c6a	0.003259445
83	0xbf3045b7	-0.68856376
84	0x3fa27da5	1.2694594
85	0xbd30f63a	-0.04320357
86	0xbcc90874	-0.024540164
87	0x3def8f87	0.116972975
88	0xbdab3236	-0.08359186
89	0xbd3bdb60	-0.04586351
90	0x3d60d9ff	0.054895397
91	0x3f120f14	0.5705426
92	0x3f795a3f	0.9740333
93	0xbdc945ed	-0.098277904
94	0x3eddd3fe	0.433258
95	0xbca97f94	-0.020690717
96	0x3d4b763c	0.049673304
97	0xbd7b2a29	-0.061319504
98	0xbe0c4a0d	-0.13700123
99	0xbdc5123b	-0.09622618

train_data f4 [600, 1]
0	0xbddee101	-0.1088276
1	0x3f7adac1	0.9799004
2	0x3ea09fe1	0.31371978
3	0x3ec1c172	0.378429
4	0xbef84fc2	-0.4849835
5	0xbf6f4ef2	-0.93479836
6	0x3f23d494	0.63996243
7	0xbf1325e4	-0.5747969
8	0xbdf56949	-0.11982972
9	0xbeb30d03	-0.34970865
10	0xbf03d8cd	-0.51502687
11	0x3f6a11c9	0.9143339
12	0xbd6aa467	-0.057285693
13	0x3eb7502b	0.3580335
14	0x3f63bb26	0.8895744
15	0xbf5b6b80	-0.85710907
16	0xbf31ce87	-0.6945576
17	0x3ebbd15e	0.36683172
18	0xbf693d50	-0.9110918
19	0xbd283cbd	-0.04107355
20	0xbf6cad7e	-0.9245223
21	0x3e051402	0.12995914
22	0x3ec7d2e9	0.390281
23	0xbf40dc57	-0.7533621
24	0x3f6b4297	0.91898483
25	0x3eb6f0a1	0.3573046
26	0x3e20d1bf	0.15705012
27	0xbd134678	-0.035955876
28	0xbf070cc9	-0.52753884
29	0x3e70fb13	0.23533277
30	0xbf1c47db	-0.6104714
31	0xbecb4f65	-0.3970901
32	0x3eaa864b	0.33305582
33	0x3f0cc110	0.5498209
34	0xbef3d80a	-0.47625762
35	0x3ef20322	0.47268015
36	0x3f530307	0.82426494
37	0xbf591ae5	-0.8480666
38	0x3f37c6d4	0.7178776
39	0x3f769940	0.9632759
40	0xbf46ce81	-0.7765885
41	0xbf30c44d	-0.6904953
42	0xbea62ce2	-0.32456118
43	0xbf2d51df	-0.6770305
44	0x3f3f736a	0.7478548
45	0xbeccdd51	-0.400126
46	0xbd5933e7	-0.053028014
47	0x3d384813	0.04499061
48	0x3eaf8ba5	0.34286228
49	0x3e529f66	0.20568618
50	0xbcf829b9	-0.030293332
51	0xbf0524f1	-0.52009493
52	0xbea371ed	-0.31922856
53	0xbf774e03	-0.9660341
54	0xbe29ecba	-0.1659421
55	0xbf6f9ee0	-0.936018
56	0x3f3d13de	0.7385844
57	0xbf09fd75	-0.5390237
58	0xbe0f855d	-0.14015718
59	0x383c3410	4.487118e-05
60	0x3f09a744	0.5377085
61	0xbe863abe	-0.26216692
62	0x3f29aa9b	0.6627595
63	0x3dc41447	0.0957418
64	0xbe5a338d	-0.21308728
65	0x3d5e5a75	0.054285485
66	0x3f6d19f1	0.9261771
67	0x3f65577d	0.8958662
68	0x3f34bc2d	0.70599633
69	0x3f2a7413	0.66583365
70	0x3e1c13aa	0.15241876
71	0x3f2f1157	0.68385834
72	0x3f26d17c	0.651634
73	0xbcb015b4	-0.021494724
74	0xbf55155d	-0.8323572
75	0x3df1cc1c	0.11806509
76	0xbf25f3ca	-0.6482512
77	0xbf4cafc3	-0.7995569
78	0xbf31fb82	-0.69524395
79	0x3e9dc6e9	0.3081582
80	0xbf096c76	-0.53681123
81	0xbf1b4f9e	-0.6066836
82	0xbf5541be	-0.8330344
83	0xbf4964cf	-0.78669447
84	0xbeb5c9f3	-0.35505638
85	0xbe61d09b	-0.22052233
86	0xbe999ddb	-0.30003247
87	0xbf616493	-0.8804409
88	0xbca7b33c	-0.020471208
89	0x3f02869d	0.50986654
90	0x3e3019f9	0.17197408
91	0x3e950b8d	0.29110375
92	0x3f4c0660	0.7969723
93	0xbe55fc1e	-0.20896956
94	0xbf1f67b3	-0.6226761
95	0xbf408bf3	-0.75213546
96	0xbe6c4ccf	-0.23076175
97	0xbd7ac07a	-0.061218716
98	0xbf5031bd	-0.81325895
99	0xbf7f6921	-0.9976979
100	0xbdeeb4da	-0.116555884
101	0xbf49d4cf	-0.78840345
102	0xbeb9922e	-0.3624434
103	0xbf374663	-0.71591777
104	0x3f0b4103	0.54396075
105	0xbec64c53	-0.38730106
106	0xbf5929a0	-0.8482914
107	0xbef37ec3	-0.4755765
108	0x3f673c1c	0.90326095
109	0x3f26b2ec	0.65116763
110	0xbebfc69f	-0.37456223
111	0xbf338fbc	-0.70141196
112	0x3f4030b5	0.7507432
113	0xbf73154b	-0.94954365
114	0xbb79c8fa	-0.0038114176
115	0x3f6e05df	0.9297771
116	0xbf255229	-0.6457849
117	0xbeab12c0	-0.33412743
118	0x3f5e345d	0.8679865
119	0xbf499e03	-0.7875673
120	0xbe4fb04f	-0.202821
121	0x3f559a68	0.8343873
122	0xbf297a24	-0.66201997
123	0xbf3d7cef	-0.7401876
124	0xbc95aec6	-0.018271815
125	0xbdeaca31	-0.11464346
126	0x3f5bf5b2	0.85921776
127	0x3f77d733	0.9681274
128	0x3f5b4bda	0.85662615
129	0x3ec8fa0b	0.39253268
130	0xbcaae2a3	-0.020860022
131	0x3e2e9ef1	0.17052819
132	0xbf15a2cd	-0.5845154
133	0x3cb07b37	0.021543128
134	0x3f072562	0.52791417
135	0xbf03b1a3	-0.5144293
136	0x3e77b92a	0.24191728
137	0x3e82f745	0.25579277
138	0x3edc32ae	0.43007416
139	0xbf57f961	-0.84364897
140	0x3d9e178d	0.07719336
141	0xbda88e22	-0.08230235
142	0x3f02664b	0.50937337
143	0x3dc16512	0.09443106
144	0x3f720b17	0.9454817
145	0xbef2b7a8	-0.47405744
146	0x3ed3e229	0.41383484
147	0xbf47106f	-0.7775945
148	0xbf0b582c	-0.54431415
149	0x3efb706e	0.49109215
150	0xbc9dfc71	-0.019285413
151	0x3f0eef02	0.55833447
152	0xbf6a4677	-0.9151377
153	0x3f3cc58d	0.7373894
154	0x3e9f7a7d	0.3114814
155	0xbf71519f	-0.9426517
156	0x3e30510a	0.17218414
157	0xbf346cb2	-0.70478356
158	0x3f7a11ea	0.97683585
159	0xbf38e57b	-0.7222516
160	0x3eb80a9b	0.3594559
161	0xbea45bd7	-0.32101318
162	0x3e5bc22b	0.21460788
163	0xbefac859	-0.48980978
164	0x3f5d9efc	0.86570716
165	0x3f4826ff	0.78184503
166	0xbf07caed	-0.53044015
167	0xbf34fbff	-0.70697016
168	0x3eebc657	0.4604976
169	0xbddd1329	-0.1079467
170	0x3da3c445	0.0799642
171	0x3f32c114	0.69825864
172	0xbead3b2a	-0.338342
173	0xbe7b180b	-0.2452089
174	0xbeba4aca	-0.36385185
175	0xbdfb4f66	-0.122710034
176	0x3f14b041	0.5808144
177	0x3eeb4412	0.4595037
178	0xbef7bde3	-0.4838706
179	0xbf0682c4	-0.5254328
180	0x3e6fcd58	0.23418176
181	0x3f2ac097	0.6670012
182	0xbe3af117	-0.18256031
183	0xbf423f32	-0.7587768
184	0xbf4e7967	-0.80653995
185	0xbf710a0a	-0.94155943
186	0xbc23a62d	-0.00998835
187	0x3da04312	0.07825293
188	0xbf1f414a	-0.62209
189	0x3ec8a6f0	0.39189863
190	0x3eba56d8	0.36394382
191	0xbf19ab95	-0.6002744
192	0xbf6179a3	-0.8807623
193	0x3ef39113	0.4757162
194	0xbf6a2977	-0.9146952
195	0x3d789470	0.060688436
196	0xbf25114a	-0.64479506
197	0x3f2f35b5	0.68441325
198	0xbf1b1bc4	-0.6058924
199	0xbe82a705	-0.2551805
200	0x3d8057fb	0.06266781
201	0xbf705cf0	-0.9389181
202	0x3ea4cea6	0.3218891
203	0x3f2614a5	0.6487525
204	0x3edf997d	0.4367179
205	0xbf3344d6	-0.7002691
206	0x3e4258df	0.18979214
207	0x3f4f4c8f	0.80976194
208	0xbe203b9f	-0.15647744
209	0x3e7ad438	0.24495018
210	0x3e0ae613	0.13564329
211	0xbf1b57de	-0.6068095
212	0xbf4312bc	-0.7620046
213	0x3f7752a7	0.9661049
214	0x3f4a35cc	0.7898834
215	0x3eaa54bb	0.3326777
216	0xbe5cb815	-0.21554597
217	0x3f147609	0.5799261
218	0x3e374fb3	0.17901497
219	0x3dbfb75a	0.093611434
220	0xbe44c9b6	-0.19217572
221	0x3f09be2e	0.53805816
222	0x3e16f525	0.14741953
223	0xbf3c6dff	-0.7360534
224	0xbd247a52	-0.040155716
225	0x3ee3c734	0.44487917
226	0xbf4d7596	-0.80257547
227	0xbf2ac5b2	-0.6670791
228	0xbf1ab8ac	-0.60438037
229	0xbe9f453f	-0.31107518
230	0x3eafee7b	0.34361634
231	0x3f5735c3	0.8406641
232	0xbf1dd391	-0.6165095
233	0xbf04410a	-0.5166174
234	0x3ef9ee9a	0.4881485
235	0xbf6460a6	-0.89209974
236	0xbe12f018	-0.14349401
237	0xbca8f52e	-0.020624723
238	0x3e298e4f	0.16558193
239	0x3e7e1337	0.24812017
240	0x3f7cc6da	0.98740923
241	0x3df80d44	0.12111905
242	0x3d92a421	0.07160211
243	0x3f63eddd	0.89034826
244	0x3f613154	0.87965894
245	0x3e98913a	0.297983
246	0xbdfa637b	-0.12226006
247	0xbf285a38	-0.6576266
248	0xbf554372	-0.8330604
249	0xbe90267b	-0.28154358
250	0xbf54c4d3	-0.8311283
251	0x3f60d72f	0.87828344
252	0x3f3808d2	0.7188846
253	0x3f24b8a4	0.6434424
254	0xbec16e67	-0.37779543
255	0xbf4fc12c	-0.8115413

train_targets f4 [600, 1]
0	0x3e047bfc	0.12937921
1	0x3f56d607	0.8392033
2	0xbefb00f7	-0.49024174
3	0x3ce0b92e	0.02743205
4	0xbf613f06	-0.8798679
5	0xbef4ef20	-0.47838688
6	0x3df5250c	0.11969957
7	0x3ecda1bb	0.40162453
8	0x3d296b6f	0.041362222
9	0x3e4f2fd5	0.2023309
10	0x3f613996	0.87978494
11	0x3ea11c94	0.31467116
12	0x3f0aadcc	0.54171443
13	0xbe0afd50	-0.13573194
14	0x3deec961	0.11659504
15	0x3e128fff	0.14312743
16	0xbf0e7437	-0.5564608
17	0xbd85d431	-0.06534613
18	0xbe93d503	-0.28873453
19	0x3f2be1a1	0.6714116
20	0xbecad7dc	-0.39617813
21	0x3d22804b	0.03967313
22	0x3dfa5d28	0.122247994
23	0x3f791d47	0.973103
24	0x3eb42976	0.35187882
25	0xbe10f5ec	-0.14156312
26	0x3e8346fd	0.25640097
27	0x3f365cc4	0.712353
28	0x3f4799b7	0.77968925
29	0x3f61f627	0.88266224
30	0x3dee0947	0.11622863
31	0xbe34f64e	-0.17672083
32	0xbeabcda7	-0.33555338
33	0xbf19f77c	-0.60143256
34	0xbf4f6029	-0.81006104
35	0x3f480c88	0.7814412
36	0xbecfcf8f	-0.40588042
37	0x3e5ca366	0.21546707
38	0x3f3e36a1	0.7430211
39	0x3f34c9ff	0.7062072
40	0x3f498bf6	0.7872919
41	0xbf062267	-0.52396244
42	0x3ece98f0	0.40351057
43	0xbed51df2	-0.4162441
44	0x3f7b9b4e	0.9828385
45	0xbe4dd515	-0.20100816
46	0x3f13660c	0.57577586
47	0xbf23dbf6	-0.6400751
48	0xbe83a2d8	-0.25710177
49	0x3f253ecc	0.64548945
50	0x3f41f592	0.75765336
51	0x3f56d876	0.83924043
52	0x3ee4709c	0.44617164
53	0xbf3a7019	-0.728273
54	0xbea7b2e6	-0.32753676
55	0xbef9edfa	-0.48814374
56	0x3f689ef2	0.9086753
57	0x3f30145a	0.68781054
58	0xbdf855d3	-0.12125745
59	0xbf7fe879	-0.999641
60	0xbf32c5e2	-0.69833195
61	0x3f671509	0.9026647
62	0x3e9aa9b1	0.3020759
63	0xbe6faee3	-0.23406558
64	0xbf34671a	-0.7046982
65	0xbf10d2c6	-0.56571615
66	0x3ed19f0e	0.40941662
67	0x3e2aefaf	0.16692995
68	0x3f25e165	0.6479705
69	0x3ea7412c	0.3266691
70	0x3e609d4f	0.21935008
71	0x3ef11568	0.47086644
72	0x3e5a2f74	0.21307164
73	0x3f53fa93	0.8280422
74	0x3eaeaa2c	0.34114206
75	0xbd633e3e	-0.05547928
76	0xbe3e793c	-0.18600935
77	0x3f1a81e7	0.60354465
78	0xbf0fdc11	-0.5619517
79	0xbf08e45b	-0.5347344
80	0x3f349c51	0.7055102
81	0x3e160c3d	0.14653106
82	0x3eabe426	0.335725
83	0x3f34d989	0.7064443
84	0x3e2360ca	0.15954891
85	0xbf43a136	-0.76417863
86	0x3f198894	0.59974027
87	0xbd3249b2	-0.043527313
88	0x3f561331	0.83623034
89	0xbf6bcb18	-0.9210677
90	0x3ec067e2	0.37579256
91	0xbf2bd1cc	-0.67117
92	0xbf1fcd00	-0.6242218
93	0xbf2bf83d	-0.67175657
94	0x3c984d79	0.01859163
95	0x3f7ba069	0.9829164
96	0xbf58999e	-0.846094
97	0x3f029fc3	0.5102503
98	0x3efce42a	0.49392825
99	0xbf7b4907	-0.98158306
100	0x3d8a592f	0.06755292
101	0x3f315988	0.6927724
102	0x3dcdba37	0.10045283
103	0xbf3a3317	-0.72734207
104	0xbf25f7e5	-0.6483138
105	0xbdc98a5e	-0.098408446
106	0x3e5acbf3	0.21366863
107	0xbf4dfb0e	-0.80461204
108	0x3e678377	0.22608744
109	0x3e565d80	0.20934105
110	0x3b6584fc	0.0035021892
111	0xbf1c7de4	-0.61129594
112	0xbf7e7a5a	-0.99405444
113	0xbf18aa56	-0.5963491
114	0x3f7831b8	0.96950865
115	0x3ee05dec	0.43821657
116	0xbe2a452a	-0.16627946
117	0x3ea769fd	0.3269805
118	0xbd65d18a	-0.056108035
119	0x3f330fe9	0.6994615
120	0xbf1f609f	-0.6225681
121	0xbea65979	-0.32490137
122	0xbe97a239	-0.29615954
123	0xbf6be778	-0.9215007
124	0x3f5a944e	0.85382545
125	0x3da9ae7a	0.08285232
126	0xbe0149d0	-0.12625813
127	0x3f3eb99b	0.7450196
128	0xbe1684cf	-0.146991
129	0x3e0fa0af	0.1402614
130	0x3f554757	0.8331198
131	0x3eba7bc2	0.36422545
132	0x3ea5d32a	0.32387668
133	0xbf53e132	-0.82765496
134	0xbf46d4f1	-0.7766867
135	0x3f6272e6	0.8845657
136	0x3f6f7255	0.9353383
137	0xbf7422ed	-0.9536579
138	0x3ee19570	0.44059324
139	0x3e8069f7	0.25080845
140	0xbec3d0e6	-0.38245314
141	0x3eaee3bd	0.34158126
142	0xbf6ccda8	-0.92501307
143	0xbe7a6bb7	-0.24455152
144	0x3f1058b7	0.5638537
145	0xbf4ade9f	-0.7924594
146	0x3e9f1148	0.31067872
147	0x3f477c8a	0.77924407
148	0x3f253ea2	0.64548695
149	0x3f6dc1b8	0.92873716
150	0x3f5880e4	0.8457167
151	0xbf0887f1	-0.5333243
152	0xbea46775	-0.3211018
153	0x3f662c6b	0.89911526
154	0xbf02160a	-0.5081488
155	0xbf0a8cf9	-0.5412136
156	0x3ec14427	0.3774731
157	0xbf236590	-0.6382685
158	0x3f508f51	0.81468683
159	0xbf472bd8	-0.77801275
160	0xbdfeacab	-0.124352776
161	0x3edd214a	0.4318946
162	0x3f378456	0.71686304
163	0xbf6b2162	-0.91847813
164	0xbd984114	-0.07434288
165	0xbf3ec80b	-0.7452399
166	0x3f41a895	0.7564786
167	0xbf27dffb	-0.6557614
168	0x3f2f195c	0.6839807
169	0x3e0bb35b	0.13642637
170	0xbeb87776	-0.3602864
171	0x3f16089c	0.58606887
172	0x3e9626b0	0.2932639
173	0xbf763017	-0.9616713
174	0x3db6a6bc	0.08918521
175	0x3c96133e	0.018319722
176	0xbeb4fbec	-0.3534845
177	0x3f2d1048	0.6760297
178	0xbf5ef78e	-0.8709649
179	0x3f4be9de	0.7965373
180	0x3f5f9ab1	0.87345415
181	0x3eac0971	0.33600953
182	0xbeebc45b	-0.46048245
183	0x3f6e0671	0.9297858
184	0x3f0c34c9	0.54768044
185	0xbf085051	-0.53247553
186	0x3f6b8b3a	0.9200932
187	0xbebf79db	-0.37397656
188	0x3cbeb634	0.02328024
189	0x3e0a6efd	0.13518901
190	0xbdb52507	-0.08844953
191	0x3e4a8d70	0.19780517
192	0xbd3cd162	-0.04609812
193	0x3f4e444a	0.8057295
194	0xbea29769	-0.31756142
195	0xbf03b5c8	-0.5144925
196	0xbe22294a	-0.15836063
197	0x3ef35b48	0.4753058
198	0x3e1c8789	0.15286078
199	0x3f7563ea	0.9585558
200	0xbeff5009	-0.4986575
201	0xbf02e77f	-0.51134485
202	0xbed98acc	-0.42488706
203	0x3e4294ac	0.19002026
204	0x3efccbe5	0.4937431
205	0xbf1a26b2	-0.60215294
206	0x3f04b1bf	0.5183372
207	0xbf059b89	-0.5219045
208	0xbe80ee7c	-0.2518195
209	0x3f75a870	0.9596014
210	0x3dae6128	0.08514625
211	0x3e15043f	0.14552401
212	0x3f676a1d	0.9039629
213	0x3f3a9539	0.72883946
214	0xbf2e51a3	-0.6809332
215	0xbead5a25	-0.33857837
216	0xbf397029	-0.7243677
217	0xbeb89f74	-0.36059153
218	0x3edd3ecd	0.43211976
219	0xbe80914b	-0.2511085
220	0xbf09936b	-0.53740567
221	0xbf320e8f	-0.69553465
222	0x3e37a929	0.17935623
223	0xbf636ff9	-0.8884273
224	0x3f2dc2d7	0.67875427
225	0x3f0f1cd1	0.55903345
226	0x3f145354	0.5793965
227	0xbeac5b27	-0.33663294
228	0x3e28ea8c	0.16495723
229	0x3f02eb04	0.51139855
230	0xbe808c2a	-0.25106937
231	0xbe8ca3d2	-0.27468735
232	0x3d8b1bc9	0.06792409
233	0x3f5df7af	0.8670606
234	0x3f67ba69	0.90518814
235	0xbe0c14cd	-0.1367981
236	0xbe1780c2	-0.14795211
237	0x3f55c2b4	0.8350022
238	0x3ea6393d	0.32465544
239	0x3f7c266e	0.9849614
240	0x3f6636d2	0.899274
241	0xbcfe5775	-0.031047562
242	0xbedab7bf	-0.42718312
243	0x3dfb7720	0.12278581
244	0x3d18aa07	0.037271526
245	0xbf1dbb19	-0.61613613
246	0x3cb390ac	0.02191957
247	0xbe85a37f	-0.261013
248	0x3eabc8e4	0.33551705
249	0x3f3f6614	0.74765134
250	0x3eb3b2cd	0.35097352
251	0x3cd72e84	0.026267298
252	0x3f404693	0.7510769
253	0x3e171474	0.14753896
254	0xbcb7337a	-0.022363413
255	0x3f01f6a0	0.50766945

test_data f4 [150, 1]
0	0x3f47c062	0.7802793
1	0xbe675913	-0.22592573
2	0x3f690c0a	0.91033995
3	0xbe5a73aa	-0.21333185
4	0x3ec911fa	0.39271528
5	0xbf7ac9fe	-0.97964466
6	0xbec5e616	-0.38652104
7	0xbe527639	-0.20552911
8	0x3dac60c5	0.08416895
9	0x3f5b51aa	0.85671484
10	0xbe04f0b4	-0.12982446
11	0x3f1c84e5	0.6114028
12	0x3c8f0c55	0.017461935
13	0xbf3f7ab5	-0.7479661
14	0x3ee0e03f	0.43921086
15	0x3f2603f5	0.6484979
16	0xbe15ad85	-0.14616974
17	0xbf019475	-0.5061715
18	0xbf4bf18b	-0.7966544
19	0xbe961dac	-0.29319513
20	0xbec5f0ba	-0.38660222
21	0x3e9019ac	0.28144586
22	0xbe7fe4a8	-0.24989569
23	0xbf2ce919	-0.6754318
24	0xbf6cf037	-0.9255404
25	0xbe197a55	-0.14988072
26	0xbda83391	-0.082129605
27	0xbe91af85	-0.28454223
28	0xbf6d04aa	-0.9258524
29	0x3f103b29	0.5634027
30	0x3e5037b6	0.20333752
31	0x3f56842f	0.83795446
32	0xbde5b8f8	-0.112169206
33	0xbf6e75cf	-0.9314851
34	0xbea1d71e	-0.31609434
35	0x3e936883	0.28790674
36	0x3e966344	0.2937261
37	0x3edff803	0.43743905
38	0x3f415221	0.75515944
39	0xbd6b6b50	-0.057475388
40	0x3eea66c8	0.4578154
41	0x3e2df8cf	0.16989444
42	0xbea63cd0	-0.3246827
43	0xbeb03321	-0.34414008
44	0xbf2ddd77	-0.67916054
45	0x3cce116c	0.025154792
46	0xbe466415	-0.19374116
47	0xbf3eb801	-0.7449952
48	0x3f0c464e	0.54794776
49	0x3f528671	0.8223639
50	0xbe41d6b0	-0.18929553
51	0x3f786dce	0.9704255
52	0x3f401872	0.750373
53	0xbe850095	-0.25977007
54	0xbf2e43e1	-0.68072325
55	0x3eff6623	0.49882612
56	0xbed0d13f	-0.40784642
57	0x3f1e76f9	0.6190029
58	0xbf1ca3e2	-0.61187565
59	0x3f6c3ebd	0.9228323
60	0x3f2c20b7	0.6723742
61	0xbef4d569	-0.4781907
62	0x3f56b252	0.83865845
63	0xbd58a7d7	-0.05289444
64	0xbf647e7c	-0.892555
65	0xbe953896	-0.29144734
66	0x3f5294fd	0.8225859
67	0x3f63f6b5	0.8904832
68	0xbf4934c3	-0.78596133
69	0x3ed11c05	0.4084169
70	0x3ebf4659	0.37358359
71	0x3f59ef9f	0.8513126
72	0xbe8afca1	-0.27145866
73	0x3eb31de0	0.3498373
74	0x3f60f155	0.87868243
75	0x3f28ad0a	0.65889037
76	0x3f3fadb3	0.7487442
77	0xbed1593d	-0.40888396
78	0xbd4ad37d	-0.049518097
79	0xbeecb7a6	-0.46233863
80	0x3e8cf0a3	0.2752734
81	0xbf17f18d	-0.5935295
82	0xbe090b16	-0.13383135
83	0x3f352288	0.70755816
84	0x3e473fda	0.19457951
85	0xbd95ff1c	-0.07324049
86	0x3d10dc76	0.035366498
87	0x3dab9b02	0.08379175
88	0x3e5ecd51	0.2175801
89	0x3f5098aa	0.81482947
90	0x3f445d53	0.767049
91	0xbf6f8f1e	-0.93577754
92	0x3eafb0ef	0.34314677
93	0x3da42e40	0.08016634
94	0xbf02fdd3	-0.51168555
95	0x3f0e2d7d	0.5553816
96	0x3ee8063c	0.45317256
97	0xbf7d7764	-0.990103
98	0xbe06f1de	-0.13178203
99	0xbe54754e	-0.20747873
100	0x3e2dc2c7	0.16968833
101	0xbf296d7a	-0.6618267
102	0x3d11bb44	0.03557898
103	0xbf0179f6	-0.5057672
104	0xbf0b4574	-0.5440285
105	0xbecbe279	-0.39821222
106	0xbe9f8c8c	-0.31161916
107	0x3f441942	0.7660104
108	0x3f7826aa	0.96933997
109	0xbf360efe	-0.71116626
110	0x3e55ac6e	0.20866558
111	0x3f2d0ca3	0.6759741
112	0x3f2065b8	0.6265521
113	0xbea475b5	-0.32121053
114	0x3f4ec638	0.8077121
115	0x3eb283ee	0.3486628
116	0xbe581cfb	-0.21104805
117	0xbf52a9c6	-0.82290304
118	0xbf69b19e	-0.9128665
119	0x3f0993f7	0.537414
120	0xbf3ad564	-0.7298186
121	0x3f30fc5e	0.6913508
122	0xbf20fab5	-0.6288255
123	0x3ebb3e45	0.36570945
124	0x3f05d990	0.522851
125	0xbe0f1845	-0.13974102
126	0xbe48346e	-0.1955125
127	0x3e4af669	0.1982056
128	0xbf2f4737	-0.6846804
129	0xbe4a3d0d	-0.19749852
130	0xbf1231bd	-0.57107145
131	0x3eaf984a	0.34295875
132	0xbf06d720	-0.52672005
133	0xbf0a35bc	-0.5398824
134	0xbe07571d	-0.13216825
135	0xbf3c8864	-0.73645616
136	0xbf1d3917	-0.6141524
137	0x3f6f0a72	0.93375313
138	0xbe6f70dd	-0.23382898
139	0x3f6b474a	0.91905653
140	0x3f078c4c	0.5294845
141	0xbf5fcffe	-0.87426746
142	0xbf161bb3	-0.58636016
143	0x3f2a080b	0.6641852
144	0xbf40e853	-0.753545
145	0x3e8582c6	0.26076335
146	0x3f467c96	0.77533853
147	0xbd2fe0ad	-0.042938877
148	0xbf51bee7	-0.8193192
149	0x3ee9a080	0.45630264

0.weight f4 [100, 1]
0	0x3f112b35	0.56706554
1	0xbf15b42d	-0.5847805
2	0x3f85bc7a	1.0448143
3	0x3e824b50	0.25448084
4	0x3dcb0e1b	0.099148
5	0x3e34a8f8	0.17642581
6	0xbe847344	-0.2586919
7	0x3ef5c85a	0.4800442
8	0x3f6e9f3f	0.9321174
9	0x3e6fc860	0.23416281
10	0xbdd53f6b	-0.10412487
11	0xbf6ed176	-0.9328836
12	0x3e49e218	0.19715154
13	0x3f8afd69	1.0858585
14	0xbf156fc1	-0.5837365
15	0xbf614a9e	-0.8800448
16	0xbef7e2cc	-0.4841522
17	0xbf2283ba	-0.6348225
18	0x3f886b14	1.0657678
19	0x3f3fa106	0.7485508
20	0x3eb54ee8	0.35411763
21	0xbe65327e	-0.22382542
22	0x3f31e465	0.6948913
23	0x3e110935	0.14163668
24	0xbcf5bd15	-0.029997388
25	0xbeae6582	-0.3406182
26	0xbf81690e	-1.0110185
27	0x3d707ee0	0.058714747
28	0x3f3512e9	0.7073198
29	0x3f988453	1.1915382
30	0xbf9a4492	-1.2052176
31	0xbeebd677	-0.4606206
32	0xbf3cc992	-0.7374507
33	0xbed8991c	-0.42304313
34	0xbe1a2dcc	-0.15056533
35	0xbf29bcfa	-0.6630398
36	0x3f0616b8	0.52378416
37	0x3d07e340	0.033175707
38	0xbcb95280	-0.022622347
39	0x3d43a8d8	0.047768444
40	0x3f581405	0.8440555
41	0x3f8723e6	1.055783
42	0x3f024854	0.50891614
43	0xbfb700b8	-1.4297094
44	0x3f098a0a	0.53726256
45	0xbecbbc8c	-0.39792287
46	0xbdb66670	-0.08906257
47	0x3f417e49	0.7558332
48	0x3f36459e	0.7119998
49	0x3ee6bcb3	0.4506584
50	0x3f1476ea	0.5799395
51	0xbebffd51	-0.37497953
52	0x3ea71396	0.3263213
53	0x3e642297	0.2227882
54	0xbe70c8f0	-0.23514152
55	0x3f4b9473	0.7952339
56	0x3f3967ca	0.72423995
57	0x3f15ed04	0.5856478
58	0x3f2aac32	0.66669
59	0xbe8784ec	-0.264686
60	0x3f271e60	0.65280724
61	0xbeacc2ad	-0.33742276
62	0x3f4be740	0.79649734
63	0x3e1fb070	0.1559465
64	0xbec0b167	-0.37635347
65	0x3e8f974c	0.28045118
66	0x3f279ddc	0.6547525
67	0x3efc1876	0.49237412
68	0x3cc57754	0.024104752
69	0x3f2b4d94	0.6691525
70	0x3f813cc4	1.0096669
71	0x3f696a3f	0.91177744
72	0xbf6c47e9	-0.92297226
73	0xbf21d129	-0.6320978
74	0x3e1c5928	0.15268385
75	0xbe99538d	-0.29946557
76	0xbf41aa39	-0.75650364
77	0xbe01220b	-0.12610643
78	0x3e0d27c9	0.13784708
79	0x3df0d2f0	0.11758983
80	0xbee91580	-0.45524216
81	0xbe25435a	-0.16138974
82	0x3d07074c	0.032965943
83	0xbf519281	-0.8186417
84	0x3f99b6a5	1.2008864
85	0x3e29d270	0.16584182
86	0xbe4a4558	-0.19753015
87	0x3e839ca9	0.2570546
88	0x3f1558ee	0.5833882
89	0xbd2b88a9	-0.041878376
90	0x3e907a69	0.28218392
91	0x3f0e0e3c	0.5549047
92	0xbf83bcb6	-1.0291965
93	0xbef98a90	-0.48738527
94	0xbef8885e	-0.4854154
95	0x3ee7f080	0.45300674
96	0xbca24540	-0.019808412
97	0xbe30f5f8	-0.1728133
98	0xbf29fecf	-0.6640443
99	0xbf1faf5c	-0.6237695

0.bias f4 [100]
0	0x3c8e67ed	0.01738354
1	0xbe89a079	-0.26880243
2	0xbf5d17f8	-0.863647
3	0xbf0a9ae0	-0.5414257
4	0x3f322004	0.695801
5	0xbe52af78	-0.20574749
6	0xbe89970c	-0.26873052
7	0xbecb2c0a	-0.39682037
8	0x3f24b466	0.64337766
9	0xbeb0c418	-0.34524608
10	0x3ebc6ea1	0.36803153
11	0x3e433d16	0.19066271
12	0xbf18d39a	-0.5969788
13	0xbd889d76	-0.06670658
14	0xbea5061c	-0.32231224
15	0xbefa88c1	-0.4893246
16	0x3dcacce5	0.09902362
17	0x3f4b6c91	0.79462534
18	0x3d05a73d	0.032630194
19	0xbd3c8644	-0.046026483
20	0xbf5d1444	-0.8635905
21	0x3e656049	0.22400011
22	0x3f3527b6	0.7076372
23	0x3f6edac1	0.9330254
24	0x3f036b12	0.5133525
25	0x3f29f590	0.66390324
26	0x3e97e62c	0.29667795
27	0xbf593984	-0.84853387
28	0xbf34e3d8	-0.7066016
29	0x3f78b54a	0.97151625
30	0xbd1305c8	-0.035894185
31	0x3ec2c436	0.38040322
32	0x3f1bec40	0.60907364
33	0xbf2e360c	-0.6805122
34	0x3f153793	0.58287925
35	0x3ee86b2d	0.4539427
36	0xbf7b802e	-0.9824246
37	0xbed68824	-0.41900742
38	0xbe6e05d0	-0.23244405
39	0x3d7a6845	0.061134595
40	0xbe7f370a	-0.2492334
41	0x3f3a7a90	0.72843266
42	0x3f51828b	0.8183982
43	0xbf94bba4	-1.1619763
44	0xbf09664f	-0.53671736
45	0xbdf48ff0	-0.119415164
46	0xbf1f4eb2	-0.62229455
47	0x3f057f4b	0.5214736
48	0x3f6c47cb	0.9229705
49	0x3f0e7851	0.5565234
50	0x3f2910ef	0.66041464
51	0x3f477a5a	0.7792107
52	0x3f69b3ec	0.91290164
53	0x3f213ecf	0.62986463
54	0xbddd7188	-0.1081267
55	0xbd47eed7	-0.04881176
56	0xbeca57be	-0.39520067
57	0xbf340cfa	-0.703323
58	0xbf468d3a	-0.77559245
59	0xbe8762ec	-0.2644266
60	0x3ee69789	0.45037487
61	0x3eacf0cd	0.33777466
62	0x3f6fe7aa	0.93712866
63	0xbeb03440	-0.34414864
64	0xbec07e32	-0.3759628
65	0xbf411d40	-0.75435257
66	0x3e99f97f	0.30073163
67	0x3f470aaa	0.7775065
68	0x3f609c07	0.8773808
69	0xbf5a5d14	-0.85298276
70	0x3f52c35e	0.82329357
71	0x3ce45775	0.027873734
72	0x3f015a25	0.50528175
73	0xbf21a782	-0.6314622
74	0xbefdb618	-0.4955299
75	0x3ea6825e	0.32521337
76	0x3f6d87f2	0.9278556
77	0x3f74f9c1	0.95693594
78	0x3ee0367d	0.4379157
79	0xbf50e8c6	-0.81605184
80	0x3f5bb8fa	0.85829127
81	0x3f1a2d2d	0.6022518
82	0x3d4d0c58	0.0500606
83	0x3ebb3f95	0.36571947
84	0xbf7e2417	-0.9927382
85	0xbe8b44c0	-0.2720089
86	0xbeabd528	-0.33561063
87	0xbe0f90b3	-0.14020042
88	0xbf3f27de	-0.7467021
89	0x3e031cc3	0.1280394
90	0x3f0d42ae	0.5517987
91	0xbeead98f	-0.4586911
92	0x3f599887	0.84998363
93	0xbf5b9e7c	-0.857887
94	0x3ecd465e	0.40092748
95	0xbf4123c8	-0.7544522
96	0x3e431d6e	0.19054195
97	0x3f15a1b7	0.5844988
98	0x3f35d5fe	0.7102965
99	0xbf48949c	-0.7835176

2.weight f4 [1, 100]
0	0xbe7a8696	-0.24465403
1	0x3e00f3e6	0.1259304
2	0x3f8d9f80	1.10643
3	0xbdbe8355	-0.09302393
4	0xbcdb3c50	-0.026762158
5	0xbdc97898	-0.098374546
6	0x3d0335aa	0.0320336
7	0x3edb01fb	0.42774948
8	0x3e73f852	0.23825195
9	0xbdb01140	-0.0859704
10	0x3d37416a	0.044740118
11	0xbf15222f	-0.58255285
12	0xbd8c9ef5	-0.06866256
13	0x3f20fee9	0.6288896
14	0xbdddcfde	-0.10830663
15	0xbe09eddc	-0.13469642
16	0xbec02f68	-0.37536168
17	0xbe2fe8f0	-0.17178702
18	0xbed868e7	-0.42267534
19	0x3ee7e08f	0.45288512
20	0xba129d00	-0.0005592853
21	0xbde59c1c	-0.11211416
22	0x3e6660cb	0.22497861
23	0x3bbb6850	0.005719222
24	0xbdc01e5f	-0.09380793
25	0xbe3f789a	-0.1869835
26	0x3ecfc508	0.4058001
27	0x3d529d9a	0.05141983
28	0xbd4422c7	-0.04788473
29	0xbf9b5735	-1.2135988
30	0xbf317ca1	-0.69330794
31	0x3ee67f8e	0.45019192
32	0x3f2b3c04	0.6688845
33	0x3db94ed5	0.09048239
34	0x3cba8d90	0.02277258
35	0xbecc89d8	-0.39948916
36	0xbd589e7a	-0.05288551
37	0x3dad1b73	0.08452501
38	0xbdc0b22f	-0.09408986
39	0xbcc0047b	-0.023439636
40	0x3f0414f7	0.5159449
41	0x3f1127ae	0.5670117
42	0x3d0527f8	0.03250882
43	0xbfcde0fb	-1.6084284
44	0xbd96b413	-0.07358565
45	0xbaede08e	-0.0018148588
46	0x3d62efe6	0.055404566
47	0x3ec50cf7	0.38486454
48	0x3daa25be	0.0830798
49	0x3e46d8d2	0.19418648
50	0x3dd2bb4a	0.10289629
51	0xbe5f6317	-0.21815144
52	0x3da47b4a	0.08031328
53	0x3d062375	0.03274866
54	0x3dd1616d	0.102236606
55	0x3ee7269e	0.4514665
56	0x3e9e57e1	0.3092642
57	0x3d900d3b	0.070337735
58	0xbd8a9a90	-0.06767762
59	0x3d563314	0.052294806
60	0x3eb1aec0	0.34703636
61	0xbe484ca0	-0.1956048
62	0x3def731a	0.11691876
63	0xbd88ca3c	-0.06679198
64	0x3c4ddafe	0.012564419
65	0xbda15986	-0.07878403
66	0x3f28afce	0.65893257
67	0x3e1dd280	0.1541233
68	0xbd0c76ce	-0.03429299
69	0x3d81cdfd	0.06338117
70	0xbf8707c6	-1.0549247
71	0xbeb1140e	-0.34585613
72	0x3e34780e	0.17623922
73	0x3da8503a	0.08218427
74	0x3d691792	0.056907244
75	0xbcb7c5cb	-0.022433182
76	0xbe2ece67	-0.17070924
77	0x3ca3c8c0	0.019993186
78	0x3dbe1e68	0.09283143
79	0x3d8c2c67	0.068444066
80	0xbe018b27	-0.12650739
81	0xbc94e1a5	-0.018174002
82	0x3b559c6a	0.003259445
83	0xbf3045b7	-0.68856376
84	0x3fa27da5	1.2694594
85	0xbd30f63a	-0.04320357
86	0xbcc90874	-0.024540164
87	0x3def8f87	0.116972975
88	0xbdab3236	-0.08359186
89	0xbd3bdb60	-0.04586351
90	0x3d60d9ff	0.054895397
91	0x3f120f14	0.5705426
92	0x3f795a3f	0.9740333
93	0xbdc945ed	-0.098277904
94	0x3eddd3fe	0.433258
95	0xbca97f94	-0.020690717
96	0x3d4b763c	0.049673304
97	0xbd7b2a29	-0.061319504
98	0xbe0c4a0d	-0.13700123
99	0xbdc5123b	-0.09622618
