complete/sawtooth/state1.pt (torch, 10937 bytes, 9 tensors)

weight f4 [100, 1]
0	0x3fa3acb6	1.2787082
1	0x3e584dd0	0.21123433
2	0x3f4dfb26	0.8046135
3	0xbf51eba5	-0.8200019
4	0x3f71b43a	0.9441563
5	0x3eb2be54	0.34910834
6	0xbd8ea780	-0.06965542
7	0xbfa5572c	-1.2917228
8	0xbe9446d5	-0.2896029
9	0x3f3bd1b5	0.7336686
10	0xbd94cbe0	-0.072654486
11	0x3f14472e	0.5792111
12	0xbecbe7b6	-0.3982522
13	0xbf17322b	-0.59060925
14	0x3f203ae9	0.6258989
15	0x3e7d8c30	0.24760509
16	0xbf940b7f	-1.1566008
17	0x3ed49b96	0.41524953
18	0x3f223b74	0.6337197
19	0x3e143ef0	0.14477134
20	0x3f4deec5	0.8044246
21	0xbedb1210	-0.42787218
22	0xbf3d63f9	-0.7398067
23	0xbfaa5af5	-1.3309008
24	0x3e96cb52	0.29451996
25	0x3f8c15f5	1.0944201
26	0xbedba4f4	-0.42899287
27	0x3e275df0	0.16344428
28	0x3f4cbc97	0.79975265
29	0xbea5dcf1	-0.32395127
30	0xbf49ca17	-0.7882399
31	0xbf123d0d	-0.57124406
32	0xbe7a45f8	-0.24440753
33	0xbf3421c7	-0.7036404
34	0x3f80723b	1.003486
35	0x3f54882b	0.83020276
36	0x3ed368c0	0.41290855
37	0x3f45bb91	0.7723933
38	0xbf479b0e	-0.7797097
39	0xbf9a906e	-1.2075326
40	0xbf7aedf7	-0.98019356
41	0x3efe5698	0.4967544
42	0xbefaa384	-0.48952878
43	0xbece8a24	-0.40339768
44	0x3e6117c4	0.21981722
45	0xbf9ac9ca	-1.2092831
46	0x3e4a477a	0.19753829
47	0xbfb12810	-1.3840351
48	0xbf228aa2	-0.63492787
49	0x3f7a45b7	0.97762626
50	0xbf39566c	-0.72397494
51	0x3e8f3738	0.27971816
52	0x3f666d81	0.9001084
53	0xbe046ff0	-0.12933326
54	0xbec5feb3	-0.38670883
55	0xbedfac39	-0.43686083
56	0x3ed7804c	0.4209007
57	0x3ed34b87	0.4126856
58	0x3fa533f8	1.2906485
59	0x3dafd9e0	0.08586478
60	0xbe481da8	-0.19542563
61	0x3effed6a	0.4998582
62	0xbf634767	-0.88780826
63	0xbe831418	-0.25601268
64	0x3f9cc20f	1.2246722
65	0xbdbbc9ef	-0.09169375
66	0x3f5cf770	0.8631506
67	0xbecf9edc	-0.40550888
68	0xbdab5250	-0.08365309
69	0xbf3e005e	-0.7421931
70	0x3ea23171	0.31678346
71	0xbf88b649	-1.0680629
72	0x3d8498a8	0.06474429
73	0x3d3e7794	0.046500757
74	0x3f0723b5	0.5278886
75	0x3ea0960f	0.31364486
76	0x3f6ed375	0.9329141
77	0x3f290fd2	0.66039765
78	0xbf354db8	-0.70821714
79	0xbf11bbf8	-0.5692744
80	0x3e434eb6	0.19072995
81	0xbf117dfc	-0.5683286
82	0x3ed7fa18	0.42182994
83	0x3f45d6ca	0.7728087
84	0xbeaaefc7	-0.3338606
85	0x3cad198c	0.021130346
86	0xbf77b4e7	-0.9676041
87	0xbf55d076	-0.8352121
88	0x3e8c02ec	0.2734598
89	0xbed3d96c	-0.41376817
90	0x3f8f4a27	1.1194504
91	0x3c52de00	0.012870312
92	0x3fbd123d	1.4771191
93	0xbf58bf94	-0.84667325
94	0xbec06e94	-0.37584364
95	0xbf0987ec	-0.53723025
96	0xbedd9def	-0.43284556
97	0xbee1da54	-0.44111884
98	0xbf02ad49	-0.5104566
99	0x3f8ab261	1.0835687

bias f4 [100]
0	0x3f172f68	0.5905671
1	0xbf244bf6	-0.6417841
2	0xbe27dc2c	-0.16392583
3	0xbec1f4b0	-0.37881994
4	0xbf20f3e9	-0.6287218
5	0xbf37c5fc	-0.71786475
6	0xbe05d350	-0.1306889
7	0x3f88ca9f	1.0686835
8	0x3eb0911a	0.34485704
9	0x3ecc81fe	0.39942926
10	0xbf08cbc8	-0.53435946
11	0x3ef797f1	0.4835811
12	0x3ee41cb2	0.44553143
13	0xbe38247a	-0.17982665
14	0x3eae7664	0.340747
15	0xbf7be590	-0.9839716
16	0xbf777291	-0.9665919
17	0x3ed455e4	0.4147178
18	0x3f21fdac	0.632777
19	0x3f35e8c3	0.7105829
20	0xbd470619	-0.0485898
21	0x3ef30b5e	0.4746961
22	0xbe66aae8	-0.22526133
23	0x3e8af410	0.2713933
24	0x3e992dc9	0.29917744
25	0x3f69caba	0.9132496
26	0xbf19bd82	-0.6005479
27	0xbe2d2b60	-0.16911077
28	0xbf2a3fe5	-0.66503745
29	0x3e19191e	0.14950988
30	0xbf28a1ba	-0.65871775
31	0x3e86f574	0.2635914
32	0xbea275dc	-0.31730545
33	0x3f15080e	0.58215415
34	0xbe979aad	-0.29610196
35	0xbe7ad24f	-0.24494289
36	0xbf1e290a	-0.6178137
37	0x3f250d3b	0.64473313
38	0x3f480770	0.7813635
39	0xbd6a89a2	-0.057260163
40	0x3d72eb61	0.059306506
41	0x3efdf687	0.49602148
42	0x3efa666a	0.4890626
43	0xbf072d96	-0.52803934
44	0xbe15eb0c	-0.14640445
45	0xbebc7dd2	-0.36814743
46	0x3f4d3fa1	0.80175215
47	0xbf940a79	-1.1565696
48	0xbf2aaa26	-0.66665876
49	0xbf0bebdb	-0.5465676
50	0xbf3d642c	-0.73980975
51	0xbe040340	-0.12891865
52	0xbe87fa63	-0.26558217
53	0x3e285a95	0.16440804
54	0xbea5765b	-0.3231686
55	0x3f4dcbb0	0.8038893
56	0xbf3c9d08	-0.7367711
57	0x3f447a86	0.76749456
58	0xbd9f9e85	-0.07793907
59	0xbe4cd1e8	-0.20001948
60	0xbf166110	-0.58741856
61	0x3f324d08	0.6964879
62	0x3f3c0798	0.7344909
63	0xbf6c2d26	-0.9225639
64	0x3e76af82	0.24090388
65	0x3edadb80	0.4274559
66	0x3f386bb5	0.7203935
67	0xbf425de6	-0.7592453
68	0xbe5988f8	-0.21243656
69	0xbf7c8f98	-0.98656607
70	0x3f081724	0.5316031
71	0xbd4d1070	-0.050064504
72	0x3e60b314	0.21943313
73	0x3f246894	0.64222074
74	0x3f0774e4	0.52912736
75	0x3c5c4861	0.013444991
76	0x3e3be9cf	0.1835091
77	0xbe09cfe4	-0.1345821
78	0xbea7822c	-0.327165
79	0x3f7597f1	0.9593497
80	0xbd1f0949	-0.038827214
81	0x3f71bbcc	0.9442718
82	0xbf31446c	-0.6924503
83	0xbe69a061	-0.22815086
84	0x3d8b6bbe	0.068076596
85	0x3f4b9805	0.7952884
86	0xbd388250	-0.04504615
87	0x3e7c87c9	0.24661173
88	0x3f5da76d	0.86583596
89	0xbc9bb9fa	-0.019009579
90	0x3f6f368a	0.93442595
91	0xbf73cb06	-0.95231664
92	0xbf9d3663	-1.2282223
93	0x3f63dce0	0.89008904
94	0xbeca8af0	-0.39559126
95	0xbf13e1c4	-0.57766366
96	0x3ee857c6	0.45379466
97	0xbf4e3cba	-0.8056141
98	0xbdcd9fa2	-0.10040213
99	0x3f677fc6	0.9042934

weight f4 [1, 100]
0	0x3f7c1fea	0.98486197
1	0x3dbb07e9	0.09132368
2	0xbede8f9b	-0.43468937
3	0x3ed5a28f	0.41725585
4	0xbea57bbe	-0.3232097
5	0xbc8c750c	-0.017145656
6	0x3c651bc0	0.013983667
7	0x3fa8832a	1.3165028
8	0xbcddad51	-0.027060183
9	0xbe2469d2	-0.16055992
10	0x3ce17ba4	0.027524777
11	0xbee2e3bb	-0.4431437
12	0xbcd20cb3	-0.025640821
13	0xbea02395	-0.31277147
14	0xbdfbc6ad	-0.12293754
15	0x3cf38684	0.029727228
16	0xbf8fefbb	-1.1245035
17	0x3da4043c	0.0800862
18	0x3e6b234e	0.22962686
19	0x3d5b0411	0.053470675
20	0x3f194148	0.59865236
21	0xbe45fa16	-0.19333681
22	0xbeb19a55	-0.34688058
23	0xbf73ed3c	-0.95283866
24	0x3e36fbc0	0.17869473
25	0xbf31185c	-0.69177794
26	0xbdc242c3	-0.0948539
27	0x3d9b905d	0.075958945
28	0x3f5b4aab	0.8566081
29	0xbea8d138	-0.3297212
30	0xbf36a0c3	-0.7133905
31	0xbf16aa1c	-0.58853316
32	0xbdb36717	-0.08759897
33	0x3f3dad96	0.74092996
34	0x3f08f30e	0.5349587
35	0x3ee4d0af	0.44690463
36	0xbce37c54	-0.027769245
37	0xbf0b8def	-0.5451345
38	0xbe89ae5f	-0.26890847
39	0xbf61ac34	-0.88153386
40	0x3f015664	0.50522447
41	0x3e385b68	0.18003619
42	0xbe3883bd	-0.18019004
43	0xbd65feed	-0.05615132
44	0xbe1c159a	-0.15242615
45	0xbf36f6cd	-0.7147034
46	0x3d348b41	0.044078115
47	0xbf9ec808	-1.2404795
48	0xbd9eda52	-0.07756485
49	0xbd366b5c	-0.04453598
50	0x3d57d512	0.052693434
51	0xbe898a97	-0.26863548
52	0x3ef7ffe9	0.4843743
53	0xbd92db97	-0.0717079
54	0xbec33a6d	-0.38130513
55	0xbe0b4d39	-0.13603677
56	0xbd98203a	-0.07428022
57	0x3e6c8d68	0.23100817
58	0x3f64ff48	0.8945203
59	0x3d8c1dd5	0.068416275
60	0xbda291e5	-0.079379834
61	0x3e2bd3b8	0.16779983
62	0x3f65bab8	0.89738035
63	0xbca5b740	-0.020228982
64	0x3f35ecf9	0.71064717
65	0xbd85e149	-0.0653711
66	0xbf1680ca	-0.58790267
67	0x3d8bd7f1	0.06828297
68	0xbd6cd39d	-0.057818998
69	0x3c71d298	0.014759682
70	0x3e3e3170	0.18573546
71	0xbf31473d	-0.69249326
72	0xbd4ea152	-0.050446816
73	0x3d1f0677	0.038824525
74	0x3e85219d	0.26002207
75	0xbe2460ba	-0.16052523
76	0x3f12c66c	0.5733402
77	0xbeadf27c	-0.33974063
78	0x3ecb785f	0.39740273
79	0xbd438fb2	-0.04774446
80	0xbe320f90	-0.17388749
81	0xbd807e04	-0.062740356
82	0xbd402040	-0.046905756
83	0x3e91a059	0.28442648
84	0xbe6a1af0	-0.22861838
85	0x3df19b4b	0.11797198
86	0xbf145855	-0.57947284
87	0x3e0da778	0.13833416
88	0x3da686c6	0.08131175
89	0xbeb55e16	-0.35423344
90	0xbf4a1cbb	-0.7895009
91	0xbdc76938	-0.09736866
92	0x3fd1a015	1.6376978
93	0xbe884071	-0.26611665
94	0x3d7130c2	0.05888439
95	0x3db524d1	0.08844913
96	0xbd31c62e	-0.04340189
97	0xbcb60c2c	-0.0222226
98	0x3e2c8a42	0.16849616
99	0xbf373e94	-0.7157986

train_data f4 [600, 1]
0	0xbedb4d04	-0.42832196
1	0x3f63bb26	0.8895744
2	0xbef5e488	-0.48025918
3	0xbf0529b6	-0.5201677
4	0x3eb6f0a1	0.3573046
5	0x3ef39113	0.4757162
6	0x3ec8a6f0	0.39189863
7	0xbf0b6f96	-0.5446714
8	0x3f5d9efc	0.86570716
9	0x3f29625f	0.6616573
10	0xbf55155d	-0.8323572
11	0x3f11c959	0.5694786
12	0xbf49e074	-0.78858113
13	0x3f09a744	0.5377085
14	0x3cec505c	0.028846912
15	0xbf5929a0	-0.8482914
16	0xbf3c6dff	-0.7360534
17	0x3f53a600	0.8267517
18	0x3e413dda	0.18871251
19	0xbee04025	-0.43798938
20	0xbf710a0a	-0.94155943
21	0xbf5f70f4	-0.8728173
22	0xbe4d3ec1	-0.2004347
23	0xbf09fd75	-0.5390237
24	0x3f32c114	0.69825864
25	0xbe1911a4	-0.14948136
26	0xbf5b6b80	-0.85710907
27	0x3d501ce5	0.050808806
28	0x3f5b4bda	0.85662615
29	0x3f268f88	0.6506276
30	0x3d244512	0.040104933
31	0xbc3ee890	-0.011652127
32	0x3f60c4d0	0.8780031
33	0xbf4312bc	-0.7620046
34	0x3da04312	0.07825293
35	0x3e8ddb02	0.27706152
36	0x3f227591	0.6346064
37	0x3ed0f1cf	0.40809485
38	0xbeeb3e3b	-0.45945916
39	0xbe8fbbde	-0.2807302
40	0x3eaa864b	0.33305582
41	0x3eaa54bb	0.3326777
42	0x3f45e4e4	0.77302384
43	0x3d334996	0.04377135
44	0xbdae63ca	-0.08515127
45	0x3e2ea0dc	0.1705355
46	0xbf21b150	-0.6316118
47	0x3e972913	0.29523525
48	0xbefac859	-0.48980978
49	0xbf48d280	-0.784462
50	0xbf685c39	-0.9076572
51	0xbe9bf136	-0.30457467
52	0x3f0fa046	0.5610393
53	0x3ed848f3	0.42243156
54	0xbe3e8e76	-0.18609032
55	0x3f7229b9	0.94594914
56	0xbf35c87c	-0.7100904
57	0x3f420e1c	0.7580278
58	0x3f2a7413	0.66583365
59	0xbddd1329	-0.1079467
60	0xbf04410a	-0.5166174
61	0xbf5676af	-0.83774847
62	0xbf6460a6	-0.89209974
63	0x3f539a55	0.82657367
64	0xbe98daff	-0.2985458
65	0x3f1a4a3c	0.6026952
66	0xbe03b069	-0.12860264
67	0x3ead3c4b	0.33835062
68	0xbf215fc1	-0.63036734
69	0xbf27399c	-0.6532228
70	0x3cd91499	0.02649908
71	0x3f7cc6da	0.98740923
72	0x3f354c97	0.7081999
73	0x3eea264a	0.45732337
74	0xbf3efb96	-0.7460264
75	0xbd86e382	-0.065863624
76	0x3ea5e5d8	0.3240192
77	0x3d5c2ab4	0.053751662
78	0xbdd9f948	-0.1064325
79	0x3d8057fb	0.06266781
80	0x3e70fb13	0.23533277
81	0x3eeb4412	0.4595037
82	0x3e4258df	0.18979214
83	0xbee559af	-0.44794986
84	0xbecb766c	-0.39738786
85	0xbcaae2a3	-0.020860022
86	0x3f33909d	0.7014254
87	0x3eabdc58	0.33566546
88	0xbf5541be	-0.8330344
89	0xbf15a2cd	-0.5845154
90	0x3f6b4297	0.91898483
91	0xbf515993	-0.81777304
92	0xbf6cad7e	-0.9245223
93	0xbf3bd102	-0.73365796
94	0x3dc006d6	0.09376304
95	0xbe9bc58e	-0.3042416
96	0xbf1c47db	-0.6104714
97	0x3e5bc22b	0.21460788
98	0xbf693d50	-0.9110918
99	0xbc9dfc71	-0.019285413
100	0x3ea4cea6	0.3218891
101	0x3f2ac097	0.6670012
102	0xbf65560c	-0.8958442
103	0xbf19ab95	-0.6002744
104	0x3a774453	0.00094324833
105	0xbf1325e4	-0.5747969
106	0x3f698a77	0.91226906
107	0x3f7a11ea	0.97683585
108	0xbecb8615	-0.39750734
109	0xbf7f6921	-0.9976979
110	0xbea81735	-0.32830206
111	0x3f6ff2ce	0.93729866
112	0xbf74793b	-0.95497483
113	0x3f438402	0.763733
114	0x3e50dbe8	0.20396388
115	0xbd6e3228	-0.0581533
116	0xbf3e74e6	-0.7439712
117	0x3e7e1337	0.24812017
118	0x3dc41447	0.0957418
119	0x3f65577d	0.8958662
120	0x3ec96320	0.3933344
121	0xbe6c4ccf	-0.23076175
122	0xbec150d8	-0.3775699
123	0x3e0ae613	0.13564329
124	0xbf49eaf8	-0.7887416
125	0xbf4cafc3	-0.7995569
126	0xbd99cee9	-0.07510168
127	0xbf2cf671	-0.6756354
128	0xbe7b180b	-0.2452089
129	0xbf554372	-0.8330604
130	0xbf357bea	-0.708922
131	0xbeec6bf5	-0.46176115
132	0x3e1a06f7	0.1504172
133	0xbca574a6	-0.020197224
134	0xbd7ac07a	-0.061218716
135	0xbeab12c0	-0.33412743
136	0xbf643ab9	-0.89152104
137	0xbf5031bd	-0.81325895
138	0xbef84fc2	-0.4849835
139	0xbf6a4677	-0.9151377
140	0x3ec1c172	0.378429
141	0xbf0527a2	-0.520136
142	0xbefee3e0	-0.4978323
143	0xbf4d7596	-0.80257547
144	0xbf55fac3	-0.83585757
145	0xbf0c53fb	-0.54815644
146	0x3e1d202c	0.15344304
147	0xbf31ce87	-0.6945576
148	0x3f09c95c	0.53822875
149	0x3e8b0bac	0.27157342
150	0xbf03a938	-0.5143008
151	0xbe5f5c00	-0.21812439
152	0x3f6e05df	0.9297771
153	0xbf070cc9	-0.52753884
154	0xbcbaa16d	-0.022782052
155	0x3f5bd87a	0.8587719
156	0x3eaa6903	0.33283243
157	0x3f7adac1	0.9799004
158	0x3f6a3e56	0.9150137
159	0x3f1df58f	0.6170282
160	0xbe72917b	-0.23688309
161	0xbf1a903a	-0.6037632
162	0x3f4fc3f6	0.8115839
163	0xbd283cbd	-0.04107355
164	0x3f6a56dc	0.91538787
165	0xbdebeb8d	-0.11519537
166	0xbf390638	-0.72275114
167	0x3f34c07f	0.70606226
168	0xbf3a37dd	-0.7274149
169	0xbf3b543d	-0.7317541
170	0xbf10099e	-0.56264675
171	0xbf2257fc	-0.63415504
172	0x3f4689ea	0.7755419
173	0xbcef9afa	-0.029248703
174	0xbf30c44d	-0.6904953
175	0xbf43e1d5	-0.7651647
176	0xbf01ac03	-0.50653094
177	0xbf0350b2	-0.51295006
178	0x3e26cd6b	0.16289298
179	0x3e9e2704	0.30889142
180	0x3f4d3c8a	0.801705
181	0xbf0d4aa0	-0.55191994
182	0xbf5d300d	-0.86401445
183	0x3e32447e	0.1740894
184	0x3f02869d	0.50986654
185	0x3f55b8a5	0.8348487
186	0x3f395581	0.72396094
187	0x3f07f1d1	0.5310336
188	0x3d867420	0.06565118
189	0x3e97c153	0.29639682
190	0x3f613154	0.87965894
191	0xbef7bde3	-0.4838706
192	0x3f22e45e	0.6362971
193	0x3f524067	0.8212952
194	0xbe9fdeb5	-0.312246
195	0x3f79d8c7	0.975964
196	0xbda01629	-0.07816727
197	0x3e830b73	0.25594673
198	0x3d7cd717	0.061728563
199	0x3f7fbd5e	0.99898326
200	0x3dfd6268	0.12372285
201	0x3f720b17	0.9454817
202	0x3d789470	0.060688436
203	0x3f6b283f	0.91858286
204	0x3e30510a	0.17218414
205	0xbf1b4f9e	-0.6066836
206	0x3edf997d	0.4367179
207	0xbf79e7f9	-0.9761959
208	0xbf2862d2	-0.6577579
209	0xbcf829b9	-0.030293332
210	0xbf647a4e	-0.8924912
211	0x3f1a1e97	0.60202926
212	0xbf705cf0	-0.9389181
213	0x3f03afc0	0.5144005
214	0x3ea6b728	0.32561612
215	0xbf16c978	-0.58901167
216	0xbf0ac388	-0.54204607
217	0x3ea36f8f	0.3192105
218	0xbe2a650a	-0.16640106
219	0x3eb38a40	0.35066414
220	0xbeb092b0	-0.34486914
221	0xbf3b6d5d	-0.7321375
222	0xbd9003fe	-0.070320114
223	0xbcb015b4	-0.021494724
224	0xbe181b7a	-0.14854231
225	0xbe90267b	-0.28154358
226	0xbf66a3aa	-0.9009348
227	0x3eb399bf	0.35078236
228	0xbf1f31ef	-0.6218557
229	0x3e7ad438	0.24495018
230	0xbd5933e7	-0.053028014
231	0xbf495682	-0.78647625
232	0x3e80a227	0.25123712
233	0x3e9dc6e9	0.3081582
234	0x3f388baa	0.7208811
235	0xbdfa637b	-0.12226006
236	0xbefe2689	-0.49638775
237	0x3dcd70bd	0.10031269
238	0x3e18e7fb	0.14932244
239	0x3ee3148a	0.44351608
240	0xbf0d6885	-0.5523761
241	0xbd6cd813	-0.057823252
242	0xbf49d4cf	-0.78840345
243	0x3e82f745	0.25579277
244	0xbeb5c9f3	-0.35505638
245	0xbf7da095	-0.99073154
246	0x3d5e5a75	0.054285485
247	0x3e3019f9	0.17197408
248	0x3ef8f7b8	0.48626494
249	0xbdcc3c6a	-0.099724606
250	0xbca8f52e	-0.020624723
251	0xbf6ecb7a	-0.9327923
252	0xbf4964cf	-0.78669447
253	0x3cb07b37	0.021543128
254	0x3cdb2cf6	0.026754837
255	0xbf616493	-0.8804409

train_targets f4 [600, 1]
0	0xbeda6821	-0.4265757
1	0x3deec961	0.11659504
2	0xbf579222	-0.84207356
3	0x3f56b252	0.83865845
4	0xbe10f5ec	-0.14156312
5	0x3f4e444a	0.8057295
6	0x3e0a6efd	0.13518901
7	0x3f248352	0.6426288
8	0xbd984114	-0.07434288
9	0x3e9625eb	0.29325804
10	0x3eaeaa2c	0.34114206
11	0xbee36a6b	-0.44417128
12	0x3f30fc5e	0.6913508
13	0xbf32c5e2	-0.69833195
14	0xbf44ebe9	-0.7692247
15	0x3e5acbf3	0.21366863
16	0xbf636ff9	-0.8884273
17	0xbec59fff	-0.3859863
18	0x3f027bb3	0.5097
19	0xbf010095	-0.50391513
20	0xbf085051	-0.53247553
21	0x3c8f0c55	0.017461935
22	0xbf1a7d82	-0.6034776
23	0x3f30145a	0.68781054
24	0x3f16089c	0.58606887
25	0xbe488d22	-0.19585088
26	0x3e128fff	0.14312743
27	0xbf17f18d	-0.5935295
28	0xbe1684cf	-0.146991
29	0x3e51f0f4	0.20502073
30	0xbf2ddd77	-0.67916054
31	0x3f6822ee	0.906783
32	0x3cc4d00f	0.024024991
33	0x3f676a1d	0.9039629
34	0xbebf79db	-0.37397656
35	0xbf4893f9	-0.7835079
36	0x3d9d6456	0.07685153
37	0x3e878e7a	0.26475888
38	0xbf2cf8ec	-0.67567325
39	0x3f41108a	0.7541586
40	0xbeabcda7	-0.33555338
41	0xbead5a25	-0.33857837
42	0xbf50d8dd	-0.8158091
43	0xbf265b35	-0.6498292
44	0x3ea3386c	0.31878984
45	0x3eba836f	0.364284
46	0xbd58a7d7	-0.05289444
47	0xbf235bb2	-0.6381179
48	0xbf6b2162	-0.91847813
49	0x3f396c01	0.72430426
50	0xbe85c393	-0.26125774
51	0x3f103b29	0.5634027
52	0xbf02fdd3	-0.51168555
53	0x3ec24799	0.3794525
54	0xbefa39d9	-0.4887226
55	0x3f114dc4	0.56759286
56	0xbf2e43e1	-0.68072325
57	0xbf6f8f1e	-0.93577754
58	0x3ea7412c	0.3266691
59	0x3e0bb35b	0.13642637
60	0x3f5df7af	0.8670606
61	0x3e989512	0.29801232
62	0xbe0c14cd	-0.1367981
63	0xbec65ab4	-0.38741076
64	0x3f1c9406	0.61163366
65	0xbe36b888	-0.1784383
66	0xbcec1a22	-0.028821055
67	0xbe961dac	-0.29319513
68	0xbd2fe0ad	-0.042938877
69	0xbe673372	-0.22578219
70	0xbf49bada	-0.7880074
71	0x3f6636d2	0.899274
72	0x3f2a64b5	0.66559917
73	0x3f289927	0.6585869
74	0xbf77dcac	-0.96821094
75	0x3ef238fc	0.473091
76	0xbed0d13f	-0.40784642
77	0xbf11eaa6	-0.5699867
78	0x3e181ade	0.14853999
79	0xbeff5009	-0.4986575
80	0x3f61f627	0.88266224
81	0x3f2d1048	0.6760297
82	0x3f04b1bf	0.5183372
83	0xbf1566bb	-0.5835988
84	0xbe3766c5	-0.17910297
85	0x3f554757	0.8331198
86	0x3f1c84e5	0.6114028
87	0xbea11d43	-0.31467637
88	0x3eabe426	0.335725
89	0x3ea5d32a	0.32387668
90	0x3eb42976	0.35187882
91	0x3eea66c8	0.4578154
92	0xbecad7dc	-0.39617813
93	0xbf5e8814	-0.8692639
94	0xbe7fe4a8	-0.24989569
95	0x3f10e9c6	0.5660671
96	0x3dee0947	0.11622863
97	0x3f378456	0.71686304
98	0xbe93d503	-0.28873453
99	0x3f5880e4	0.8457167
100	0xbed98acc	-0.42488706
101	0x3eac0971	0.33600953
102	0xbe2ac17f	-0.16675375
103	0x3e4a8d70	0.19780517
104	0xbf7e1177	-0.992454
105	0x3ecda1bb	0.40162453
106	0x3e98a777	0.29815266
107	0x3f508f51	0.81468683
108	0xbe386150	-0.18005872
109	0xbf7b4907	-0.98158306
110	0x3ebf4659	0.37358359
111	0x3eff2ce1	0.49838927
112	0xbf23c9d6	-0.6397985
113	0xbf63dff4	-0.890136
114	0x3f21b7d1	0.63171107
115	0x3f08e6ec	0.5347736
116	0xbf73a72c	-0.9517696
117	0x3f7c266e	0.9849614
118	0xbe6faee3	-0.23406558
119	0x3e2aefaf	0.16692995
120	0x3e163207	0.14667521
121	0xbf58999e	-0.846094
122	0xbca86c09	-0.020559328
123	0x3dae6128	0.08514625
124	0x3f30a83f	0.69006723
125	0x3f1a81e7	0.60354465
126	0x3ecc622e	0.39918655
127	0xbecf670c	-0.40508306
128	0xbf763017	-0.9616713
129	0x3eabc8e4	0.33551705
130	0xbf2bdf51	-0.6713763
131	0xbf31afd4	-0.6940892
132	0x3e5037b6	0.20333752
133	0x3f56a2d7	0.83842224
134	0x3f029fc3	0.5102503
135	0x3ea769fd	0.3269805
136	0xbe07571d	-0.13216825
137	0x3efce42a	0.49392825
138	0xbf613f06	-0.8798679
139	0xbea46775	-0.3211018
140	0x3ce0b92e	0.02743205
141	0x3f56c2f3	0.8389122
142	0xbf7b8f7e	-0.98265827
143	0x3f145354	0.5793965
144	0x3ea053cc	0.31313932
145	0x3f1d6028	0.6147485
146	0x3e69015c	0.22754425
147	0xbf0e7437	-0.5564608
148	0xbf31b51d	-0.6941698
149	0xbf53d150	-0.8274126
150	0x3f62b643	0.8855936
151	0xbf3eb801	-0.7449952
152	0x3ee05dec	0.43821657
153	0x3f4799b7	0.77968925
154	0x3f5157a5	0.8177436
155	0xbe04f0b4	-0.12982446
156	0xbeacb7e6	-0.33734053
157	0x3f56d607	0.8392033
158	0x3ea3e560	0.32010937
159	0xbd829c30	-0.06377447
160	0xbf6522f6	-0.8950647
161	0x3e2df8cf	0.16989444
162	0xbf01e050	-0.507329
163	0x3f2be1a1	0.6714116
164	0x3ea56dc3	0.32310304
165	0x3da0a395	0.07843701
166	0xbf4831bc	-0.7820089
167	0x3f2603f5	0.6484979
168	0xbf51bee7	-0.8193192
169	0xbf5aa1e9	-0.85403305
170	0x3eff6623	0.49882612
171	0xbd95ff1c	-0.07324049
172	0xbf4bb0af	-0.7956647
173	0x3f441942	0.7660104
174	0xbf062267	-0.52396244
175	0x3f60f155	0.87868243
176	0x3f729fe7	0.9477524
177	0x3f657a70	0.8963995
178	0x3e9b35aa	0.3031438
179	0xbf0763f0	-0.5288687
180	0xbf161bb3	-0.58636016
181	0x3f15ab00	0.5846405
182	0x3db3fcae	0.08788429
183	0x3ec911fa	0.39271528
184	0xbf6bcb18	-0.9210677
185	0xbea475b5	-0.32121053
186	0x3f4aac0b	0.79168767
187	0xbf407178	-0.7517314
188	0xbef317c0	-0.47479057
189	0xbf20fab5	-0.6288255
190	0x3d18aa07	0.037271526
191	0xbf5ef78e	-0.8709649
192	0x3db91781	0.09037686
193	0xbedbf993	-0.42963848
194	0x3f00852c	0.50203204
195	0x3f4ec638	0.8077121
196	0x3ebfd3ae	0.37466186
197	0xbf73d235	-0.95242625
198	0xbf019475	-0.5061715
199	0x3f7deaed	0.99186593
200	0xbc276606	-0.010217195
201	0x3f1058b7	0.5638537
202	0xbf03b5c8	-0.5144925
203	0x3eb283ee	0.3486628
204	0x3ec14427	0.3774731
205	0x3e160c3d	0.14653106
206	0x3efccbe5	0.4937431
207	0xbf4f3fc7	-0.8095669
208	0xbe862d1d	-0.26206294
209	0x3f41f592	0.75765336
210	0xbe0f49bd	-0.13992973
211	0xbe3c2d2a	-0.18376604
212	0xbf02e77f	-0.51134485
213	0xbf628203	-0.8847963
214	0xbeca46bf	-0.395071
215	0x3e936883	0.28790674
216	0x3f29e3c1	0.6636315
217	0xbee48386	-0.44631594
218	0xbea9942a	-0.33120853
219	0xbe475c04	-0.19468695
220	0x3e76d503	0.24104695
221	0xbf5b6ae8	-0.8571
222	0x3edff803	0.43743905
223	0x3f53fa93	0.8280422
224	0xbe40dbd1	-0.18833853
225	0x3f3f6614	0.74765134
226	0xbe54754e	-0.20747873
227	0xbe466415	-0.19374116
228	0x3cce116c	0.025154792
229	0x3f75a870	0.9596014
230	0x3f13660c	0.57577586
231	0x3f354bed	0.7081898
232	0xbf7d7764	-0.990103
233	0xbf08e45b	-0.5347344
234	0x3f445d53	0.767049
235	0x3cb390ac	0.02191957
236	0xbf789a25	-0.97110206
237	0xbe4a3d0d	-0.19749852
238	0x3e473fda	0.19457951
239	0x3f0c5227	0.54812855
240	0x3f14bbd4	0.580991
241	0x3f0993f7	0.537414
242	0x3f315988	0.6927724
243	0xbf7422ed	-0.9536579
244	0x3e2360ca	0.15954891
245	0xbf6d04aa	-0.9258524
246	0xbf10d2c6	-0.56571615
247	0x3ec067e2	0.37579256
248	0x3f63dedf	0.8901195
249	0x3e4f0e58	0.20220315
250	0x3f55c2b4	0.8350022
251	0xbeecb7a6	-0.46233863
252	0x3f34d989	0.7064443
253	0xbf53e132	-0.82765496
254	0xbf4934c3	-0.78596133
255	0xbd3249b2	-0.043527313

test_data f4 [150, 1]
0	0xbe3a6984	-0.18204314
1	0x3f6b8b3a	0.9200932
2	0xbf2bd1cc	-0.67117
3	0xbe15ad85	-0.14616974
4	0x3e1c8789	0.15286078
5	0x3f7c6113	0.98585624
6	0xbf047db4	-0.5175431
7	0xbf397029	-0.7243677
8	0x3f05d990	0.522851
9	0x3f4be9de	0.7965373
10	0x3f129754	0.5726216
11	0xbea05740	-0.31316566
12	0xbf52a9c6	-0.82290304
13	0xbd6b6b50	-0.057475388
14	0x3f690c0a	0.91033995
15	0xbed51df2	-0.4162441
16	0xbf0b20d7	-0.54346985
17	0x3f415221	0.75515944
18	0x3de8a4e5	0.11359576
19	0x3f0e2d7d	0.5553816
20	0xbf50ada8	-0.8151498
21	0x3f2f6f6a	0.6852938
22	0x3f467c96	0.77533853
23	0xbf3edc3b	-0.74554795
24	0x3b6584fc	0.0035021892
25	0xbe4bad93	-0.19890432
26	0x3f5c314a	0.8601271
27	0xbf18aa56	-0.5963491
28	0x3f02a15a	0.5102745
29	0x3f198894	0.59974027
30	0x3f2c20b7	0.6723742
31	0xbf31ec7a	-0.6950146
32	0xbcd724a1	-0.026262583
33	0xbf4cdf6e	-0.80028427
34	0xbf19f77c	-0.60143256
35	0x3f7826aa	0.96933997
36	0xbeb4fbec	-0.3534845
37	0xbf199c7b	-0.60004395
38	0x3f09682e	0.5367459
39	0x3f28ad0a	0.65889037
40	0x3da9ae7a	0.08285232
41	0xbf7c1198	-0.98464346
42	0xbef4ef20	-0.47838688
43	0x3e9759f7	0.29560825
44	0x3f2065b8	0.6265521
45	0x3f0aadcc	0.54171443
46	0xbf249cb8	-0.64301634
47	0xbf2ce919	-0.6754318
48	0xbf0179f6	-0.5057672
49	0xbf04b7f5	-0.51843196
50	0x3f67ba69	0.90518814
51	0x3e4f2fd5	0.2023309
52	0x3df024f2	0.11725797
53	0xbf0b4574	-0.5440285
54	0xbedcb365	-0.43105617
55	0x3da56214	0.080753475
56	0xbe90bdb4	-0.28269732
57	0x3f401872	0.750373
58	0x3e8cf0a3	0.2752734
59	0x3d296b6f	0.041362222
60	0x3f473a8a	0.778237
61	0x3db6a6bc	0.08918521
62	0x3f41a895	0.7564786
63	0x3ce9f0d3	0.028557217
64	0xbf34671a	-0.7046982
65	0xbde5b8f8	-0.112169206
66	0xbd04f5f7	-0.032461133
67	0x3f25e165	0.6479705
68	0xbf2cdfda	-0.6752907
69	0xbf409092	-0.75220597
70	0x3c984d79	0.01859163
71	0xbe41d6b0	-0.18929553
72	0x3f4da9c1	0.8033715
73	0x3f404693	0.7510769
74	0xbf2d6cfe	-0.67744434
75	0x3ece64a3	0.40311155
76	0xbe850095	-0.25977007
77	0xbf3ec80b	-0.7452399
78	0xbf09936b	-0.53740567
79	0x3eaee3bd	0.34158126
80	0x3eafb0ef	0.34314677
81	0x3ebb3e45	0.36570945
82	0xbecbe279	-0.39821222
83	0x3f138d8e	0.5763787
84	0xbef4c896	-0.47809285
85	0x3e047bfc	0.12937921
86	0x3e9f1148	0.31067872
87	0xbdfeacab	-0.124352776
88	0xbd633e3e	-0.05547928
89	0xbf414863	-0.7550108
90	0xbf04303d	-0.51636106
91	0x3f662c6b	0.89911526
92	0xbdb52507	-0.08844953
93	0x3f73f015	0.9528821
94	0xbdeef6d6	-0.11668174
95	0x3e966344	0.2937261
96	0xbf2f4737	-0.6846804
97	0xbf477698	-0.77915335
98	0x3f01f6a0	0.50766945
99	0x3dcea365	0.10089759
100	0xbe848a3b	-0.2588671
101	0xbe581cfb	-0.21104805
102	0xbee5d155	-0.4488627
103	0xbf02160a	-0.5081488
104	0x3e37a929	0.17935623
105	0x3f0c34c9	0.54768044
106	0xbf1ca3e2	-0.61187565
107	0xbc710d66	-0.014712667
108	0xbe274238	-0.16333854
109	0x3f0b13e6	0.5432724
110	0x3f38fd42	0.7226144
111	0xbf4fc902	-0.8116609
112	0xbf09010f	-0.5351724
113	0xbf4e40b6	-0.8056749
114	0x3d8a592f	0.06755292
115	0x3f349c51	0.7055102
116	0x3dfb7720	0.12278581
117	0x3f477c8a	0.77924407
118	0x3ebe4452	0.371615
119	0xbf3c8864	-0.73645616
120	0xbf7acf64	-0.979727
121	0xbe5a73aa	-0.21333185
122	0xbf0e9f58	-0.5571189
123	0x3ea6393d	0.32465544
124	0xbf2e51a3	-0.6809332
125	0xbea5bf88	-0.3237269
126	0xbef4d569	-0.4781907
127	0x3f58d623	0.84701747
128	0x3eb176b7	0.34660885
129	0x3f00496e	0.50112045
130	0x3e4af669	0.1982056
131	0xbe81a199	-0.25318602
132	0x3f078c4c	0.5294845
133	0x3b9b3bdf	0.004737362
134	0x3d403c0f	0.046932276
135	0x3f56d876	0.83924043
136	0xbe675913	-0.22592573
137	0x3f365cc4	0.712353
138	0x3cbeb634	0.02328024
139	0x3f0a25d8	0.53963995
140	0xbedb732f	-0.42861316
141	0x3f2a080b	0.6641852
142	0xbf0a06a9	-0.5391641
143	0xbe34f64e	-0.17672083
144	0xbe515412	-0.20442227
145	0xbf1fcd00	-0.6242218
146	0x3f686f50	0.9079485
147	0xbeac5b27	-0.33663294
148	0xbf3ad564	-0.7298186
149	0x3d94628c	0.07245359

0.weight f4 [100, 1]
0	0x3fa3acb6	1.2787082
1	0x3e584dd0	0.21123433
2	0x3f4dfb26	0.8046135
3	0xbf51eba5	-0.8200019
4	0x3f71b43a	0.9441563
5	0x3eb2be54	0.34910834
6	0xbd8ea780	-0.06965542
7	0xbfa5572c	-1.2917228
8	0xbe9446d5	-0.2896029
9	0x3f3bd1b5	0.7336686
10	0xbd94cbe0	-0.072654486
11	0x3f14472e	0.5792111
12	0xbecbe7b6	-0.3982522
13	0xbf17322b	-0.59060925
14	0x3f203ae9	0.6258989
15	0x3e7d8c30	0.24760509
16	0xbf940b7f	-1.1566008
17	0x3ed49b96	0.41524953
18	0x3f223b74	0.6337197
19	0x3e143ef0	0.14477134
20	0x3f4deec5	0.8044246
21	0xbedb1210	-0.42787218
22	0xbf3d63f9	-0.7398067
23	0xbfaa5af5	-1.3309008
24	0x3e96cb52	0.29451996
25	0x3f8c15f5	1.0944201
26	0xbedba4f4	-0.42899287
27	0x3e275df0	0.16344428
28	0x3f4cbc97	0.79975265
29	0xbea5dcf1	-0.32395127
30	0xbf49ca17	-0.7882399
31	0xbf123d0d	-0.57124406
32	0xbe7a45f8	-0.24440753
33	0xbf3421c7	-0.7036404
34	0x3f80723b	1.003486
35	0x3f54882b	0.83020276
36	0x3ed368c0	0.41290855
37	0x3f45bb91	0.7723933
38	0xbf479b0e	-0.7797097
39	0xbf9a906e	-1.2075326
40	0xbf7aedf7	-0.98019356
41	0x3efe5698	0.4967544
42	0xbefaa384	-0.48952878
43	0xbece8a24	-0.40339768
44	0x3e6117c4	0.21981722
45	0xbf9ac9ca	-1.2092831
46	0x3e4a477a	0.19753829
47	0xbfb12810	-1.3840351
48	0xbf228aa2	-0.63492787
49	0x3f7a45b7	0.97762626
50	0xbf39566c	-0.72397494
51	0x3e8f3738	0.27971816
52	0x3f666d81	0.9001084
53	0xbe046ff0	-0.12933326
54	0xbec5feb3	-0.38670883
55	0xbedfac39	-0.43686083
56	0x3ed7804c	0.4209007
57	0x3ed34b87	0.4126856
58	0x3fa533f8	1.2906485
59	0x3dafd9e0	0.08586478
60	0xbe481da8	-0.19542563
61	0x3effed6a	0.4998582
62	0xbf634767	-0.88780826
63	0xbe831418	-0.25601268
64	0x3f9cc20f	1.2246722
65	0xbdbbc9ef	-0.09169375
66	0x3f5cf770	0.8631506
67	0xbecf9edc	-0.40550888
68	0xbdab5250	-0.08365309
69	0xbf3e005e	-0.7421931
70	0x3ea23171	0.31678346
71	0xbf88b649	-1.0680629
72	0x3d8498a8	0.06474429
73	0x3d3e7794	0.046500757
74	0x3f0723b5	0.5278886
75	0x3ea0960f	0.31364486
76	0x3f6ed375	0.9329141
77	0x3f290fd2	0.66039765
78	0xbf354db8	-0.70821714
79	0xbf11bbf8	-0.5692744
80	0x3e434eb6	0.19072995
81	0xbf117dfc	-0.5683286
82	0x3ed7fa18	0.42182994
83	0x3f45d6ca	0.7728087
84	0xbeaaefc7	-0.3338606
85	0x3cad198c	0.021130346
86	0xbf77b4e7	-0.9676041
87	0xbf55d076	-0.8352121
88	0x3e8c02ec	0.2734598
89	0xbed3d96c	-0.41376817
90	0x3f8f4a27	1.1194504
91	0x3c52de00	0.012870312
92	0x3fbd123d	1.4771191
93	0xbf58bf94	-0.84667325
94	0xbec06e94	-0.37584364
95	0xbf0987ec	-0.53723025
96	0xbedd9def	-0.43284556
97	0xbee1da54	-0.44111884
98	0xbf02ad49	-0.5104566
99	0x3f8ab261	1.0835687

0.bias f4 [100]
0	0x3f172f68	0.5905671
1	0xbf244bf6	-0.6417841
2	0xbe27dc2c	-0.16392583
3	0xbec1f4b0	-0.37881994
4	0xbf20f3e9	-0.6287218
5	0xbf37c5fc	-0.71786475
6	0xbe05d350	-0.1306889
7	0x3f88ca9f	1.0686835
8	0x3eb0911a	0.34485704
9	0x3ecc81fe	0.39942926
10	0xbf08cbc8	-0.53435946
11	0x3ef797f1	0.4835811
12	0x3ee41cb2	0.44553143
13	0xbe38247a	-0.17982665
14	0x3eae7664	0.340747
15	0xbf7be590	-0.9839716
16	0xbf777291	-0.9665919
17	0x3ed455e4	0.4147178
18	0x3f21fdac	0.632777
19	0x3f35e8c3	0.7105829
20	0xbd470619	-0.0485898
21	0x3ef30b5e	0.4746961
22	0xbe66aae8	-0.22526133
23	0x3e8af410	0.2713933
24	0x3e992dc9	0.29917744
25	0x3f69caba	0.9132496
26	0xbf19bd82	-0.6005479
27	0xbe2d2b60	-0.16911077
28	0xbf2a3fe5	-0.66503745
29	0x3e19191e	0.14950988
30	0xbf28a1ba	-0.65871775
31	0x3e86f574	0.2635914
32	0xbea275dc	-0.31730545
33	0x3f15080e	0.58215415
34	0xbe979aad	-0.29610196
35	0xbe7ad24f	-0.24494289
36	0xbf1e290a	-0.6178137
37	0x3f250d3b	0.64473313
38	0x3f480770	0.7813635
39	0xbd6a89a2	-0.057260163
40	0x3d72eb61	0.059306506
41	0x3efdf687	0.49602148
42	0x3efa666a	0.4890626
43	0xbf072d96	-0.52803934
44	0xbe15eb0c	-0.14640445
45	0xbebc7dd2	-0.36814743
46	0x3f4d3fa1	0.80175215
47	0xbf940a79	-1.1565696
48	0xbf2aaa26	-0.66665876
49	0xbf0bebdb	-0.5465676
50	0xbf3d642c	-0.73980975
51	0xbe040340	-0.12891865
52	0xbe87fa63	-0.26558217
53	0x3e285a95	0.16440804
54	0xbea5765b	-0.3231686
55	0x3f4dcbb0	0.8038893
56	0xbf3c9d08	-0.7367711
57	0x3f447a86	0.76749456
58	0xbd9f9e85	-0.07793907
59	0xbe4cd1e8	-0.20001948
60	0xbf166110	-0.58741856
61	0x3f324d08	0.6964879
62	0x3f3c0798	0.7344909
63	0xbf6c2d26	-0.9225639
64	0x3e76af82	0.24090388
65	0x3edadb80	0.4274559
66	0x3f386bb5	0.7203935
67	0xbf425de6	-0.7592453
68	0xbe5988f8	-0.21243656
69	0xbf7c8f98	-0.98656607
70	0x3f081724	0.5316031
71	0xbd4d1070	-0.050064504
72	0x3e60b314	0.21943313
73	0x3f246894	0.64222074
74	0x3f0774e4	0.52912736
75	0x3c5c4861	0.013444991
76	0x3e3be9cf	0.1835091
77	0xbe09cfe4	-0.1345821
78	0xbea7822c	-0.327165
79	0x3f7597f1	0.9593497
80	0xbd1f0949	-0.038827214
81	0x3f71bbcc	0.9442718
82	0xbf31446c	-0.6924503
83	0xbe69a061	-0.22815086
84	0x3d8b6bbe	0.068076596
85	0x3f4b9805	0.7952884
86	0xbd388250	-0.04504615
87	0x3e7c87c9	0.24661173
88	0x3f5da76d	0.86583596
89	0xbc9bb9fa	-0.019009579
90	0x3f6f368a	0.93442595
91	0xbf73cb06	-0.95231664
92	0xbf9d3663	-1.2282223
93	0x3f63dce0	0.89008904
94	0xbeca8af0	-0.39559126
95	0xbf13e1c4	-0.57766366
96	0x3ee857c6	0.45379466
97	0xbf4e3cba	-0.8056141
98	0xbdcd9fa2	-0.10040213
99	0x3f677fc6	0.9042934

2.weight f4 [1, 100]
0	0x3f7c1fea	0.98486197
1	0x3dbb07e9	0.09132368
2	0xbede8f9b	-0.43468937
3	0x3ed5a28f	0.41725585
4	0xbea57bbe	-0.3232097
5	0xbc8c750c	-0.017145656
6	0x3c651bc0	0.013983667
7	0x3fa8832a	1.3165028
8	0xbcddad51	-0.027060183
9	0xbe2469d2	-0.16055992
10	0x3ce17ba4	0.027524777
11	0xbee2e3bb	-0.4431437
12	0xbcd20cb3	-0.025640821
13	0xbea02395	-0.31277147
14	0xbdfbc6ad	-0.12293754
15	0x3cf38684	0.029727228
16	0xbf8fefbb	-1.1245035
17	0x3da4043c	0.0800862
18	0x3e6b234e	0.22962686
19	0x3d5b0411	0.053470675
20	0x3f194148	0.59865236
21	0xbe45fa16	-0.19333681
22	0xbeb19a55	-0.34688058
23	0xbf73ed3c	-0.95283866
24	0x3e36fbc0	0.17869473
25	0xbf31185c	-0.69177794
26	0xbdc242c3	-0.0948539
27	0x3d9b905d	0.075958945
28	0x3f5b4aab	0.8566081
29	0xbea8d138	-0.3297212
30	0xbf36a0c3	-0.7133905
31	0xbf16aa1c	-0.58853316
32	0xbdb36717	-0.08759897
33	0x3f3dad96	0.74092996
34	0x3f08f30e	0.5349587
35	0x3ee4d0af	0.44690463
36	0xbce37c54	-0.027769245
37	0xbf0b8def	-0.5451345
38	0xbe89ae5f	-0.26890847
39	0xbf61ac34	-0.88153386
40	0x3f015664	0.50522447
41	0x3e385b68	0.18003619
42	0xbe3883bd	-0.18019004
43	0xbd65feed	-0.05615132
44	0xbe1c159a	-0.15242615
45	0xbf36f6cd	-0.7147034
46	0x3d348b41	0.044078115
47	0xbf9ec808	-1.2404795
48	0xbd9eda52	-0.07756485
49	0xbd366b5c	-0.04453598
50	0x3d57d512	0.052693434
51	0xbe898a97	-0.26863548
52	0x3ef7ffe9	0.4843743
53	0xbd92db97	-0.0717079
54	0xbec33a6d	-0.38130513
55	0xbe0b4d39	-0.13603677
56	0xbd98203a	-0.07428022
57	0x3e6c8d68	0.23100817
58	0x3f64ff48	0.8945203
59	0x3d8c1dd5	0.068416275
60	0xbda291e5	-0.079379834
61	0x3e2bd3b8	0.16779983
62	0x3f65bab8	0.89738035
63	0xbca5b740	-0.020228982
64	0x3f35ecf9	0.71064717
65	0xbd85e149	-0.0653711
66	0xbf1680ca	-0.58790267
67	0x3d8bd7f1	0.06828297
68	0xbd6cd39d	-0.057818998
69	0x3c71d298	0.014759682
70	0x3e3e3170	0.18573546
71	0xbf31473d	-0.69249326
72	0xbd4ea152	-0.050446816
73	0x3d1f0677	0.038824525
74	0x3e85219d	0.26002207
75	0xbe2460ba	-0.16052523
76	0x3f12c66c	0.5733402
77	0xbeadf27c	-0.33974063
78	0x3ecb785f	0.39740273
79	0xbd438fb2	-0.04774446
80	0xbe320f90	-0.17388749
81	0xbd807e04	-0.062740356
82	0xbd402040	-0.046905756
83	0x3e91a059	0.28442648
84	0xbe6a1af0	-0.22861838
85	0x3df19b4b	0.11797198
86	0xbf145855	-0.57947284
87	0x3e0da778	0.13833416
88	0x3da686c6	0.08131175
89	0xbeb55e16	-0.35423344
90	0xbf4a1cbb	-0.7895009
91	0xbdc76938	-0.09736866
92	0x3fd1a015	1.6376978
93	0xbe884071	-0.26611665
94	0x3d7130c2	0.05888439
95	0x3db524d1	0.08844913
96	0xbd31c62e	-0.04340189
97	0xbcb60c2c	-0.0222226
98	0x3e2c8a42	0.16849616
99	0xbf373e94	-0.7157986
