complete/sawtooth/state5.pt (torch, 10937 bytes, 9 tensors)

weight f4 [100, 1]
0.24209408 -0.31347823 0.6536949 -0.5108268 0.35731277 0.027258785 0.035723567 -0.28364348
-0.40012157 -0.021927677 -1.2120547 -0.97221625 1.0187194 0.46436846 -0.115922734 1.0979005
-0.44927427 -0.31640375 -0.54401016 -1.5571845 -1.1114342 -0.50730306 -0.019272208 -0.54019463
0.555013 0.3618456 0.4888991 -0.18542504 -0.94045055 0.5923265 -0.64206964 -0.4989214
-0.54466367 -1.0701414 -0.81235564 -1.1525869 -0.46469665 0.035897337 0.8347974 1.3561975
-0.8993801 -0.7483231 -1.0465013 0.35130715 0.8600608 1.1153787 -1.2551391 -0.14267679
-0.79342145 -0.44613862 -0.5335674 0.7594363 0.95251304 -0.7997439 -1.6492022 -0.679345
1.0577352 0.112994075 0.6650337 -0.8424973 -0.8342073 -0.3174823 0.044724822 0.15586692
-0.4524524 -0.049777508 0.8631699 1.0068805 0.684681 0.8776504 -0.5039743 1.2309831
0.7301869 0.91389596 -0.021896625 0.93128806 -0.88054895 -0.65898955 0.2720517 -0.7110475
1.1404264 0.52062106 -1.0073463 0.11131003 -0.58943546 -0.09037423 -1.013647 0.8785805
-0.45311812 0.9306447 -1.1528263 1.4053012 0.04730177 1.181637 0.14149153 -0.8648858
-0.7973211 0.53771555 -0.064040184 -0.33133698
00000000: 83e7 773e 3880 a0be 8d58 273f 8cc5 02bf
00000010: b3f1 b63e d14d df3c e052 123d b839 91be
00000020: bcdc ccbe aca1 b3bc 9c24 9bbf 2ae3 78bf
00000030: 6665 823f b4c1 ed3e e668 edbd 0188 8c3f
00000040: 4707 e6be acff a1be 4044 0bbf d251 c7bf
00000050: 7a43 8ebf 9dde 01bf c0e0 9dbc 324a 0abf
00000060: 5515 0e3f d443 b93e fc50 fa3e 10e0 3dbe
00000070: 5ec1 70bf b6a2 173f ad5e 24bf a072 ffbe
00000080: 146f 0bbf 65fa 88bf 8af6 4fbf f887 93bf
00000090: b8ec edbe 1609 133d 48b5 553f e197 ad3f
000000a0: c63d 66bf 1a92 3fbf c1f3 85bf 88de b33e
000000b0: f22c 5c3f bbc4 8e3f 66a8 a0bf dd19 12be
000000c0: ab1d 4bbf 486c e4be e097 08bf 6b6a 423f
000000d0: e5d7 733f 04bc 4cbf 0f19 d3bf 8ee9 2dbf
000000e0: de63 873f 7069 e73d a63f 2a3f e7ad 57bf
000000f0: 9c8e 55bf 0a8d a2be 6031 373d 949b 1f3e
00000100: d7a7 e7be 80e3 4bbd b4f8 5c3f 76e1 803f
00000110: 4147 2f3f b2ad 603f 7604 01bf db90 9d3f
00000120: 87ed 3a3f 16f5 693f 8d60 b3bc e568 6e3f
00000130: a86b 61bf 8ab3 28bf 5c4a 8b3e 3507 36bf
00000140: 7ef9 913f 6c47 053f b9f0 80bf 83f6 e33d
00000150: 3ee5 16bf 2016 b9bd 2fbf 81bf a7ea 603f
00000160: 19ff e7be bb3e 6e3f d08f 93bf e9e0 b33f
00000170: 80bf 413d e23f 973f 28e3 103e 2869 5dbf
00000180: 3c1d 4cbf baa7 093f 8027 83bd 00a5 a9be

bias f4 [100]
0.37702242 -0.61692345 0.12820219 0.5042568 0.8343964 0.4739196 -0.54497874 -0.9318572
0.08145722 0.075921424 -0.5700175 0.29003942 -0.20778285 -0.53366685 0.06265552 -0.06634356
0.4602185 -0.40356743 -0.72663903 -0.072773926 -0.051871475 0.51395065 -0.58012974 -0.75263083
0.26115078 -0.90124416 0.86304224 -0.5666772 0.50825036 -0.987324 0.534191 0.63639385
-0.60162127 0.31924516 -0.93369555 0.234727 -0.77197874 0.7983767 -0.45122996 1.1101872
0.7483137 0.40443638 0.72240645 -0.69887626 0.03548397 -0.5127554 1.0443196 0.077112116
0.4288003 -0.54370475 -0.5401443 -0.349139 0.44819248 -0.912475 -1.3526763 -0.55717313
-0.31569514 0.9611056 -0.7468883 0.8648247 -0.99997056 0.21915892 -0.39999282 0.23300403
0.45167172 -0.11563861 0.16928475 0.19745788 0.13424875 -0.053067192 0.1503834 -1.0239738
0.3976852 0.17922574 0.2664127 -0.77467906 0.26272112 0.68631643 -0.61349833 -0.22227867
-0.9486266 -0.69668555 -0.3148568 0.14390202 -0.4834536 -0.40000045 -0.5524001 0.17229606
-0.3716315 0.9803926 0.5296531 -1.1689802 -0.42533743 0.9673052 -0.5395465 0.397355
0.23781584 0.5428803 -0.14895332 -0.7904515
00000000: 1509 c13e b2ee 1dbf 6f47 033e f916 013f
00000010: 019b 553f 97a5 f23e ba83 0bbf 328e 6ebf
00000020: 0bd3 a63d b17c 9b3d abec 11bf 0c80 943e
00000030: 07c5 54be 649e 08bf 8a51 803d 22df 87bd
00000040: c2a1 eb3e 64a0 cebe 0405 3abf 7f0a 95bd
00000050: 2f77 54bd 4592 033f 6283 14bf 6aac 40bf
00000060: 8eb5 853e f0b7 66bf 56f0 5c3f c211 11bf
00000070: b21c 023f 44c1 7cbf bec0 083f b5ea 223f
00000080: da03 1abf 1a74 a33e ac06 6fbf 465c 703e
00000090: 66a0 45bf 6a62 4c3f 9d07 e7be 9d1a 8e3f
000000a0: 7d91 3f3f 4912 cf3e a1ef 383f 8ee9 32bf
000000b0: a457 113d f043 03bf 44ac 853f f5ec 9d3d
000000c0: b78b db3e 3c30 0bbf e646 0abf 59c2 b2be
000000d0: 7c79 e53e f697 69bf 7f24 adbf e6a2 0ebf
000000e0: cba2 a1be 040b 763f 1234 3fbf 2765 5d3f
000000f0: 12fe 7fbf 326b 603e dccb ccbe 9c98 6e3e
00000100: 8441 e73e f0d3 ecbd fb58 2d3e 6632 4a3e
00000110: 8178 093e fc5c 59bd 1bfe 193e 9311 83bf
00000120: 659d cb3e f486 373e 3f67 883e 5e51 46bf
00000130: 6283 863e 6fb2 2f3f 3a0e 1dbf 059d 63be
00000140: 31d9 72bf fc59 32bf e934 a1be 0d5b 133e
00000150: 3b87 f7be dccc ccbe 186a 0dbf 616e 303e
00000160: 7c46 bebe 02fb 7a3f 5897 073f 25a1 95bf
00000170: d4c5 d9be 50a1 773f b81f 0abf 1d72 cb3e
00000180: ff85 733e 34fa 0a3f 3887 18be 085b 4abf

weight f4 [1, 100]
0.1280086 -0.0038853511 0.34053567 -0.00543391 0.086131394 0.057838626 0.03475911 0.01965563
-0.29125908 -0.0353954 0.85520095 0.58261025 -0.4832808 0.00951872 0.085697256 0.66834176
-0.05025411 -0.05414137 -0.07125734 -1.233774 -0.8692078 -0.16044757 0.051210977 0.09926332
0.45604372 0.035592563 0.13402705 0.068651 0.3118123 0.02930794 0.5066947 -0.047615927
0.08785381 0.62502426 -0.004905559 -0.6568232 -0.098620765 -0.023941156 0.2952031 -1.2796012
0.7794889 0.14959498 -0.6733748 0.025991641 -0.5601274 -0.69946367 1.0413907 0.0579944
0.17166896 -0.00073794276 0.06002023 -0.46500778 0.7717321 -0.01482787 -1.7698449 -0.7489395
0.7724894 0.08832191 -0.040080037 -0.17818578 0.045931704 -0.22700785 0.062172018 0.068120755
-0.102082446 -0.066905126 0.45955408 0.48428613 0.39774248 0.5260823 0.34764755 1.1128783
-0.0820452 0.447088 -0.025270918 0.85745406 0.54379267 -0.1624854 0.057825454 -0.34821287
1.003105 -0.07792773 -0.47168508 0.03706569 -0.6006216 -0.010436818 -0.27362093 0.46891242
-0.4372164 0.3199216 -0.85228455 1.283345 -0.09830435 -1.1185983 -0.0638369 -0.5940754
0.4194875 0.18786047 -0.0009688139 0.08306088
00000000: b014 033e 60a1 7ebb b15a ae3e f10e b2bb
00000010: a865 b03d 32e8 6c3d 925f 0e3d d804 a13c
00000020: e91f 95be c4fa 10bd 73ee 5a3f f225 153f
00000030: 9570 f7be 68f4 1b3c 0b82 af3d 7218 2b3f
00000040: 41d7 4dbd 57c3 5dbd 5eef 91bd 4eec 9dbf
00000050: 6784 5ebf 5e4c 24be 9ac2 513d 914a cb3d
00000060: 907e e93e 82c9 113d 633e 093e e598 8c3d
00000070: dda5 9f3e 3417 f03c beb6 013f eb08 43bd
00000080: b3ec b33d 9701 203f d0be a0bb 9125 28bf
00000090: aff9 c9bd 3e20 c4bc dc24 973e f9c9 a3bf
000000a0: 968c 473f 6d2f 193e 4a62 2cbf 6cec d43c
000000b0: 8264 0fbf 0d10 33bf 4a4c 853f 898b 6d3d
000000c0: fdc9 2f3e 8072 41ba c6d7 753d 8015 eebe
000000d0: 3c90 453f 98f0 72bc 478a e2bf 80ba 3fbf
000000e0: dec1 453f 1ee2 b43d f72a 24bd 5576 36be
000000f0: e222 3c3d bf74 68be 16a8 7e3d e582 8b3d
00000100: 9a10 d1bd 8e05 89bd ac4a eb3e 5af4 f73e
00000110: e7a4 cb3e 54ad 063f dcfe b13e cc72 8e3f
00000120: 5007 a8bd b8e8 e43e f504 cfbc 1c82 5b3f
00000130: ff35 0b3f 9362 26be 62da 6c3d f548 b2be
00000140: bf65 803f 9398 9fbd b580 f1be 31d2 173d
00000150: 56c2 19bf 30ff 2abc 0b18 8cbe 4a15 f03e
00000160: d4da dfbe c4cc a33e 522f 5abf a644 a43f
00000170: cb53 c9bd 3b2e 8fbf ecbc 82bd 5315 18bf
00000180: 11c7 d63e 7f5e 403e 00f8 7dba d31b aa3d

train_data f4 [600, 1]
0.8587719 -0.057823252 0.91898483 -0.69268656 -0.9363343 0.89034826 -0.7000055 -0.28154358
-0.46176115 -0.5144293 -0.8958442 0.3326777 -0.49143565 4.487118e-05 -0.22052233 0.04499061
0.96460646 0.531 0.85921776 0.86802137 -0.18609032 0.17901497 -0.8865906 0.5799261
0.75930744 0.2895291 -0.894646 -0.022782052 -0.4838706 -0.20896956 -0.019285413 -0.1079467
-0.9311078 -0.9139524 0.08147868 0.6423881 0.4756833 0.5498209 0.28863627 -0.72275114
-0.83585757 -0.029248703 0.7818065 -0.020197224 -0.16451178 0.47685367 -0.030293332 0.7580278
0.41209218 -0.1847616 -0.078548126 -0.8115413 0.89860785 0.68441325 -0.009645962 0.63509417
0.6026952 -0.12251128 0.7373894 0.00094324833 -0.24278124 0.7188846 -0.36295152 0.3582711
0.54031944 0.5154803 -0.21554597 -0.6165095 0.33305582 -0.020471208 -0.26150644 -0.6656632
-0.9691931 0.4893856 0.87965894 0.77302384 -0.53681123 0.42243156 0.6346064 0.37355086
0.061595105 0.44351608 -0.20148446 -0.8924912 -0.7777616 -0.7274149 0.73988205 -0.92857665
0.16449833 0.95949674 -0.04107355 0.73087716 0.8001077 -0.7439712 0.23208936 0.78184503
0.97683585 -0.58210665 0.93729866 0.47253492 -0.873191 0.06812826 -0.37779543 0.55142534
-0.4904197 0.8577083 -0.9660341 -0.7995569 0.44487917 -0.5811898 -0.07816727 0.11806509
0.6364081 -0.058151487 0.12111905 0.25579277 0.9797443 0.32561612 -0.6486619 -0.7460264
-0.78858113 0.40809485 -0.46187684 -0.020624723 0.378429 0.975964 -0.5830773 -0.33828425
0.9194879 -0.16768283 0.24411026 0.8624028 -0.12828283 0.20396388 -0.031406976 -0.84364897
0.6903564 0.093611434 0.18871251 -0.30457467 0.026754837 0.8054322 -0.31775078 0.54057103
-0.14349401 0.29462296 0.1504172 0.39815345 -0.21812439 0.011914103 0.07825293 0.60202926
0.3580335 -0.18256031 0.1944227 -0.6756354 0.34252873 -0.099724606 0.41383484 -0.8289684
0.59236777 0.6627595 -0.09891681 -0.79197687 -0.5390237 -0.55191994 -0.0038114176 -0.4243013
0.53822875 -0.3042416 0.8074411 0.28888556 0.2647185 -0.0017679731 0.97782326 0.39032608
0.021543128 -0.07510168 -0.23076175 -0.9734336 -0.4362663 -0.90069115 0.4595037 -0.29956397
0.50937337 -0.6218557 0.7222796 -0.7765885 0.8343873 0.53805816 0.62856966 -0.3970901
0.91538787 0.310196 -0.14015718 0.18979214 0.21460788 0.8780031 0.7385844 0.60056096
0.39749166 0.0957418 -0.33412743 0.9681274 0.87828344 0.5101542 0.4185634 0.9150137
0.053751662 -0.68477386 -0.4755765 0.2197333 -0.040155716 0.70599633 0.85662615 0.86881024
0.651634 -0.9761959 -0.08515127 0.33835062 0.8126163 0.52791417 0.4604976 -0.135217
0.21477842 0.68971133 0.94594914 0.17197408 0.33283243 0.20568618 0.7755419 -0.56264675
0.06565118 0.4881485 0.09443106 0.28062364 0.9981608 0.17052819 0.63996243 -0.6058924
0.5025341 0.6886176 0.7014254 0.5377085 0.8679865 -0.011652127 0.46066174 0.9237962
0.01701731 -0.9389181 0.12995914 0.60066116 -0.3316739 0.82657367 0.0799642 0.13764732
00000000: 7ad8 5b3f 13d8 6cbd 9742 6b3f e853 31bf
00000010: 9bb3 6fbf dded 633f 8f33 33bf 7b26 90be
00000020: f56b ecbe a3b1 03bf 0c56 65bf bb54 aa3e
00000030: 749d fbbe 1034 3c38 9bd0 61be 1348 383d
00000040: 73f0 763f 9eef 073f b2f5 5b3f a636 5e3f
00000050: 768e 3ebe b34f 373e 9af7 62bf 0976 143f
00000060: f961 423f 283d 943e 8507 65bf 6da1 babc
00000070: e3bd f7be 1efc 55be 71fc 9dbc 2913 ddbd
00000080: 155d 6ebf c9f8 69bf 4bde a63d 8c73 243f
00000090: c38c f33e 10c1 0c3f 22c8 933e 3806 39bf
000000a0: c3fa 55bf fa9a efbc 7924 483f a674 a5bc
000000b0: c775 28be 2a26 f43e b929 f8bc 1c0e 423f
000000c0: bffd d23e 2532 3dbe d7dd a0bd 2cc1 4fbf
000000d0: 2a0b 663f b535 2f3f 190a 1ebc 8895 223f
000000e0: 3c4a 1a3f 32e7 fabd 8dc5 3c3f 5344 773a
000000f0: a59b 78be d208 383f c8d4 b9be 4f6f b73e
00000100: 6052 0a3f 84f6 033f 15b8 5cbe 91d3 1dbf
00000110: 4b86 aa3e 3cb3 a7bc 2ce4 85be e768 2abf
00000120: 0a1d 78bf c090 fa3e 5431 613f e4e4 453f
00000130: 766c 09bf f348 d83e 9175 223f 0f42 bf3e
00000140: 264b 7c3d 8a14 e33e f151 4ebe 4e7a 64bf
00000150: 621b 47bf dd37 3abf e968 3d3f 33b7 6dbf
00000160: 4072 283e 94a1 753f bd3c 28bd c41a 3b3f
00000170: dcd3 4c3f e674 3ebf d5a8 6d3e ff26 483f
00000180: ea11 7a3f f104 15bf cef2 6f3f 19f0 f13e
00000190: 7289 5fbf d486 8b3d 676e c1be 362a 0d3f
000001a0: 4a18 fbbe c592 5b3f 034e 77bf c3af 4cbf
000001b0: 34c7 e33e dbc8 14bf 2916 a0bd 1ccc f13d
000001c0: a4eb 223f 4130 6ebd 440d f83d 45f7 823e
000001d0: 86d0 7a3f 28b7 a63e b50e 26bf 96fb 3ebf
000001e0: 74e0 49bf cff1 d03e 1f7b ecbe 2ef5 a8bc
000001f0: 72c1 c13e c7d8 793f 8e44 15bf 9833 adbe
00000200: 8f63 6b3f 0cb5 2bbe 0af8 793e 6ec6 5c3f
00000210: 935c 03be e8db 503e 9aa4 00bd 61f9 57bf
00000220: 32bb 303f 5ab7 bf3d da3d 413e 36f1 9bbe
00000230: f62c db3c ce30 4e3f 3bb0 a2be dd62 0a3f
00000240: 18f0 12be d2d8 963e f706 1a3e c5da cb3e
00000250: 005c 5fbe 5f33 433c 1243 a03d 971e 1a3f
00000260: 2b50 b73e 17f1 3abe bf16 473e 71f6 2cbf
00000270: ed5f af3e 6a3c ccbd 29e2 d33e 4637 54bf
00000280: 6aa5 173f 9baa 293f e594 cabd ffbe 4abf
00000290: 75fd 09bf a04a 0dbf fac8 79bb 053e d9be
000002a0: 5cc9 093f 8ec5 9bbe 76b4 4e3f cfe8 933e
000002b0: 2f89 873e 55bb e7ba a052 7a3f d2d8 c73e
000002c0: 377b b03c e9ce 99bd cf4c 6cbe f232 79bf
000002d0: 4c5e dfbe b293 66bf 1244 eb3e 7360 99be
000002e0: 4b66 023f ef31 1fbf 51e7 383f 81ce 46bf
000002f0: 689a 553f 2ebe 093f f1e9 203f 654f cbbe
00000300: dc56 6a3f 03d2 9e3e 5d85 0fbe df58 423e
00000310: 2bc2 5b3e d0c4 603f de13 3d3f 5dbe 193f
00000320: 0784 cb3e 4714 c43d c012 abbe 33d7 773f
00000330: 2fd7 603f 7799 023f f14d d63e 563e 6a3f
00000340: b42a 5c3d 574d 2fbf c37e f3be c401 613e
00000350: 527a 24bd 2dbc 343f da4b 5b3f 596a 5e3f
00000360: 7cd1 263f f9e7 79bf ca63 aebd 4b3c ad3e
00000370: 9f07 503f 6225 073f 57c6 eb3e 5376 0abe
00000380: e0ee 5b3e ec90 303f b929 723f f919 303e
00000390: 0369 aa3e 669f 523e ea89 463f 9e09 10bf
000003a0: 2074 863d 9aee f93e 1265 c13d e7ad 8f3e
000003b0: 7787 7f3f f19e 2e3e 94d4 233f c41b 1bbf
000003c0: 13a6 003f 3e49 303f 9d90 333f 44a7 093f
000003d0: 5d34 5e3f 90e8 3ebc dbdb eb3e e87d 6c3f
000003e0: e367 8b3c f05c 70bf 0214 053e eec4 193f
000003f0: 29d1 a9be 559a 533f 45c4 a33d 6bf3 0c3e

train_targets f4 [600, 1]
-0.12982446 0.537414 0.35187882 -0.5414925 -0.49067447 0.12278581 -0.60004395 0.74765134
-0.6940892 0.8845657 -0.16675375 -0.33857837 -0.9314851 -0.999641 -0.76417863 -0.6400751
0.7168516 -0.75199974 -0.12625813 -0.055829052 -0.4887226 0.43211976 -0.09272497 -0.36059153
-0.9255404 -0.68376744 -0.15716803 0.8177436 -0.8709649 -0.67175657 0.8457167 0.13642637
-0.4488627 -0.31161916 -0.3481706 0.13910465 0.8054665 -0.60143256 -0.6909099 -0.7820089
0.31313932 0.7660104 -0.74554795 0.83842224 -0.31609434 0.81482947 0.75765336 -0.93577754
0.2967374 -0.47809285 0.371615 0.50766945 0.18886259 0.4753058 0.9228323 0.080753475
-0.1784383 0.019909754 0.89911526 -0.992454 -0.9422499 0.7510769 0.09638792 -0.13383135
-0.67744434 -0.87615794 -0.7243677 0.06792409 -0.33555338 0.83623034 0.9079485 -0.32530543
-0.753545 0.9150849 0.037271526 -0.8158091 0.7055102 0.3794525 0.07685153 -0.011593066
-0.50723916 0.54812855 -0.61187565 -0.13992973 0.77790755 -0.8193192 0.91905653 -0.42861316
0.31598663 0.6759741 0.6714116 0.84701747 -0.59913844 -0.9517696 0.85671484 -0.7452399
0.81468683 0.34314677 0.49838927 0.7802793 0.0144720115 -0.45497397 -0.022363413 -0.5885971
-0.9233575 -0.13833377 -0.728273 0.60354465 0.55903345 0.35048133 0.37466186 -0.05547928
0.09126462 0.5347881 -0.031047562 -0.9536579 0.83795446 -0.395071 -0.18929553 -0.96821094
0.6913508 0.26475888 -0.6950146 0.8350022 0.02743205 0.8077121 0.33538175 0.2937261
0.35590333 -0.34146255 0.9528821 -0.10077785 -0.026262583 0.63171107 0.7487442 0.25080845
0.522851 -0.2511085 0.5097 0.5634027 -0.78596133 -0.5565422 0.45799372 -0.6754318
-0.14795211 -0.64301634 0.20333752 0.18522756 -0.7449952 -0.90468717 -0.37397656 -0.18376604
-0.13573194 -0.46048245 0.5553816 -0.40508306 -0.25977007 0.20220315 0.31067872 0.36825275
-0.26105803 0.3020759 0.20866558 0.6641852 0.68781054 0.5846405 0.96950865 -0.3944105
-0.6941698 0.5660671 -0.540471 -0.6889155 -0.88225204 0.98585624 0.8225859 0.12260863
-0.82765496 0.39918655 -0.846094 -0.7874688 -0.4901303 -0.20552911 0.6760297 0.6034882
-0.92501307 0.025154792 0.778237 0.7872919 -0.32490137 -0.69553465 0.028557217 -0.17672083
0.32310304 -0.51843196 -0.12125745 0.5183372 0.71686304 0.024024991 0.9086753 -0.1955125
0.17993332 -0.23406558 0.3269805 0.7450196 0.026267298 -0.91876644 0.34850726 0.32010937
-0.5699867 -0.4781907 -0.80461204 0.7578664 0.67875427 0.6479705 -0.146991 -0.049518097
0.21307164 -0.8095669 0.31878984 -0.29319513 -0.4990696 -0.7766867 0.6839807 -0.08173594
0.71822745 0.5176908 0.56759286 0.37579256 -0.33734053 0.64548945 -0.7956647 0.49882612
-0.47479057 0.90518814 -0.24455152 -0.7550108 0.9852863 0.36422545 0.11969957 0.15286078
-0.979727 0.5089407 0.6114028 -0.69833195 -0.056108035 0.906783 0.6852938 0.3903693
-0.8638615 -0.51134485 0.03967313 -0.19471079 0.34660885 -0.38741076 -0.3602864 0.10117857
00000000: b4f0 04be f793 093f 7629 b43e 419f 0abf
00000010: af39 fbbe 2077 fb3d 7b9c 19bf 1466 3f3f
00000020: d4af 31bf e672 623f 7fc1 2abe 255a adbe
00000030: cf75 6ebf 79e8 7fbf 36a1 43bf f6db 23bf
00000040: 9683 373f 0e83 40bf d049 01be 01ad 64bd
00000050: d939 fabe cd3e dd3e 97e6 bdbd 749f b8be
00000060: 37f0 6cbf 620b 2fbf a8f0 20be a557 513f
00000070: 8ef7 5ebf 3df8 2bbf e480 583f 5bb3 0b3e
00000080: 55d1 e5be 8c8c 9fbe 6b43 b2be 7371 0e3e
00000090: 0d33 4e3f 7cf7 19bf 79df 30bf bc31 48bf
000000a0: cc53 a03e 4219 443f 3bdc 3ebf d7a2 563f
000000b0: 1ed7 a1be aa98 503f 92f5 413f 1e8f 6fbf
000000c0: f7ed 973e 96c8 f4be 5244 be3e a0f6 013f
000000d0: 3265 413e 485b f33e bd3e 6c3f 1462 a53d
000000e0: 88b8 36be c819 a33c 6b2c 663f 7711 7ebf
000000f0: 4a37 71bf 9346 403f 0867 c53d 160b 09be
00000100: fe6c 2dbf e34b 60bf 2970 39bf c91b 8b3d
00000110: a7cd abbe 3113 563f 506f 683f 6f8e a6be
00000120: 53e8 40bf 0143 6a3f 07aa 183d ddd8 50bf
00000130: 519c 343f 9947 c23e 5664 9d3d d8f0 3dbc
00000140: 6dda 01bf 2752 0c3f e2a3 1cbf bd49 0fbe
00000150: f324 473f e7be 51bf 4a47 6b3f 2f73 dbbe
00000160: 00c9 a13e a30c 2d3f a1e1 2b3f 23d6 583f
00000170: 2361 19bf 2ca7 73bf aa51 5b3f 0bc8 3ebf
00000180: 518f 503f efb0 af3e e12c ff3e 62c0 473f
00000190: 041c 6d3c 59f2 e8be 7a33 b7bc 4dae 16bf
000001a0: 2861 6cbf 5ea7 0dbe 1970 3abf e781 1a3f
000001b0: d11c 0f3f 4a72 b33e aed3 bf3e 3e3e 63bd
000001c0: f2e8 ba3d dfe7 083f 7557 febc ed22 74bf
000001d0: 2f84 563f bf46 cabe b0d6 41be acdc 77bf
000001e0: 5efc 303f 7a8e 873e 7aec 31bf b4c2 553f
000001f0: 2eb9 e03c 38c6 4e3f 28b7 ab3e 4463 963e
00000200: f638 b63e 2ed4 aebe 15f0 733f 9e64 cebd
00000210: a124 d7bc d1b7 213f b3ad 3f3f f769 803e
00000220: 90d9 053f 4b91 80be b37b 023f 293b 103f
00000230: c334 49bf 8d79 0ebf 277e ea3e 19e9 2cbf
00000240: c280 17be b89c 24bf b637 503e 4bac 3d3e
00000250: 01b8 3ebf 9499 67bf db79 bfbe 2a2d 3cbe
00000260: 50fd 0abe 5bc4 ebbe 7d2d 0e3f 0c67 cfbe
00000270: 9500 85be 580e 4f3e 4811 9f3e a08b bc3e
00000280: 66a9 85be b1a9 9a3e 6eac 553e 0b08 2a3f
00000290: 5a14 303f 00ab 153f b831 783f 2cf0 c9be
000002a0: 1db5 31bf c6e9 103f 4f5c 0abf c45c 30bf
000002b0: 45db 61bf 1361 7c3f fd94 523f 3c1a fb3d
000002c0: 32e1 53bf 2e62 cc3e 9e99 58bf 8e97 49bf
000002d0: 5cf2 fabe 3976 52be 4810 2d3f 347e 1a3f
000002e0: a8cd 6cbf 6c11 ce3c 8a3a 473f f68b 493f
000002f0: 7959 a6be 8f0e 32bf d3f0 e93c 4ef6 34be
00000300: c36d a53e f5b7 04bf d355 f8bd bfb1 043f
00000310: 5684 373f 0fd0 c43c f29e 683f 6e34 48be
00000320: 7140 383e e3ae 6fbe fd69 a73e 9bb9 3e3f
00000330: 842e d73c 4734 6bbf 8b6f b23e 60e5 a33e
00000340: a6ea 11bf 69d5 f4be 0efb 4dbf 8803 423f
00000350: d7c2 2d3f 65e1 253f cf84 16be 7dd3 4abd
00000360: 742f 5a3e c73f 4fbf 6c38 a33e ac1d 96be
00000370: 0d86 ffbe f1d4 46bf 5c19 2f3f 2c65 a7bd
00000380: c1dd 373f 6287 043f c44d 113f e267 c03e
00000390: e6b7 acbe cc3e 253f afb0 4bbf 2366 ff3e
000003a0: c017 f3be 69ba 673f b76b 7abe 6348 41bf
000003b0: b93b 7c3f c27b ba3e 0c25 f53d 8987 1c3e
000003c0: 64cf 7abf f049 023f e584 1c3f e2c5 32bf
000003d0: 8ad1 65bd ee22 683f 6a6f 2f3f 7cde c73e
000003e0: 0726 5dbf 7fe7 02bf 4b80 223d 4462 47be
000003f0: b776 b13e b45a c6be 7677 b8be b636 cf3d

test_data f4 [150, 1]
-0.77915335 -0.20442227 -0.8969441 -0.5835988 0.364284 -0.42488706 -0.6589918 -0.984915
-0.8274126 0.3498373 0.8963995 -0.24785772 -0.990103 0.7541586 -0.72734207 0.6152381
0.6265521 -0.82290304 -0.80028427 0.2147793 0.9381555 0.51139855 -0.16333854 0.87868243
0.96933997 0.83865845 0.9074327 0.08016634 0.19457951 -0.33120853 -0.52444416 0.8182447
-0.39821222 -0.23463015 -0.54346985 0.11622863 -0.14023753 -0.120413646 -0.29782507 0.09037686
-0.5391641 0.02191957 0.5347736 -0.32121053 0.87978494 0.88266224 0.37358359 0.40311155
0.16692995 -0.8798679 0.7985834 -0.85403305 0.6585869 -0.5057672 -0.53247553 0.14753896
-0.22592573 -0.9403345 0.17396659 -0.98158306 -0.6618267 0.7062072 -0.093581274 -0.9616713
-0.61129594 0.06755292 0.9585558 -0.6382685 -0.5123538 0.35097352 0.08416895 0.9039629
-0.25106937 0.4578154 -0.19890432 -0.27468735 0.6484979 -0.65360254 0.082043335 0.8670606
0.6347278 0.17935623 -0.5564608 -0.08844953 0.7064443 -0.28269732 0.54794776 -0.06534613
0.5726216 -0.74107206 0.712353 -0.75550544 -0.6809332 -0.8847963 -0.5963491 0.4318946
0.8855936 -0.8571 -0.29144734 0.018319722 0.66559917 0.99186593 -0.014712667 -0.60215294
-0.6846804 -0.27145866 -0.95242625 -0.6225681 -0.48814374 -0.5619517 0.83924043 0.54171443
0.8601271 -0.14156312 0.14552401 0.10089759 0.21366863 -0.20747873 0.02328024 0.77533853
-0.44417128 -0.31467637 0.5102745 0.40351057 -0.5175431 0.767049 0.36570945 -0.3211018
-0.84207356 0.29815266 -0.098408446 -0.58636016 0.11725797 -0.32394326 0.9477524 -0.13216825
-0.35294938 0.335725 -0.42779627 0.14312743 -0.5159669 -0.32753676 -0.8692639 -0.5351724
0.77968925 0.34295875 0.8530588 -0.066188104 0.4084169 0.580991
00000000: 9876 47bf 1254 51be 219e 65bf bb66 15bf
00000010: 6f83 ba3e cc8a d9be b0b3 28bf 6423 7cbf
00000020: 50d1 53bf e01d b33e 707a 653f 6ace 7dbe
00000030: 6477 7dbf 8a10 413f 1733 3abf 3e80 1d3f
00000040: b865 203f c6a9 52bf 6edf 4cbf 1bef 5b3e
00000050: f52a 703f 04eb 023f 3842 27be 55f1 603f
00000060: aa26 783f 52b2 563f 824d 683f 402e a43d
00000070: da3f 473e 2a94 a9be f941 06bf 7c78 513f
00000080: 79e2 cbbe e342 70be d720 0bbf 4709 ee3d
00000090: 6d9a 0fbe 6e9b f6bd 877c 98be 8117 b93d
000000a0: a906 0abf ac90 b33c ece6 083f b575 a4be
000000b0: 9639 613f 27f6 613f 5946 bf3e a364 ce3e
000000c0: afef 2a3e 063f 61bf f66f 4c3f e9a1 5abf
000000d0: 2799 283f f679 01bf 5150 08bf 7414 173e
000000e0: 1359 67be c3b9 70bf 4c24 323e 0749 7bbf
000000f0: 7a6d 29bf ffc9 343f 8aa7 bfbd 1730 76bf
00000100: e47d 1cbf 2f59 8a3d ea63 753f 9065 23bf
00000110: 9e29 03bf cdb2 b33e c560 ac3d 1d6a 673f
00000120: 2a8c 80be c866 ea3e 93ad 4bbe d2a3 8cbe
00000130: f503 263f 7f52 27bf 5606 a83d aff7 5d3f
00000140: 857d 223f 29a9 373e 3774 0ebf 0725 b5bd
00000150: 89d9 343f b4bd 90be 4e46 0c3f 31d4 85bd
00000160: 5497 123f e6b6 3dbf c45c 363f ce68 41bf
00000170: a351 2ebf 0382 62bf 56aa 18bf 4a21 dd3e
00000180: 43b6 623f e86a 5bbf 9638 95be 3e13 963c
00000190: b564 2a3f edea 7d3f 660d 71bc b226 1abf
000001a0: 3747 2fbf a1fc 8abe 35d2 73bf 9f60 1fbf
000001b0: faed f9be 11dc 0fbf 76d8 563f ccad 0a3f
000001c0: 4a31 5c3f ecf5 10be 3f04 153e 65a3 ce3d
000001d0: f3cb 5a3e 4e75 54be 34b6 be3c 967c 463f
000001e0: 6b6a e3be 431d a1be 5aa1 023f f098 ce3e
000001f0: b47d 04bf 535d 443f 453e bb3e 7567 a4be
00000200: 2292 57bf 77a7 983e 5e8a c9bd b31b 16bf
00000210: f224 f03d e4db a5be e79f 723f 1d57 07be
00000220: c8b5 b4be 26e4 ab3e 1d08 dbbe ff8f 123e
00000230: 6816 04bf e6b2 a7be 1488 5ebf 0f01 09bf
00000240: b799 473f 4a98 af3e 1062 5a3f a18d 87bd
00000250: 051c d13e d4bb 143f

0.weight f4 [100, 1]
0.24209408 -0.31347823 0.6536949 -0.5108268 0.35731277 0.027258785 0.035723567 -0.28364348
-0.40012157 -0.021927677 -1.2120547 -0.97221625 1.0187194 0.46436846 -0.115922734 1.0979005
-0.44927427 -0.31640375 -0.54401016 -1.5571845 -1.1114342 -0.50730306 -0.019272208 -0.54019463
0.555013 0.3618456 0.4888991 -0.18542504 -0.94045055 0.5923265 -0.64206964 -0.4989214
-0.54466367 -1.0701414 -0.81235564 -1.1525869 -0.46469665 0.035897337 0.8347974 1.3561975
-0.8993801 -0.7483231 -1.0465013 0.35130715 0.8600608 1.1153787 -1.2551391 -0.14267679
-0.79342145 -0.44613862 -0.5335674 0.7594363 0.95251304 -0.7997439 -1.6492022 -0.679345
1.0577352 0.112994075 0.6650337 -0.8424973 -0.8342073 -0.3174823 0.044724822 0.15586692
-0.4524524 -0.049777508 0.8631699 1.0068805 0.684681 0.8776504 -0.5039743 1.2309831
0.7301869 0.91389596 -0.021896625 0.93128806 -0.88054895 -0.65898955 0.2720517 -0.7110475
1.1404264 0.52062106 -1.0073463 0.11131003 -0.58943546 -0.09037423 -1.013647 0.8785805
-0.45311812 0.9306447 -1.1528263 1.4053012 0.04730177 1.181637 0.14149153 -0.8648858
-0.7973211 0.53771555 -0.064040184 -0.33133698
00000000: 83e7 773e 3880 a0be 8d58 273f 8cc5 02bf
00000010: b3f1 b63e d14d df3c e052 123d b839 91be
00000020: bcdc ccbe aca1 b3bc 9c24 9bbf 2ae3 78bf
00000030: 6665 823f b4c1 ed3e e668 edbd 0188 8c3f
00000040: 4707 e6be acff a1be 4044 0bbf d251 c7bf
00000050: 7a43 8ebf 9dde 01bf c0e0 9dbc 324a 0abf
00000060: 5515 0e3f d443 b93e fc50 fa3e 10e0 3dbe
00000070: 5ec1 70bf b6a2 173f ad5e 24bf a072 ffbe
00000080: 146f 0bbf 65fa 88bf 8af6 4fbf f887 93bf
00000090: b8ec edbe 1609 133d 48b5 553f e197 ad3f
000000a0: c63d 66bf 1a92 3fbf c1f3 85bf 88de b33e
000000b0: f22c 5c3f bbc4 8e3f 66a8 a0bf dd19 12be
000000c0: ab1d 4bbf 486c e4be e097 08bf 6b6a 423f
000000d0: e5d7 733f 04bc 4cbf 0f19 d3bf 8ee9 2dbf
000000e0: de63 873f 7069 e73d a63f 2a3f e7ad 57bf
000000f0: 9c8e 55bf 0a8d a2be 6031 373d 949b 1f3e
00000100: d7a7 e7be 80e3 4bbd b4f8 5c3f 76e1 803f
00000110: 4147 2f3f b2ad 603f 7604 01bf db90 9d3f
00000120: 87ed 3a3f 16f5 693f 8d60 b3bc e568 6e3f
00000130: a86b 61bf 8ab3 28bf 5c4a 8b3e 3507 36bf
00000140: 7ef9 913f 6c47 053f b9f0 80bf 83f6 e33d
00000150: 3ee5 16bf 2016 b9bd 2fbf 81bf a7ea 603f
00000160: 19ff e7be bb3e 6e3f d08f 93bf e9e0 b33f
00000170: 80bf 413d e23f 973f 28e3 103e 2869 5dbf
00000180: 3c1d 4cbf baa7 093f 8027 83bd 00a5 a9be

0.bias f4 [100]
0.37702242 -0.61692345 0.12820219 0.5042568 0.8343964 0.4739196 -0.54497874 -0.9318572
0.08145722 0.075921424 -0.5700175 0.29003942 -0.20778285 -0.53366685 0.06265552 -0.06634356
0.4602185 -0.40356743 -0.72663903 -0.072773926 -0.051871475 0.51395065 -0.58012974 -0.75263083
0.26115078 -0.90124416 0.86304224 -0.5666772 0.50825036 -0.987324 0.534191 0.63639385
-0.60162127 0.31924516 -0.93369555 0.234727 -0.77197874 0.7983767 -0.45122996 1.1101872
0.7483137 0.40443638 0.72240645 -0.69887626 0.03548397 -0.5127554 1.0443196 0.077112116
0.4288003 -0.54370475 -0.5401443 -0.349139 0.44819248 -0.912475 -1.3526763 -0.55717313
-0.31569514 0.9611056 -0.7468883 0.8648247 -0.99997056 0.21915892 -0.39999282 0.23300403
0.45167172 -0.11563861 0.16928475 0.19745788 0.13424875 -0.053067192 0.1503834 -1.0239738
0.3976852 0.17922574 0.2664127 -0.77467906 0.26272112 0.68631643 -0.61349833 -0.22227867
-0.9486266 -0.69668555 -0.3148568 0.14390202 -0.4834536 -0.40000045 -0.5524001 0.17229606
-0.3716315 0.9803926 0.5296531 -1.1689802 -0.42533743 0.9673052 -0.5395465 0.397355
0.23781584 0.5428803 -0.14895332 -0.7904515
00000000: 1509 c13e b2ee 1dbf 6f47 033e f916 013f
00000010: 019b 553f 97a5 f23e ba83 0bbf 328e 6ebf
00000020: 0bd3 a63d b17c 9b3d abec 11bf 0c80 943e
00000030: 07c5 54be 649e 08bf 8a51 803d 22df 87bd
00000040: c2a1 eb3e 64a0 cebe 0405 3abf 7f0a 95bd
00000050: 2f77 54bd 4592 033f 6283 14bf 6aac 40bf
00000060: 8eb5 853e f0b7 66bf 56f0 5c3f c211 11bf
00000070: b21c 023f 44c1 7cbf bec0 083f b5ea 223f
00000080: da03 1abf 1a74 a33e ac06 6fbf 465c 703e
00000090: 66a0 45bf 6a62 4c3f 9d07 e7be 9d1a 8e3f
000000a0: 7d91 3f3f 4912 cf3e a1ef 383f 8ee9 32bf
000000b0: a457 113d f043 03bf 44ac 853f f5ec 9d3d
000000c0: b78b db3e 3c30 0bbf e646 0abf 59c2 b2be
000000d0: 7c79 e53e f697 69bf 7f24 adbf e6a2 0ebf
000000e0: cba2 a1be 040b 763f 1234 3fbf 2765 5d3f
000000f0: 12fe 7fbf 326b 603e dccb ccbe 9c98 6e3e
00000100: 8441 e73e f0d3 ecbd fb58 2d3e 6632 4a3e
00000110: 8178 093e fc5c 59bd 1bfe 193e 9311 83bf
00000120: 659d cb3e f486 373e 3f67 883e 5e51 46bf
00000130: 6283 863e 6fb2 2f3f 3a0e 1dbf 059d 63be
00000140: 31d9 72bf fc59 32bf e934 a1be 0d5b 133e
00000150: 3b87 f7be dccc ccbe 186a 0dbf 616e 303e
00000160: 7c46 bebe 02fb 7a3f 5897 073f 25a1 95bf
00000170: d4c5 d9be 50a1 773f b81f 0abf 1d72 cb3e
00000180: ff85 733e 34fa 0a3f 3887 18be 085b 4abf

2.weight f4 [1, 100]
0.1280086 -0.0038853511 0.34053567 -0.00543391 0.086131394 0.057838626 0.03475911 0.01965563
-0.29125908 -0.0353954 0.85520095 0.58261025 -0.4832808 0.00951872 0.085697256 0.66834176
-0.05025411 -0.05414137 -0.07125734 -1.233774 -0.8692078 -0.16044757 0.051210977 0.09926332
0.45604372 0.035592563 0.13402705 0.068651 0.3118123 0.02930794 0.5066947 -0.047615927
0.08785381 0.62502426 -0.004905559 -0.6568232 -0.098620765 -0.023941156 0.2952031 -1.2796012
0.7794889 0.14959498 -0.6733748 0.025991641 -0.5601274 -0.69946367 1.0413907 0.0579944
0.17166896 -0.00073794276 0.06002023 -0.46500778 0.7717321 -0.01482787 -1.7698449 -0.7489395
0.7724894 0.08832191 -0.040080037 -0.17818578 0.045931704 -0.22700785 0.062172018 0.068120755
-0.102082446 -0.066905126 0.45955408 0.48428613 0.39774248 0.5260823 0.34764755 1.1128783
-0.0820452 0.447088 -0.025270918 0.85745406 0.54379267 -0.1624854 0.057825454 -0.34821287
1.003105 -0.07792773 -0.47168508 0.03706569 -0.6006216 -0.010436818 -0.27362093 0.46891242
-0.4372164 0.3199216 -0.85228455 1.283345 -0.09830435 -1.1185983 -0.0638369 -0.5940754
0.4194875 0.18786047 -0.0009688139 0.08306088
00000000: b014 033e 60a1 7ebb b15a ae3e f10e b2bb
00000010: a865 b03d 32e8 6c3d 925f 0e3d d804 a13c
00000020: e91f 95be c4fa 10bd 73ee 5a3f f225 153f
00000030: 9570 f7be 68f4 1b3c 0b82 af3d 7218 2b3f
00000040: 41d7 4dbd 57c3 5dbd 5eef 91bd 4eec 9dbf
00000050: 6784 5ebf 5e4c 24be 9ac2 513d 914a cb3d
00000060: 907e e93e 82c9 113d 633e 093e e598 8c3d
00000070: dda5 9f3e 3417 f03c beb6 013f eb08 43bd
00000080: b3ec b33d 9701 203f d0be a0bb 9125 28bf
00000090: aff9 c9bd 3e20 c4bc dc24 973e f9c9 a3bf
000000a0: 968c 473f 6d2f 193e 4a62 2cbf 6cec d43c
000000b0: 8264 0fbf 0d10 33bf 4a4c 853f 898b 6d3d
000000c0: fdc9 2f3e 8072 41ba c6d7 753d 8015 eebe
000000d0: 3c90 453f 98f0 72bc 478a e2bf 80ba 3fbf
000000e0: dec1 453f 1ee2 b43d f72a 24bd 5576 36be
000000f0: e222 3c3d bf74 68be 16a8 7e3d e582 8b3d
00000100: 9a10 d1bd 8e05 89bd ac4a eb3e 5af4 f73e
00000110: e7a4 cb3e 54ad 063f dcfe b13e cc72 8e3f
00000120: 5007 a8bd b8e8 e43e f504 cfbc 1c82 5b3f
00000130: ff35 0b3f 9362 26be 62da 6c3d f548 b2be
00000140: bf65 803f 9398 9fbd b580 f1be 31d2 173d
00000150: 56c2 19bf 30ff 2abc 0b18 8cbe 4a15 f03e
00000160: d4da dfbe c4cc a33e 522f 5abf a644 a43f
00000170: cb53 c9bd 3b2e 8fbf ecbc 82bd 5315 18bf
00000180: 11c7 d63e 7f5e 403e 00f8 7dba d31b aa3d
