complete/sawtooth/state6.pt (torch, 10937 bytes, 9 tensors)

weight f4 [100, 1]
000000 d6 c2 a6 be 77 f8 f1 be 87 4d 6e 3f a2 5a a8 3f
       -0.32570523 -0.47259876 0.9308705 1.3152659
000010 60 0f 47 3f 4e 73 89 3f 5d c5 bf bd 98 29 5a bc
       0.77757835 1.0738313 -0.09363816 -0.013315581
000020 01 cb 5e 3f 42 ab 41 3f 51 09 fd be 6b f2 20 bf
       0.8702851 0.75651944 -0.4942117 -0.628699
000030 c8 c0 e9 3e 30 42 46 3e f1 73 0d bf 41 47 14 bf
       0.45654893 0.19361186 -0.5525504 -0.57921225
000040 2f a7 1d 3f 47 0d 03 3f ef 7f a1 be 68 2d b8 be
       0.61583227 0.51192135 -0.31542918 -0.35972142
000050 6e 8a ae 3f 57 a4 ce 3e 21 94 22 3f 3e 8a 45 3f
       1.3635995 0.40359756 0.63507277 0.77164066
000060 23 42 5a 3f 49 a3 25 3f 80 53 a1 bd 83 45 86 bc
       0.85257167 0.6470228 -0.078772545 -0.016390568
000070 15 eb 94 bf b5 6c fe be 48 99 08 3f 0c 51 06 3e
       -1.1634241 -0.49692312 0.5335889 0.13116854
000080 95 33 c7 3e a6 3b 90 bf b9 32 a3 bf 40 fa 63 3d
       0.3890654 -1.1268203 -1.2749854 0.05565858
000090 f4 14 68 3f 3b ef 61 3f 18 cc 10 3e 8b 03 9b bf
       0.9065697 0.8825566 0.14140356 -1.2110456
0000a0 6a 60 17 bf 8d ad 65 3e ae 55 2c 3f ff da c4 3f
       -0.5913149 0.22429486 0.67318237 1.5379332
0000b0 69 0b 5c 3f c3 cc 81 bf f0 4c b0 be e8 17 35 3e
       0.8595491 -1.0140613 -0.344337 0.17684901
0000c0 92 43 f4 3e df 10 28 3e 70 51 1c bf 45 58 97 3f
       0.47707802 0.16412686 -0.61061764 1.1823813
0000d0 b8 c4 3c bf b8 a3 50 3e 20 9c 94 3d 9a a2 8d 3f
       -0.7373767 0.20374954 0.07256341 1.1065247
0000e0 32 18 91 3f 06 53 21 bf 6a db be be 00 f4 ef 3c
       1.1335509 -0.6301731 -0.37276775 0.029291153
0000f0 d4 90 2d 3f 6b 7d 61 be 7b c8 79 bf ea 67 0b bf
       0.67799115 -0.220205 -0.97571534 -0.54455435
000100 a9 f0 2a 3f 97 7a 4f bf f8 43 c7 be 23 65 3f bf
       0.6677347 -0.8104643 -0.38919044 -0.747637
000110 20 4f 67 3d cd 7e 5d 3f 82 03 07 3f e1 bf a6 3e
       0.056471944 0.8652161 0.5273973 0.32568267
000120 40 ab 49 bd 0c ae 8e 3f c9 68 85 3f 48 6a 25 bf
       -0.049235582 1.1146865 1.0422603 -0.646153
000130 04 3f a8 bf f5 f5 d8 3e a4 6b 71 be fa b1 7f 3e
       -1.3144231 0.4237515 -0.23576218 0.24970236
000140 cb 44 56 bf 8e 3e 83 3f 38 a8 85 bf fe 8c f0 be
       -0.8369872 1.0253465 -1.0441961 -0.46982569
000150 68 37 68 3e 76 e3 83 be 16 cb 15 bf 84 5a d8 be
       0.22677386 -0.25759476 -0.5851301 -0.42256558
000160 f6 8a e1 3e 9a ef 72 3f dd 60 80 3f 7a 25 2f bf
       0.4405133 0.9489685 1.002956 -0.6841656
000170 c0 13 a4 be ed 84 72 3d 48 47 ad 3e e9 87 69 bf
       -0.32046318 0.0592088 0.33843446 -0.9122301
000180 4d 45 3d 3f bb 7d 4f bf f0 a1 bb be 47 62 e1 3e
       0.7393387 -0.81051224 -0.36646986 0.44020292

bias f4 [100]
000000 7c 5a 6e 3f 2e 7f a6 3e de 71 94 3e c0 0c 8c bf
       0.9310682 0.32518905 0.28993124 -1.0941391
000010 83 ff 56 3f 61 29 fe 3e e1 23 be 3b 58 3d 27 3f
       0.8398363 0.49640945 0.005802617 0.6532798
000020 c1 26 19 3d 5e 13 d5 be 93 51 17 3e a3 6e ad be
       0.037390474 -0.41616338 0.14777212 -0.33873472
000030 a5 a1 b7 3d c0 42 dc bd b6 44 33 3f 4a 0f a3 3e
       0.08966378 -0.10754919 0.7002672 0.31847602
000040 c2 4f 44 3f 63 15 03 3f 83 ff 2d be 31 bb 0b 3f
       0.766842 0.5120451 -0.16992001 0.54582506
000050 0d 31 91 bf e5 9e 18 3f 60 38 af 3e 70 f2 73 3f
       -1.1343094 0.59617454 0.34222698 0.95291805
000060 b4 69 31 3f 6d 72 4e 3e fc a4 02 bf 13 fa 24 3f
       0.69301915 0.20160837 -0.51032996 0.6444408
000070 0a cb 78 3f 6b 1d 18 3e 6e 3f 69 3f ee 46 6b 3f
       0.97184813 0.14854972 0.9111241 0.91905105
000080 e9 fe 55 3f fa 3a 05 bf b1 da 2f bf d0 3b 86 bd
       0.8359209 -0.52043116 -0.6869307 -0.06554377
000090 de 31 ff be 0a e2 61 3f b7 0e c8 3d 11 4c 0f 3f
       -0.49842733 0.88235533 0.09768432 0.55975443
0000a0 a4 0a 30 bf 8a e0 02 3f 2d ae b9 3e 69 05 a0 3f
       -0.68766236 0.5112387 0.36265698 1.2501651
0000b0 b4 f1 f1 be 33 15 a2 be 82 f7 7d bf fa 7b 50 bf
       -0.47254717 -0.316568 -0.9920579 -0.81439173
0000c0 c0 14 20 3f 52 79 31 3f cf 68 49 3f 2b a5 4e 3d
       0.6253166 0.69325745 0.7867555 0.050450485
0000d0 a6 04 55 bf 65 a1 9c 3e 4e 48 4e bf 2e d4 88 bd
       -0.8321022 0.30591884 -0.8057908 -0.06681095
0000e0 8b 24 06 3f 2c c7 b9 3e c3 59 50 3f c0 49 6b be
       0.5239951 0.3628477 0.81386966 -0.22977352
0000f0 7f 3c f0 3c 91 77 f8 3e 66 6d 54 bd 62 43 0b bf
       0.029325722 0.48528722 -0.051862143 -0.54399693
000100 a8 f5 bb be c6 0b 78 3e 85 e9 06 3f a8 7f 1b 3e
       -0.36710858 0.24223241 0.5270007 0.15185416
000110 26 5f 34 bf 70 24 56 bd a5 43 2d 3f a8 b2 33 3e
       -0.70457685 -0.052280843 0.6768134 0.1754862
000120 6a b3 59 bf fe 28 aa be 4f f7 5d bf 2b 97 4e be
       -0.8503939 -0.332344 -0.8670549 -0.20174854
000130 d4 8f 89 bf cd c9 69 3f 20 6c a1 3e 22 f2 5a 3f
       -1.0747018 0.9132355 0.31527805 0.85525715
000140 94 45 28 be de 28 4e 3e 91 e4 f6 be 21 3a 39 3f
       -0.16432792 0.20132777 -0.48221257 0.7235432
000150 72 d8 47 bf 0c b5 92 3e 6a 3d fa 3e b2 b1 06 3f
       -0.78064644 0.28653753 0.4887498 0.5261489
000160 72 39 a0 3c 0e 91 e0 3e e7 26 0d bf 59 a0 c0 3e
       0.019558642 0.43860668 -0.55137485 0.37622336
000170 67 54 e5 3e cf 16 38 3e 9e f5 64 bf 66 b7 3d 3e
       0.44790956 0.17977451 -0.8943728 0.18526992
000180 3f b9 61 be b0 9d 28 3e f2 8a 51 bf 19 71 71 3f
       -0.22043322 0.16466403 -0.8185264 0.943132

weight f4 [1, 100]
000000 b3 f2 74 3d 13 43 99 be 16 18 a3 be 14 56 a9 3f
       0.05980177 -0.29933986 -0.31854314 1.3229394
000010 f4 0d 91 3e ac f7 47 3f 94 cb a0 3d 2b 45 09 3b
       0.28330958 0.7811229 0.078513294 0.0020945768
000020 28 09 01 bf 61 e7 11 3d 22 ab 75 3e 4e 8a f3 be
       -0.50404596 0.03562105 0.23991063 -0.47566456
000030 4c 43 b2 3e 7d 33 bc ba 95 06 31 be 3d e1 60 3c
       0.34816968 -0.0014358606 -0.17287667 0.013725576
000040 7d 20 ac 3d 7a cc 36 3e b9 15 8a be 1d 1d 37 3c
       0.08404634 0.17851439 -0.26969698 0.011176375
000050 95 7e ab 3f 87 55 09 3e 16 a4 3f be af 04 85 3e
       1.3398005 0.13411532 -0.18714938 0.25980136
000060 f0 76 70 bf 9e 45 83 be b0 d3 02 bd a1 70 dc 3d
       -0.93931484 -0.2563905 -0.031940162 0.1076367
000070 d8 ad 86 3f eb 78 6e 3e 1f a6 2b 3e 0e ab d4 3c
       1.0521803 0.23288314 0.16762589 0.025960471
000080 69 ed 08 3e 4c 50 23 3f 14 91 6f bf 17 c0 c7 bd
       0.13371815 0.637944 -0.93580747 -0.09753435
000090 b8 f0 88 3d 2f d2 4e 3e 8c 3d 82 3d e7 a6 77 bf
       0.066865385 0.20197366 0.063593954 -0.9673905
0000a0 54 23 a5 bc 98 d2 f5 3d 57 89 d1 be f5 64 dd bf
       -0.020158447 0.12003058 -0.40925094 -1.7296435
0000b0 7a e0 0c 3e a3 37 08 bf 70 41 3b 3c 3a 32 26 bd
       0.13757506 -0.53209895 0.011429176 -0.040575244
0000c0 30 e6 4f 3d 85 6d eb 3c 6e 6b 99 bd 61 3c 28 bf
       0.050756633 0.028738746 -0.07491194 -0.6571713
0000d0 42 1e 30 3d 26 b0 1e bc dc 24 e4 3c 48 95 3a 3f
       0.042997606 -0.009685552 0.027849607 0.72884035
0000e0 e4 00 47 3f 63 95 06 bd c0 17 31 3d fa 03 0f bd
       0.77735734 -0.03285731 0.04323554 -0.0349159
0000f0 8c f5 cf be d6 d2 b3 bc 7f 00 12 bf d9 4d 7a 3d
       -0.40617025 -0.02195112 -0.57032007 0.061109398
000100 73 96 83 3d 03 6d b5 3e d5 9f b6 bd e2 4c d9 be
       0.0642518 0.35434732 -0.08917204 -0.4244147
000110 02 6f 33 3d 2f c9 0b 3f 21 99 1b 3e 82 6d 10 be
       0.043807037 0.54603857 0.15195133 -0.14104274
000120 ad 2c 3d bd 28 53 fa 3e 97 bb 80 3f 10 71 9b be
       -0.046185184 0.48891568 1.0057248 -0.30359697
000130 4f bc be bf a5 e2 da 3d ff 4c 0f bb 2c 4f 15 3e
       -1.4901217 0.1068776 -0.0021865962 0.14580983
000140 74 18 04 3f ae b5 22 3f 70 cd 0a 3f 23 54 91 bb
       0.5159981 0.6355847 0.5421972 -0.0044350787
000150 1e 1d 78 3d 65 2e cc bd 74 bf 04 3f 64 09 96 3c
       0.060574643 -0.099697866 0.51854634 0.018315025
000160 ab 94 9a be 4f a6 28 3f a5 e2 1c 3e 57 d7 0e 3d
       -0.3019155 0.65878767 0.15320833 0.034873333
000170 e3 04 1b 3c 0a bd 7c bd 48 fe 8a bc f9 7d 04 bf
       0.009461614 -0.06170372 -0.016966954 -0.5175472
000180 5c 84 f9 3e b7 a0 d7 be b2 3f 14 3d 13 7d a0 3d
       0.48733795 -0.42114803 0.036193557 0.07836356

train_data f4 [600, 1]
000000 65 8c c0 3d 3b 3e eb be 9f c6 bf be be 44 4e bf
       0.09401778 -0.45945916 -0.37456223 -0.8057364
000010 df 18 49 be bf 99 b3 3e 1c 0e 42 3f 2e f5 a8 bc
       -0.19638394 0.35078236 0.7580278 -0.020624723
000020 48 f9 d9 bd fc 57 22 bf 96 75 4d bf 96 6f 0b bf
       -0.1064325 -0.63415504 -0.80257547 -0.5446714
000030 96 49 33 3d 4a 11 25 bf da 3d 41 3e 18 f0 12 be
       0.04377135 -0.64479506 0.18871251 -0.14349401
000040 1b a9 8e 3e 29 52 25 bf 6f 10 47 bf 85 07 65 bf
       0.27863392 -0.6457849 -0.7775945 -0.894646
000050 62 25 07 3f 36 2a 0d 3f c4 1b 1b bf 03 41 0b 3f
       0.52791417 0.55142534 -0.6058924 0.54396075
000060 6c d8 be 3d af 59 e5 be b5 30 40 3f 8f 33 33 bf
       0.09318623 -0.44794986 0.7507432 -0.7000055
000070 1c 3c 67 3f bd 3c 28 bd 5e e4 22 3f 7b 06 15 bf
       0.90326095 -0.04107355 0.6362971 -0.58213013
000080 fb 03 b8 3e 3f 2f 70 bf e9 68 3d 3f dc 56 6a 3f
       0.35940537 -0.9382209 0.73988205 0.91538787
000090 c3 8c f3 3e bd c1 b3 3d 2d bc 34 3f 93 64 61 bf
       0.4756833 0.08777187 0.70599633 -0.8804409
0000a0 ed ca 07 bf 82 e3 86 bd cf f1 d0 3e e8 76 0c be
       -0.53044015 -0.065863624 0.40809485 -0.13717234
0000b0 13 74 2a 3f 47 de 1e bf 25 40 e0 be 8d c5 3c 3f
       0.66583365 -0.6205792 -0.43798938 0.7373894
0000c0 e9 67 d8 bc f4 70 5f bf f1 9e 2e 3e 76 89 e2 3e
       -0.026416736 -0.8728173 0.17052819 0.442455
0000d0 c3 3e 51 3e 4a 18 fb be 81 ce 46 bf c1 da 7a 3f
       0.20434098 -0.4904197 -0.7765885 0.9799004
0000e0 59 c8 fa be 4b 3e 63 3e 45 c4 a3 3d 57 11 2f 3f
       -0.48980978 0.22191732 0.0799642 0.68385834
0000f0 7a cb 6e bf 2f 89 87 3e a0 4a 0d bf c4 82 06 bf
       -0.9327923 0.2647185 -0.55191994 -0.5254328
000100 13 48 38 3d 63 46 37 bf 75 fd 09 bf e4 25 13 bf
       0.04499061 -0.71591777 -0.5390237 -0.5747969
000110 62 1b 47 bf 4a 41 1f bf 9c 7f 51 bf 13 91 f3 3e
       -0.7777616 -0.62209 -0.8183534 0.4757162
000120 76 8e 3e be 4f 8e 29 3e 9a fb 80 3e 4b 66 02 3f
       -0.18609032 0.16558193 0.25191957 0.50937337
000130 ed 76 d3 bd 6c ae 62 3f 04 4d db be aa 5c 4b 3f
       -0.10325418 0.88547397 -0.42832196 0.7943827
000140 bf d1 20 3e f8 65 11 bf 74 9d fb be 76 b4 4e 3f
       0.15705012 -0.56796217 -0.49143565 0.8074411
000150 e9 c6 9d 3e 53 4c c6 be 7f de 42 bf 32 bb 30 3f
       0.3081582 -0.38730106 -0.7612075 0.6903564
000160 8f 63 6b 3f 2e be 09 3f 89 f1 70 3f 81 83 66 3f
       0.9194879 0.53805816 0.94118553 0.9004441
000170 3e 49 30 3f 40 72 28 3e 6a a5 17 3f 7a d8 5b 3f
       0.6886176 0.16449833 0.59236777 0.8587719
000180 d8 d4 a5 3e 72 89 5f bf d7 5b a4 be db cd 24 bf
       0.3238895 -0.873191 -0.32101318 -0.6437661
000190 37 13 7e 3e 2e 90 f3 be c3 35 57 3f e7 68 2a bf
       0.24812017 -0.47570938 0.8406641 -0.6656632
0001a0 4d c4 30 bf 77 8a 69 3f 39 04 c9 bd 2b fb 40 bf
       -0.6904953 0.91226906 -0.098152585 -0.7538325
0001b0 8e c5 9b be f0 9f 98 be 88 67 f9 be 5e bd 7f 3f
       -0.3042416 -0.29809523 -0.487118 0.99898326
0001c0 15 5d 6e bf 04 e2 13 3d 59 06 b7 3e 80 d2 48 bf
       -0.9311078 0.036104217 0.3574703 -0.784462
0001d0 29 81 43 bf 7b e5 38 bf a5 9b 78 be 20 63 c9 3e
       -0.7636896 -0.7222516 -0.24278124 0.3933344
0001e0 41 b0 14 3f 86 d0 7a 3f 69 b0 03 be f6 37 eb be
       0.5808144 0.9797443 -0.12860264 -0.45941132
0001f0 fb aa cb 3d 19 22 ef be 79 fa 0b be 57 4d 2f bf
       0.09944721 -0.46705702 -0.13669766 -0.68477386
000200 a1 f0 b6 3e c0 12 ab be 0a 0a 71 bf 97 c0 2a 3f
       0.3573046 -0.33412743 -0.94155943 0.6670012
000210 73 1b fe 3e f9 e7 79 bf 17 30 2b bf 3f 45 9f be
       0.49630317 -0.9761959 -0.66870254 -0.31107518
000220 61 f9 57 bf 3e 28 b7 3d cf d8 74 be de 13 3d 3f
       -0.84364897 0.089432225 -0.23910831 0.7385844
000230 4f b0 4f be 73 db 5e be d3 cb 24 bf bc 63 d6 3e
       -0.202821 -0.217634 -0.6437351 0.41872966
000240 81 22 63 3f 02 d1 3b bf 8f 6f a3 3e 4f 6f b7 3e
       0.88724524 -0.73365796 0.3192105 0.3582711
000250 14 9a d9 be e3 bd f7 be bd 70 cd 3d f1 19 6d 3f
       -0.42500365 -0.4838706 0.10031269 0.9261771
000260 68 9a 55 3f 5c 50 ec 3c 29 d1 a9 be 89 6a 5b bf
       0.8343873 0.028846912 -0.3316739 -0.85709435
000270 b8 03 f5 be ce 30 4e 3f c2 4f f8 be b8 f7 f8 3e
       -0.478544 0.8054322 -0.4849835 0.48626494
000280 57 c6 eb 3e dd 37 3a bf 94 cc d9 3e 50 b1 21 bf
       0.4604976 -0.7274149 0.42538893 -0.6316118
000290 38 b5 39 3f 66 9f 52 3e f8 ea 49 bf 4a 26 ea 3e
       0.7254214 0.20568618 -0.7887416 0.45732337
0002a0 9a ee f9 3e 7c c8 35 bf a6 dd f1 be 12 43 a0 3d
       0.4881485 -0.7100904 -0.47239417 0.07825293
0002b0 33 9c 15 3f 83 9d 4e bf fa 9a ef bc 5d be 19 3f
       0.58441466 -0.80709094 -0.029248703 0.60056096
0002c0 73 60 99 be b5 15 3a bf ec 09 61 bf 28 3d 94 3e
       -0.29956397 -0.7268937 -0.87905765 0.2895291
0002d0 3a 91 98 3e 0d 25 2d 3d 7b 91 72 be 0b 18 7b be
       0.297983 0.042271663 -0.23688309 -0.2452089
0002e0 c5 da cb 3e 4d 6e e4 be 28 b7 a6 3e 61 8a 16 bf
       0.39815345 -0.44615403 0.32561612 -0.588049
0002f0 b6 29 05 bf 8b 2c 2c 3e 94 a1 75 3f db 47 1c bf
       -0.5201677 0.16813867 0.95949674 -0.6104714
000300 9e 09 10 bf ca 63 ae bd 71 f6 2c bf 39 55 3a bf
       -0.56264675 -0.08515127 -0.6756354 -0.7278629
000310 8f 4c 4f 3f 81 e4 67 be d2 f6 4f bf 17 f1 3a be
       0.80976194 -0.22645761 -0.8123599 -0.18256031
000320 02 84 43 3f 38 a9 03 bf 40 8a b3 3e 47 91 d0 be
       0.763733 -0.5143008 0.35066414 -0.40735838
000330 b2 6c 34 bf ec f9 75 bf 0a 41 04 bf ef 7c 3d bf
       -0.70478356 -0.96084476 -0.5166174 -0.7401876
000340 31 ca ea bd 94 7b 40 3f 88 95 22 3f 6c 54 18 3d
       -0.11464346 0.75188565 0.63509417 0.037189886
000350 4e 6d 56 bb 0c 5a e2 3e f3 48 d8 3e ce f2 6f 3f
       -0.003271896 0.44209325 0.42243156 0.93729866
000360 28 32 6e bd 9f 51 71 bf b0 92 b0 be 38 d4 7a 3e
       -0.0581533 -0.9426517 -0.34486914 0.24495018
000370 c6 ae 95 bc 4b 15 73 bf ff 26 48 3f 8a 3c 4d 3f
       -0.018271815 -0.94954365 0.78184503 0.801705
000380 6d ef 0e be 2d a6 23 bc 33 7d 0f 3f cf e8 93 3e
       -0.13958521 -0.00998835 0.56050414 0.28888556
000390 3b 79 74 bf 5f 62 29 3f 26 00 85 3e 88 bb 7f bf
       -0.95497483 0.6616573 0.25976676 -0.99895525
0003a0 24 7a 29 bf 77 46 6a bf 72 2f d6 3d be 41 55 bf
       -0.66201997 -0.9151377 0.10458268 -0.8330344
0003b0 cd a2 15 bf f2 e4 22 bf f4 98 28 bf 7f c0 34 3f
       -0.5845154 -0.6363059 -0.6585839 0.70606226
0003c0 05 3e d9 be c1 5f 21 bf fe 03 90 bd c7 d8 79 3f
       -0.4243013 -0.63036734 -0.070320114 0.975964
0003d0 b1 eb 2f bf a0 29 59 bf d0 c4 60 3f 21 31 0c bf
       -0.6871901 -0.8482914 0.8780031 -0.54762465
0003e0 9b aa 29 3f d8 50 c1 be 7a c0 7a bd 2c e4 85 be
       0.6627595 -0.3775699 -0.061218716 -0.26150644
0003f0 9d 03 8d 3e 32 e7 fa bd 25 f5 16 3e 3d e6 b5 bc
       0.2754182 -0.12251128 0.14741953 -0.022204513

train_targets f4 [600, 1]
000000 6a ce 7d be ec f8 2c bf fc 84 65 3b 0e da 0d 3f
       -0.24785772 -0.67567325 0.0035021892 0.5541085
000010 bd 31 12 bf 15 64 46 be 1e 8f 6f bf b4 c2 55 3f
       -0.57107145 -0.19374116 -0.93577754 0.8350022
000020 de 1a 18 3e 1c ff 95 bd 54 53 14 3f 52 83 24 3f
       0.14853999 -0.07324049 0.5793965 0.6426288
000030 35 5b 26 bf 4a 29 22 be b3 7b 02 3f c2 80 17 be
       -0.6498292 -0.15836063 0.5097 -0.14795211
000040 94 5b 45 bf 2a 45 2a be 8a 7c 47 3f a8 f0 20 be
       -0.7709286 -0.16627946 0.77924407 -0.15716803
000050 f1 d4 46 bf 4d ae 16 bf 89 87 1c 3e e5 f7 25 bf
       -0.7766867 -0.5885971 0.15286078 -0.6483138
000060 28 4f 82 be bb 66 15 bf 5a 7a 7e bf 7b 9c 19 bf
       -0.25451016 -0.5835988 -0.99405444 -0.60004395
000070 77 83 67 3e a1 e1 2b 3f 81 17 b9 3d 4a 98 af 3e
       0.22608744 0.6714116 0.09037686 0.34295875
000080 b0 80 ff bd f6 79 01 bf 4a 47 6b 3f c3 6d a5 3e
       -0.12475717 -0.5057672 0.91905653 0.32310304
000090 0d 33 4e 3f 87 7c 98 be 65 e1 25 3f b2 49 32 bd
       0.8054665 -0.29782507 0.6479705 -0.043527313
0000a0 95 a8 41 3f fc 38 f2 3e 7a 8e 87 3e 84 6e c7 bd
       0.7564786 0.473091 0.26475888 -0.09737876
0000b0 2c 41 a7 3e 76 dc 10 3d 95 00 01 bf 6b 2c 66 3f
       0.3266691 0.035366498 -0.50391513 0.89911526
0000c0 06 e6 49 3f 55 0c 8f 3c c2 7b ba 3e d8 25 0a 3f
       0.7886661 0.017461935 0.36422545 0.53963995
0000d0 85 7d 22 3f 28 61 6c bf f6 8b 49 3f 07 d6 56 3f
       0.6347278 -0.9233575 0.7872919 0.8392033
0000e0 62 21 6b bf 96 7c 46 3f 76 77 b8 be 68 15 f1 3e
       -0.91847813 0.77533853 -0.3602864 0.47086644
0000f0 a6 b7 ec be 45 db 61 bf 00 ab 15 3f de e9 4b 3f
       -0.46233863 -0.88225204 0.5846405 0.7965373
000100 f6 db 23 bf 17 33 3a bf 5a 14 30 3f bb a1 cd 3e
       -0.6400751 -0.72734207 0.68781054 0.40162453
000110 f3 24 47 3f 34 b6 be 3c 3c 06 e8 3e 4a 44 4e 3f
       0.77790755 0.02328024 0.45317256 0.8057295
000120 d9 39 fa be 3d 39 a6 3e 98 11 7c bf a8 cd 6c bf
       -0.4887226 0.32465544 -0.98464346 -0.92501307
000130 4c 24 32 3e 02 9b ab 3d 21 68 da be af 1a 25 bf
       0.17396659 0.08379175 -0.4265757 -0.6449384
000140 fd 46 83 3e 80 a0 e9 3e cf 75 6e bf 4f 5c 0a bf
       0.25640097 0.45630264 -0.9314851 -0.540471
000150 5b e4 08 bf 5e 8a c9 bd 0a 0c 69 3f 90 d9 05 3f
       -0.5347344 -0.098408446 0.91033995 0.522851
000160 f6 38 b6 3e 8f 0e 32 bf 4c 8c 07 3f 24 70 50 3e
       0.35590333 -0.69553465 0.5294845 0.20355278
000170 f0 49 02 3f 00 c9 a1 3e 66 a9 85 be b4 f0 04 be
       0.5089407 0.31598663 -0.26105803 -0.12982446
000180 3d 59 d1 be 04 1c 6d 3c 4a 21 dd 3e 59 bb 19 be
       -0.40888396 0.0144720115 0.4318946 -0.15012874
000190 6e 26 7c 3f b6 40 4e bf d2 a3 8c be 6f 8e a6 be
       0.9849614 -0.8056749 -0.27468735 -0.32530543
0001a0 67 22 06 bf 77 a7 98 3e 1b ef 5b 3e aa 26 78 3f
       -0.52396244 0.29815266 0.2147793 0.96933997
0001b0 c6 e9 10 3f 3e 80 1d 3f 21 9e 65 bf ed ea 7d 3f
       0.5660671 0.6152381 -0.8969441 0.99186593
0001c0 55 d1 e5 be fe 0e 36 bf 6d 9a 0f be 01 6c 39 3f
       -0.4488627 -0.71116626 -0.14023753 0.72430426
0001d0 b5 f6 63 3f d8 2b 47 bf 4a 37 71 bf 07 32 16 3e
       0.8904832 -0.77801275 -0.9422499 0.14667521
0001e0 ec fb b4 be 2f 84 56 3f 22 1a ec bc da df 2c bf
       -0.3534845 0.83795446 -0.028821055 -0.6752907
0001f0 12 54 51 be 64 88 3c bf 8a a7 bf bd 69 d5 f4 be
       -0.20442227 -0.73645616 -0.093581274 -0.4781907
000200 ec f5 10 be fd 69 a7 3e 51 50 08 bf 71 09 ac 3e
       -0.14156312 0.3269805 -0.53247553 0.33600953
000210 ce 6d 78 3f c7 3f 4f bf 70 01 b3 be 04 eb 02 3f
       0.9704255 -0.8095669 -0.34962034 0.51139855
000220 f7 69 80 3e 85 af 91 be 9e b1 69 bf f2 9e 68 3f
       0.25080845 -0.28454223 -0.9128665 0.9086753
000230 9f 60 1f bf e6 b6 3d bf 55 7a 19 be e0 1d b3 3e
       -0.6225681 -0.74107206 -0.14988072 0.3498373
000240 4c a0 c8 3d 14 88 5e bf 86 83 e4 be 16 0b 09 be
       0.09796199 -0.8692639 -0.44631594 -0.13383135
000250 a2 d0 cc be 8e f7 5e bf 0d 3d 4a be 0e 9f d1 3e
       -0.40002924 -0.8709649 -0.19749852 0.40941662
000260 79 59 a6 be e9 eb 44 bf b7 76 b1 3e d2 ae 12 3e
       -0.32490137 -0.7692247 0.34660885 0.14324501
000270 e1 0e 54 bf 8d 79 0e bf 06 3f 61 bf df de 63 3f
       -0.82835203 -0.5565422 -0.8798679 0.8901195
000280 5c 19 2f 3f e7 be 51 bf a3 64 ce 3e d7 a7 58 bd
       0.6839807 -0.8193192 0.40311155 -0.05289444
000290 c1 a9 4d 3f cc 3e 25 3f 3f a8 30 3f 27 99 28 3f
       0.8033715 0.64548945 0.69006723 0.6585869
0002a0 69 ba 67 3f e1 43 2e bf 98 76 47 bf db 79 bf be
       0.90518814 -0.68072325 -0.77915335 -0.37397656
0002b0 d0 3c a6 be e6 13 0b 3f 42 19 44 3f 6e 34 48 be
       -0.3246827 0.5432724 0.7660104 -0.1955125
0002c0 34 7e 1a 3f a8 ad 50 bf f7 f5 04 bd 62 0b 2f bf
       0.6034882 -0.8151498 -0.032461133 -0.68376744
0002d0 19 bb 1d bf 7a 6d 29 bf f6 22 65 bf 17 30 76 bf
       -0.61613613 -0.6618267 -0.8950647 -0.9616713
0002e0 4b ac 3d 3e 34 b9 11 bf bf 46 ca be f7 59 97 3e
       0.18522756 -0.5692322 -0.395071 0.29560825
0002f0 52 b2 56 3f 2c b2 b0 3e a3 0c 2d 3f 47 09 ee 3d
       0.83865845 0.34510934 0.6759741 0.11622863
000300 23 66 ff 3e 6c 38 a3 3e 0c 67 cf be c6 a9 52 bf
       0.49882612 0.31878984 -0.40508306 -0.82290304
000310 89 9b 05 bf 02 c9 4f bf 6e 49 00 3f 5b c4 eb be
       -0.5219045 -0.8116609 0.50112045 -0.46048245
000320 f4 df 63 bf 43 b6 62 3f 04 5c 47 be 3b 8a 84 be
       -0.890136 0.8855936 -0.19468695 -0.2588671
000330 90 65 23 bf 60 cf 2f bf af f7 5d 3f 78 e7 6b bf
       -0.6382685 -0.68675804 0.8670606 -0.9215007
000340 7a ae a9 3d 64 23 7c bf 14 62 a5 3d ca d5 33 bf
       0.08285232 -0.984915 0.080753475 -0.7024809
000350 96 4c 79 3f 2e 68 09 3f 99 47 c2 3e e1 2c ff 3e
       0.97382486 0.5367459 0.3794525 0.49838927
000360 ec e6 08 3f f9 8c 0a bf 03 d5 76 3e 70 a8 75 3f
       0.5347736 -0.5412136 0.24104695 0.9596014
000370 4e 94 5a 3f 56 aa 18 bf 0b c8 3e bf b3 1b 16 bf
       0.85382545 -0.5963491 -0.7452399 -0.58636016
000380 d6 f6 ee bd 3a 8b 6b 3f 68 16 04 bf c4 5c 30 bf
       -0.11668174 0.9200932 -0.5159669 -0.6889155
000390 d6 c9 23 bf eb 25 96 3e 66 ff 6b bf 40 dc 7d bf
       -0.6397985 0.29325804 -0.9218658 -0.991642
0003a0 39 a2 97 be 75 67 a4 be 38 42 27 be 26 e4 ab 3e
       -0.29615954 -0.3211018 -0.16333854 0.335725
0003b0 2a d3 a5 3e 90 3c b9 bd 47 8f 89 be f5 03 26 3f
       0.32387668 -0.090447545 -0.26867124 0.6484979
0003c0 2c f0 c9 be ad e0 2f bd 03 f8 df 3e 38 c6 4e 3f
       -0.3944105 -0.042938877 0.43743905 0.8077121
0003d0 0b bb fe be f3 cb 5a 3e 0f d0 c4 3c f9 76 1e 3f
       -0.49752077 0.21366863 0.024024991 0.6190029
0003e0 b1 a9 9a 3e 09 6c a8 bc c3 9f 02 3f 50 6f 68 3f
       0.3020759 -0.020559328 0.5102503 0.9079485
0003f0 8b f1 4b bf c8 19 a3 3c 29 a9 37 3e 71 86 52 3f
       -0.7966544 0.019909754 0.17935623 0.8223639

test_data f4 [150, 1]
000000 47 34 6b bf 6b 93 09 bf 53 e8 40 bf 64 cf 7a bf
       -0.91876644 -0.53740567 -0.753545 -0.979727
000010 37 f0 6c bf d3 55 f8 bd ae fc b3 3d cd b2 b3 3e
       -0.9255404 -0.12125745 0.08788429 0.35097352
000020 d7 20 0b bf b8 c1 6d 3f 4f 9d 60 3e ca 60 23 3e
       -0.54346985 0.92873716 0.21935008 0.15954891
000030 40 57 a0 be 2e d4 ae be 2a e4 fc 3e 2e b9 e0 3c
       -0.31316566 -0.34146255 0.49392825 0.02743205
000040 cd 14 0c be b5 7a 3f bf 01 b8 3e bf 8d f1 17 bf
       -0.1367981 -0.7479661 -0.7449952 -0.5935295
000050 0b ac 4a 3f b9 3b 7c 3f 79 e8 7f bf e0 27 e7 3e
       0.79168767 0.9852863 -0.999641 0.4514761
000060 16 e1 ad 3e fa 11 c9 3e 00 cd 1f bf 79 e2 cb be
       0.3396079 0.39271528 -0.6242218 -0.39821222
000070 44 63 96 3e 13 61 7c 3f 45 18 0f be a1 24 d7 bc
       0.2937261 0.98585624 -0.13974102 -0.026262583
000080 da b4 82 bd da ba 49 bf 1e d7 a1 be fe c9 7a bf
       -0.06382151 -0.7880074 -0.31609434 -0.97964466
000090 37 74 0e bf 5c af 48 bf d3 fd 02 bf ac 94 42 3e
       -0.5564608 -0.7839258 -0.51168555 0.19002026
0000a0 a7 cd ab be cc 53 a0 3e ce 68 41 bf 7a 33 b7 bc
       -0.33555338 0.31313932 -0.75550544 -0.022363413
0000b0 d1 1c 0f 3f 4e 46 0c 3f 51 df 2b bf 27 5b ac be
       0.55903345 0.54794776 -0.6713763 -0.33663294
0000c0 a2 3e 25 3f ed 4b 35 3f 25 5a ad be 2c a7 73 bf
       0.64548695 0.7081898 -0.33857837 -0.9517696
0000d0 f2 1d d5 be c6 d2 10 bf bd 49 0f be e6 d0 c3 be
       -0.4162441 -0.56571615 -0.13992973 -0.38245314
0000e0 93 ad 4b be 16 e6 c5 be ff 8f 12 3e 0f 01 09 bf
       -0.19890432 -0.38652104 0.14312743 -0.5351724
0000f0 5a a1 02 3f fd 6e 0a 3e 56 84 37 3f e6 b7 ac be
       0.5102745 0.13518901 0.71686304 -0.33734053
000100 35 d2 73 bf 32 65 41 3e 8b 6f b2 3e ae d3 bf 3e
       -0.95242625 0.18886259 0.34850726 0.37466186
000110 20 77 57 be a8 fb bf be 6a 6f 2f 3f 11 77 43 bf
       -0.21041536 -0.37496686 0.6852938 -0.76353556
000120 27 52 0c 3f 85 ad 15 be 6e df 4c bf 8c ea 28 3e
       0.54812855 -0.14616974 -0.80028427 0.16495723
000130 c0 17 f3 be b8 65 20 3f 97 e6 bd bd 3f d1 d0 be
       -0.47479057 0.6265521 -0.09272497 -0.40784642
000140 ee 22 68 3f cd 3e dd 3e e6 72 62 3f 4e f6 34 be
       0.906783 0.43211976 0.8845657 -0.17672083
000150 5e fc 30 3f b7 6b 7a be d9 b2 7a 3f d0 49 01 be
       0.6913508 -0.24455152 0.9792915 -0.12625813
000160 72 33 67 be 9a 89 26 3f f0 63 07 bf 82 7d 1a bf
       -0.22578219 0.65053713 -0.5288687 -0.6034776
000170 dd d8 50 bf b0 b3 28 bf 54 97 12 3f a1 8d 87 bd
       -0.8158091 -0.6589918 0.5726216 -0.066188104
000180 b1 9a 5f 3f 77 dd 2d bf 7d 2d 0e 3f ea 63 75 3f
       0.87345415 -0.67916054 0.5553816 0.9585558
000190 a0 8b bc 3e 1d b5 31 bf a1 36 3e 3f 3e 13 96 3c
       0.36825275 -0.6941698 0.7430211 0.018319722
0001a0 19 e9 2c bf e4 80 58 3f e2 67 c0 3e aa 35 9b 3e
       -0.6754318 0.8457167 0.37579256 0.3031438
0001b0 1a 67 34 bf 9e 29 03 bf ac 90 b3 3c c4 5c 36 3f
       -0.7046982 -0.5123538 0.02191957 0.712353
0001c0 42 fd 38 3f 9c 08 16 3f 13 59 67 be 69 f6 4a 3e
       0.7226144 0.58606887 -0.22592573 0.1982056
0001d0 1d 08 db be e9 a1 5a bf 2c 65 a7 bd 74 2f 5a 3e
       -0.42779627 -0.85403305 -0.08173594 0.21307164
0001e0 2e 62 cc 3e e4 c8 ab 3e b0 26 96 3e 07 25 b5 bd
       0.39918655 0.33551705 0.2932639 -0.08844953
0001f0 de f1 06 be 3c 1a fb 3d e5 a4 e8 3d 29 3b 10 3f
       -0.13178203 0.12260863 0.11359576 0.5634027
000200 66 0d 71 bc 11 dc 0f bf af ef 2a 3e 9f de 4a bf
       -0.014712667 -0.5619517 0.16692995 -0.7924594
000210 b4 5a c6 be ab ac fe bd 48 11 9f 3e 14 41 98 bd
       -0.38741076 -0.124352776 0.31067872 -0.07434288
000220 5c f2 fa be ed 22 74 bf b2 5b 23 bf 21 d5 22 bf
       -0.4901303 -0.9536579 -0.6381179 -0.6360646
000230 91 33 a8 bd bb 76 9d 3d d3 f0 e9 3c 51 cd 5e 3e
       -0.082129605 0.07688662 0.028557217 0.2175801
000240 63 48 41 bf b7 20 2c 3f a8 e4 7f be 23 61 19 bf
       -0.7550108 0.6723742 -0.24989569 -0.59913844
000250 af 38 30 3f d7 a2 56 3f
       0.6883649 0.83842224

0.weight f4 [100, 1]
000000 d6 c2 a6 be 77 f8 f1 be 87 4d 6e 3f a2 5a a8 3f
       -0.32570523 -0.47259876 0.9308705 1.3152659
000010 60 0f 47 3f 4e 73 89 3f 5d c5 bf bd 98 29 5a bc
       0.77757835 1.0738313 -0.09363816 -0.013315581
000020 01 cb 5e 3f 42 ab 41 3f 51 09 fd be 6b f2 20 bf
       0.8702851 0.75651944 -0.4942117 -0.628699
000030 c8 c0 e9 3e 30 42 46 3e f1 73 0d bf 41 47 14 bf
       0.45654893 0.19361186 -0.5525504 -0.57921225
000040 2f a7 1d 3f 47 0d 03 3f ef 7f a1 be 68 2d b8 be
       0.61583227 0.51192135 -0.31542918 -0.35972142
000050 6e 8a ae 3f 57 a4 ce 3e 21 94 22 3f 3e 8a 45 3f
       1.3635995 0.40359756 0.63507277 0.77164066
000060 23 42 5a 3f 49 a3 25 3f 80 53 a1 bd 83 45 86 bc
       0.85257167 0.6470228 -0.078772545 -0.016390568
000070 15 eb 94 bf b5 6c fe be 48 99 08 3f 0c 51 06 3e
       -1.1634241 -0.49692312 0.5335889 0.13116854
000080 95 33 c7 3e a6 3b 90 bf b9 32 a3 bf 40 fa 63 3d
       0.3890654 -1.1268203 -1.2749854 0.05565858
000090 f4 14 68 3f 3b ef 61 3f 18 cc 10 3e 8b 03 9b bf
       0.9065697 0.8825566 0.14140356 -1.2110456
0000a0 6a 60 17 bf 8d ad 65 3e ae 55 2c 3f ff da c4 3f
       -0.5913149 0.22429486 0.67318237 1.5379332
0000b0 69 0b 5c 3f c3 cc 81 bf f0 4c b0 be e8 17 35 3e
       0.8595491 -1.0140613 -0.344337 0.17684901
0000c0 92 43 f4 3e df 10 28 3e 70 51 1c bf 45 58 97 3f
       0.47707802 0.16412686 -0.61061764 1.1823813
0000d0 b8 c4 3c bf b8 a3 50 3e 20 9c 94 3d 9a a2 8d 3f
       -0.7373767 0.20374954 0.07256341 1.1065247
0000e0 32 18 91 3f 06 53 21 bf 6a db be be 00 f4 ef 3c
       1.1335509 -0.6301731 -0.37276775 0.029291153
0000f0 d4 90 2d 3f 6b 7d 61 be 7b c8 79 bf ea 67 0b bf
       0.67799115 -0.220205 -0.97571534 -0.54455435
000100 a9 f0 2a 3f 97 7a 4f bf f8 43 c7 be 23 65 3f bf
       0.6677347 -0.8104643 -0.38919044 -0.747637
000110 20 4f 67 3d cd 7e 5d 3f 82 03 07 3f e1 bf a6 3e
       0.056471944 0.8652161 0.5273973 0.32568267
000120 40 ab 49 bd 0c ae 8e 3f c9 68 85 3f 48 6a 25 bf
       -0.049235582 1.1146865 1.0422603 -0.646153
000130 04 3f a8 bf f5 f5 d8 3e a4 6b 71 be fa b1 7f 3e
       -1.3144231 0.4237515 -0.23576218 0.24970236
000140 cb 44 56 bf 8e 3e 83 3f 38 a8 85 bf fe 8c f0 be
       -0.8369872 1.0253465 -1.0441961 -0.46982569
000150 68 37 68 3e 76 e3 83 be 16 cb 15 bf 84 5a d8 be
       0.22677386 -0.25759476 -0.5851301 -0.42256558
000160 f6 8a e1 3e 9a ef 72 3f dd 60 80 3f 7a 25 2f bf
       0.4405133 0.9489685 1.002956 -0.6841656
000170 c0 13 a4 be ed 84 72 3d 48 47 ad 3e e9 87 69 bf
       -0.32046318 0.0592088 0.33843446 -0.9122301
000180 4d 45 3d 3f bb 7d 4f bf f0 a1 bb be 47 62 e1 3e
       0.7393387 -0.81051224 -0.36646986 0.44020292

0.bias f4 [100]
000000 7c 5a 6e 3f 2e 7f a6 3e de 71 94 3e c0 0c 8c bf
       0.9310682 0.32518905 0.28993124 -1.0941391
000010 83 ff 56 3f 61 29 fe 3e e1 23 be 3b 58 3d 27 3f
       0.8398363 0.49640945 0.005802617 0.6532798
000020 c1 26 19 3d 5e 13 d5 be 93 51 17 3e a3 6e ad be
       0.037390474 -0.41616338 0.14777212 -0.33873472
000030 a5 a1 b7 3d c0 42 dc bd b6 44 33 3f 4a 0f a3 3e
       0.08966378 -0.10754919 0.7002672 0.31847602
000040 c2 4f 44 3f 63 15 03 3f 83 ff 2d be 31 bb 0b 3f
       0.766842 0.5120451 -0.16992001 0.54582506
000050 0d 31 91 bf e5 9e 18 3f 60 38 af 3e 70 f2 73 3f
       -1.1343094 0.59617454 0.34222698 0.95291805
000060 b4 69 31 3f 6d 72 4e 3e fc a4 02 bf 13 fa 24 3f
       0.69301915 0.20160837 -0.51032996 0.6444408
000070 0a cb 78 3f 6b 1d 18 3e 6e 3f 69 3f ee 46 6b 3f
       0.97184813 0.14854972 0.9111241 0.91905105
000080 e9 fe 55 3f fa 3a 05 bf b1 da 2f bf d0 3b 86 bd
       0.8359209 -0.52043116 -0.6869307 -0.06554377
000090 de 31 ff be 0a e2 61 3f b7 0e c8 3d 11 4c 0f 3f
       -0.49842733 0.88235533 0.09768432 0.55975443
0000a0 a4 0a 30 bf 8a e0 02 3f 2d ae b9 3e 69 05 a0 3f
       -0.68766236 0.5112387 0.36265698 1.2501651
0000b0 b4 f1 f1 be 33 15 a2 be 82 f7 7d bf fa 7b 50 bf
       -0.47254717 -0.316568 -0.9920579 -0.81439173
0000c0 c0 14 20 3f 52 79 31 3f cf 68 49 3f 2b a5 4e 3d
       0.6253166 0.69325745 0.7867555 0.050450485
0000d0 a6 04 55 bf 65 a1 9c 3e 4e 48 4e bf 2e d4 88 bd
       -0.8321022 0.30591884 -0.8057908 -0.06681095
0000e0 8b 24 06 3f 2c c7 b9 3e c3 59 50 3f c0 49 6b be
       0.5239951 0.3628477 0.81386966 -0.22977352
0000f0 7f 3c f0 3c 91 77 f8 3e 66 6d 54 bd 62 43 0b bf
       0.029325722 0.48528722 -0.051862143 -0.54399693
000100 a8 f5 bb be c6 0b 78 3e 85 e9 06 3f a8 7f 1b 3e
       -0.36710858 0.24223241 0.5270007 0.15185416
000110 26 5f 34 bf 70 24 56 bd a5 43 2d 3f a8 b2 33 3e
       -0.70457685 -0.052280843 0.6768134 0.1754862
000120 6a b3 59 bf fe 28 aa be 4f f7 5d bf 2b 97 4e be
       -0.8503939 -0.332344 -0.8670549 -0.20174854
000130 d4 8f 89 bf cd c9 69 3f 20 6c a1 3e 22 f2 5a 3f
       -1.0747018 0.9132355 0.31527805 0.85525715
000140 94 45 28 be de 28 4e 3e 91 e4 f6 be 21 3a 39 3f
       -0.16432792 0.20132777 -0.48221257 0.7235432
000150 72 d8 47 bf 0c b5 92 3e 6a 3d fa 3e b2 b1 06 3f
       -0.78064644 0.28653753 0.4887498 0.5261489
000160 72 39 a0 3c 0e 91 e0 3e e7 26 0d bf 59 a0 c0 3e
       0.019558642 0.43860668 -0.55137485 0.37622336
000170 67 54 e5 3e cf 16 38 3e 9e f5 64 bf 66 b7 3d 3e
       0.44790956 0.17977451 -0.8943728 0.18526992
000180 3f b9 61 be b0 9d 28 3e f2 8a 51 bf 19 71 71 3f
       -0.22043322 0.16466403 -0.8185264 0.943132

2.weight f4 [1, 100]
000000 b3 f2 74 3d 13 43 99 be 16 18 a3 be 14 56 a9 3f
       0.05980177 -0.29933986 -0.31854314 1.3229394
000010 f4 0d 91 3e ac f7 47 3f 94 cb a0 3d 2b 45 09 3b
       0.28330958 0.7811229 0.078513294 0.0020945768
000020 28 09 01 bf 61 e7 11 3d 22 ab 75 3e 4e 8a f3 be
       -0.50404596 0.03562105 0.23991063 -0.47566456
000030 4c 43 b2 3e 7d 33 bc ba 95 06 31 be 3d e1 60 3c
       0.34816968 -0.0014358606 -0.17287667 0.013725576
000040 7d 20 ac 3d 7a cc 36 3e b9 15 8a be 1d 1d 37 3c
       0.08404634 0.17851439 -0.26969698 0.011176375
000050 95 7e ab 3f 87 55 09 3e 16 a4 3f be af 04 85 3e
       1.3398005 0.13411532 -0.18714938 0.25980136
000060 f0 76 70 bf 9e 45 83 be b0 d3 02 bd a1 70 dc 3d
       -0.93931484 -0.2563905 -0.031940162 0.1076367
000070 d8 ad 86 3f eb 78 6e 3e 1f a6 2b 3e 0e ab d4 3c
       1.0521803 0.23288314 0.16762589 0.025960471
000080 69 ed 08 3e 4c 50 23 3f 14 91 6f bf 17 c0 c7 bd
       0.13371815 0.637944 -0.93580747 -0.09753435
000090 b8 f0 88 3d 2f d2 4e 3e 8c 3d 82 3d e7 a6 77 bf
       0.066865385 0.20197366 0.063593954 -0.9673905
0000a0 54 23 a5 bc 98 d2 f5 3d 57 89 d1 be f5 64 dd bf
       -0.020158447 0.12003058 -0.40925094 -1.7296435
0000b0 7a e0 0c 3e a3 37 08 bf 70 41 3b 3c 3a 32 26 bd
       0.13757506 -0.53209895 0.011429176 -0.040575244
0000c0 30 e6 4f 3d 85 6d eb 3c 6e 6b 99 bd 61 3c 28 bf
       0.050756633 0.028738746 -0.07491194 -0.6571713
0000d0 42 1e 30 3d 26 b0 1e bc dc 24 e4 3c 48 95 3a 3f
       0.042997606 -0.009685552 0.027849607 0.72884035
0000e0 e4 00 47 3f 63 95 06 bd c0 17 31 3d fa 03 0f bd
       0.77735734 -0.03285731 0.04323554 -0.0349159
0000f0 8c f5 cf be d6 d2 b3 bc 7f 00 12 bf d9 4d 7a 3d
       -0.40617025 -0.02195112 -0.57032007 0.061109398
000100 73 96 83 3d 03 6d b5 3e d5 9f b6 bd e2 4c d9 be
       0.0642518 0.35434732 -0.08917204 -0.4244147
000110 02 6f 33 3d 2f c9 0b 3f 21 99 1b 3e 82 6d 10 be
       0.043807037 0.54603857 0.15195133 -0.14104274
000120 ad 2c 3d bd 28 53 fa 3e 97 bb 80 3f 10 71 9b be
       -0.046185184 0.48891568 1.0057248 -0.30359697
000130 4f bc be bf a5 e2 da 3d ff 4c 0f bb 2c 4f 15 3e
       -1.4901217 0.1068776 -0.0021865962 0.14580983
000140 74 18 04 3f ae b5 22 3f 70 cd 0a 3f 23 54 91 bb
       0.5159981 0.6355847 0.5421972 -0.0044350787
000150 1e 1d 78 3d 65 2e cc bd 74 bf 04 3f 64 09 96 3c
       0.060574643 -0.099697866 0.51854634 0.018315025
000160 ab 94 9a be 4f a6 28 3f a5 e2 1c 3e 57 d7 0e 3d
       -0.3019155 0.65878767 0.15320833 0.034873333
000170 e3 04 1b 3c 0a bd 7c bd 48 fe 8a bc f9 7d 04 bf
       0.009461614 -0.06170372 -0.016966954 -0.5175472
000180 5c 84 f9 3e b7 a0 d7 be b2 3f 14 3d 13 7d a0 3d
       0.48733795 -0.42114803 0.036193557 0.07836356
