complete/square/state0.pt (torch, 10937 bytes, 9 tensors)

weight f4 [100, 1]
0.70894325 2.1630616 -0.28314945 1.620121 2.3414996 -0.018265419 0.028221965 -1.3850353
1.624118 0.4121556 0.05807388 -0.5347016 -1.532553 -1.6625032 -2.0845416 1.6083325
-0.5971519 0.15167083 -2.0644236 -0.3565972 -0.45067695 -1.5690687 0.25371206 -1.3772657
0.27011323 1.479648 1.4481198 1.2971445 1.4911591 -0.007423406 -2.8442783 -2.2850592
-0.085467815 0.76134884 0.088896945 1.8739526 -0.6506798 1.1790147 -0.22916949 0.24552202
0.6933192 -1.3488535 -2.2606332 -1.1885172 0.9072827 2.1135964 -0.4264083 -0.8300099
0.19051528 -0.33338127 3.9333656 -1.320466 0.95408106 -2.733984 -0.31789097 0.48204887
0.21999507 -0.72406346 0.48562208 0.44743437 -1.0733124 1.5273478 0.29840136 0.7533227
0.6930355 0.48366436 -2.1265416 0.09855521 -0.24634588 -3.2189019 -4.0343456 -0.5235913
1.2157549 -1.4991676 -0.38752186 -1.6469938 -0.11337602 -1.5548666 -1.2198393 0.103730366
0.17473781 -0.09785585 -1.5539819 -0.30873746 -0.70053816 1.0692922 -0.20087028 -0.907467
0.056678653 -0.33370245 2.75438 -1.3753362 -0.26494503 -1.2788936 0.34621513 -0.19309898
-0.6328926 -0.15370095 1.1245586 1.1261704
00000000: 4e7d 353f 9a6f 0a40 f7f8 90be 2060 cf3f
00000010: 21db 1540 5ca1 95bc c031 e73c d648 b1bf
00000020: 19e3 cf3f 0f06 d33e e0de 6d3d 34e2 08bf
00000030: b22a c4bf e8cc d4bf 2169 05c0 d7dd cd3f
00000040: f2de 18bf 994f 1b3e 841f 04c0 e893 b6be
00000050: 21bf e6be 3ed7 c8bf 8ce6 813e 3e4a b0bf
00000060: 484c 8a3e 1b65 bd3f fd5b b93f d508 a63f
00000070: 4dde be3f 0b40 f3bb a808 36c0 693e 12c0
00000080: c009 afbd c2e7 423f 9a0f b63d aedd ef3f
00000090: f492 26bf f4e9 963f 68ab 6abe 206a 7b3e
000000a0: 5e7d 313f 3ba7 acbf 37ae 10c0 5521 98bf
000000b0: ae43 683f 2a45 0740 3052 dabe 877b 54bf
000000c0: 7016 433e f3b0 aabe 43bc 7b40 0805 a9bf
000000d0: a83e 743f 98f9 2ec0 9bc2 a2be 1ccf f63e
000000e0: 6346 613e 395c 39bf 75a3 f83e 1e16 e53e
000000f0: 4d62 89bf 2280 c33f 10c8 983e c2d9 403f
00000100: c66a 313f dba2 f73e 4219 08c0 50d7 c93d
00000110: 1842 7cbe 7d02 4ec0 5c19 81c0 140a 06bf
00000120: db9d 9b3f b9e4 bfbf 4469 c6be b1d0 d2bf
00000130: b031 e8bd de05 c7bf b223 9cbf 9670 d43d
00000140: 78ee 323e a668 c8bd e1e8 c6bf d612 9ebe
00000150: 7856 33bf 91de 883f f0b0 4dbe c24f 68bf
00000160: e027 683d 0cdb aabe c347 3040 040b b0bf
00000170: e0a6 87be c9b2 a3bf 1c43 b13e bdbb 45be
00000180: 4005 22bf c863 1dbe 89f1 8f3f 5a26 903f

bias f4 [100]
0.8858844 0.85849315 0.667183 1.1859536 0.9293317 0.2269388 -0.9345195 -0.84010756
-0.974851 0.62225854 -0.5145092 -0.62477744 -0.92953986 1.2339476 -1.5164391 0.6651488
0.96485543 0.6193836 0.8322266 -0.5903877 0.33434924 -0.9516872 -0.92686546 1.0222586
-0.48828638 0.40817875 1.0600392 0.9495224 -0.89505625 0.92347664 0.18096752 -0.071817406
-0.2641462 -0.4569726 0.08849729 0.51671153 -0.7161572 -0.7076808 0.42151603 -0.2702006
-0.943779 0.5437829 0.9113434 -0.7209052 -0.9118216 0.8736115 -0.6189369 0.6159616
0.3298532 0.9527101 -0.197762 0.98007745 0.698387 0.7701647 0.50715417 -0.89734507
0.87449735 0.8670296 0.749801 0.7151617 0.40351787 0.4211677 -0.39148116 -0.45214826
-0.92868686 0.5070346 0.7993792 -0.29823864 -0.5707314 0.90679425 -0.17275879 -0.7587669
0.889942 -0.047102213 -0.8821455 1.2224237 -0.15048766 0.62825775 -0.73987323 0.38943043
-0.104886785 0.29231885 -0.9425717 0.4361167 -0.4248569 -0.6418387 -0.99739957 -0.9646456
-0.25568056 -0.41875374 0.75923026 0.55508286 -0.65432703 -0.77571195 0.8987191 0.5264165
0.7630632 -0.7887622 -0.6750054 -0.6759503
00000000: 52c9 623f 35c6 5b3f 81cc 2a3f 54cd 973f
00000010: afe8 6d3f a562 683e ac3c 6fbf 4a11 57bf
00000020: d68f 79bf 564c 1f3f e0b6 03bf 6af1 1fbf
00000030: 53f6 6dbf fff1 9d3f ad1a c2bf 3147 2a3f
00000040: c400 773f ec8f 1e3f cd0c 553f a623 17bf
00000050: d32f ab3e c6a1 73bf 0e47 6dbf 5fd9 823f
00000060: ac00 fabe cefc d03e 5daf 873f e613 733f
00000070: 6822 65bf f768 6c3f 8d4f 393e 0115 93bd
00000080: 2c3e 87be 50f8 e9be 113e b53d 3547 043f
00000090: 1456 37bf 922a 35bf f3d0 d73e bc57 8abe
000000a0: 809b 71bf 5b35 0b3f cd4d 693f 3e8d 38bf
000000b0: 246d 69bf 01a5 5f3f a672 1ebf a9af 1d3f
000000c0: 85e2 a83e cfe4 733f 1f82 4abe 5be6 7a3f
000000d0: 7ec9 323f 8429 453f dbd4 013f 68b8 65bf
000000e0: 0fdf 5f3f a7f5 5d3f f5f2 3f3f d614 373f
000000f0: e599 ce3e 4ba3 d73e 3870 c8be fa7f e7be
00000100: 6cbe 6dbf 05cd 013f 1ea4 4c3f bcb2 98be
00000110: 741b 12bf ab23 683f aee7 30be 8c3e 42bf
00000120: 3dd3 633f 40ee 40bd 4ad4 61bf 6178 9c3f
00000130: 7019 1abe 80d5 203f 5568 3dbf 6d63 c73e
00000140: e2ce d6bd d1aa 953e 614c 71bf b04a df3e
00000150: d886 d9be 8b4f 24bf 9455 7fbf 04f3 76bf
00000160: 90e8 82be e466 d6be ea5c 423f e919 0e3f
00000170: fa81 27bf 0f95 46bf 7412 663f 3bc3 063f
00000180: 1c58 433f 52ec 49bf 27cd 2cbf 140b 2dbf

weight f4 [1, 100]
-0.22129442 -2.0809407 0.21065187 1.6871824 -2.2455385 -0.06851005 0.054075383 -1.3745899
1.4599924 -0.16043326 0.054112144 -0.070761934 -1.5001309 -1.7025226 2.285562 -1.4477212
0.32915562 0.06969844 1.9248544 0.027069397 -0.50982326 -1.535791 0.026100539 -1.3969619
0.08159477 1.4779218 1.489938 1.2503045 1.4355417 0.028609458 -2.6992016 2.2122648
0.005473122 0.6964691 -0.112783186 1.8212805 0.04815135 1.0651364 0.16315508 0.0041239485
0.050878607 1.2822217 2.1703498 -1.1752837 0.08950294 -2.0212097 -0.05025009 -0.88491786
-0.10751137 0.22606532 -3.8779497 -1.3489017 0.97079986 -2.7526133 0.2300784 -0.0661142
-0.053354133 0.294642 -0.19925104 -0.036902457 1.0262579 1.4862751 0.098276295 0.6155364
-0.025668994 -0.04776434 2.0217907 -0.07934646 -0.024914503 -3.2597976 3.8993456 0.050806947
1.2506803 1.4621072 -0.08824058 -1.6707797 -0.05382378 1.3843825 -1.2111603 0.059259556
0.18716761 0.053940818 -1.5428045 0.11284275 -0.59804183 1.0363269 -0.0025776029 0.096340604
0.08987247 0.030896865 2.6579287 1.2426364 -0.08044951 -1.241846 -0.09384309 0.11998335
0.35609728 0.08742001 1.1057993 1.0231527
00000000: 019b 62be 222e 05c0 20b5 573e 98f5 d73f
00000010: e7b6 0fc0 ff4e 8cbd 267e 5d3d 90f2 afbf
00000020: 08e1 ba3f 9e48 24be b2a4 5d3d a2eb 90bd
00000030: 4a04 c0bf 43ec d9bf a646 1240 ee4e b9bf
00000040: 1687 a83e 0ebe 8e3d a161 f63f a4c0 dd3c
00000050: c783 02bf cd94 c4bf ccd0 d53c a6cf b2bf
00000060: 291b a73d 8b2c bd3f 4ab6 be3f fa09 a03f
00000070: d5bf b73f 625e ea3c b8bf 2cc0 bf95 0d40
00000080: e057 b33b cd4b 323f dffa e6bd b81f e93f
00000090: 5a3a 453d 6456 883f 2012 273e 3022 873b
000000a0: 1666 503d d71f a43f 03e7 0a40 b26f 96bf
000000b0: 514d b73d 805b 01c0 0ad3 4dbd fa89 62bf
000000c0: ec2e dcbd ab7d 673e 5430 78c0 d0a8 acbf
000000d0: 5786 783f d12a 30c0 ac99 6b3e e266 87bd
000000e0: dd89 5abd 51db 963e 7708 4cbe 0827 17bd
000000f0: 6b5c 833f 433e be3f 1545 c93d cb93 1d3f
00000100: c847 d2bc 8aa4 43bd 0565 0140 6680 a2bd
00000110: 8019 ccbc 86a0 50c0 e18e 7940 f21a 503d
00000120: 4b16 a03f 5426 bb3f 7ab7 b4bd 1cdc d5bf
00000130: 5376 5cbd 7233 b13f 4d07 9bbf 26ba 723d
00000140: dea8 3f3e 0cf1 5c3d 9e7a c5bf 1a1a e73d
00000150: 4519 19bf 5ca6 843f 00ed 28bb 394e c53d
00000160: 0f0f b83d 6c1b fd3c 811b 2a40 b60e 9f3f
00000170: b6c2 a4bd cff4 9ebf ce30 c0bd d5b9 f53d
00000180: 6252 b63e 4309 b33d d58a 8d3f abf6 823f

train_data f4 [600, 1]
0.68441325 -0.29809523 0.6469157 -0.4362663 0.9143339 0.8266747 0.91538787 -0.56264675
0.4595037 -0.49638775 0.1740894 -0.68477386 -0.9691931 -0.14948136 0.3240192 -0.6945576
0.36683172 -0.47503552 -0.58210665 0.36394382 0.5101542 0.9297771 -0.7268937 0.9687966
0.78184503 0.042271663 -0.04107355 0.22692147 -0.6654929 0.09401778 -0.7100904 -0.66201997
-0.5747969 -0.44794986 0.1504172 0.1705355 -0.47239417 -0.19638394 0.9004441 0.12239958
0.91858286 -0.053028014 0.88724524 -0.5166174 0.8343873 0.46344477 -0.151381 -0.5830773
0.47268015 0.4185634 -0.3970901 0.56050414 -0.020197224 0.34361634 -0.19217572 0.24411026
-0.5446714 -0.8123599 0.6506276 -0.7620046 -0.6316118 0.3114814 -0.8115413 -0.8865906
-0.6577579 0.0799642 0.390281 -0.5201677 0.2647185 0.02649908 -0.42187086 0.310196
-0.66870254 -0.69524395 -0.3852662 -0.54815644 0.15241876 -0.011652127 -0.94155943 0.22191732
-0.7460264 -0.94954365 0.22942683 0.39815345 0.12111905 0.66583365 -0.9076572 -0.478544
0.4604976 -0.87905765 0.97782326 0.34286228 0.5025341 0.16449833 0.39749166 0.33566546
0.6364081 -0.8057364 0.7943827 -0.6068095 0.50937337 -0.7887416 0.33305582 -0.9139524
-0.6486619 -0.022204513 0.25976676 0.60066116 0.04377135 -0.69268656 -0.75213546 -0.7274149
0.07160211 0.5799261 0.8074411 -0.49143565 -0.9151377 -0.60438037 0.17197408 0.68385834
0.8679865 -0.6437661 -0.7612075 -0.40664825 -0.115389176 0.35078236 0.44487917 0.33835062
-0.5811898 -0.4694382 0.44209325 -0.23076175 0.6346064 -0.9009348 0.27863392 0.3594559
0.25594673 0.2754182 -0.78858113 0.55833447 -0.30003247 0.8587719 0.99226946 -0.07816727
-0.39750734 -0.9761959 -0.031406976 0.90326095 -0.8183534 -0.4849835 -0.1064325 0.7385844
-0.4755765 0.42538893 -0.48980978 0.6434424 0.7478548 -0.27517706 0.54057103 0.378429
-0.85710907 0.34252873 0.73988205 -0.061218716 0.040104933 -0.021494724 0.52791417 0.16597277
0.37355086 -0.122710034 -0.37456223 0.41383484 -0.82009864 0.6362971 0.50986654 0.44351608
0.15940918 0.21477842 -0.6159433 -0.6218557 0.24812017 0.23533277 0.9573613 -0.22052233
-0.86401445 0.297983 0.2895291 0.7254214 -0.81325895 -0.47625762 -0.8311283 0.531
0.07668487 0.12372285 -0.8804409 0.82426494 0.4893856 -0.035955876 -0.7222516 0.7014254
0.73087716 0.3933344 0.3997757 0.91898483 -0.8049192 0.49741143 -0.8807623 -0.53044015
0.85662615 0.39189863 0.3582711 -0.15130192 -0.64479506 -0.70478356 -0.4904197 0.6355211
-0.487118 -0.5185859 0.5144005 -0.15422863 -0.784462 -0.07510168 0.3574703 0.9632759
-0.8330344 -0.83585757 -0.7401876 -0.56796217 0.53805816 0.39621103 0.69825864 -0.3775699
0.70599633 0.442455 -0.96084476 0.88410115 -0.43798938 -0.42500365 -0.55191994 -0.92847455
-0.6576266 0.4756833 0.6887843 0.061595105 -0.99895525 0.98740923 0.20434098 -0.894646
-0.7806051 -0.3624434 -0.8900517 -0.057285693 -0.588049 0.8267517 0.38965726 0.05706627
00000000: b535 2f3f f09f 98be 449c 253f 4c5e dfbe
00000010: c911 6a3f f4a0 533f dc56 6a3f 9e09 10bf
00000020: 1244 eb3e 8926 febe 7e44 323e 574d 2fbf
00000030: 0a1d 78bf a411 19be d8e5 a53e 87ce 31bf
00000040: 5ed1 bb3e db37 f3be f104 15bf d856 ba3e
00000050: 7799 023f df05 6e3f b515 3abf 0e03 783f
00000060: ff26 483f 0d25 2d3d bd3c 28bd 1a5e 683e
00000070: be5d 2abf 658c c03d 7cc8 35bf 247a 29bf
00000080: e425 13bf af59 e5be f706 1a3e dca0 2e3e
00000090: a6dd f1be df18 49be 8183 663f a2ac fa3d
000000a0: 3f28 6b3f e733 59bd 8122 633f 0a41 04bf
000000b0: 689a 553f a248 ed3e 9f03 1bbe 8e44 15bf
000000c0: 2203 f23e f14d d63e 654f cbbe 337d 0f3f
000000d0: a674 a5bc 7bee af3e b6c9 44be 0af8 793e
000000e0: 966f 0bbf d2f6 4fbf 888f 263f bc12 43bf
000000f0: 50b1 21bf 7d7a 9f3e 2cc1 4fbf 9af7 62bf
00000100: d262 28bf 45c4 a33d e9d2 c73e b629 05bf
00000110: 2f89 873e 9914 d93c 75ff d7be 03d2 9e3e
00000120: 1730 2bbf 82fb 31bf 9d41 c5be fb53 0cbf
00000130: aa13 1c3e 90e8 3ebc 0a0a 71bf 4b3e 633e
00000140: 96fb 3ebf 4b15 73bf deee 6a3e c5da cb3e
00000150: 440d f83d 1374 2a3f 395c 68bf b803 f5be
00000160: 57c6 eb3e ec09 61bf a052 7a3f a58b af3e
00000170: 13a6 003f 4072 283e 0784 cb3e 58dc ab3e
00000180: a4eb 223f be44 4ebf aa5c 4b3f de57 1bbf
00000190: 4b66 023f f8ea 49bf 4b86 aa3e c9f8 69bf
000001a0: b50e 26bf 3de6 b5bc 2600 853e eec4 193f
000001b0: 9649 333d e853 31bf f38b 40bf dd37 3abf
000001c0: 21a4 923d 0976 143f 76b4 4e3f 749d fbbe
000001d0: 7746 6abf acb8 1abf f919 303e 5711 2f3f
000001e0: 5d34 5e3f dbcd 24bf 7fde 42bf 3334 d0be
000001f0: 2951 ecbd bf99 b33e 34c7 e33e 4b3c ad3e
00000200: dbc8 14bf 345a f0be 0c5a e23e cf4c 6cbe
00000210: 9175 223f aaa3 66bf 1ba9 8e3e 9b0a b83e
00000220: 730b 833e 9d03 8d3e 74e0 49bf 02ef 0e3f
00000230: db9d 99be 7ad8 5b3f 5f05 7e3f 2916 a0bd
00000240: 1586 cbbe f9e7 79bf 9aa4 00bd 1c3c 673f
00000250: 9c7f 51bf c24f f8be 48f9 d9bd de13 3d3f
00000260: c37e f3be 94cc d93e 59c8 fabe a4b8 243f
00000270: 6a73 3f3f 02e4 8cbe dd62 0a3f 72c1 c13e
00000280: 806b 5bbf ed5f af3e e968 3d3f 7ac0 7abd
00000290: 1245 243d b415 b0bc 6225 073f c4f4 293e
000002a0: 0f42 bf3e 664f fbbd 9fc6 bfbe 29e2 d33e
000002b0: fcf1 51bf 5ee4 223f 9d86 023f 8a14 e33e
000002c0: 293c 233e e0ee 5b3e 76ae 1dbf ef31 1fbf
000002d0: 3713 7e3e 13fb 703e a115 753f 9bd0 61be
000002e0: 0d30 5dbf 3a91 983e 283d 943e 38b5 393f
000002f0: bd31 50bf 0ad8 f3be d3c4 54bf 9eef 073f
00000300: f50c 9d3d 6862 fd3d 9364 61bf 0703 533f
00000310: c090 fa3e 7846 13bd 7be5 38bf 9d90 333f
00000320: c41a 3b3f 2063 c93e 67af cc3e 9742 6b3f
00000330: 2f0f 4ebf b6ac fe3e a379 61bf edca 07bf
00000340: da4b 5b3f f0a6 c83e 4f6f b73e e4ee 1abe
00000350: 4a11 25bf b26c 34bf 4a18 fbbe 83b1 223f
00000360: 8867 f9be 0cc2 04bf c0af 033f 1cee 1dbe
00000370: 80d2 48bf e9ce 99bd 5906 b73e 4099 763f
00000380: be41 55bf c3fa 55bf ef7c 3dbf f865 11bf
00000390: 2ebe 093f 2cdc ca3e 14c1 323f d850 c1be
000003a0: 2dbc 343f 7689 e23e ecf9 75bf 7454 623f
000003b0: 2540 e0be 149a d9be a04a 0dbf 82b0 6dbf
000003c0: 385a 28bf c38c f33e 2b54 303f 264b 7c3d
000003d0: 88bb 7fbf dac6 7c3f c33e 513e 8507 65bf
000003e0: bcd5 47bf 2e92 b9be 6eda 63bf 67a4 6abd
000003f0: 618a 16bf 00a6 533f 2881 c73e 52be 693d

train_targets f4 [600, 1]
1.0 -1.0 -1.0 1.0 1.0 1.0 1.0 1.0
-1.0 1.0 1.0 -1.0 -1.0 -1.0 1.0 -1.0
-1.0 1.0 1.0 -1.0 -1.0 1.0 -1.0 1.0
1.0 1.0 -1.0 1.0 1.0 1.0 -1.0 1.0
1.0 1.0 1.0 1.0 1.0 -1.0 1.0 1.0
1.0 -1.0 1.0 1.0 1.0 -1.0 -1.0 1.0
-1.0 -1.0 1.0 -1.0 -1.0 -1.0 -1.0 1.0
1.0 -1.0 -1.0 -1.0 1.0 1.0 -1.0 -1.0
1.0 1.0 -1.0 1.0 1.0 1.0 1.0 1.0
-1.0 -1.0 1.0 1.0 1.0 -1.0 -1.0 1.0
-1.0 -1.0 1.0 -1.0 1.0 -1.0 -1.0 1.0
-1.0 -1.0 1.0 -1.0 -1.0 1.0 -1.0 -1.0
-1.0 -1.0 1.0 1.0 -1.0 -1.0 1.0 -1.0
1.0 -1.0 1.0 -1.0 1.0 -1.0 -1.0 -1.0
1.0 -1.0 1.0 1.0 -1.0 1.0 1.0 1.0
1.0 1.0 -1.0 1.0 -1.0 -1.0 -1.0 -1.0
1.0 1.0 -1.0 -1.0 -1.0 -1.0 1.0 -1.0
1.0 1.0 -1.0 -1.0 -1.0 1.0 1.0 -1.0
1.0 -1.0 -1.0 1.0 -1.0 1.0 -1.0 1.0
1.0 -1.0 1.0 -1.0 1.0 -1.0 -1.0 -1.0
-1.0 -1.0 1.0 -1.0 1.0 -1.0 -1.0 1.0
-1.0 -1.0 1.0 -1.0 -1.0 -1.0 -1.0 -1.0
1.0 1.0 1.0 1.0 1.0 1.0 1.0 -1.0
-1.0 1.0 1.0 1.0 -1.0 1.0 -1.0 -1.0
1.0 1.0 -1.0 1.0 -1.0 -1.0 -1.0 1.0
1.0 -1.0 -1.0 1.0 -1.0 -1.0 -1.0 1.0
1.0 -1.0 -1.0 -1.0 1.0 -1.0 1.0 -1.0
1.0 1.0 -1.0 -1.0 -1.0 -1.0 -1.0 1.0
-1.0 -1.0 -1.0 1.0 -1.0 -1.0 1.0 1.0
1.0 -1.0 -1.0 1.0 1.0 1.0 1.0 -1.0
1.0 -1.0 1.0 1.0 -1.0 1.0 1.0 -1.0
-1.0 1.0 -1.0 -1.0 1.0 1.0 -1.0 1.0
00000000: 0000 803f 0000 80bf 0000 80bf 0000 803f
00000010: 0000 803f 0000 803f 0000 803f 0000 803f
00000020: 0000 80bf 0000 803f 0000 803f 0000 80bf
00000030: 0000 80bf 0000 80bf 0000 803f 0000 80bf
00000040: 0000 80bf 0000 803f 0000 803f 0000 80bf
00000050: 0000 80bf 0000 803f 0000 80bf 0000 803f
00000060: 0000 803f 0000 803f 0000 80bf 0000 803f
00000070: 0000 803f 0000 803f 0000 80bf 0000 803f
00000080: 0000 803f 0000 803f 0000 803f 0000 803f
00000090: 0000 803f 0000 80bf 0000 803f 0000 803f
000000a0: 0000 803f 0000 80bf 0000 803f 0000 803f
000000b0: 0000 803f 0000 80bf 0000 80bf 0000 803f
000000c0: 0000 80bf 0000 80bf 0000 803f 0000 80bf
000000d0: 0000 80bf 0000 80bf 0000 80bf 0000 803f
000000e0: 0000 803f 0000 80bf 0000 80bf 0000 80bf
000000f0: 0000 803f 0000 803f 0000 80bf 0000 80bf
00000100: 0000 803f 0000 803f 0000 80bf 0000 803f
00000110: 0000 803f 0000 803f 0000 803f 0000 803f
00000120: 0000 80bf 0000 80bf 0000 803f 0000 803f
00000130: 0000 803f 0000 80bf 0000 80bf 0000 803f
00000140: 0000 80bf 0000 80bf 0000 803f 0000 80bf
00000150: 0000 803f 0000 80bf 0000 80bf 0000 803f
00000160: 0000 80bf 0000 80bf 0000 803f 0000 80bf
00000170: 0000 80bf 0000 803f 0000 80bf 0000 80bf
00000180: 0000 80bf 0000 80bf 0000 803f 0000 803f
00000190: 0000 80bf 0000 80bf 0000 803f 0000 80bf
000001a0: 0000 803f 0000 80bf 0000 803f 0000 80bf
000001b0: 0000 803f 0000 80bf 0000 80bf 0000 80bf
000001c0: 0000 803f 0000 80bf 0000 803f 0000 803f
000001d0: 0000 80bf 0000 803f 0000 803f 0000 803f
000001e0: 0000 803f 0000 803f 0000 80bf 0000 803f
000001f0: 0000 80bf 0000 80bf 0000 80bf 0000 80bf
00000200: 0000 803f 0000 803f 0000 80bf 0000 80bf
00000210: 0000 80bf 0000 80bf 0000 803f 0000 80bf
00000220: 0000 803f 0000 803f 0000 80bf 0000 80bf
00000230: 0000 80bf 0000 803f 0000 803f 0000 80bf
00000240: 0000 803f 0000 80bf 0000 80bf 0000 803f
00000250: 0000 80bf 0000 803f 0000 80bf 0000 803f
00000260: 0000 803f 0000 80bf 0000 803f 0000 80bf
00000270: 0000 803f 0000 80bf 0000 80bf 0000 80bf
00000280: 0000 80bf 0000 80bf 0000 803f 0000 80bf
00000290: 0000 803f 0000 80bf 0000 80bf 0000 803f
000002a0: 0000 80bf 0000 80bf 0000 803f 0000 80bf
000002b0: 0000 80bf 0000 80bf 0000 80bf 0000 80bf
000002c0: 0000 803f 0000 803f 0000 803f 0000 803f
000002d0: 0000 803f 0000 803f 0000 803f 0000 80bf
000002e0: 0000 80bf 0000 803f 0000 803f 0000 803f
000002f0: 0000 80bf 0000 803f 0000 80bf 0000 80bf
00000300: 0000 803f 0000 803f 0000 80bf 0000 803f
00000310: 0000 80bf 0000 80bf 0000 80bf 0000 803f
00000320: 0000 803f 0000 80bf 0000 80bf 0000 803f
00000330: 0000 80bf 0000 80bf 0000 80bf 0000 803f
00000340: 0000 803f 0000 80bf 0000 80bf 0000 80bf
00000350: 0000 803f 0000 80bf 0000 803f 0000 80bf
00000360: 0000 803f 0000 803f 0000 80bf 0000 80bf
00000370: 0000 80bf 0000 80bf 0000 80bf 0000 803f
00000380: 0000 80bf 0000 80bf 0000 80bf 0000 803f
00000390: 0000 80bf 0000 80bf 0000 803f 0000 803f
000003a0: 0000 803f 0000 80bf 0000 80bf 0000 803f
000003b0: 0000 803f 0000 803f 0000 803f 0000 80bf
000003c0: 0000 803f 0000 80bf 0000 803f 0000 803f
000003d0: 0000 80bf 0000 803f 0000 803f 0000 80bf
000003e0: 0000 80bf 0000 803f 0000 80bf 0000 80bf
000003f0: 0000 803f 0000 803f 0000 80bf 0000 803f

test_data f4 [150, 1]
-1.0 1.0 1.0 1.0 1.0 -1.0 1.0 -1.0
-1.0 1.0 1.0 1.0 -1.0 -1.0 1.0 1.0
1.0 1.0 -1.0 1.0 -1.0 -1.0 -1.0 1.0
1.0 -1.0 -1.0 1.0 1.0 -1.0 1.0 1.0
-1.0 -1.0 1.0 1.0 -1.0 1.0 -1.0 -1.0
1.0 -1.0 1.0 -1.0 -1.0 1.0 1.0 1.0
-1.0 -1.0 1.0 -1.0 1.0 -1.0 1.0 -1.0
-1.0 -1.0 -1.0 -1.0 1.0 1.0 1.0 -1.0
1.0 -1.0 1.0 1.0 -1.0 1.0 1.0 1.0
-1.0 1.0 1.0 1.0 -1.0 1.0 -1.0 1.0
1.0 -1.0 1.0 -1.0 -1.0 1.0 1.0 -1.0
-1.0 1.0 -1.0 1.0 -1.0 1.0 -1.0 -1.0
-1.0 -1.0 -1.0 -1.0 1.0 1.0 -1.0 1.0
-1.0 1.0 1.0 -1.0 1.0 1.0 -1.0 -1.0
1.0 -1.0 -1.0 -1.0 -1.0 -1.0 1.0 1.0
1.0 1.0 -1.0 1.0 -1.0 1.0 -1.0 -1.0
-1.0 -1.0 1.0 -1.0 1.0 1.0 1.0 -1.0
-1.0 1.0 -1.0 -1.0 1.0 -1.0 1.0 1.0
1.0 -1.0 1.0 1.0 -1.0 1.0
00000000: 0000 80bf 0000 803f 0000 803f 0000 803f
00000010: 0000 803f 0000 80bf 0000 803f 0000 80bf
00000020: 0000 80bf 0000 803f 0000 803f 0000 803f
00000030: 0000 80bf 0000 80bf 0000 803f 0000 803f
00000040: 0000 803f 0000 803f 0000 80bf 0000 803f
00000050: 0000 80bf 0000 80bf 0000 80bf 0000 803f
00000060: 0000 803f 0000 80bf 0000 80bf 0000 803f
00000070: 0000 803f 0000 80bf 0000 803f 0000 803f
00000080: 0000 80bf 0000 80bf 0000 803f 0000 803f
00000090: 0000 80bf 0000 803f 0000 80bf 0000 80bf
000000a0: 0000 803f 0000 80bf 0000 803f 0000 80bf
000000b0: 0000 80bf 0000 803f 0000 803f 0000 803f
000000c0: 0000 80bf 0000 80bf 0000 803f 0000 80bf
000000d0: 0000 803f 0000 80bf 0000 803f 0000 80bf
000000e0: 0000 80bf 0000 80bf 0000 80bf 0000 80bf
000000f0: 0000 803f 0000 803f 0000 803f 0000 80bf
00000100: 0000 803f 0000 80bf 0000 803f 0000 803f
00000110: 0000 80bf 0000 803f 0000 803f 0000 803f
00000120: 0000 80bf 0000 803f 0000 803f 0000 803f
00000130: 0000 80bf 0000 803f 0000 80bf 0000 803f
00000140: 0000 803f 0000 80bf 0000 803f 0000 80bf
00000150: 0000 80bf 0000 803f 0000 803f 0000 80bf
00000160: 0000 80bf 0000 803f 0000 80bf 0000 803f
00000170: 0000 80bf 0000 803f 0000 80bf 0000 80bf
00000180: 0000 80bf 0000 80bf 0000 80bf 0000 80bf
00000190: 0000 803f 0000 803f 0000 80bf 0000 803f
000001a0: 0000 80bf 0000 803f 0000 803f 0000 80bf
000001b0: 0000 803f 0000 803f 0000 80bf 0000 80bf
000001c0: 0000 803f 0000 80bf 0000 80bf 0000 80bf
000001d0: 0000 80bf 0000 80bf 0000 803f 0000 803f
000001e0: 0000 803f 0000 803f 0000 80bf 0000 803f
000001f0: 0000 80bf 0000 803f 0000 80bf 0000 80bf
00000200: 0000 80bf 0000 80bf 0000 803f 0000 80bf
00000210: 0000 803f 0000 803f 0000 803f 0000 80bf
00000220: 0000 80bf 0000 803f 0000 80bf 0000 80bf
00000230: 0000 803f 0000 80bf 0000 803f 0000 803f
00000240: 0000 803f 0000 80bf 0000 803f 0000 803f
00000250: 0000 80bf 0000 803f

0.weight f4 [100, 1]
0.70894325 2.1630616 -0.28314945 1.620121 2.3414996 -0.018265419 0.028221965 -1.3850353
1.624118 0.4121556 0.05807388 -0.5347016 -1.532553 -1.6625032 -2.0845416 1.6083325
-0.5971519 0.15167083 -2.0644236 -0.3565972 -0.45067695 -1.5690687 0.25371206 -1.3772657
0.27011323 1.479648 1.4481198 1.2971445 1.4911591 -0.007423406 -2.8442783 -2.2850592
-0.085467815 0.76134884 0.088896945 1.8739526 -0.6506798 1.1790147 -0.22916949 0.24552202
0.6933192 -1.3488535 -2.2606332 -1.1885172 0.9072827 2.1135964 -0.4264083 -0.8300099
0.19051528 -0.33338127 3.9333656 -1.320466 0.95408106 -2.733984 -0.31789097 0.48204887
0.21999507 -0.72406346 0.48562208 0.44743437 -1.0733124 1.5273478 0.29840136 0.7533227
0.6930355 0.48366436 -2.1265416 0.09855521 -0.24634588 -3.2189019 -4.0343456 -0.5235913
1.2157549 -1.4991676 -0.38752186 -1.6469938 -0.11337602 -1.5548666 -1.2198393 0.103730366
0.17473781 -0.09785585 -1.5539819 -0.30873746 -0.70053816 1.0692922 -0.20087028 -0.907467
0.056678653 -0.33370245 2.75438 -1.3753362 -0.26494503 -1.2788936 0.34621513 -0.19309898
-0.6328926 -0.15370095 1.1245586 1.1261704
00000000: 4e7d 353f 9a6f 0a40 f7f8 90be 2060 cf3f
00000010: 21db 1540 5ca1 95bc c031 e73c d648 b1bf
00000020: 19e3 cf3f 0f06 d33e e0de 6d3d 34e2 08bf
00000030: b22a c4bf e8cc d4bf 2169 05c0 d7dd cd3f
00000040: f2de 18bf 994f 1b3e 841f 04c0 e893 b6be
00000050: 21bf e6be 3ed7 c8bf 8ce6 813e 3e4a b0bf
00000060: 484c 8a3e 1b65 bd3f fd5b b93f d508 a63f
00000070: 4dde be3f 0b40 f3bb a808 36c0 693e 12c0
00000080: c009 afbd c2e7 423f 9a0f b63d aedd ef3f
00000090: f492 26bf f4e9 963f 68ab 6abe 206a 7b3e
000000a0: 5e7d 313f 3ba7 acbf 37ae 10c0 5521 98bf
000000b0: ae43 683f 2a45 0740 3052 dabe 877b 54bf
000000c0: 7016 433e f3b0 aabe 43bc 7b40 0805 a9bf
000000d0: a83e 743f 98f9 2ec0 9bc2 a2be 1ccf f63e
000000e0: 6346 613e 395c 39bf 75a3 f83e 1e16 e53e
000000f0: 4d62 89bf 2280 c33f 10c8 983e c2d9 403f
00000100: c66a 313f dba2 f73e 4219 08c0 50d7 c93d
00000110: 1842 7cbe 7d02 4ec0 5c19 81c0 140a 06bf
00000120: db9d 9b3f b9e4 bfbf 4469 c6be b1d0 d2bf
00000130: b031 e8bd de05 c7bf b223 9cbf 9670 d43d
00000140: 78ee 323e a668 c8bd e1e8 c6bf d612 9ebe
00000150: 7856 33bf 91de 883f f0b0 4dbe c24f 68bf
00000160: e027 683d 0cdb aabe c347 3040 040b b0bf
00000170: e0a6 87be c9b2 a3bf 1c43 b13e bdbb 45be
00000180: 4005 22bf c863 1dbe 89f1 8f3f 5a26 903f

0.bias f4 [100]
0.8858844 0.85849315 0.667183 1.1859536 0.9293317 0.2269388 -0.9345195 -0.84010756
-0.974851 0.62225854 -0.5145092 -0.62477744 -0.92953986 1.2339476 -1.5164391 0.6651488
0.96485543 0.6193836 0.8322266 -0.5903877 0.33434924 -0.9516872 -0.92686546 1.0222586
-0.48828638 0.40817875 1.0600392 0.9495224 -0.89505625 0.92347664 0.18096752 -0.071817406
-0.2641462 -0.4569726 0.08849729 0.51671153 -0.7161572 -0.7076808 0.42151603 -0.2702006
-0.943779 0.5437829 0.9113434 -0.7209052 -0.9118216 0.8736115 -0.6189369 0.6159616
0.3298532 0.9527101 -0.197762 0.98007745 0.698387 0.7701647 0.50715417 -0.89734507
0.87449735 0.8670296 0.749801 0.7151617 0.40351787 0.4211677 -0.39148116 -0.45214826
-0.92868686 0.5070346 0.7993792 -0.29823864 -0.5707314 0.90679425 -0.17275879 -0.7587669
0.889942 -0.047102213 -0.8821455 1.2224237 -0.15048766 0.62825775 -0.73987323 0.38943043
-0.104886785 0.29231885 -0.9425717 0.4361167 -0.4248569 -0.6418387 -0.99739957 -0.9646456
-0.25568056 -0.41875374 0.75923026 0.55508286 -0.65432703 -0.77571195 0.8987191 0.5264165
0.7630632 -0.7887622 -0.6750054 -0.6759503
00000000: 52c9 623f 35c6 5b3f 81cc 2a3f 54cd 973f
00000010: afe8 6d3f a562 683e ac3c 6fbf 4a11 57bf
00000020: d68f 79bf 564c 1f3f e0b6 03bf 6af1 1fbf
00000030: 53f6 6dbf fff1 9d3f ad1a c2bf 3147 2a3f
00000040: c400 773f ec8f 1e3f cd0c 553f a623 17bf
00000050: d32f ab3e c6a1 73bf 0e47 6dbf 5fd9 823f
00000060: ac00 fabe cefc d03e 5daf 873f e613 733f
00000070: 6822 65bf f768 6c3f 8d4f 393e 0115 93bd
00000080: 2c3e 87be 50f8 e9be 113e b53d 3547 043f
00000090: 1456 37bf 922a 35bf f3d0 d73e bc57 8abe
000000a0: 809b 71bf 5b35 0b3f cd4d 693f 3e8d 38bf
000000b0: 246d 69bf 01a5 5f3f a672 1ebf a9af 1d3f
000000c0: 85e2 a83e cfe4 733f 1f82 4abe 5be6 7a3f
000000d0: 7ec9 323f 8429 453f dbd4 013f 68b8 65bf
000000e0: 0fdf 5f3f a7f5 5d3f f5f2 3f3f d614 373f
000000f0: e599 ce3e 4ba3 d73e 3870 c8be fa7f e7be
00000100: 6cbe 6dbf 05cd 013f 1ea4 4c3f bcb2 98be
00000110: 741b 12bf ab23 683f aee7 30be 8c3e 42bf
00000120: 3dd3 633f 40ee 40bd 4ad4 61bf 6178 9c3f
00000130: 7019 1abe 80d5 203f 5568 3dbf 6d63 c73e
00000140: e2ce d6bd d1aa 953e 614c 71bf b04a df3e
00000150: d886 d9be 8b4f 24bf 9455 7fbf 04f3 76bf
00000160: 90e8 82be e466 d6be ea5c 423f e919 0e3f
00000170: fa81 27bf 0f95 46bf 7412 663f 3bc3 063f
00000180: 1c58 433f 52ec 49bf 27cd 2cbf 140b 2dbf

2.weight f4 [1, 100]
-0.22129442 -2.0809407 0.21065187 1.6871824 -2.2455385 -0.06851005 0.054075383 -1.3745899
1.4599924 -0.16043326 0.054112144 -0.070761934 -1.5001309 -1.7025226 2.285562 -1.4477212
0.32915562 0.06969844 1.9248544 0.027069397 -0.50982326 -1.535791 0.026100539 -1.3969619
0.08159477 1.4779218 1.489938 1.2503045 1.4355417 0.028609458 -2.6992016 2.2122648
0.005473122 0.6964691 -0.112783186 1.8212805 0.04815135 1.0651364 0.16315508 0.0041239485
0.050878607 1.2822217 2.1703498 -1.1752837 0.08950294 -2.0212097 -0.05025009 -0.88491786
-0.10751137 0.22606532 -3.8779497 -1.3489017 0.97079986 -2.7526133 0.2300784 -0.0661142
-0.053354133 0.294642 -0.19925104 -0.036902457 1.0262579 1.4862751 0.098276295 0.6155364
-0.025668994 -0.04776434 2.0217907 -0.07934646 -0.024914503 -3.2597976 3.8993456 0.050806947
1.2506803 1.4621072 -0.08824058 -1.6707797 -0.05382378 1.3843825 -1.2111603 0.059259556
0.18716761 0.053940818 -1.5428045 0.11284275 -0.59804183 1.0363269 -0.0025776029 0.096340604
0.08987247 0.030896865 2.6579287 1.2426364 -0.08044951 -1.241846 -0.09384309 0.11998335
0.35609728 0.08742001 1.1057993 1.0231527
00000000: 019b 62be 222e 05c0 20b5 573e 98f5 d73f
00000010: e7b6 0fc0 ff4e 8cbd 267e 5d3d 90f2 afbf
00000020: 08e1 ba3f 9e48 24be b2a4 5d3d a2eb 90bd
00000030: 4a04 c0bf 43ec d9bf a646 1240 ee4e b9bf
00000040: 1687 a83e 0ebe 8e3d a161 f63f a4c0 dd3c
00000050: c783 02bf cd94 c4bf ccd0 d53c a6cf b2bf
00000060: 291b a73d 8b2c bd3f 4ab6 be3f fa09 a03f
00000070: d5bf b73f 625e ea3c b8bf 2cc0 bf95 0d40
00000080: e057 b33b cd4b 323f dffa e6bd b81f e93f
00000090: 5a3a 453d 6456 883f 2012 273e 3022 873b
000000a0: 1666 503d d71f a43f 03e7 0a40 b26f 96bf
000000b0: 514d b73d 805b 01c0 0ad3 4dbd fa89 62bf
000000c0: ec2e dcbd ab7d 673e 5430 78c0 d0a8 acbf
000000d0: 5786 783f d12a 30c0 ac99 6b3e e266 87bd
000000e0: dd89 5abd 51db 963e 7708 4cbe 0827 17bd
000000f0: 6b5c 833f 433e be3f 1545 c93d cb93 1d3f
00000100: c847 d2bc 8aa4 43bd 0565 0140 6680 a2bd
00000110: 8019 ccbc 86a0 50c0 e18e 7940 f21a 503d
00000120: 4b16 a03f 5426 bb3f 7ab7 b4bd 1cdc d5bf
00000130: 5376 5cbd 7233 b13f 4d07 9bbf 26ba 723d
00000140: dea8 3f3e 0cf1 5c3d 9e7a c5bf 1a1a e73d
00000150: 4519 19bf 5ca6 843f 00ed 28bb 394e c53d
00000160: 0f0f b83d 6c1b fd3c 811b 2a40 b60e 9f3f
00000170: b6c2 a4bd cff4 9ebf ce30 c0bd d5b9 f53d
00000180: 6252 b63e 4309 b33d d58a 8d3f abf6 823f
