complete/square/state8.pt (torch, 10937 bytes, 9 tensors)

weight f4 [100, 1]
00000000: cb3d a53f 7d69 27bf 7489 9d3f 8c11 823e
00000010: 2260 fb3f e94d 8bbe 52ec fe3f 1477 bebe
00000020: c1f6 933f 5ee4 7b3d 489c a63e ea2b ee3c
00000030: da19 573f fc57 b6be 6830 853f 8014 89be
00000040: fa84 0abf 99ff 49bf 4dec 0e40 94f7 a2be
00000050: 764b 66be e8a2 5ebe 6352 ac3f 3abe a5be
00000060: fce1 babf 2c3a d7bf dc84 9fbf cb48 16bf
00000070: 9e0d e7bd 5e3a 0abe 4cfb 53bf b306 dabf
00000080: 881f 033e 6c84 9bbe 82c6 94bf 80e1 f53c
00000090: 7da7 3bbf 5dc0 c53f feb1 20be 6de0 413f
000000a0: 19f8 94bf 682b b23e 4ed9 d93f e1ac 35bf
000000b0: e181 28bf 6a66 62c0 48d7 393e 6de6 d13f
000000c0: 4b0e a73d f649 d0be 1846 ee3e b799 eebf
000000d0: 72d2 80c0 dd1f cabf a01e 8dbd d865 fabf
000000e0: 98ef eebf e161 36c0 9098 8cbd 0b88 ae3f
000000f0: 11dd 78bf d009 843d 12a4 44c0 f087 36be
00000100: b826 923f 6d89 873f d867 42bf 484e babe
00000110: ac7c 0c3f 2ce0 9f3f 99d9 fcbe af79 063f
00000120: 48b0 84bf b263 823f 934e 2e3f b4f9 623f
00000130: e207 ba3f 504b 5cbf 1131 79be 54c0 823f
00000140: a391 70bf 5b33 adbf f8b1 da3f acff 95be
00000150: acfc d9bf 806a 62c0 a0ea b83f f879 9cbf
00000160: 2f5f 233f 27fc d5bf 3bb7 a93f 9ef5 9d3f
00000170: 12fd 39bf 1d40 633f d41e abbe 8a50 3cbf
00000180: a0b3 e8bd 6e38 16c0 c810 85be 8611 28bf
1.2909483 -0.6539534 1.2307572 0.25404012 1.9638712 -0.27207878 1.9915869 -0.37200224
1.1559678 0.061497085 0.32541108 0.029073674 0.8402382 -0.35614002 1.0405397 -0.26773453
-0.54109156 -0.78905636 2.2331727 -0.31829512 -0.22489724 -0.21741831 1.3462642 -0.32371694
-1.4600215 -1.6814628 -1.246242 -0.58704823 -0.11281894 -0.13498828 -0.82805324 -1.7033294
0.12804997 -0.30374467 -1.162308 0.030014753 -0.7330244 1.544933 -0.15692899 0.7573307
-1.1638213 0.3479874 1.7019441 -0.7096692 -0.6582318 -3.5375009 0.1814853 1.6398445
0.08157023 -0.40681428 0.46537852 -1.864066 -4.025689 -1.5790974 -0.06890607 -1.956233
-1.8666868 -2.849724 -0.068650365 1.3635267 -0.9721232 0.06447184 -3.072514 -0.17825294
1.1418066 1.0588814 -0.75939703 -0.3638785 0.54877734 1.2490287 -0.49384764 0.52529424
-1.0366297 1.0186675 0.68088645 0.88662267 1.4533656 -0.8605242 -0.24335124 1.0214944
-0.93972224 -1.3531297 1.7085562 -0.29296625 -1.7030234 -3.5377502 1.4446602 -1.2224722
0.63817114 -1.6717576 1.3259043 1.2340581 -0.7265178 0.88769704 -0.33421957 -0.7356039
-0.11362386 -2.3471942 -0.25989366 -0.6565174

bias f4 [100]
00000000: df15 be3e fe35 cfbe 9a01 2ebf 40bb debe
00000010: b0fe 573f 31d4 f83e 42b2 123f cd54 6a3f
00000020: a17e 23bf 52eb 173f 1c77 49bf 5293 ee3e
00000030: 6ab9 563f 16c7 fd3e c124 d63e 6298 47bf
00000040: a62f 50bf d71a 4d3f ad5a 243f 0cf3 7ebf
00000050: 0f6e b33e 9cee fdbe 1462 3ebf d265 cd3e
00000060: 624f 67bf 7f95 a13f 02f9 69bf 5007 babe
00000070: 416e 213f 7a6f 813e a6ce 57bf 9d37 2e3f
00000080: 5ccb f4be 6008 fcbe 2397 ed3e 5274 41bf
00000090: 6249 e8be e66e 913f fe69 673e 5a94 0e3f
000000a0: 435f 38bf 0565 193e 9da3 2f3f f363 6c3f
000000b0: 2e9d 863e 179f 533e ccda 3fbf 0350 343f
000000c0: c571 253f ac08 453f ea9d 5bbf 1f8a 3e3f
000000d0: e8db 8f3f cf2c 7abf f8b2 6cbf 7ff2 473f
000000e0: 033a afbf af65 103e 2af9 41bf e165 163f
000000f0: f801 1abf 3075 a3be 0231 babd a0c6 5fbf
00000100: 90f7 563f ac4e 873f 9c54 54bf 79b5 153f
00000110: 9a44 493f 9923 6b3f 70fb 743f a441 063f
00000120: 853a 24bf f00b e03e 4ad3 7a3f 8995 623f
00000130: de51 98bd 6848 08bf a33a 1abe 1a50 403f
00000140: 38b6 713f 8563 56bf dfa5 3c3f 01cc 953e
00000150: f976 4ebd 0171 88be ebfb 873f 56eb f93e
00000160: 381b 233f 4071 84bf 9791 3bbf c3c1 b53e
00000170: 749f 73bf baeb fabe e4a9 1fbf b61b 6f3f
00000180: 6ed9 20bf e3e5 6f3f 1699 69bf a81d 48bf
0.3712606 -0.4047088 -0.67971194 -0.43502235 0.84373 0.4859939 0.5730325 0.91535646
-0.63865095 0.59343445 -0.7869737 0.4659677 0.8387667 0.49565953 0.41824916 -0.7796689
-0.81322706 0.8011908 0.6420086 -0.9958961 0.35044906 -0.49596107 -0.74368405 0.40116745
-0.90355504 1.2623748 -0.9139558 -0.36333704 0.6305886 0.25280362 -0.84299695 0.6805361
-0.478114 -0.4922514 0.4640437 -0.75568116 -0.45368487 1.1361969 0.22599027 0.55695117
-0.7202036 0.14979942 0.6860903 0.9234001 0.26291794 0.20666157 -0.7494323 0.7043459
0.64626724 0.7696636 -0.8578783 0.74429506 1.1238985 -0.9772462 -0.92460585 0.78104395
-1.3689579 0.14101289 -0.7577082 0.58749205 -0.60159254 -0.31925344 -0.09091379 -0.8741245
0.839715 1.0570884 -0.82941604 0.5848003 0.786203 0.9185119 0.95696163 0.5244391
-0.64151794 0.43759108 0.9797865 0.8850942 -0.0743749 -0.53235483 -0.1506143 0.75122225
0.9441867 -0.83745605 0.736906 0.29257205 -0.05040643 -0.26648715 1.0623754 0.4881236
0.6371341 -1.0347061 -0.7326903 0.3549939 -0.9516518 -0.4900797 -0.6236861 0.9340166
-0.6283177 0.93710154 -0.91249216 -0.7817025

weight f4 [1, 100]
00000000: 66a4 9f3f 7ebf 17bf a9ec 6f3f 2356 9abd
00000010: 0b62 fabf c93b 013e 581b fa3f f2ee b93d
00000020: 7c07 803f 73f9 f0bd 30ee 933b e9f6 0dbe
00000030: 9154 10bf 2178 0b3e 06e1 80bf d04a ba3b
00000040: f466 af3c a95d 923e 52b9 0740 46a1 663d
00000050: d17a dd3d 0328 bdbd eb2f 8e3f 70bb 503e
00000060: 0fa6 a9bf 4ffa 02c0 3766 b93f 9e4e 11bf
00000070: 7491 c5bd e874 263c 9a7f 033d 8fbf cb3f
00000080: 83f9 3dbd 625b 593d 1f6d 913f 1048 5a3c
00000090: e215 2dbf 6612 b53f 7d99 b53c 9cb3 303f
000000a0: 2577 81bf 662c c0be 1987 ccbf c587 6a3e
000000b0: b81e 1e3f 336b 5bc0 0054 9ebd cd1f cfbf
000000c0: 5232 51be 67b1 313e 4aca 29bd 1ec8 e13f
000000d0: 1c9d 83c0 1d1b b8bf dec0 313d dfcb f23f
000000e0: 39e7 0440 d62e 31c0 f244 043d 47bd 9dbf
000000f0: da53 4fbf 4b77 8b3d 30ec 3d40 8066 ecba
00000100: ce26 823f 4555 45bf 22c5 ccbd 0e54 833d
00000110: fafe cdbe b99c 983f 29a3 e63d 8546 d8be
00000120: ec6b 6abf 3848 81bf eb24 10bf fc7a 21bf
00000130: 8402 b9bf 061d 06bf 7c3b 72be 026d 723f
00000140: 63b9 bb3e 0c91 a3bf 6797 c3bf 8c78 423e
00000150: 8086 d23f 73aa 5940 771e b33f dfd3 933f
00000160: 3363 04bf 5542 cabf b70b 9e3f 1d2f 993f
00000170: 39d4 b73d f360 1e3f 039f b3bd cee3 a83e
00000180: a9cd 863d 5aa6 1340 aa28 4a3d e033 eabb
1.2472045 -0.5927657 0.9372049 -0.075359605 -1.956117 0.12620462 1.9539595 0.09078778
1.0002284 -0.11766329 0.004514478 -0.1386372 -0.5637904 0.13620044 -1.0068672 0.005685188
0.021411397 0.28587082 2.120686 0.056306146 0.10814441 -0.09236147 1.1108373 0.20384002
-1.3253802 -2.0465276 1.4484318 -0.56760585 -0.096468836 0.010159709 0.032104112 1.5917834
-0.04638053 0.053065665 1.1361426 0.013322845 -0.67611516 1.414624 0.022167915 0.6902406
-1.0114485 -0.37533873 -1.5978729 0.22903354 0.61765623 -3.428418 -0.077308655 -1.618158
-0.20429352 0.1735283 -0.041452684 1.7639196 -4.1129284 -1.4383274 0.043396823 1.8968467
2.0766127 -2.7684836 0.032292314 -1.2323388 -0.8098732 0.06809863 2.9675407 -0.0018035918
1.0168092 -0.77083236 -0.099985376 0.064125165 -0.40233594 1.1922828 0.11261589 -0.42241302
-0.91570926 -1.0100164 -0.5630633 -0.63078284 -1.4453893 -0.52388036 -0.23655504 0.9469758
0.36664876 -1.277864 -1.5280579 0.18991297 1.6447296 3.4010284 1.3993672 1.1549033
-0.51713866 -1.5801493 1.2347325 1.1967503 0.08976025 0.6186668 -0.087705635 0.329863
0.06582195 2.3070283 0.049355187 -0.0071472973

train_data f4 [600, 1]
00000000: 9f03 1bbe 2bfb 40bf cfe8 933e 170b 723f
00000010: 5f62 293f 618a 16bf c3fa 55bf 15b8 5cbe
00000020: cc35 4a3f 0b18 7bbe 9742 6b3f 47de 1ebf
00000030: 8e44 15bf e876 0cbe 449c 253f 403f 1ebf
00000040: f104 15bf d2f6 4fbf 395c 68bf 0e03 783f
00000050: 4969 f5bd 534c c6be c278 24bf ff64 7dbe
00000060: 3a90 1abf 6006 4c3f bab1 983e 03ac 01bf
00000070: c137 4f3f 5cc9 093f 5376 0abe 190a 1ebc
00000080: aa13 1c3e 2f89 873e aaa3 66bf 15ea 063f
00000090: 9364 61bf 995d 96be 5344 773a b629 05bf
000000a0: 3f28 6b3f 4a18 fbbe 053e d9be 9e4f 1bbf
000000b0: a636 5e3f 7b26 90be 3713 7e3e 9914 d93c
000000c0: 9d41 c5be e0e3 febe 19f0 f13e 778a 693f
000000d0: f1e9 203f 8dc5 3c3f c41a 3b3f fcf1 51bf
000000e0: a81f 773f 1ba9 8e3e 8f6f a33e 25f4 163f
000000f0: a660 64bf e674 3ebf 9d03 8d3e 2a26 f43e
00000100: a379 61bf db9d 99be 1c3c 673f 4b66 023f
00000110: 676e c1be 8895 223f e51c 503d 7787 7f3f
00000120: 5ee4 223f 94a1 753f 78c9 16bf ffbe 4abf
00000130: 4a41 1fbf 888f 263f c012 abbe be41 55bf
00000140: cff1 d03e edca 07bf 8867 f9be a1f0 b63e
00000150: ea89 463f 8f4c 4f3f 5711 2f3f e22c a6be
00000160: 947b 403f 02ef 0e3f b996 d6be 88e4 f5be
00000170: ecf9 75bf df58 423e f4a0 533f d208 383f
00000180: 58cd 6f3e cf8f 7cbf 69b0 03be 2169 7fbf
00000190: 0c5a e23e 971e 1a3f 19a0 223f 731b fe3e
000001a0: 530c f73e bffd d23e 3a91 983e f865 11bf
000001b0: 02e4 8cbe cf64 49bf 039e 49bf 7d27 81bd
000001c0: 293c 233e 7cc8 35bf 2e92 b9be 91d3 1dbf
000001d0: 0a41 04bf e594 cabd 7ad8 5b3f 2532 3dbe
000001e0: 57dc 40bf 8183 663f b42a 5c3d 7bc0 443f
000001f0: e3bd f7be 8155 393f 5ab7 bf3d ff26 483f
00000200: 1212 78bf e4ee 1abe 9175 223f 6bcd 263e
00000210: b535 2f3f cdd8 03bf 1348 383d 1f7b ecbe
00000220: 10c1 0c3f a029 59bf 04e2 133d 034e 77bf
00000230: ed76 d3bd 7405 2abf 5f33 433c c775 28be
00000240: c38c f33e 7acb 6ebf 7cd1 263f d644 33bf
00000250: 13e6 0a3e 59c8 fabe f19e 2e3e f879 0f3f
00000260: dedf 0e3f bcd5 47bf 4dc4 30bf d7dd a0bd
00000270: d0c4 603f 93c3 bb3e 155d 6ebf c335 573f
00000280: 48f9 d9bd 5906 b73e 2da6 23bc de57 1bbf
00000290: 9f3b 20be f2e4 22bf 0147 343e 9fc6 bfbe
000002a0: 17d7 7c3d 81e4 67be 55bb e7ba 90e8 3ebc
000002b0: 0703 533f 9e4d c03e 09c0 803c 6740 523f
000002c0: 5dbe 193f 52c9 a6be d3cb 24bf e367 8b3c
000002d0: 3677 0ebf 1efc 55be b929 f8bc 0d25 2d3d
000002e0: f637 ebbe b21e 42bf 92e6 97be 4f6f b73e
000002f0: c90c 07bf 89f1 703f 2600 853e 8deb ebbd
00000300: b929 723f f9ab 86be e7ad 8f3e e09e 6fbf
00000310: 658c c03d 6c76 cbbe 7ead 6cbf 59c9 113f
00000320: 14c1 323f 9bb3 6fbf 0f42 bf3e a411 19be
00000330: 33d7 773f 88bb 7fbf 50b1 21bf c401 613e
00000340: be34 453f 7124 173f c482 06bf 6f10 47bf
00000350: 3517 a8be c8d4 b9be 8ec5 9bbe 81ce 46bf
00000360: 4b15 73bf 755a 5e3d be7b 213f 9f07 503f
00000370: 95ab 19bf ce30 4e3f 5d85 0fbe c9f8 69bf
00000380: 503d 69bf 80d2 48bf 77ac 163f 363a cc3d
00000390: 96fb 3ebf 18f0 12be 730b 833e 33b7 6dbf
000003a0: 0d30 5dbf 7e72 2e3f 6da1 babc f85e 53be
000003b0: 8a3c 4d3f 896a 5bbf 2540 e0be caf3 25bf
000003c0: 9675 4dbf 8d0b 953e 0976 143f 2c58 0bbf
000003d0: 95a0 7dbf f50c 9d3d e853 31bf 766c 09bf
000003e0: f05c 70bf d7d6 21bf ea11 7a3f fb03 b83e
000003f0: bc63 d63e 8c73 243f 36f1 9bbe 3f2f 70bf
-0.151381 -0.7538325 0.28888556 0.9454817 0.6616573 -0.588049 -0.83585757 -0.21554597
0.7898834 -0.2452089 0.91898483 -0.6205792 -0.5830773 -0.13717234 0.6469157 -0.6181526
-0.58210665 -0.8123599 -0.9076572 0.9687966 -0.11982972 -0.38730106 -0.6424676 -0.24745558
-0.6037632 0.7969723 0.29823095 -0.50653094 0.8094445 0.53822875 -0.135217 -0.009645962
0.15241876 0.2647185 -0.9009348 0.5270093 -0.8804409 -0.29368284 0.00094324833 -0.5201677
0.91858286 -0.4904197 -0.4243013 -0.6066836 0.86802137 -0.28154358 0.24812017 0.02649908
-0.3852662 -0.4978323 0.47253492 0.91226906 0.62856966 0.7373894 0.73087716 -0.82009864
0.9653268 0.27863392 0.3192105 0.58966285 -0.89209974 -0.7439712 0.2754182 0.47685367
-0.8807623 -0.30003247 0.90326095 0.50937337 -0.37779543 0.63509417 0.050808806 0.9981608
0.6362971 0.95949674 -0.58901167 -0.79197687 -0.62209 0.6506276 -0.33412743 -0.8330344
0.40809485 -0.53044015 -0.487118 0.3573046 0.7755419 0.80976194 0.68385834 -0.32456118
0.75188565 0.55833447 -0.41911867 -0.48025918 -0.96084476 0.18979214 0.8266747 0.7188846
0.23418176 -0.98656934 -0.12860264 -0.9976979 0.44209325 0.60202926 0.6352554 0.49630317
0.4825159 0.41209218 0.297983 -0.56796217 -0.27517706 -0.78669447 -0.7875673 -0.0630636
0.15940918 -0.7100904 -0.3624434 -0.6165095 -0.5166174 -0.09891681 0.8587719 -0.1847616
-0.7533621 0.9004441 0.053751662 0.768562 -0.4838706 0.72396094 0.093611434 0.78184503
-0.96902573 -0.15130192 0.6346064 0.16289298 0.68441325 -0.51502687 0.04499061 -0.46187684
0.5498209 -0.8482914 0.036104217 -0.9660341 -0.10325418 -0.6641457 0.011914103 -0.16451178
0.4756833 -0.9327923 0.651634 -0.7002691 0.13564329 -0.48980978 0.17052819 0.56045485
0.55810344 -0.7806051 -0.6904953 -0.078548126 0.8780031 0.3667265 -0.9311078 0.8406641
-0.1064325 0.3574703 -0.00998835 -0.6068095 -0.15647744 -0.6363059 0.17605211 -0.37456223
0.061728563 -0.22645761 -0.0017679731 -0.011652127 0.82426494 0.37559217 0.01571657 0.8212952
0.60056096 -0.3257547 -0.6437351 0.01701731 -0.5565065 -0.20896956 -0.030293332 0.042271663
-0.45941132 -0.7582809 -0.296681 0.3582711 -0.52753884 0.94118553 0.25976676 -0.11519537
0.94594914 -0.2630308 0.28062364 -0.936018 0.09401778 -0.39738786 -0.9245223 0.5694786
0.69825864 -0.9363343 0.37355086 -0.14948136 0.9681274 -0.99895525 -0.6316118 0.2197333
0.77033603 0.5903998 -0.5254328 -0.7775945 -0.32830206 -0.36295152 -0.3042416 -0.7765885
-0.94954365 0.054285485 0.6307944 0.8126163 -0.6002744 0.8054322 -0.14015718 -0.9139524
-0.9110918 -0.784462 0.5885691 0.0997204 -0.7460264 -0.14349401 0.25594673 -0.92857665
-0.86401445 0.6814345 -0.022782052 -0.20641696 0.801705 -0.85709435 -0.43798938 -0.6482512
-0.80257547 0.29110375 0.5799261 -0.54431415 -0.99073154 0.07668487 -0.69268656 -0.53681123
-0.9389181 -0.63218445 0.97683585 0.35940537 0.41872966 0.6423881 -0.30457467 -0.9382209

train_targets f4 [600, 1]
00000000: 0000 80bf 0000 80bf 0000 803f 0000 803f
00000010: 0000 80bf 0000 803f 0000 80bf 0000 80bf
00000020: 0000 803f 0000 80bf 0000 803f 0000 803f
00000030: 0000 803f 0000 80bf 0000 80bf 0000 803f
00000040: 0000 803f 0000 80bf 0000 80bf 0000 803f
00000050: 0000 80bf 0000 803f 0000 803f 0000 80bf
00000060: 0000 803f 0000 803f 0000 803f 0000 803f
00000070: 0000 803f 0000 80bf 0000 80bf 0000 80bf
00000080: 0000 803f 0000 803f 0000 80bf 0000 80bf
00000090: 0000 80bf 0000 80bf 0000 803f 0000 803f
000000a0: 0000 803f 0000 803f 0000 803f 0000 803f
000000b0: 0000 803f 0000 80bf 0000 803f 0000 803f
000000c0: 0000 803f 0000 803f 0000 80bf 0000 803f
000000d0: 0000 80bf 0000 803f 0000 803f 0000 80bf
000000e0: 0000 803f 0000 803f 0000 803f 0000 80bf
000000f0: 0000 80bf 0000 80bf 0000 803f 0000 80bf
00000100: 0000 80bf 0000 80bf 0000 803f 0000 80bf
00000110: 0000 803f 0000 80bf 0000 803f 0000 803f
00000120: 0000 80bf 0000 803f 0000 803f 0000 80bf
00000130: 0000 803f 0000 80bf 0000 803f 0000 80bf
00000140: 0000 80bf 0000 803f 0000 803f 0000 80bf
00000150: 0000 803f 0000 803f 0000 803f 0000 80bf
00000160: 0000 803f 0000 80bf 0000 803f 0000 803f
00000170: 0000 80bf 0000 803f 0000 803f 0000 803f
00000180: 0000 803f 0000 80bf 0000 80bf 0000 80bf
00000190: 0000 80bf 0000 80bf 0000 80bf 0000 80bf
000001a0: 0000 80bf 0000 80bf 0000 803f 0000 803f
000001b0: 0000 80bf 0000 80bf 0000 80bf 0000 80bf
000001c0: 0000 803f 0000 80bf 0000 803f 0000 803f
000001d0: 0000 803f 0000 80bf 0000 803f 0000 80bf
000001e0: 0000 80bf 0000 803f 0000 803f 0000 803f
000001f0: 0000 803f 0000 803f 0000 803f 0000 803f
00000200: 0000 80bf 0000 80bf 0000 80bf 0000 803f
00000210: 0000 803f 0000 803f 0000 803f 0000 803f
00000220: 0000 80bf 0000 80bf 0000 803f 0000 80bf
00000230: 0000 80bf 0000 803f 0000 803f 0000 80bf
00000240: 0000 80bf 0000 80bf 0000 80bf 0000 80bf
00000250: 0000 803f 0000 803f 0000 803f 0000 80bf
00000260: 0000 80bf 0000 80bf 0000 80bf 0000 80bf
00000270: 0000 803f 0000 80bf 0000 80bf 0000 803f
00000280: 0000 80bf 0000 80bf 0000 80bf 0000 803f
00000290: 0000 80bf 0000 803f 0000 803f 0000 803f
000002a0: 0000 803f 0000 80bf 0000 80bf 0000 80bf
000002b0: 0000 803f 0000 80bf 0000 803f 0000 803f
000002c0: 0000 80bf 0000 80bf 0000 803f 0000 803f
000002d0: 0000 803f 0000 80bf 0000 80bf 0000 803f
000002e0: 0000 803f 0000 80bf 0000 80bf 0000 80bf
000002f0: 0000 803f 0000 803f 0000 803f 0000 80bf
00000300: 0000 803f 0000 80bf 0000 803f 0000 80bf
00000310: 0000 803f 0000 803f 0000 80bf 0000 80bf
00000320: 0000 803f 0000 80bf 0000 80bf 0000 80bf
00000330: 0000 803f 0000 80bf 0000 803f 0000 803f
00000340: 0000 803f 0000 80bf 0000 803f 0000 80bf
00000350: 0000 80bf 0000 803f 0000 80bf 0000 80bf
00000360: 0000 80bf 0000 803f 0000 80bf 0000 803f
00000370: 0000 803f 0000 803f 0000 80bf 0000 80bf
00000380: 0000 80bf 0000 80bf 0000 80bf 0000 803f
00000390: 0000 80bf 0000 80bf 0000 803f 0000 80bf
000003a0: 0000 80bf 0000 803f 0000 80bf 0000 80bf
000003b0: 0000 803f 0000 80bf 0000 803f 0000 803f
000003c0: 0000 80bf 0000 803f 0000 80bf 0000 803f
000003d0: 0000 80bf 0000 803f 0000 80bf 0000 803f
000003e0: 0000 80bf 0000 803f 0000 803f 0000 80bf
000003f0: 0000 80bf 0000 80bf 0000 80bf 0000 80bf
-1.0 -1.0 1.0 1.0 -1.0 1.0 -1.0 -1.0
1.0 -1.0 1.0 1.0 1.0 -1.0 -1.0 1.0
1.0 -1.0 -1.0 1.0 -1.0 1.0 1.0 -1.0
1.0 1.0 1.0 1.0 1.0 -1.0 -1.0 -1.0
1.0 1.0 -1.0 -1.0 -1.0 -1.0 1.0 1.0
1.0 1.0 1.0 1.0 1.0 -1.0 1.0 1.0
1.0 1.0 -1.0 1.0 -1.0 1.0 1.0 -1.0
1.0 1.0 1.0 -1.0 -1.0 -1.0 1.0 -1.0
-1.0 -1.0 1.0 -1.0 1.0 -1.0 1.0 1.0
-1.0 1.0 1.0 -1.0 1.0 -1.0 1.0 -1.0
-1.0 1.0 1.0 -1.0 1.0 1.0 1.0 -1.0
1.0 -1.0 1.0 1.0 -1.0 1.0 1.0 1.0
1.0 -1.0 -1.0 -1.0 -1.0 -1.0 -1.0 -1.0
-1.0 -1.0 1.0 1.0 -1.0 -1.0 -1.0 -1.0
1.0 -1.0 1.0 1.0 1.0 -1.0 1.0 -1.0
-1.0 1.0 1.0 1.0 1.0 1.0 1.0 1.0
-1.0 -1.0 -1.0 1.0 1.0 1.0 1.0 1.0
-1.0 -1.0 1.0 -1.0 -1.0 1.0 1.0 -1.0
-1.0 -1.0 -1.0 -1.0 1.0 1.0 1.0 -1.0
-1.0 -1.0 -1.0 -1.0 1.0 -1.0 -1.0 1.0
-1.0 -1.0 -1.0 1.0 -1.0 1.0 1.0 1.0
1.0 -1.0 -1.0 -1.0 1.0 -1.0 1.0 1.0
-1.0 -1.0 1.0 1.0 1.0 -1.0 -1.0 1.0
1.0 -1.0 -1.0 -1.0 1.0 1.0 1.0 -1.0
1.0 -1.0 1.0 -1.0 1.0 1.0 -1.0 -1.0
1.0 -1.0 -1.0 -1.0 1.0 -1.0 1.0 1.0
1.0 -1.0 1.0 -1.0 -1.0 1.0 -1.0 -1.0
-1.0 1.0 -1.0 1.0 1.0 1.0 -1.0 -1.0
-1.0 -1.0 -1.0 1.0 -1.0 -1.0 1.0 -1.0
-1.0 1.0 -1.0 -1.0 1.0 -1.0 1.0 1.0
-1.0 1.0 -1.0 1.0 -1.0 1.0 -1.0 1.0
-1.0 1.0 1.0 -1.0 -1.0 -1.0 -1.0 -1.0

test_data f4 [150, 1]
00000000: 0000 80bf 0000 803f 0000 80bf 0000 803f
00000010: 0000 803f 0000 80bf 0000 80bf 0000 803f
00000020: 0000 80bf 0000 80bf 0000 80bf 0000 80bf
00000030: 0000 80bf 0000 803f 0000 803f 0000 803f
00000040: 0000 80bf 0000 80bf 0000 80bf 0000 803f
00000050: 0000 80bf 0000 803f 0000 803f 0000 80bf
00000060: 0000 803f 0000 80bf 0000 80bf 0000 80bf
00000070: 0000 803f 0000 803f 0000 803f 0000 803f
00000080: 0000 803f 0000 803f 0000 803f 0000 80bf
00000090: 0000 80bf 0000 803f 0000 80bf 0000 803f
000000a0: 0000 803f 0000 80bf 0000 803f 0000 80bf
000000b0: 0000 80bf 0000 80bf 0000 803f 0000 80bf
000000c0: 0000 80bf 0000 80bf 0000 803f 0000 803f
000000d0: 0000 80bf 0000 803f 0000 80bf 0000 803f
000000e0: 0000 80bf 0000 803f 0000 803f 0000 803f
000000f0: 0000 803f 0000 803f 0000 80bf 0000 803f
00000100: 0000 80bf 0000 80bf 0000 803f 0000 80bf
00000110: 0000 80bf 0000 80bf 0000 803f 0000 80bf
00000120: 0000 80bf 0000 803f 0000 803f 0000 80bf
00000130: 0000 803f 0000 80bf 0000 803f 0000 803f
00000140: 0000 80bf 0000 803f 0000 803f 0000 80bf
00000150: 0000 80bf 0000 803f 0000 803f 0000 803f
00000160: 0000 80bf 0000 80bf 0000 80bf 0000 80bf
00000170: 0000 803f 0000 803f 0000 803f 0000 80bf
00000180: 0000 803f 0000 80bf 0000 803f 0000 80bf
00000190: 0000 80bf 0000 803f 0000 803f 0000 80bf
000001a0: 0000 803f 0000 80bf 0000 80bf 0000 803f
000001b0: 0000 80bf 0000 80bf 0000 803f 0000 80bf
000001c0: 0000 80bf 0000 80bf 0000 803f 0000 80bf
000001d0: 0000 803f 0000 80bf 0000 803f 0000 80bf
000001e0: 0000 803f 0000 80bf 0000 80bf 0000 803f
000001f0: 0000 803f 0000 803f 0000 803f 0000 803f
00000200: 0000 803f 0000 803f 0000 80bf 0000 803f
00000210: 0000 80bf 0000 803f 0000 803f 0000 803f
00000220: 0000 80bf 0000 803f 0000 80bf 0000 803f
00000230: 0000 803f 0000 80bf 0000 803f 0000 80bf
00000240: 0000 80bf 0000 80bf 0000 803f 0000 80bf
00000250: 0000 80bf 0000 80bf
-1.0 1.0 -1.0 1.0 1.0 -1.0 -1.0 1.0
-1.0 -1.0 -1.0 -1.0 -1.0 1.0 1.0 1.0
-1.0 -1.0 -1.0 1.0 -1.0 1.0 1.0 -1.0
1.0 -1.0 -1.0 -1.0 1.0 1.0 1.0 1.0
1.0 1.0 1.0 -1.0 -1.0 1.0 -1.0 1.0
1.0 -1.0 1.0 -1.0 -1.0 -1.0 1.0 -1.0
-1.0 -1.0 1.0 1.0 -1.0 1.0 -1.0 1.0
-1.0 1.0 1.0 1.0 1.0 1.0 -1.0 1.0
-1.0 -1.0 1.0 -1.0 -1.0 -1.0 1.0 -1.0
-1.0 1.0 1.0 -1.0 1.0 -1.0 1.0 1.0
-1.0 1.0 1.0 -1.0 -1.0 1.0 1.0 1.0
-1.0 -1.0 -1.0 -1.0 1.0 1.0 1.0 -1.0
1.0 -1.0 1.0 -1.0 -1.0 1.0 1.0 -1.0
1.0 -1.0 -1.0 1.0 -1.0 -1.0 1.0 -1.0
-1.0 -1.0 1.0 -1.0 1.0 -1.0 1.0 -1.0
1.0 -1.0 -1.0 1.0 1.0 1.0 1.0 1.0
1.0 1.0 -1.0 1.0 -1.0 1.0 1.0 1.0
-1.0 1.0 -1.0 1.0 1.0 -1.0 1.0 -1.0
-1.0 -1.0 1.0 -1.0 -1.0 -1.0

0.weight f4 [100, 1]
00000000: cb3d a53f 7d69 27bf 7489 9d3f 8c11 823e
00000010: 2260 fb3f e94d 8bbe 52ec fe3f 1477 bebe
00000020: c1f6 933f 5ee4 7b3d 489c a63e ea2b ee3c
00000030: da19 573f fc57 b6be 6830 853f 8014 89be
00000040: fa84 0abf 99ff 49bf 4dec 0e40 94f7 a2be
00000050: 764b 66be e8a2 5ebe 6352 ac3f 3abe a5be
00000060: fce1 babf 2c3a d7bf dc84 9fbf cb48 16bf
00000070: 9e0d e7bd 5e3a 0abe 4cfb 53bf b306 dabf
00000080: 881f 033e 6c84 9bbe 82c6 94bf 80e1 f53c
00000090: 7da7 3bbf 5dc0 c53f feb1 20be 6de0 413f
000000a0: 19f8 94bf 682b b23e 4ed9 d93f e1ac 35bf
000000b0: e181 28bf 6a66 62c0 48d7 393e 6de6 d13f
000000c0: 4b0e a73d f649 d0be 1846 ee3e b799 eebf
000000d0: 72d2 80c0 dd1f cabf a01e 8dbd d865 fabf
000000e0: 98ef eebf e161 36c0 9098 8cbd 0b88 ae3f
000000f0: 11dd 78bf d009 843d 12a4 44c0 f087 36be
00000100: b826 923f 6d89 873f d867 42bf 484e babe
00000110: ac7c 0c3f 2ce0 9f3f 99d9 fcbe af79 063f
00000120: 48b0 84bf b263 823f 934e 2e3f b4f9 623f
00000130: e207 ba3f 504b 5cbf 1131 79be 54c0 823f
00000140: a391 70bf 5b33 adbf f8b1 da3f acff 95be
00000150: acfc d9bf 806a 62c0 a0ea b83f f879 9cbf
00000160: 2f5f 233f 27fc d5bf 3bb7 a93f 9ef5 9d3f
00000170: 12fd 39bf 1d40 633f d41e abbe 8a50 3cbf
00000180: a0b3 e8bd 6e38 16c0 c810 85be 8611 28bf
1.2909483 -0.6539534 1.2307572 0.25404012 1.9638712 -0.27207878 1.9915869 -0.37200224
1.1559678 0.061497085 0.32541108 0.029073674 0.8402382 -0.35614002 1.0405397 -0.26773453
-0.54109156 -0.78905636 2.2331727 -0.31829512 -0.22489724 -0.21741831 1.3462642 -0.32371694
-1.4600215 -1.6814628 -1.246242 -0.58704823 -0.11281894 -0.13498828 -0.82805324 -1.7033294
0.12804997 -0.30374467 -1.162308 0.030014753 -0.7330244 1.544933 -0.15692899 0.7573307
-1.1638213 0.3479874 1.7019441 -0.7096692 -0.6582318 -3.5375009 0.1814853 1.6398445
0.08157023 -0.40681428 0.46537852 -1.864066 -4.025689 -1.5790974 -0.06890607 -1.956233
-1.8666868 -2.849724 -0.068650365 1.3635267 -0.9721232 0.06447184 -3.072514 -0.17825294
1.1418066 1.0588814 -0.75939703 -0.3638785 0.54877734 1.2490287 -0.49384764 0.52529424
-1.0366297 1.0186675 0.68088645 0.88662267 1.4533656 -0.8605242 -0.24335124 1.0214944
-0.93972224 -1.3531297 1.7085562 -0.29296625 -1.7030234 -3.5377502 1.4446602 -1.2224722
0.63817114 -1.6717576 1.3259043 1.2340581 -0.7265178 0.88769704 -0.33421957 -0.7356039
-0.11362386 -2.3471942 -0.25989366 -0.6565174

0.bias f4 [100]
00000000: df15 be3e fe35 cfbe 9a01 2ebf 40bb debe
00000010: b0fe 573f 31d4 f83e 42b2 123f cd54 6a3f
00000020: a17e 23bf 52eb 173f 1c77 49bf 5293 ee3e
00000030: 6ab9 563f 16c7 fd3e c124 d63e 6298 47bf
00000040: a62f 50bf d71a 4d3f ad5a 243f 0cf3 7ebf
00000050: 0f6e b33e 9cee fdbe 1462 3ebf d265 cd3e
00000060: 624f 67bf 7f95 a13f 02f9 69bf 5007 babe
00000070: 416e 213f 7a6f 813e a6ce 57bf 9d37 2e3f
00000080: 5ccb f4be 6008 fcbe 2397 ed3e 5274 41bf
00000090: 6249 e8be e66e 913f fe69 673e 5a94 0e3f
000000a0: 435f 38bf 0565 193e 9da3 2f3f f363 6c3f
000000b0: 2e9d 863e 179f 533e ccda 3fbf 0350 343f
000000c0: c571 253f ac08 453f ea9d 5bbf 1f8a 3e3f
000000d0: e8db 8f3f cf2c 7abf f8b2 6cbf 7ff2 473f
000000e0: 033a afbf af65 103e 2af9 41bf e165 163f
000000f0: f801 1abf 3075 a3be 0231 babd a0c6 5fbf
00000100: 90f7 563f ac4e 873f 9c54 54bf 79b5 153f
00000110: 9a44 493f 9923 6b3f 70fb 743f a441 063f
00000120: 853a 24bf f00b e03e 4ad3 7a3f 8995 623f
00000130: de51 98bd 6848 08bf a33a 1abe 1a50 403f
00000140: 38b6 713f 8563 56bf dfa5 3c3f 01cc 953e
00000150: f976 4ebd 0171 88be ebfb 873f 56eb f93e
00000160: 381b 233f 4071 84bf 9791 3bbf c3c1 b53e
00000170: 749f 73bf baeb fabe e4a9 1fbf b61b 6f3f
00000180: 6ed9 20bf e3e5 6f3f 1699 69bf a81d 48bf
0.3712606 -0.4047088 -0.67971194 -0.43502235 0.84373 0.4859939 0.5730325 0.91535646
-0.63865095 0.59343445 -0.7869737 0.4659677 0.8387667 0.49565953 0.41824916 -0.7796689
-0.81322706 0.8011908 0.6420086 -0.9958961 0.35044906 -0.49596107 -0.74368405 0.40116745
-0.90355504 1.2623748 -0.9139558 -0.36333704 0.6305886 0.25280362 -0.84299695 0.6805361
-0.478114 -0.4922514 0.4640437 -0.75568116 -0.45368487 1.1361969 0.22599027 0.55695117
-0.7202036 0.14979942 0.6860903 0.9234001 0.26291794 0.20666157 -0.7494323 0.7043459
0.64626724 0.7696636 -0.8578783 0.74429506 1.1238985 -0.9772462 -0.92460585 0.78104395
-1.3689579 0.14101289 -0.7577082 0.58749205 -0.60159254 -0.31925344 -0.09091379 -0.8741245
0.839715 1.0570884 -0.82941604 0.5848003 0.786203 0.9185119 0.95696163 0.5244391
-0.64151794 0.43759108 0.9797865 0.8850942 -0.0743749 -0.53235483 -0.1506143 0.75122225
0.9441867 -0.83745605 0.736906 0.29257205 -0.05040643 -0.26648715 1.0623754 0.4881236
0.6371341 -1.0347061 -0.7326903 0.3549939 -0.9516518 -0.4900797 -0.6236861 0.9340166
-0.6283177 0.93710154 -0.91249216 -0.7817025

2.weight f4 [1, 100]
00000000: 66a4 9f3f 7ebf 17bf a9ec 6f3f 2356 9abd
00000010: 0b62 fabf c93b 013e 581b fa3f f2ee b93d
00000020: 7c07 803f 73f9 f0bd 30ee 933b e9f6 0dbe
00000030: 9154 10bf 2178 0b3e 06e1 80bf d04a ba3b
00000040: f466 af3c a95d 923e 52b9 0740 46a1 663d
00000050: d17a dd3d 0328 bdbd eb2f 8e3f 70bb 503e
00000060: 0fa6 a9bf 4ffa 02c0 3766 b93f 9e4e 11bf
00000070: 7491 c5bd e874 263c 9a7f 033d 8fbf cb3f
00000080: 83f9 3dbd 625b 593d 1f6d 913f 1048 5a3c
00000090: e215 2dbf 6612 b53f 7d99 b53c 9cb3 303f
000000a0: 2577 81bf 662c c0be 1987 ccbf c587 6a3e
000000b0: b81e 1e3f 336b 5bc0 0054 9ebd cd1f cfbf
000000c0: 5232 51be 67b1 313e 4aca 29bd 1ec8 e13f
000000d0: 1c9d 83c0 1d1b b8bf dec0 313d dfcb f23f
000000e0: 39e7 0440 d62e 31c0 f244 043d 47bd 9dbf
000000f0: da53 4fbf 4b77 8b3d 30ec 3d40 8066 ecba
00000100: ce26 823f 4555 45bf 22c5 ccbd 0e54 833d
00000110: fafe cdbe b99c 983f 29a3 e63d 8546 d8be
00000120: ec6b 6abf 3848 81bf eb24 10bf fc7a 21bf
00000130: 8402 b9bf 061d 06bf 7c3b 72be 026d 723f
00000140: 63b9 bb3e 0c91 a3bf 6797 c3bf 8c78 423e
00000150: 8086 d23f 73aa 5940 771e b33f dfd3 933f
00000160: 3363 04bf 5542 cabf b70b 9e3f 1d2f 993f
00000170: 39d4 b73d f360 1e3f 039f b3bd cee3 a83e
00000180: a9cd 863d 5aa6 1340 aa28 4a3d e033 eabb
1.2472045 -0.5927657 0.9372049 -0.075359605 -1.956117 0.12620462 1.9539595 0.09078778
1.0002284 -0.11766329 0.004514478 -0.1386372 -0.5637904 0.13620044 -1.0068672 0.005685188
0.021411397 0.28587082 2.120686 0.056306146 0.10814441 -0.09236147 1.1108373 0.20384002
-1.3253802 -2.0465276 1.4484318 -0.56760585 -0.096468836 0.010159709 0.032104112 1.5917834
-0.04638053 0.053065665 1.1361426 0.013322845 -0.67611516 1.414624 0.022167915 0.6902406
-1.0114485 -0.37533873 -1.5978729 0.22903354 0.61765623 -3.428418 -0.077308655 -1.618158
-0.20429352 0.1735283 -0.041452684 1.7639196 -4.1129284 -1.4383274 0.043396823 1.8968467
2.0766127 -2.7684836 0.032292314 -1.2323388 -0.8098732 0.06809863 2.9675407 -0.0018035918
1.0168092 -0.77083236 -0.099985376 0.064125165 -0.40233594 1.1922828 0.11261589 -0.42241302
-0.91570926 -1.0100164 -0.5630633 -0.63078284 -1.4453893 -0.52388036 -0.23655504 0.9469758
0.36664876 -1.277864 -1.5280579 0.18991297 1.6447296 3.4010284 1.3993672 1.1549033
-0.51713866 -1.5801493 1.2347325 1.1967503 0.08976025 0.6186668 -0.087705635 0.329863
0.06582195 2.3070283 0.049355187 -0.0071472973
