complete/square/state5.pt (torch, 10937 bytes, 9 tensors)

weight f4 [100, 1]
0.23086143 -1.5360218 0.3369825 -1.0625294 -0.5078594 1.7396537 1.5423012 0.44518983
-1.3725257 -0.22777104 -1.2729666 -2.409911 -2.6019747 0.44812304 2.4414423 -2.2003453
0.12178582 -0.2863161 -0.8983761 0.17139971 -1.4252814 0.32640937 0.62277853 1.0348263
1.8165811 2.6734562 -0.5112395 0.15926057 0.25736973 1.8787401 0.4972249 0.32806575
0.35648784 0.5448877 1.2508785 -1.1451 -1.8138117 1.8100916 0.061541438 -1.4910518
0.9817344 -0.8001488 -0.32469654 3.2478116 -0.091234356 -0.027399778 0.6076397 1.4038289
-1.3952055 1.253657 0.9174569 -0.1468314 -0.29004312 0.16312045 -0.18997204 -0.5563947
0.028074145 1.360815 0.7176167 -0.28699076 0.30510545 -0.5565009 -2.3810787 -0.42559385
-1.0876324 0.13443078 -0.084853895 -0.013320684 2.1999276 2.4114351 -0.021577597 1.3981266
-3.1286478 0.9240516 1.2207446 -2.5047958 0.40258518 0.7697724 2.636156 0.40386355
0.98474073 -0.47889483 -2.0543282 -1.0039303 1.5025766 -2.412838 -0.735198 1.7338252
0.87978673 -1.5342176 1.5783471 2.2098973 2.4442158 0.3166647 1.3370732 1.2067701
0.1346767 0.25262904 -1.6626636 0.06648013
00000000: f066 6c3e 5d9c c4bf f888 ac3e f700 88bf
00000010: 1303 02bf f9ac de3f 206a c53f ecef e33e
00000020: ecae afbf d03c 69be 92f0 a2bf fb3b 1ac0
00000030: c186 26c0 6270 e53e 9740 1c40 75d2 0cc0
00000040: d86a f93d 0698 92be fafb 65bf 6883 2f3e
00000050: 9f6f b6bf 211f a73e 6a6e 1f3f 3075 843f
00000060: bb85 e83f e819 2b40 98e0 02bf 3415 233e
00000070: f7c5 833e 8e7a f03f 4394 fe3e 3cf8 a73e
00000080: 9385 b63e c37d 0b3f c91c a03f a392 92bf
00000090: fb2a e8bf 15b1 e73f e012 7c3d c9da bebf
000000a0: f252 7b3f 8dd6 4cbf a03e a6be 25dc 4f40
000000b0: 14d9 babd 8075 e0bc 468e 1b3f aab0 b33f
000000c0: 1896 b2bf d577 a03f 75de 6a3f f85a 16be
000000d0: 8880 94be 0c09 273e 0888 42be e26f 0ebf
000000e0: c0fb e53c 302f ae3f bab5 373f 74f0 92be
000000f0: c836 9c3e d876 0ebf 9863 18c0 70e7 d9be
00000100: 8a37 8bbf 39a8 093e e1c7 adbd 003f 5abc
00000110: 9dcb 0c40 f454 1a40 80c3 b0bc d0f5 b23f
00000120: c43b 48c0 a58e 6c3f 5c41 9c3f 934e 20c0
00000130: a51f ce3e ce0f 453f c8b6 2840 34c7 ce3e
00000140: f817 7c3f b431 f5be 1d7a 03c0 ca80 80bf
00000150: 6e54 c03f f06b 1ac0 f035 3cbf fced dd3f
00000160: b439 613f 3e61 c4bf 4707 ca3f f56e 0d40
00000170: 086e 1c40 e021 a23e 3725 ab3f 7177 9a3f
00000180: b0e8 093e 9858 813e 29d2 d4bf bc26 883d

bias f4 [100]
-0.30712628 0.59336036 -0.882923 -0.6518606 0.525678 -0.69155824 0.9434913 -0.8155421
0.53026605 -0.36200857 0.49164796 -0.09580387 -0.10348744 0.1731459 0.68827957 0.6305523
0.93520343 0.6259518 0.67155224 -0.8926492 1.0654323 0.42768645 0.9289296 -0.61708146
1.3294009 1.0330096 -0.86766815 0.70151746 0.71064556 0.06860193 -0.2966612 -0.8217747
0.65399 0.74176174 0.91540986 0.44241014 -1.3258001 -0.71956414 -0.35717368 -0.91455543
-0.5863368 0.8743795 -0.8483863 -0.19730438 0.31937668 -0.83118284 -0.3625593 -1.0412625
0.53905404 0.7668341 -0.67984253 0.7740858 -0.6047561 0.32254368 -0.6153499 -0.341333
-0.17333198 -0.81268203 -0.912346 -0.4633571 -0.868721 -0.40675262 0.9197546 -0.773702
-0.043222997 0.15987603 0.40832606 -0.94862807 -1.6309378 0.6798241 -0.36498392 1.0231725
0.8964315 -0.5514669 0.47167355 0.15134393 0.70798314 0.8580964 1.1325278 0.85369176
0.72065145 -0.49536026 -0.08167273 -0.7337479 0.5805649 -1.4804538 0.9388213 -1.0356144
0.91826105 0.4393662 -0.9415695 -0.13424319 0.6693648 -0.5075067 -0.7982466 0.8831375
-0.6787859 -0.4728732 0.47656175 0.83246374
00000000: a83f 9dbe 77e6 173f 3e07 62bf 56e0 26bf
00000010: d592 063f f609 31bf a588 713f 5ec7 50bf
00000020: 84bf 073f 3059 b9be 48b9 fb3e d234 c4bd
00000030: 39f1 d3bd 294d 313e 1733 303f e06b 213f
00000040: 7e69 6f3f 613e 203f d9ea 2b3f a884 64bf
00000050: 1660 883f b8f9 da3e 55ce 6d3f 0df9 1dbf
00000060: cf29 aa3f a939 843f 801f 5ebf a696 333f
00000070: deec 353f 2b7f 8c3d fae3 97be d45f 52bf
00000080: e36b 273f 19e4 3d3f 4d58 6a3f 9583 e23e
00000090: d1b3 a9bf 5b35 38bf 78df b6be 4e20 6abf
000000a0: 2b1a 16bf 56d7 5f3f d82f 59bf 290a 4abe
000000b0: 5785 a33e 66c8 54bf 5fa1 b9be 1748 85bf
000000c0: 72ff 093f 3d4f 443f 290a 2ebf 7d2a 463f
000000d0: 4cd1 1abf 7224 a53e 9287 1dbf 33c3 aebe
000000e0: f07d 31be ee0b 50bf 828f 69bf 243d edbe
000000f0: 8064 5ebf e141 d0be 0a75 6b3f 5611 46bf
00000100: 990a 31bd 8bb6 233e 1d10 d13e 4ad9 72bf
00000110: 92c2 d0bf f408 2e3f 2cdf babe 51f7 823f
00000120: 897c 653f ef2c 0dbf 327f f13e e7f9 1a3e
00000130: 623e 353f 35ac 5b3f acf6 903f 8b8b 5a3f
00000140: 9d7c 383f dc9f fdbe 0844 a7bd e7d6 3bbf
00000150: e79f 143f 837f bdbf 9856 703f 038f 84bf
00000160: 2813 6b3f 9bf4 e03e b30a 71bf 0c77 09be
00000170: 7e5b 2b3f f6eb 01bf e459 4cbf 4d15 623f
00000180: eac4 2dbf 701c f2be e7ff f33e 581c 553f

weight f4 [1, 100]
0.08707323 1.4729793 0.04788556 -1.1213182 0.23971197 1.6339116 -1.682241 -0.07447873
1.3010621 -0.07236983 1.2545124 2.3202496 2.467784 -0.45822313 2.3573954 -2.1764355
0.1542589 0.06398369 -0.9327608 -0.05720824 -1.486899 -0.038448714 -0.12915179 0.8151986
1.8832376 -2.6685169 0.07290759 -0.042792033 0.08999108 1.6836532 0.4232529 -0.06601752
-0.050819248 -0.06362194 1.261502 1.0821375 1.8923057 1.6803757 -0.008570373 -1.5137694
0.9564109 0.19692245 -0.06803355 -3.1177154 0.0137278605 -0.024335518 0.5226727 -1.4546133
1.3168396 -1.3114384 -1.0533874 0.2054518 -0.042303383 -0.10082613 0.097430594 -0.5879909
0.04620049 1.3109269 -0.05312959 -0.0073688775 0.063398965 0.6053585 2.3079984 0.015822694
1.0579637 -0.049443297 0.08611593 0.0073112696 -2.4039223 2.3404846 -0.045542907 1.4282641
-3.0795293 0.81570154 -1.2311679 -2.2835882 -0.008093162 -0.19365348 -2.6437292 -0.04318264
1.0002499 0.048732333 1.9745567 1.1313001 -1.4928126 -2.6235461 0.23094659 1.7077845
-0.1303615 -1.4789435 1.5665357 -2.140894 2.329244 0.024732113 1.2383009 1.2348034
-0.08578994 0.0535407 -1.6589016 0.049016383
00000000: 7353 b23d 968a bc3f a623 443d 5b87 8fbf
00000010: 0e77 753e 0424 d13f ac53 d7bf 4e88 98bd
00000020: 3489 a63f a236 94bd dd93 a03f f87e 1440
00000030: 2cf0 1d40 399c eabe 91df 1640 b84a 0bc0
00000040: 0cf6 1d3e e209 833d 69c9 6ebf 3053 6abd
00000050: b552 bebf 667c 1dbd 5e40 04be dbb0 503f
00000060: ee0d f13f fbc8 2ac0 9350 953d b346 2fbd
00000070: 3e4d b83d f381 d73f 9bb4 d83e 3234 87bd
00000080: d827 50bd 384c 82bd e678 a13f 7b83 8a3f
00000090: 1337 f23f 8d16 d73f c06a 0cbc 32c3 c1bf
000000a0: 58d7 743f 0aa6 493e 2d55 8bbd a688 47c0
000000b0: d2ea 603c 485b c7bc e1cd 053f c530 babf
000000c0: 338e a83f 37dd a7bf 66d5 86bf f561 523e
000000d0: 5046 2dbd ee7d cebd b189 c73d 9286 16bf
000000e0: ba3c 3d3d 74cc a73f 6a9e 59bd a076 f1bb
000000f0: 51d7 813d c6f8 1a3f 3fb6 1340 989e 813c
00000100: 5b6b 873f 0e85 4abd 8c5d b03d 6093 ef3b
00000110: ddd9 19c0 80ca 1540 338b 3abd 5cd1 b63f
00000120: 0217 45c0 d1d1 503f e996 9dbf 4f26 12c0
00000130: 2f99 04bc 194d 46be dc32 29c0 48e0 30bd
00000140: 3008 803f 8e9b 473d 46be fc3f 71ce 903f
00000150: 7c14 bfbf 2ee8 27c0 437d 6c3e af98 da3f
00000160: 7c7d 05be 054e bdbf 3e84 c83f 6804 09c0
00000170: 5512 1540 009b ca3c a580 9e3f 0a0e 9e3f
00000180: a3b2 afbd 7e4d 5b3d e356 d4bf 67c5 483d

train_data f4 [600, 1]
-0.36295152 -0.47044194 0.40809485 -0.135217 -0.7806051 0.6616573 -0.6104714 0.297983
0.29110375 -0.48980978 -0.7887416 -0.029248703 -0.9976979 -0.4362663 0.12239958 -0.12828283
0.34361634 0.73087716 0.8406641 0.6887843 -0.5523761 0.97782326 0.5903998 -0.31775078
0.8001077 -0.8807623 0.24411026 -0.020197224 -0.78669447 -0.92847455 0.91858286 -0.32456118
-0.90069115 0.41383484 0.6627595 -0.78647625 -0.2985458 -0.003271896 -0.11982972 -0.70697016
-0.122710034 -0.09240458 0.13564329 -0.1847616 0.33305582 0.6170282 -0.5143008 -0.6871901
-0.42187086 -0.708922 -0.8958442 0.3667265 -0.6457849 0.86802137 -0.070320114 0.94594914
0.6506276 0.7755419 -0.4849835 -0.4904197 0.3081582 0.49109215 0.91898483 0.9687966
0.060688436 0.1705355 0.15940918 -0.1079467 0.06266781 -0.9110918 -0.6068095 0.45732337
0.037189886 -0.7278629 0.651634 -0.8330604 0.12111905 -0.8311283 -0.018271815 0.4825159
0.3238895 0.5025341 -0.53044015 0.54396075 0.07160211 0.6231609 0.06812826 -0.3316739
-0.7587768 0.7222796 0.17901497 0.23418176 0.054285485 0.9573613 -0.23076175 -0.6585839
0.85852724 -0.7317541 -0.031406976 0.768562 0.831471 0.2197333 -0.16768283 0.16813867
0.3580335 0.531 -0.6159433 -0.47405744 -0.13669766 0.58441466 0.975964 0.35224462
-0.22052233 0.8780031 -0.96902573 0.5694786 0.72396094 0.07668487 -0.296681 0.6423881
0.04377135 0.4893856 -0.1064325 0.29639682 0.24191728 0.53822875 0.88724524 -0.053422302
-0.9311078 0.6352554 0.5576045 0.8094445 -0.95497483 -0.63415504 -0.0038114176 -0.8728173
-0.13717234 -0.6424676 0.378429 -0.49143565 -0.64479506 0.6362971 -0.36080053 0.24495018
-0.45945916 0.2754182 -0.37456223 0.5799261 0.81030715 -0.11519537 -0.54431415 -0.23910831
-0.338342 0.87828344 -0.5185859 -0.021494724 -0.47239417 -0.4838706 0.75188565 -0.3775699
-0.18256031 -0.9691931 -0.3970901 -0.60438037 0.6434424 0.99898326 -0.58210665 0.19704734
-0.5201677 -0.63297766 -0.40664825 0.8577083 -0.6437351 -0.9245223 -0.9327923 0.6067288
0.36683172 -0.82009864 -0.80653995 0.6307944 -0.8623878 -0.49638775 0.8054322 0.026754837
-0.13958521 0.88410115 -0.7222516 -0.9382209 -0.8480666 0.69825864 0.60066116 0.9194879
0.21460788 -0.7460264 0.7815042 -0.70478356 -0.6945576 0.55142534 0.6886176 -0.04095323
0.763733 -0.15130192 0.7478548 -0.83774847 -0.99895525 0.48626494 -0.478544 0.10458268
0.56050414 0.34286228 0.86570716 0.09401778 -0.86401445 -0.15647744 0.8895744 -0.040155716
-0.6066836 0.5074582 -0.35505638 -0.42500365 0.3114814 0.8343873 0.37355086 0.61097884
0.7943827 -0.18609032 -0.6532228 0.15344304 -0.2551805 0.60202926 0.46066174 0.89034826
0.27039585 -0.9761959 0.84675926 0.6346064 -0.07510168 -0.63036734 -0.36385185 0.44487917
-0.9076572 -0.022204513 0.4185634 -0.9389181 0.23533277 0.04499061 0.040104933 -0.81777304
0.29523525 -0.011652127 0.47268015 0.9261771 0.20568618 0.00094324833 0.14932244 -0.7439712
00000000: c8d4 b9be c4dd f0be cff1 d03e 5376 0abe
00000010: bcd5 47bf 5f62 293f db47 1cbf 3a91 983e
00000020: 8d0b 953e 59c8 fabe f8ea 49bf fa9a efbc
00000030: 2169 7fbf 4c5e dfbe a2ac fa3d 935c 03be
00000040: 7bee af3e c41a 3b3f c335 573f 2b54 303f
00000050: 8568 0dbf a052 7a3f 7124 173f 3bb0 a2be
00000060: dcd3 4c3f a379 61bf 0af8 793e a674 a5bc
00000070: cf64 49bf 82b0 6dbf 3f28 6b3f e22c a6be
00000080: b293 66bf 29e2 d33e 9baa 293f 8256 49bf
00000090: ffda 98be 4e6d 56bb 4969 f5bd fffb 34bf
000000a0: 664f fbbd 9d3e bdbd 13e6 0a3e 2532 3dbe
000000b0: 4b86 aa3e 8ff5 1d3f 38a9 03bf b1eb 2fbf
000000c0: 75ff d7be ea7b 35bf 0c56 65bf 93c3 bb3e
000000d0: 2952 25bf a636 5e3f fe03 90bd b929 723f
000000e0: 888f 263f ea89 463f c24f f8be 4a18 fbbe
000000f0: e9c6 9d3e 6e70 fb3e 9742 6b3f 0e03 783f
00000100: 7094 783d dca0 2e3e 293c 233e 2913 ddbd
00000110: fb57 803d 503d 69bf de57 1bbf 4a26 ea3e
00000120: 6c54 183d 3955 3abf 7cd1 263f 7243 55bf
00000130: 440d f83d d3c4 54bf c6ae 95bc 530c f73e
00000140: d8d4 a53e 13a6 003f edca 07bf 0341 0b3f
00000150: 21a4 923d 7987 1f3f d486 8b3d 29d1 a9be
00000160: 323f 42bf 51e7 383f b34f 373e 58cd 6f3e
00000170: 755a 5e3d a115 753f cf4c 6cbe f498 28bf
00000180: 71c8 5b3f 3d54 3bbf 9aa4 00bd 7bc0 443f
00000190: 49db 543f c401 613e 0cb5 2bbe 8b2c 2c3e
000001a0: 2b50 b73e 9eef 073f 76ae 1dbf a8b7 f2be
000001b0: 79fa 0bbe 339c 153f c7d8 793f 6859 b43e
000001c0: 9bd0 61be d0c4 603f 1212 78bf 59c9 113f
000001d0: 8155 393f f50c 9d3d 92e6 97be 8c73 243f
000001e0: 9649 333d c090 fa3e 48f9 d9bd 53c1 973e
000001f0: 2ab9 773e 5cc9 093f 8122 633f 58d1 5abd
00000200: 155d 6ebf 19a0 223f 2bbf 0e3f c137 4f3f
00000210: 3b79 74bf fc57 22bf fac8 79bb f470 5fbf
00000220: e876 0cbe c278 24bf 72c1 c13e 749d fbbe
00000230: 4a11 25bf 5ee4 223f d9ba b8be 38d4 7a3e
00000240: 3b3e ebbe 9d03 8d3e 9fc6 bfbe 0976 143f
00000250: 4a70 4f3f 8deb ebbd 2c58 0bbf cfd8 74be
00000260: 2a3b adbe 2fd7 603f 0cc2 04bf b415 b0bc
00000270: a6dd f1be e3bd f7be 947b 403f d850 c1be
00000280: 17f1 3abe 0a1d 78bf 654f cbbe acb8 1abf
00000290: a4b8 243f 5ebd 7f3f f104 15bf c7c6 493e
000002a0: b629 05bf d30a 22bf 3334 d0be c592 5b3f
000002b0: d3cb 24bf 7ead 6cbf 7acb 6ebf 9452 1b3f
000002c0: 5ed1 bb3e fcf1 51bf 6779 4ebf be7b 213f
000002d0: 72c5 5cbf 8926 febe ce30 4e3f f62c db3c
000002e0: 6def 0ebe 7454 623f 7be5 38bf 3f2f 70bf
000002f0: e51a 59bf 14c1 323f eec4 193f 8f63 6b3f
00000300: 2bc2 5b3e 96fb 3ebf a910 483f b26c 34bf
00000310: 87ce 31bf 362a 0d3f 3e49 303f 93be 27bd
00000320: 0284 433f e4ee 1abe 6a73 3f3f af76 56bf
00000330: 88bb 7fbf b8f7 f83e b803 f5be 722f d63d
00000340: 337d 0f3f a58b af3e fc9e 5d3f 658c c03d
00000350: 0d30 5dbf 9f3b 20be 26bb 633f 527a 24bd
00000360: 9e4f 1bbf c8e8 013f f3c9 b5be 149a d9be
00000370: 7d7a 9f3e 689a 553f 0f42 bf3e 1c69 1c3f
00000380: aa5c 4b3f 768e 3ebe 9c39 27bf 2c20 1d3e
00000390: 05a7 82be 971e 1a3f dbdb eb3e dded 633f
000003a0: 5371 8a3e f9e7 79bf 37c5 583f 9175 223f
000003b0: e9ce 99bd c15f 21bf ca4a babe 34c7 e33e
000003c0: 395c 68bf 3de6 b5bc f14d d63e f05c 70bf
000003d0: 13fb 703e 1348 383d 1245 243d 9359 51bf
000003e0: 1329 973e 90e8 3ebc 2203 f23e f119 6d3f
000003f0: 669f 523e 5344 773a fbe7 183e e674 3ebf

train_targets f4 [600, 1]
1.0 1.0 -1.0 -1.0 -1.0 -1.0 1.0 1.0
1.0 1.0 -1.0 -1.0 -1.0 1.0 1.0 -1.0
-1.0 1.0 1.0 1.0 1.0 1.0 -1.0 -1.0
1.0 -1.0 1.0 -1.0 -1.0 -1.0 1.0 -1.0
-1.0 -1.0 -1.0 -1.0 -1.0 -1.0 -1.0 -1.0
-1.0 -1.0 1.0 -1.0 1.0 -1.0 1.0 -1.0
1.0 -1.0 -1.0 -1.0 1.0 1.0 -1.0 1.0
-1.0 1.0 1.0 1.0 1.0 -1.0 1.0 1.0
1.0 1.0 1.0 -1.0 1.0 -1.0 1.0 -1.0
1.0 -1.0 -1.0 -1.0 1.0 -1.0 -1.0 -1.0
1.0 -1.0 1.0 -1.0 1.0 -1.0 1.0 -1.0
-1.0 1.0 1.0 1.0 1.0 1.0 -1.0 1.0
1.0 -1.0 -1.0 1.0 1.0 1.0 -1.0 1.0
-1.0 -1.0 1.0 1.0 -1.0 -1.0 1.0 -1.0
-1.0 1.0 -1.0 -1.0 1.0 1.0 -1.0 -1.0
1.0 -1.0 -1.0 1.0 1.0 -1.0 1.0 -1.0
-1.0 -1.0 -1.0 1.0 -1.0 1.0 -1.0 -1.0
-1.0 1.0 -1.0 1.0 1.0 -1.0 1.0 1.0
1.0 1.0 1.0 -1.0 1.0 -1.0 1.0 -1.0
1.0 1.0 1.0 -1.0 1.0 1.0 1.0 1.0
-1.0 -1.0 1.0 1.0 -1.0 1.0 1.0 1.0
1.0 1.0 1.0 1.0 1.0 -1.0 -1.0 -1.0
-1.0 -1.0 -1.0 -1.0 -1.0 1.0 1.0 1.0
-1.0 1.0 -1.0 -1.0 -1.0 1.0 -1.0 1.0
1.0 -1.0 1.0 -1.0 -1.0 -1.0 1.0 -1.0
1.0 -1.0 1.0 -1.0 -1.0 -1.0 1.0 1.0
-1.0 -1.0 1.0 1.0 -1.0 -1.0 1.0 -1.0
1.0 -1.0 1.0 1.0 1.0 1.0 -1.0 -1.0
1.0 -1.0 1.0 1.0 -1.0 -1.0 -1.0 1.0
1.0 -1.0 1.0 -1.0 -1.0 1.0 1.0 -1.0
-1.0 -1.0 -1.0 -1.0 1.0 1.0 1.0 -1.0
1.0 -1.0 -1.0 1.0 1.0 1.0 1.0 -1.0
00000000: 0000 803f 0000 803f 0000 80bf 0000 80bf
00000010: 0000 80bf 0000 80bf 0000 803f 0000 803f
00000020: 0000 803f 0000 803f 0000 80bf 0000 80bf
00000030: 0000 80bf 0000 803f 0000 803f 0000 80bf
00000040: 0000 80bf 0000 803f 0000 803f 0000 803f
00000050: 0000 803f 0000 803f 0000 80bf 0000 80bf
00000060: 0000 803f 0000 80bf 0000 803f 0000 80bf
00000070: 0000 80bf 0000 80bf 0000 803f 0000 80bf
00000080: 0000 80bf 0000 80bf 0000 80bf 0000 80bf
00000090: 0000 80bf 0000 80bf 0000 80bf 0000 80bf
000000a0: 0000 80bf 0000 80bf 0000 803f 0000 80bf
000000b0: 0000 803f 0000 80bf 0000 803f 0000 80bf
000000c0: 0000 803f 0000 80bf 0000 80bf 0000 80bf
000000d0: 0000 803f 0000 803f 0000 80bf 0000 803f
000000e0: 0000 80bf 0000 803f 0000 803f 0000 803f
000000f0: 0000 803f 0000 80bf 0000 803f 0000 803f
00000100: 0000 803f 0000 803f 0000 803f 0000 80bf
00000110: 0000 803f 0000 80bf 0000 803f 0000 80bf
00000120: 0000 803f 0000 80bf 0000 80bf 0000 80bf
00000130: 0000 803f 0000 80bf 0000 80bf 0000 80bf
00000140: 0000 803f 0000 80bf 0000 803f 0000 80bf
00000150: 0000 803f 0000 80bf 0000 803f 0000 80bf
00000160: 0000 80bf 0000 803f 0000 803f 0000 803f
00000170: 0000 803f 0000 803f 0000 80bf 0000 803f
00000180: 0000 803f 0000 80bf 0000 80bf 0000 803f
00000190: 0000 803f 0000 803f 0000 80bf 0000 803f
000001a0: 0000 80bf 0000 80bf 0000 803f 0000 803f
000001b0: 0000 80bf 0000 80bf 0000 803f 0000 80bf
000001c0: 0000 80bf 0000 803f 0000 80bf 0000 80bf
000001d0: 0000 803f 0000 803f 0000 80bf 0000 80bf
000001e0: 0000 803f 0000 80bf 0000 80bf 0000 803f
000001f0: 0000 803f 0000 80bf 0000 803f 0000 80bf
00000200: 0000 80bf 0000 80bf 0000 80bf 0000 803f
00000210: 0000 80bf 0000 803f 0000 80bf 0000 80bf
00000220: 0000 80bf 0000 803f 0000 80bf 0000 803f
00000230: 0000 803f 0000 80bf 0000 803f 0000 803f
00000240: 0000 803f 0000 803f 0000 803f 0000 80bf
00000250: 0000 803f 0000 80bf 0000 803f 0000 80bf
00000260: 0000 803f 0000 803f 0000 803f 0000 80bf
00000270: 0000 803f 0000 803f 0000 803f 0000 803f
00000280: 0000 80bf 0000 80bf 0000 803f 0000 803f
00000290: 0000 80bf 0000 803f 0000 803f 0000 803f
000002a0: 0000 803f 0000 803f 0000 803f 0000 803f
000002b0: 0000 803f 0000 80bf 0000 80bf 0000 80bf
000002c0: 0000 80bf 0000 80bf 0000 80bf 0000 80bf
000002d0: 0000 80bf 0000 803f 0000 803f 0000 803f
000002e0: 0000 80bf 0000 803f 0000 80bf 0000 80bf
000002f0: 0000 80bf 0000 803f 0000 80bf 0000 803f
00000300: 0000 803f 0000 80bf 0000 803f 0000 80bf
00000310: 0000 80bf 0000 80bf 0000 803f 0000 80bf
00000320: 0000 803f 0000 80bf 0000 803f 0000 80bf
00000330: 0000 80bf 0000 80bf 0000 803f 0000 803f
00000340: 0000 80bf 0000 80bf 0000 803f 0000 803f
00000350: 0000 80bf 0000 80bf 0000 803f 0000 80bf
00000360: 0000 803f 0000 80bf 0000 803f 0000 803f
00000370: 0000 803f 0000 803f 0000 80bf 0000 80bf
00000380: 0000 803f 0000 80bf 0000 803f 0000 803f
00000390: 0000 80bf 0000 80bf 0000 80bf 0000 803f
000003a0: 0000 803f 0000 80bf 0000 803f 0000 80bf
000003b0: 0000 80bf 0000 803f 0000 803f 0000 80bf
000003c0: 0000 80bf 0000 80bf 0000 80bf 0000 80bf
000003d0: 0000 803f 0000 803f 0000 803f 0000 80bf
000003e0: 0000 803f 0000 80bf 0000 80bf 0000 803f
000003f0: 0000 803f 0000 803f 0000 803f 0000 80bf

test_data f4 [150, 1]
-1.0 1.0 -1.0 -1.0 1.0 -1.0 -1.0 1.0
-1.0 1.0 1.0 -1.0 -1.0 1.0 -1.0 -1.0
1.0 -1.0 1.0 1.0 1.0 1.0 -1.0 -1.0
1.0 -1.0 -1.0 1.0 1.0 1.0 -1.0 -1.0
1.0 1.0 1.0 -1.0 1.0 -1.0 1.0 -1.0
-1.0 -1.0 -1.0 1.0 -1.0 -1.0 1.0 1.0
1.0 -1.0 -1.0 -1.0 -1.0 -1.0 -1.0 1.0
-1.0 1.0 -1.0 1.0 1.0 1.0 1.0 -1.0
-1.0 1.0 1.0 -1.0 -1.0 -1.0 1.0 -1.0
1.0 -1.0 -1.0 1.0 1.0 -1.0 1.0 -1.0
-1.0 -1.0 1.0 1.0 -1.0 1.0 1.0 1.0
1.0 -1.0 -1.0 -1.0 1.0 1.0 -1.0 -1.0
1.0 1.0 -1.0 1.0 1.0 1.0 1.0 -1.0
1.0 -1.0 1.0 1.0 1.0 -1.0 -1.0 1.0
-1.0 1.0 -1.0 1.0 1.0 1.0 1.0 -1.0
-1.0 1.0 -1.0 1.0 1.0 1.0 -1.0 1.0
1.0 -1.0 -1.0 1.0 -1.0 -1.0 -1.0 -1.0
1.0 1.0 -1.0 -1.0 1.0 1.0 1.0 1.0
-1.0 1.0 1.0 1.0 -1.0 1.0
00000000: 0000 80bf 0000 803f 0000 80bf 0000 80bf
00000010: 0000 803f 0000 80bf 0000 80bf 0000 803f
00000020: 0000 80bf 0000 803f 0000 803f 0000 80bf
00000030: 0000 80bf 0000 803f 0000 80bf 0000 80bf
00000040: 0000 803f 0000 80bf 0000 803f 0000 803f
00000050: 0000 803f 0000 803f 0000 80bf 0000 80bf
00000060: 0000 803f 0000 80bf 0000 80bf 0000 803f
00000070: 0000 803f 0000 803f 0000 80bf 0000 80bf
00000080: 0000 803f 0000 803f 0000 803f 0000 80bf
00000090: 0000 803f 0000 80bf 0000 803f 0000 80bf
000000a0: 0000 80bf 0000 80bf 0000 80bf 0000 803f
000000b0: 0000 80bf 0000 80bf 0000 803f 0000 803f
000000c0: 0000 803f 0000 80bf 0000 80bf 0000 80bf
000000d0: 0000 80bf 0000 80bf 0000 80bf 0000 803f
000000e0: 0000 80bf 0000 803f 0000 80bf 0000 803f
000000f0: 0000 803f 0000 803f 0000 803f 0000 80bf
00000100: 0000 80bf 0000 803f 0000 803f 0000 80bf
00000110: 0000 80bf 0000 80bf 0000 803f 0000 80bf
00000120: 0000 803f 0000 80bf 0000 80bf 0000 803f
00000130: 0000 803f 0000 80bf 0000 803f 0000 80bf
00000140: 0000 80bf 0000 80bf 0000 803f 0000 803f
00000150: 0000 80bf 0000 803f 0000 803f 0000 803f
00000160: 0000 803f 0000 80bf 0000 80bf 0000 80bf
00000170: 0000 803f 0000 803f 0000 80bf 0000 80bf
00000180: 0000 803f 0000 803f 0000 80bf 0000 803f
00000190: 0000 803f 0000 803f 0000 803f 0000 80bf
000001a0: 0000 803f 0000 80bf 0000 803f 0000 803f
000001b0: 0000 803f 0000 80bf 0000 80bf 0000 803f
000001c0: 0000 80bf 0000 803f 0000 80bf 0000 803f
000001d0: 0000 803f 0000 803f 0000 803f 0000 80bf
000001e0: 0000 80bf 0000 803f 0000 80bf 0000 803f
000001f0: 0000 803f 0000 803f 0000 80bf 0000 803f
00000200: 0000 803f 0000 80bf 0000 80bf 0000 803f
00000210: 0000 80bf 0000 80bf 0000 80bf 0000 80bf
00000220: 0000 803f 0000 803f 0000 80bf 0000 80bf
00000230: 0000 803f 0000 803f 0000 803f 0000 803f
00000240: 0000 80bf 0000 803f 0000 803f 0000 803f
00000250: 0000 80bf 0000 803f

0.weight f4 [100, 1]
0.23086143 -1.5360218 0.3369825 -1.0625294 -0.5078594 1.7396537 1.5423012 0.44518983
-1.3725257 -0.22777104 -1.2729666 -2.409911 -2.6019747 0.44812304 2.4414423 -2.2003453
0.12178582 -0.2863161 -0.8983761 0.17139971 -1.4252814 0.32640937 0.62277853 1.0348263
1.8165811 2.6734562 -0.5112395 0.15926057 0.25736973 1.8787401 0.4972249 0.32806575
0.35648784 0.5448877 1.2508785 -1.1451 -1.8138117 1.8100916 0.061541438 -1.4910518
0.9817344 -0.8001488 -0.32469654 3.2478116 -0.091234356 -0.027399778 0.6076397 1.4038289
-1.3952055 1.253657 0.9174569 -0.1468314 -0.29004312 0.16312045 -0.18997204 -0.5563947
0.028074145 1.360815 0.7176167 -0.28699076 0.30510545 -0.5565009 -2.3810787 -0.42559385
-1.0876324 0.13443078 -0.084853895 -0.013320684 2.1999276 2.4114351 -0.021577597 1.3981266
-3.1286478 0.9240516 1.2207446 -2.5047958 0.40258518 0.7697724 2.636156 0.40386355
0.98474073 -0.47889483 -2.0543282 -1.0039303 1.5025766 -2.412838 -0.735198 1.7338252
0.87978673 -1.5342176 1.5783471 2.2098973 2.4442158 0.3166647 1.3370732 1.2067701
0.1346767 0.25262904 -1.6626636 0.06648013
00000000: f066 6c3e 5d9c c4bf f888 ac3e f700 88bf
00000010: 1303 02bf f9ac de3f 206a c53f ecef e33e
00000020: ecae afbf d03c 69be 92f0 a2bf fb3b 1ac0
00000030: c186 26c0 6270 e53e 9740 1c40 75d2 0cc0
00000040: d86a f93d 0698 92be fafb 65bf 6883 2f3e
00000050: 9f6f b6bf 211f a73e 6a6e 1f3f 3075 843f
00000060: bb85 e83f e819 2b40 98e0 02bf 3415 233e
00000070: f7c5 833e 8e7a f03f 4394 fe3e 3cf8 a73e
00000080: 9385 b63e c37d 0b3f c91c a03f a392 92bf
00000090: fb2a e8bf 15b1 e73f e012 7c3d c9da bebf
000000a0: f252 7b3f 8dd6 4cbf a03e a6be 25dc 4f40
000000b0: 14d9 babd 8075 e0bc 468e 1b3f aab0 b33f
000000c0: 1896 b2bf d577 a03f 75de 6a3f f85a 16be
000000d0: 8880 94be 0c09 273e 0888 42be e26f 0ebf
000000e0: c0fb e53c 302f ae3f bab5 373f 74f0 92be
000000f0: c836 9c3e d876 0ebf 9863 18c0 70e7 d9be
00000100: 8a37 8bbf 39a8 093e e1c7 adbd 003f 5abc
00000110: 9dcb 0c40 f454 1a40 80c3 b0bc d0f5 b23f
00000120: c43b 48c0 a58e 6c3f 5c41 9c3f 934e 20c0
00000130: a51f ce3e ce0f 453f c8b6 2840 34c7 ce3e
00000140: f817 7c3f b431 f5be 1d7a 03c0 ca80 80bf
00000150: 6e54 c03f f06b 1ac0 f035 3cbf fced dd3f
00000160: b439 613f 3e61 c4bf 4707 ca3f f56e 0d40
00000170: 086e 1c40 e021 a23e 3725 ab3f 7177 9a3f
00000180: b0e8 093e 9858 813e 29d2 d4bf bc26 883d

0.bias f4 [100]
-0.30712628 0.59336036 -0.882923 -0.6518606 0.525678 -0.69155824 0.9434913 -0.8155421
0.53026605 -0.36200857 0.49164796 -0.09580387 -0.10348744 0.1731459 0.68827957 0.6305523
0.93520343 0.6259518 0.67155224 -0.8926492 1.0654323 0.42768645 0.9289296 -0.61708146
1.3294009 1.0330096 -0.86766815 0.70151746 0.71064556 0.06860193 -0.2966612 -0.8217747
0.65399 0.74176174 0.91540986 0.44241014 -1.3258001 -0.71956414 -0.35717368 -0.91455543
-0.5863368 0.8743795 -0.8483863 -0.19730438 0.31937668 -0.83118284 -0.3625593 -1.0412625
0.53905404 0.7668341 -0.67984253 0.7740858 -0.6047561 0.32254368 -0.6153499 -0.341333
-0.17333198 -0.81268203 -0.912346 -0.4633571 -0.868721 -0.40675262 0.9197546 -0.773702
-0.043222997 0.15987603 0.40832606 -0.94862807 -1.6309378 0.6798241 -0.36498392 1.0231725
0.8964315 -0.5514669 0.47167355 0.15134393 0.70798314 0.8580964 1.1325278 0.85369176
0.72065145 -0.49536026 -0.08167273 -0.7337479 0.5805649 -1.4804538 0.9388213 -1.0356144
0.91826105 0.4393662 -0.9415695 -0.13424319 0.6693648 -0.5075067 -0.7982466 0.8831375
-0.6787859 -0.4728732 0.47656175 0.83246374
00000000: a83f 9dbe 77e6 173f 3e07 62bf 56e0 26bf
00000010: d592 063f f609 31bf a588 713f 5ec7 50bf
00000020: 84bf 073f 3059 b9be 48b9 fb3e d234 c4bd
00000030: 39f1 d3bd 294d 313e 1733 303f e06b 213f
00000040: 7e69 6f3f 613e 203f d9ea 2b3f a884 64bf
00000050: 1660 883f b8f9 da3e 55ce 6d3f 0df9 1dbf
00000060: cf29 aa3f a939 843f 801f 5ebf a696 333f
00000070: deec 353f 2b7f 8c3d fae3 97be d45f 52bf
00000080: e36b 273f 19e4 3d3f 4d58 6a3f 9583 e23e
00000090: d1b3 a9bf 5b35 38bf 78df b6be 4e20 6abf
000000a0: 2b1a 16bf 56d7 5f3f d82f 59bf 290a 4abe
000000b0: 5785 a33e 66c8 54bf 5fa1 b9be 1748 85bf
000000c0: 72ff 093f 3d4f 443f 290a 2ebf 7d2a 463f
000000d0: 4cd1 1abf 7224 a53e 9287 1dbf 33c3 aebe
000000e0: f07d 31be ee0b 50bf 828f 69bf 243d edbe
000000f0: 8064 5ebf e141 d0be 0a75 6b3f 5611 46bf
00000100: 990a 31bd 8bb6 233e 1d10 d13e 4ad9 72bf
00000110: 92c2 d0bf f408 2e3f 2cdf babe 51f7 823f
00000120: 897c 653f ef2c 0dbf 327f f13e e7f9 1a3e
00000130: 623e 353f 35ac 5b3f acf6 903f 8b8b 5a3f
00000140: 9d7c 383f dc9f fdbe 0844 a7bd e7d6 3bbf
00000150: e79f 143f 837f bdbf 9856 703f 038f 84bf
00000160: 2813 6b3f 9bf4 e03e b30a 71bf 0c77 09be
00000170: 7e5b 2b3f f6eb 01bf e459 4cbf 4d15 623f
00000180: eac4 2dbf 701c f2be e7ff f33e 581c 553f

2.weight f4 [1, 100]
0.08707323 1.4729793 0.04788556 -1.1213182 0.23971197 1.6339116 -1.682241 -0.07447873
1.3010621 -0.07236983 1.2545124 2.3202496 2.467784 -0.45822313 2.3573954 -2.1764355
0.1542589 0.06398369 -0.9327608 -0.05720824 -1.486899 -0.038448714 -0.12915179 0.8151986
1.8832376 -2.6685169 0.07290759 -0.042792033 0.08999108 1.6836532 0.4232529 -0.06601752
-0.050819248 -0.06362194 1.261502 1.0821375 1.8923057 1.6803757 -0.008570373 -1.5137694
0.9564109 0.19692245 -0.06803355 -3.1177154 0.0137278605 -0.024335518 0.5226727 -1.4546133
1.3168396 -1.3114384 -1.0533874 0.2054518 -0.042303383 -0.10082613 0.097430594 -0.5879909
0.04620049 1.3109269 -0.05312959 -0.0073688775 0.063398965 0.6053585 2.3079984 0.015822694
1.0579637 -0.049443297 0.08611593 0.0073112696 -2.4039223 2.3404846 -0.045542907 1.4282641
-3.0795293 0.81570154 -1.2311679 -2.2835882 -0.008093162 -0.19365348 -2.6437292 -0.04318264
1.0002499 0.048732333 1.9745567 1.1313001 -1.4928126 -2.6235461 0.23094659 1.7077845
-0.1303615 -1.4789435 1.5665357 -2.140894 2.329244 0.024732113 1.2383009 1.2348034
-0.08578994 0.0535407 -1.6589016 0.049016383
00000000: 7353 b23d 968a bc3f a623 443d 5b87 8fbf
00000010: 0e77 753e 0424 d13f ac53 d7bf 4e88 98bd
00000020: 3489 a63f a236 94bd dd93 a03f f87e 1440
00000030: 2cf0 1d40 399c eabe 91df 1640 b84a 0bc0
00000040: 0cf6 1d3e e209 833d 69c9 6ebf 3053 6abd
00000050: b552 bebf 667c 1dbd 5e40 04be dbb0 503f
00000060: ee0d f13f fbc8 2ac0 9350 953d b346 2fbd
00000070: 3e4d b83d f381 d73f 9bb4 d83e 3234 87bd
00000080: d827 50bd 384c 82bd e678 a13f 7b83 8a3f
00000090: 1337 f23f 8d16 d73f c06a 0cbc 32c3 c1bf
000000a0: 58d7 743f 0aa6 493e 2d55 8bbd a688 47c0
000000b0: d2ea 603c 485b c7bc e1cd 053f c530 babf
000000c0: 338e a83f 37dd a7bf 66d5 86bf f561 523e
000000d0: 5046 2dbd ee7d cebd b189 c73d 9286 16bf
000000e0: ba3c 3d3d 74cc a73f 6a9e 59bd a076 f1bb
000000f0: 51d7 813d c6f8 1a3f 3fb6 1340 989e 813c
00000100: 5b6b 873f 0e85 4abd 8c5d b03d 6093 ef3b
00000110: ddd9 19c0 80ca 1540 338b 3abd 5cd1 b63f
00000120: 0217 45c0 d1d1 503f e996 9dbf 4f26 12c0
00000130: 2f99 04bc 194d 46be dc32 29c0 48e0 30bd
00000140: 3008 803f 8e9b 473d 46be fc3f 71ce 903f
00000150: 7c14 bfbf 2ee8 27c0 437d 6c3e af98 da3f
00000160: 7c7d 05be 054e bdbf 3e84 c83f 6804 09c0
00000170: 5512 1540 009b ca3c a580 9e3f 0a0e 9e3f
00000180: a3b2 afbd 7e4d 5b3d e356 d4bf 67c5 483d
