complete/floor/state9.pt (torch, 10937 bytes, 9 tensors)

weight f4 [100, 1]
-0.9180223 1.4016833 0.54706186 -0.31599593 1.2964436 -0.9488003 1.028714 -0.24661279
-0.0058557987 0.16661543 0.14952767 -0.7909455 1.1340959 0.71976674 -0.25792837 -0.073138475
1.0433028 -0.22447906 -0.83866054 0.12546027 -0.4559738 -1.2753812 -0.6223675 -1.5181732
0.18660533 0.8485158 -0.57016873 -0.59745646 -0.34726238 0.6135005 0.39183044 0.54211724
0.81312495 -2.311888 0.72425735 0.98747283 0.935876 -0.53631145 0.43616068 0.0674453
1.2321409 0.04378581 0.59202576 -0.5021055 -0.45658803 0.7750785 -0.29921234 -0.99283254
0.037397012 0.38364106 0.06192553 1.2471468 0.2971635 -0.17575967 -0.2122513 0.17417987
-0.1412493 -1.0906589 -0.00072300434 -0.7449697 0.14676368 0.31373572 -0.65608764 -0.86493915
-0.9266218 0.71688485 0.22751749 0.86483026 -1.0341344 0.5759854 -0.95006853 0.38844505
0.9181453 -1.0033766 0.7015653 -1.3872383 0.48309112 -0.98760223 0.006429795 0.0071184635
0.290732 -1.1168833 1.0524032 -1.2111766 1.2426505 1.2748964 0.068139136 -0.36861718
0.8955227 -0.37566614 -0.89077514 -0.37177587 -1.2252097 -0.4492097 0.051416297 0.39948165
-0.5975523 0.9343614 -1.0787481 0.8749326
00000000: 8203 6bbf 5c6a b33f 3f0c 0c3f 38ca a1be
00000010: ddf1 a53f 94e4 72bf e6ac 833f 1088 7cbe
00000020: 00e2 bfbb 3c9d 2a3e c81d 193e 677b 4abf
00000030: 0e2a 913f a242 383f 300f 84be a0c9 95bd
00000040: f28a 853f d7dd 65be 75b2 56bf a878 003e
00000050: 6675 e9be b13f a3bf 7a53 1fbf 8053 c2bf
00000060: 7815 3f3e 5538 593f 94f6 11bf e8f2 18bf
00000070: 60cc b1be 5e0e 1d3f 009e c83e 32c8 0a3f
00000080: f528 503f f9f5 13c0 ee68 393f 05cb 7c3f
00000090: 9295 6f3f b54b 09bf 7450 df3e c320 8a3d
000000a0: cbb6 9d3f c058 333d 008f 173f fc89 00bf
000000b0: e8c5 e9be 8b6b 463f 5c32 99be 462a 7ebf
000000c0: 9c2d 193d 9a6c c43e a0a5 7d3d 82a2 9f3f
000000d0: d025 983e 58fa 33be 6858 59be 355c 323e
000000e0: a8a3 10be b69a 8bbf 0088 3dba 56b6 3ebf
000000f0: 3849 163e f8a1 a03e 5cf5 27bf a76c 5dbf
00000100: 1637 6dbf c485 373f 58fa 683e 8465 5d3f
00000110: 845e 84bf c773 133f b137 73bf 45e2 c63e
00000120: 920b 6b3f a56e 80bf c999 333f 0691 b1bf
00000130: b857 f73e 80d3 7cbf 08b1 d23b 0042 e93b
00000140: d3da 943e 08f6 8ebf 26b5 863f d607 9bbf
00000150: 2c0f 9f3f ce2f a33f 888c 8b3d 64bb bcbe
00000160: fa40 653f 5057 c0be d709 64bf 6859 bebe
00000170: acd3 9cbf d0fe e5be e599 523d dc88 cc3e
00000180: 30f9 18bf 4f32 6f3f 6b14 8abf 95fb 5f3f

bias f4 [100]
-0.91559315 1.2079022 0.3495996 -0.41932547 1.1173322 0.81003004 0.44880408 -0.92938006
-0.42289126 0.51766557 -0.9050913 -0.7888402 0.9773411 -0.25903267 -0.4753822 -0.32299185
0.049777653 0.14486033 0.2071327 0.7350015 -0.072900794 1.0884708 -0.945788 1.295844
0.08137923 0.731567 -0.7069588 -0.095731676 0.29644912 0.74034584 -0.76036036 -0.8994479
-0.1263024 -1.9895588 -0.7617358 -0.1534096 -0.14525126 -0.34294635 0.65404713 0.1924091
0.05871039 -0.3889922 0.25825107 0.32419643 -0.25701752 0.77307254 -0.9971992 0.43427506
0.5615169 0.38268057 -0.518072 1.0749724 -0.40474796 -0.66656625 -0.72056425 0.008270623
-0.88722885 -0.17463973 -0.5798651 0.63583267 -0.9310726 0.07572345 0.5599131 0.3783418
0.79108876 0.71500236 0.4482424 -0.86485463 -0.16556357 -0.43351576 -0.71661 0.093740515
-0.33031997 0.24786022 -0.39229667 0.057767007 -0.65125835 -0.7447352 0.6797175 -0.30416226
0.7303811 0.9533361 0.90687037 1.0337102 1.0709819 1.0987163 0.09325098 -0.7840316
0.21617572 -0.8882611 -0.31498098 -0.5451101 -0.43330598 -0.88461673 0.66755784 -0.84682536
-0.8849292 -0.33626705 -0.6067547 0.38178697
00000000: 5064 6abf 8a9c 9a3f b8fe b23e d4b1 d6be
00000010: be04 8f3f 215e 4f3f a6c9 e53e daeb 6dbf
00000020: 3485 d8be bb85 043f 10b4 67bf 6ef1 49bf
00000030: 0733 7a3f ee9f 84be 4c65 f3be 305f a5be
00000040: a7e3 4b3d 4456 143e 981a 543e 0f29 3c3f
00000050: 034d 95bd 0353 8b3f 2a1f 72bf 37de a53f
00000060: 27aa a63d fa47 3b3f 40fb 34bf f80e c4bd
00000070: 2ec8 973e 4e87 3d3f faa6 42bf 3842 66bf
00000080: 6b55 01be dda9 febf 1e01 43bf 6817 1dbe
00000090: bfbc 14be aa96 afbe a26f 273f e406 453e
000000a0: 4e7a 703d fc29 c7be 7c39 843e 13fd a53e
000000b0: cd97 83be 15e8 453f 7248 7fbf 4d59 de3e
000000c0: 92bf 0f3f b5ee c33e 5ea0 04bf b298 893f
000000d0: 203b cfbe 16a4 2abf e676 38bf 8281 073c
000000e0: 6e21 63bf c2d4 32be 0a72 14bf eec5 223f
000000f0: c65a 6ebf e514 9b3d 7756 0f3f 04b6 c13e
00000100: cb84 4a3f 650a 373f 0780 e53e 1d67 5dbf
00000110: 7f89 29be c7f5 ddbe c173 37bf 07fb bf3d
00000120: b31f a9be 12cf 7d3e 1cdb c8be 199d 6c3d
00000130: deb8 26bf f7a6 3ebf f701 2e3f 28bb 9bbe
00000140: 41fa 3a3f d60d 743f a828 683f 9e50 843f
00000150: ef15 893f bca2 8c3f 5ffa be3d 4cb6 48bf
00000160: 2b5d 5d3e 1465 63bf 3045 a1be 568c 0bbf
00000170: 48da ddbe 3e76 62bf 12e5 2a3f 8cc9 58bf
00000180: b88a 62bf 322b acbe 4754 1bbf 9579 c33e

weight f4 [1, 100]
-0.05503953 1.3169098 0.28337017 -0.06391832 1.244921 -0.91151595 0.5884398 -0.006311789
0.06195075 -0.30957514 0.010447241 -0.065146044 1.0371994 0.44197285 0.09598946 0.06778807
0.7193855 -0.070816614 -0.61697 -0.3803252 -0.265237 -1.2847375 0.050670363 -1.546559
0.14931048 0.68801385 -0.08799694 -0.27440032 -0.35794908 -0.5190809 0.032571606 0.09725436
0.38424292 2.8175423 0.07941396 0.5117472 0.5463993 0.48433623 -0.41798708 -0.058026038
0.7792447 -0.05919529 0.32691672 -0.240854 -0.3075328 -0.5357784 -0.059526395 -0.5945726
-0.2829684 -0.3038716 0.052207418 1.1484164 -0.09095093 0.067847036 0.027609028 0.083791435
0.016798511 -0.54153496 -0.06504923 -0.7951819 0.0331985 0.1448075 -0.6870186 -0.52786726
-0.8755632 -0.56105685 -0.30607632 -0.07274478 -0.49862164 0.4270106 -0.53457147 0.2167436
0.61224145 -0.7073555 0.6484138 -0.95627356 -0.0035342723 -0.5777387 -0.32452565 0.06468815
-0.45843473 -1.1315534 1.0252032 -1.2016354 1.0966166 1.1777775 -0.047183644 -0.0461455
0.42228496 -0.07926265 -0.42859176 -0.015641436 -0.65410525 -0.08752008 -0.29554516 -0.07112487
-0.05129627 0.64841646 -0.8381726 0.46523514
00000000: 2171 61bd 8090 a83f e515 913e 9ce7 82bd
00000010: 9259 9f3f 1c59 69bf fea3 163f 20d3 cebb
00000020: 12c0 7d3d a280 9ebe e82a 2b3c 4a6b 85bd
00000030: f3c2 843f 444a e23e 1f96 c43d 79d4 8a3d
00000040: a629 383f 4d08 91bd bff1 1dbf fcb9 c2be
00000050: 25cd 87be 4772 a4bf ba8b 4f3d a5f5 c5bf
00000060: d9e4 183e ad21 303f bd37 b4bd 337e 8cbe
00000070: 1a45 b7be 7ce2 04bf ce69 053d 4b2d c73d
00000080: 7dbb c43e 9d52 3440 c9a3 a23d dd01 033f
00000090: d3e0 0b3f ebfa f73e 6702 d6be b6ac 6dbd
000000a0: 957c 473f c376 72bd a161 a73e 6ea2 76be
000000b0: f074 9dbe c628 09bf f3d1 73bd e935 18bf
000000c0: 3ce1 90be 0f95 9bbe 72d7 553d 4fff 923f
000000d0: 7b44 babd 63f3 8a3d 542c e23c d89a ab3d
000000e0: 089d 893c 09a2 0abf 8838 85bd 0a91 4bbf
000000f0: 26fb 073d 6b48 143e 73e0 2fbf 4f22 07bf
00000100: e924 60bf 6ca1 0fbf 09b6 9cbe 37fb 94bd
00000110: 564b ffbe 22a1 da3e add9 08bf 09f2 5d3e
00000120: dbbb 1c3f 4015 35bf 72fe 253f 58ce 74bf
00000130: 409f 67bb afe6 13bf 3a28 a6be 397b 843d
00000140: f5b7 eabe bed6 90bf dc39 833f 30cf 99bf
00000150: ef5d 8c3f 6ac1 963f a343 41bd 1003 3dbd
00000160: bc35 d83e 7554 a2bd 6170 dbbe 7822 80bc
00000170: 7173 27bf ba3d b3bd b251 97be eaa9 91bd
00000180: 0a1c 52bd 9ffe 253f 7b92 56bf 4d33 ee3e

train_data f4 [600, 1]
0.246996 0.3484646 0.20961282 0.42857143 -0.99465954 -0.5834446 -0.26034713 -0.19626169
-0.7276369 0.033377837 -0.5941255 -0.09479306 -0.6315087 -0.10013351 -0.2683578 -0.8451268
-0.40987983 -0.54072094 0.7757009 0.88518023 -0.7463284 0.6715621 0.9385848 0.060080107
-0.017356476 -0.2283044 -0.23631509 -0.08678237 -0.12683578 -0.77837116 0.8184246 0.3564753
-0.6742323 -0.5273698 -0.3164219 -0.76502 0.18024032 -0.7543391 0.28437918 -0.49532712
0.77837116 0.61548734 0.34312415 -0.022696929 0.03070761 0.44192258 -0.9706275 -0.8317757
-0.7623498 -0.71428573 -0.8638184 -0.15086782 0.5674232 -0.9092123 -0.57009345 0.16955942
-0.3351135 0.33244327 0.15353805 0.6448598 -0.682243 -0.39919892 -0.564753 0.94926566
-0.3965287 0.4072096 -0.5380507 -0.59679574 0.50867826 -0.6288385 -0.4659546 0.81575435
0.0013351135 -0.05740988 -0.06275033 0.36181575 0.09212283 -0.8424566 -0.4445928 -0.43124166
0.4339119 0.6021362 0.26568758 0.35914552 -0.73564756 0.3858478 0.76769024 -0.5487316
0.92256343 0.8638184 0.6902537 -0.8130841 -0.94125503 0.2176235 0.4926569 -0.5006676
0.965287 -0.14552736 0.48731643 -0.7837116 0.53004 0.11081442 -0.3751669 0.73297733
0.4259012 0.5567423 0.7222964 0.5727637 -0.73297733 -0.66088116 0.7570093 -0.506008
0.8104139 0.55941254 -0.1188251 0.72496665 0.86915886 -0.72496665 0.9706275 0.9092123
0.0894526 0.85847795 0.49799734 -0.054739654 0.8905207 0.105473965 0.5540721 -0.033377837
0.12683578 0.7917223 -0.64218956 0.9973298 0.16421896 0.3351135 -0.24432577 0.90387183
-0.6021362 0.23097463 -0.16154873 -0.4739653 -0.8718291 0.2576769 0.8130841 -0.8184246
-0.8985314 0.27903873 0.7516689 0.1989319 -0.23097463 -0.8558077 -0.7436582 -0.5220294
-0.078771695 0.22029373 0.89586115 0.48998666 0.71428573 0.86648864 0.7810414 0.25500667
-0.0040053404 -0.8744993 -0.9465955 -0.74899864 -0.6929239 -0.9732977 -0.55941254 0.16154873
-0.87716955 -0.4152203 -0.3938585 -0.188251 -0.9118825 0.9305741 -0.105473965 0.5193592
-0.36448598 0.78638184 0.20427236 -0.7943925 -0.80774367 -0.052069426 0.11348464 0.9012016
0.25233644 -0.65821093 0.41255006 0.917223 -0.21495327 -0.88251 -0.8024032 0.64218956
-0.34045395 0.84779704 -0.95727634 0.04138852 -0.78638184 -0.35113484 0.56208277 0.7303071
-0.081441924 -0.81575435 0.0066755675 -0.60747665 0.4445928 -0.7757009 0.009345794 0.07343124
-0.19359146 -0.45260346 -0.0894526 0.8291055 0.36448598 -0.80507344 0.6849132 -0.03070761
-0.7036048 -0.7730307 0.73564756 0.7943925 0.88251 0.80507344 0.025367156 0.108144194
-0.46061414 0.93324435 0.5914553 -0.20160213 -0.6555407 0.30307075 0.66889185 0.9519359
-0.48197597 0.88785046 -0.07076102 -0.27903873 -0.2176235 -0.9546061 -0.38050735 0.65821093
0.014686248 0.53271025 -0.4846462 -0.20961282 0.94392526 0.47930574 0.38317758 -0.71695596
0.63951933 0.96795726 0.24432577 0.11615487 -0.53004 0.5353805 0.32443258 0.2683578
00000000: 85ec 7c3e f469 b23e bea4 563e b76d db3e
00000010: 02a2 7ebf a05c 15bf 384c 85be d3f8 48be
00000020: 6946 3abf 33b7 083d 9c18 18bf dd22 c2bd
00000030: 8eaa 21bf cc12 cdbd 3266 89be 3b5a 58bf
00000040: c5db d1be b06c 0abf 5694 463f 2c9b 623f
00000050: 610f 3fbf 7eeb 2b3f 1847 703f 8f16 763d
00000060: 2b2f 8ebc a1c8 69be 95fc 71be f5ba b1bd
00000070: 3de1 01be 5543 47bf 4684 513f ee83 b63e
00000080: 7d9a 2cbf b501 07bf 0d02 a2be 5ad8 43bf
00000090: eb90 383e 5e1c 41bf 269a 913e 849b fdbe
000000a0: 5543 473f 9490 1d3f f8ad af3e e9ee b9bc
000000b0: 878e fb3c ad43 e23e 0b7b 78bf 41ef 54bf
000000c0: 5b29 43bf 6edb 36bf 3423 5dbf 187d 1abe
000000d0: a642 113f 23c2 68bf a5f1 11bf fca0 2d3e
000000e0: ff93 abbe 0136 aa3e 1439 1d3e 8815 253f
000000f0: 7aa7 2ebf cd63 ccbe a793 10bf 1303 733f
00000100: cf05 cbbe c77d d03e b1bd 09bf 9bc7 18bf
00000110: bd38 023f 8ffb 20bf 9a91 eebe 47d5 503f
00000120: fafe ae3a 9f26 6bbd 3f83 80bd ea3f b93e
00000130: e5aa bc3d 3cab 57bf aba1 e3be b5cb dcbe
00000140: b329 de3e 9925 1a3f 3408 883e ece1 b73e
00000150: 6653 3cbf d88d c53e 5987 443f ad79 0cbf
00000160: 1e2d 6c3f 3423 5d3f 77b4 303f 4826 50bf
00000170: 17f6 70bf b2d8 5e3e 863d fc3e c02b 00bf
00000180: 0d1d 773f 2005 15be 8a81 f93e 53a1 48bf
00000190: b4b0 073f acf2 e23d e015 c0be 67a4 3b3f
000001a0: b90f da3e aa86 0e3f 6be8 383f a4a0 123f
000001b0: 67a4 3bbf 822f 29bf 5dcb 413f be89 01bf
000001c0: 4977 4f3f a935 0f3f 935a f3bd 6a97 393f
000001d0: 3281 5e3f 6a97 39bf 0b7b 783f 23c2 683f
000001e0: ed32 b73d 36c5 5b3f 82f9 fe3e b036 60bd
000001f0: 2af9 633f bc02 d83d abd7 0d3f 33b7 08bd
00000200: 3de1 013e 50ae 4a3f 8966 24bf 0151 7f3f
00000210: 0429 283e ff93 ab3e 8930 7abe 2564 673f
00000220: 9925 1abf 9d84 6c3e 086d 25be 94ab f2be
00000230: 3130 5fbf 3aee 833e 4826 503f 4684 51bf
00000240: 2706 66bf 2ade 8e3e 5f6d 403f ceb4 4b3e
00000250: 9d84 6cbe 3716 5bbf 6260 3ebf b8a3 05bf
00000260: 0e53 a1bd ae94 613e 2857 653f 88df fa3e
00000270: 6edb 363f 33d2 5d3f 54f2 473f 3c90 823e
00000280: 3b3f 83bb 30df 5fbf 1554 72bf 60be 3fbf
00000290: 7663 31bf 0a2a 79bf a935 0fbf 086d 253e
000002a0: 2f8e 60bf c197 d4be d2a7 c9be dfc4 40be
000002b0: 2271 69bf 1b3a 6e3f bc02 d8bd b9f4 043f
000002c0: e89d babe 5250 493f c62c 513e 4f5d 4bbf
000002d0: 4ac8 4ebf c046 55bd a36a e83d 26b5 663f
000002e0: 3e32 813e 8380 28bf c339 d33e 20cf 6a3f
000002f0: b61c 5cbe 2dec 61bf 4c6a 4dbf 8966 243f
00000300: fb4f aebe 3a09 593f 1010 75bf 0287 293d
00000310: 5250 49bf f2c7 b3be a8e4 0f3f 68f5 3a3f
00000320: 06cb a6bd 47d5 50bf b8be da3b 9783 1bbf
00000330: aba1 e33e 5694 46bf 1a1f 193c 1e63 963d
00000340: d73c 46be a4bb e7be ed32 b7bd 4240 543f
00000350: e89d ba3e 4b19 4ebf 7956 2f3f 878e fbbc
00000360: 721f 34bf 57e5 45bf 6653 3c3f 4f5d 4b3f
00000370: 2dec 613f 4b19 4e3f c8ce cf3c b47a dd3d
00000380: 9ed5 ebbe 1ae9 6e3f 9d69 173f ca70 4ebe
00000390: 84d1 27bf 172c 9b3e 7f3c 2b3f 12b2 733f
000003a0: 8ec5 f6be 2b4a 633f 27eb 90bd 2ade 8ebe
000003b0: b2d8 5ebe 1161 74bf dcd1 c2be 8380 283f
000003c0: 979e 703c b35f 083f 8c23 f8be bea4 56be
000003d0: 16a5 713f 9067 f53e da2f c43e 6d8a 37bf
000003e0: 8ab7 233f 0ccc 773f 8930 7a3e 9be2 ed3d
000003f0: b4b0 07bf b20e 093f 071c a63e 3266 893e

train_targets f4 [600, 1]
5.0 5.0 5.0 10.0 -25.0 -15.0 -10.0 -5.0
-20.0 0.0 -15.0 -5.0 -20.0 -5.0 -10.0 -25.0
-15.0 -15.0 15.0 20.0 -20.0 15.0 20.0 0.0
-5.0 -10.0 -10.0 -5.0 -5.0 -20.0 20.0 5.0
-20.0 -15.0 -10.0 -20.0 0.0 -20.0 5.0 -15.0
15.0 15.0 5.0 -5.0 0.0 10.0 -25.0 -25.0
-20.0 -20.0 -25.0 -5.0 10.0 -25.0 -15.0 0.0
-10.0 5.0 0.0 15.0 -20.0 -10.0 -15.0 20.0
-10.0 10.0 -15.0 -15.0 10.0 -20.0 -15.0 20.0
0.0 -5.0 -5.0 5.0 0.0 -25.0 -15.0 -15.0
10.0 15.0 5.0 5.0 -20.0 5.0 15.0 -15.0
20.0 20.0 15.0 -25.0 -25.0 5.0 10.0 -15.0
20.0 -5.0 10.0 -20.0 10.0 0.0 -10.0 15.0
10.0 10.0 15.0 10.0 -20.0 -20.0 15.0 -15.0
20.0 10.0 -5.0 15.0 20.0 -20.0 20.0 20.0
0.0 20.0 10.0 -5.0 20.0 0.0 10.0 -5.0
0.0 15.0 -20.0 20.0 0.0 5.0 -10.0 20.0
-20.0 5.0 -5.0 -15.0 -25.0 5.0 20.0 -25.0
-25.0 5.0 15.0 0.0 -10.0 -25.0 -20.0 -15.0
-5.0 5.0 20.0 10.0 15.0 20.0 15.0 5.0
-5.0 -25.0 -25.0 -20.0 -20.0 -25.0 -15.0 0.0
-25.0 -15.0 -10.0 -5.0 -25.0 20.0 -5.0 10.0
-10.0 15.0 5.0 -20.0 -25.0 -5.0 0.0 20.0
5.0 -20.0 10.0 20.0 -10.0 -25.0 -25.0 15.0
-10.0 20.0 -25.0 0.0 -20.0 -10.0 10.0 15.0
-5.0 -25.0 0.0 -20.0 10.0 -20.0 0.0 0.0
-5.0 -15.0 -5.0 20.0 5.0 -25.0 15.0 -5.0
-20.0 -20.0 15.0 15.0 20.0 20.0 0.0 0.0
-15.0 20.0 10.0 -10.0 -20.0 5.0 15.0 20.0
-15.0 20.0 -5.0 -10.0 -10.0 -25.0 -10.0 15.0
0.0 10.0 -15.0 -10.0 20.0 10.0 5.0 -20.0
15.0 20.0 5.0 0.0 -15.0 10.0 5.0 5.0
00000000: 0000 a040 0000 a040 0000 a040 0000 2041
00000010: 0000 c8c1 0000 70c1 0000 20c1 0000 a0c0
00000020: 0000 a0c1 0000 0000 0000 70c1 0000 a0c0
00000030: 0000 a0c1 0000 a0c0 0000 20c1 0000 c8c1
00000040: 0000 70c1 0000 70c1 0000 7041 0000 a041
00000050: 0000 a0c1 0000 7041 0000 a041 0000 0000
00000060: 0000 a0c0 0000 20c1 0000 20c1 0000 a0c0
00000070: 0000 a0c0 0000 a0c1 0000 a041 0000 a040
00000080: 0000 a0c1 0000 70c1 0000 20c1 0000 a0c1
00000090: 0000 0000 0000 a0c1 0000 a040 0000 70c1
000000a0: 0000 7041 0000 7041 0000 a040 0000 a0c0
000000b0: 0000 0000 0000 2041 0000 c8c1 0000 c8c1
000000c0: 0000 a0c1 0000 a0c1 0000 c8c1 0000 a0c0
000000d0: 0000 2041 0000 c8c1 0000 70c1 0000 0000
000000e0: 0000 20c1 0000 a040 0000 0000 0000 7041
000000f0: 0000 a0c1 0000 20c1 0000 70c1 0000 a041
00000100: 0000 20c1 0000 2041 0000 70c1 0000 70c1
00000110: 0000 2041 0000 a0c1 0000 70c1 0000 a041
00000120: 0000 0000 0000 a0c0 0000 a0c0 0000 a040
00000130: 0000 0000 0000 c8c1 0000 70c1 0000 70c1
00000140: 0000 2041 0000 7041 0000 a040 0000 a040
00000150: 0000 a0c1 0000 a040 0000 7041 0000 70c1
00000160: 0000 a041 0000 a041 0000 7041 0000 c8c1
00000170: 0000 c8c1 0000 a040 0000 2041 0000 70c1
00000180: 0000 a041 0000 a0c0 0000 2041 0000 a0c1
00000190: 0000 2041 0000 0000 0000 20c1 0000 7041
000001a0: 0000 2041 0000 2041 0000 7041 0000 2041
000001b0: 0000 a0c1 0000 a0c1 0000 7041 0000 70c1
000001c0: 0000 a041 0000 2041 0000 a0c0 0000 7041
000001d0: 0000 a041 0000 a0c1 0000 a041 0000 a041
000001e0: 0000 0000 0000 a041 0000 2041 0000 a0c0
000001f0: 0000 a041 0000 0000 0000 2041 0000 a0c0
00000200: 0000 0000 0000 7041 0000 a0c1 0000 a041
00000210: 0000 0000 0000 a040 0000 20c1 0000 a041
00000220: 0000 a0c1 0000 a040 0000 a0c0 0000 70c1
00000230: 0000 c8c1 0000 a040 0000 a041 0000 c8c1
00000240: 0000 c8c1 0000 a040 0000 7041 0000 0000
00000250: 0000 20c1 0000 c8c1 0000 a0c1 0000 70c1
00000260: 0000 a0c0 0000 a040 0000 a041 0000 2041
00000270: 0000 7041 0000 a041 0000 7041 0000 a040
00000280: 0000 a0c0 0000 c8c1 0000 c8c1 0000 a0c1
00000290: 0000 a0c1 0000 c8c1 0000 70c1 0000 0000
000002a0: 0000 c8c1 0000 70c1 0000 20c1 0000 a0c0
000002b0: 0000 c8c1 0000 a041 0000 a0c0 0000 2041
000002c0: 0000 20c1 0000 7041 0000 a040 0000 a0c1
000002d0: 0000 c8c1 0000 a0c0 0000 0000 0000 a041
000002e0: 0000 a040 0000 a0c1 0000 2041 0000 a041
000002f0: 0000 20c1 0000 c8c1 0000 c8c1 0000 7041
00000300: 0000 20c1 0000 a041 0000 c8c1 0000 0000
00000310: 0000 a0c1 0000 20c1 0000 2041 0000 7041
00000320: 0000 a0c0 0000 c8c1 0000 0000 0000 a0c1
00000330: 0000 2041 0000 a0c1 0000 0000 0000 0000
00000340: 0000 a0c0 0000 70c1 0000 a0c0 0000 a041
00000350: 0000 a040 0000 c8c1 0000 7041 0000 a0c0
00000360: 0000 a0c1 0000 a0c1 0000 7041 0000 7041
00000370: 0000 a041 0000 a041 0000 0000 0000 0000
00000380: 0000 70c1 0000 a041 0000 2041 0000 20c1
00000390: 0000 a0c1 0000 a040 0000 7041 0000 a041
000003a0: 0000 70c1 0000 a041 0000 a0c0 0000 20c1
000003b0: 0000 20c1 0000 c8c1 0000 20c1 0000 7041
000003c0: 0000 0000 0000 2041 0000 70c1 0000 20c1
000003d0: 0000 a041 0000 2041 0000 a040 0000 a0c1
000003e0: 0000 7041 0000 a041 0000 a040 0000 0000
000003f0: 0000 70c1 0000 2041 0000 a040 0000 a040

test_data f4 [150, 1]
-20.0 -25.0 20.0 -10.0 -25.0 -20.0 5.0 10.0
-25.0 10.0 10.0 -15.0 0.0 0.0 -10.0 -10.0
-10.0 -5.0 -15.0 -5.0 5.0 5.0 -5.0 -10.0
15.0 -5.0 -25.0 -25.0 -10.0 -10.0 -15.0 -15.0
15.0 20.0 0.0 5.0 -15.0 -5.0 10.0 -25.0
15.0 -10.0 -5.0 -25.0 -15.0 -15.0 -20.0 -10.0
20.0 -15.0 -25.0 -15.0 20.0 -10.0 5.0 -15.0
-5.0 15.0 20.0 0.0 -20.0 -10.0 -25.0 20.0
20.0 15.0 -15.0 0.0 -10.0 0.0 0.0 5.0
-10.0 -25.0 0.0 -10.0 10.0 -15.0 -25.0 20.0
10.0 15.0 15.0 15.0 -20.0 0.0 15.0 -5.0
5.0 -25.0 -20.0 5.0 15.0 5.0 -10.0 10.0
-5.0 20.0 15.0 -5.0 -5.0 -25.0 -20.0 5.0
20.0 -10.0 15.0 -5.0 5.0 10.0 -10.0 10.0
0.0 -25.0 -5.0 -20.0 -20.0 0.0 10.0 20.0
-25.0 -20.0 -10.0 5.0 -25.0 20.0 10.0 15.0
0.0 -10.0 -25.0 15.0 -25.0 -10.0 -5.0 -20.0
5.0 10.0 -20.0 -15.0 5.0 15.0 15.0 0.0
20.0 0.0 20.0 0.0 20.0 10.0
00000000: 0000 a0c1 0000 c8c1 0000 a041 0000 20c1
00000010: 0000 c8c1 0000 a0c1 0000 a040 0000 2041
00000020: 0000 c8c1 0000 2041 0000 2041 0000 70c1
00000030: 0000 0000 0000 0000 0000 20c1 0000 20c1
00000040: 0000 20c1 0000 a0c0 0000 70c1 0000 a0c0
00000050: 0000 a040 0000 a040 0000 a0c0 0000 20c1
00000060: 0000 7041 0000 a0c0 0000 c8c1 0000 c8c1
00000070: 0000 20c1 0000 20c1 0000 70c1 0000 70c1
00000080: 0000 7041 0000 a041 0000 0000 0000 a040
00000090: 0000 70c1 0000 a0c0 0000 2041 0000 c8c1
000000a0: 0000 7041 0000 20c1 0000 a0c0 0000 c8c1
000000b0: 0000 70c1 0000 70c1 0000 a0c1 0000 20c1
000000c0: 0000 a041 0000 70c1 0000 c8c1 0000 70c1
000000d0: 0000 a041 0000 20c1 0000 a040 0000 70c1
000000e0: 0000 a0c0 0000 7041 0000 a041 0000 0000
000000f0: 0000 a0c1 0000 20c1 0000 c8c1 0000 a041
00000100: 0000 a041 0000 7041 0000 70c1 0000 0000
00000110: 0000 20c1 0000 0000 0000 0000 0000 a040
00000120: 0000 20c1 0000 c8c1 0000 0000 0000 20c1
00000130: 0000 2041 0000 70c1 0000 c8c1 0000 a041
00000140: 0000 2041 0000 7041 0000 7041 0000 7041
00000150: 0000 a0c1 0000 0000 0000 7041 0000 a0c0
00000160: 0000 a040 0000 c8c1 0000 a0c1 0000 a040
00000170: 0000 7041 0000 a040 0000 20c1 0000 2041
00000180: 0000 a0c0 0000 a041 0000 7041 0000 a0c0
00000190: 0000 a0c0 0000 c8c1 0000 a0c1 0000 a040
000001a0: 0000 a041 0000 20c1 0000 7041 0000 a0c0
000001b0: 0000 a040 0000 2041 0000 20c1 0000 2041
000001c0: 0000 0000 0000 c8c1 0000 a0c0 0000 a0c1
000001d0: 0000 a0c1 0000 0000 0000 2041 0000 a041
000001e0: 0000 c8c1 0000 a0c1 0000 20c1 0000 a040
000001f0: 0000 c8c1 0000 a041 0000 2041 0000 7041
00000200: 0000 0000 0000 20c1 0000 c8c1 0000 7041
00000210: 0000 c8c1 0000 20c1 0000 a0c0 0000 a0c1
00000220: 0000 a040 0000 2041 0000 a0c1 0000 70c1
00000230: 0000 a040 0000 7041 0000 7041 0000 0000
00000240: 0000 a041 0000 0000 0000 a041 0000 0000
00000250: 0000 a041 0000 2041

0.weight f4 [100, 1]
-0.9180223 1.4016833 0.54706186 -0.31599593 1.2964436 -0.9488003 1.028714 -0.24661279
-0.0058557987 0.16661543 0.14952767 -0.7909455 1.1340959 0.71976674 -0.25792837 -0.073138475
1.0433028 -0.22447906 -0.83866054 0.12546027 -0.4559738 -1.2753812 -0.6223675 -1.5181732
0.18660533 0.8485158 -0.57016873 -0.59745646 -0.34726238 0.6135005 0.39183044 0.54211724
0.81312495 -2.311888 0.72425735 0.98747283 0.935876 -0.53631145 0.43616068 0.0674453
1.2321409 0.04378581 0.59202576 -0.5021055 -0.45658803 0.7750785 -0.29921234 -0.99283254
0.037397012 0.38364106 0.06192553 1.2471468 0.2971635 -0.17575967 -0.2122513 0.17417987
-0.1412493 -1.0906589 -0.00072300434 -0.7449697 0.14676368 0.31373572 -0.65608764 -0.86493915
-0.9266218 0.71688485 0.22751749 0.86483026 -1.0341344 0.5759854 -0.95006853 0.38844505
0.9181453 -1.0033766 0.7015653 -1.3872383 0.48309112 -0.98760223 0.006429795 0.0071184635
0.290732 -1.1168833 1.0524032 -1.2111766 1.2426505 1.2748964 0.068139136 -0.36861718
0.8955227 -0.37566614 -0.89077514 -0.37177587 -1.2252097 -0.4492097 0.051416297 0.39948165
-0.5975523 0.9343614 -1.0787481 0.8749326
00000000: 8203 6bbf 5c6a b33f 3f0c 0c3f 38ca a1be
00000010: ddf1 a53f 94e4 72bf e6ac 833f 1088 7cbe
00000020: 00e2 bfbb 3c9d 2a3e c81d 193e 677b 4abf
00000030: 0e2a 913f a242 383f 300f 84be a0c9 95bd
00000040: f28a 853f d7dd 65be 75b2 56bf a878 003e
00000050: 6675 e9be b13f a3bf 7a53 1fbf 8053 c2bf
00000060: 7815 3f3e 5538 593f 94f6 11bf e8f2 18bf
00000070: 60cc b1be 5e0e 1d3f 009e c83e 32c8 0a3f
00000080: f528 503f f9f5 13c0 ee68 393f 05cb 7c3f
00000090: 9295 6f3f b54b 09bf 7450 df3e c320 8a3d
000000a0: cbb6 9d3f c058 333d 008f 173f fc89 00bf
000000b0: e8c5 e9be 8b6b 463f 5c32 99be 462a 7ebf
000000c0: 9c2d 193d 9a6c c43e a0a5 7d3d 82a2 9f3f
000000d0: d025 983e 58fa 33be 6858 59be 355c 323e
000000e0: a8a3 10be b69a 8bbf 0088 3dba 56b6 3ebf
000000f0: 3849 163e f8a1 a03e 5cf5 27bf a76c 5dbf
00000100: 1637 6dbf c485 373f 58fa 683e 8465 5d3f
00000110: 845e 84bf c773 133f b137 73bf 45e2 c63e
00000120: 920b 6b3f a56e 80bf c999 333f 0691 b1bf
00000130: b857 f73e 80d3 7cbf 08b1 d23b 0042 e93b
00000140: d3da 943e 08f6 8ebf 26b5 863f d607 9bbf
00000150: 2c0f 9f3f ce2f a33f 888c 8b3d 64bb bcbe
00000160: fa40 653f 5057 c0be d709 64bf 6859 bebe
00000170: acd3 9cbf d0fe e5be e599 523d dc88 cc3e
00000180: 30f9 18bf 4f32 6f3f 6b14 8abf 95fb 5f3f

0.bias f4 [100]
-0.91559315 1.2079022 0.3495996 -0.41932547 1.1173322 0.81003004 0.44880408 -0.92938006
-0.42289126 0.51766557 -0.9050913 -0.7888402 0.9773411 -0.25903267 -0.4753822 -0.32299185
0.049777653 0.14486033 0.2071327 0.7350015 -0.072900794 1.0884708 -0.945788 1.295844
0.08137923 0.731567 -0.7069588 -0.095731676 0.29644912 0.74034584 -0.76036036 -0.8994479
-0.1263024 -1.9895588 -0.7617358 -0.1534096 -0.14525126 -0.34294635 0.65404713 0.1924091
0.05871039 -0.3889922 0.25825107 0.32419643 -0.25701752 0.77307254 -0.9971992 0.43427506
0.5615169 0.38268057 -0.518072 1.0749724 -0.40474796 -0.66656625 -0.72056425 0.008270623
-0.88722885 -0.17463973 -0.5798651 0.63583267 -0.9310726 0.07572345 0.5599131 0.3783418
0.79108876 0.71500236 0.4482424 -0.86485463 -0.16556357 -0.43351576 -0.71661 0.093740515
-0.33031997 0.24786022 -0.39229667 0.057767007 -0.65125835 -0.7447352 0.6797175 -0.30416226
0.7303811 0.9533361 0.90687037 1.0337102 1.0709819 1.0987163 0.09325098 -0.7840316
0.21617572 -0.8882611 -0.31498098 -0.5451101 -0.43330598 -0.88461673 0.66755784 -0.84682536
-0.8849292 -0.33626705 -0.6067547 0.38178697
00000000: 5064 6abf 8a9c 9a3f b8fe b23e d4b1 d6be
00000010: be04 8f3f 215e 4f3f a6c9 e53e daeb 6dbf
00000020: 3485 d8be bb85 043f 10b4 67bf 6ef1 49bf
00000030: 0733 7a3f ee9f 84be 4c65 f3be 305f a5be
00000040: a7e3 4b3d 4456 143e 981a 543e 0f29 3c3f
00000050: 034d 95bd 0353 8b3f 2a1f 72bf 37de a53f
00000060: 27aa a63d fa47 3b3f 40fb 34bf f80e c4bd
00000070: 2ec8 973e 4e87 3d3f faa6 42bf 3842 66bf
00000080: 6b55 01be dda9 febf 1e01 43bf 6817 1dbe
00000090: bfbc 14be aa96 afbe a26f 273f e406 453e
000000a0: 4e7a 703d fc29 c7be 7c39 843e 13fd a53e
000000b0: cd97 83be 15e8 453f 7248 7fbf 4d59 de3e
000000c0: 92bf 0f3f b5ee c33e 5ea0 04bf b298 893f
000000d0: 203b cfbe 16a4 2abf e676 38bf 8281 073c
000000e0: 6e21 63bf c2d4 32be 0a72 14bf eec5 223f
000000f0: c65a 6ebf e514 9b3d 7756 0f3f 04b6 c13e
00000100: cb84 4a3f 650a 373f 0780 e53e 1d67 5dbf
00000110: 7f89 29be c7f5 ddbe c173 37bf 07fb bf3d
00000120: b31f a9be 12cf 7d3e 1cdb c8be 199d 6c3d
00000130: deb8 26bf f7a6 3ebf f701 2e3f 28bb 9bbe
00000140: 41fa 3a3f d60d 743f a828 683f 9e50 843f
00000150: ef15 893f bca2 8c3f 5ffa be3d 4cb6 48bf
00000160: 2b5d 5d3e 1465 63bf 3045 a1be 568c 0bbf
00000170: 48da ddbe 3e76 62bf 12e5 2a3f 8cc9 58bf
00000180: b88a 62bf 322b acbe 4754 1bbf 9579 c33e

2.weight f4 [1, 100]
-0.05503953 1.3169098 0.28337017 -0.06391832 1.244921 -0.91151595 0.5884398 -0.006311789
0.06195075 -0.30957514 0.010447241 -0.065146044 1.0371994 0.44197285 0.09598946 0.06778807
0.7193855 -0.070816614 -0.61697 -0.3803252 -0.265237 -1.2847375 0.050670363 -1.546559
0.14931048 0.68801385 -0.08799694 -0.27440032 -0.35794908 -0.5190809 0.032571606 0.09725436
0.38424292 2.8175423 0.07941396 0.5117472 0.5463993 0.48433623 -0.41798708 -0.058026038
0.7792447 -0.05919529 0.32691672 -0.240854 -0.3075328 -0.5357784 -0.059526395 -0.5945726
-0.2829684 -0.3038716 0.052207418 1.1484164 -0.09095093 0.067847036 0.027609028 0.083791435
0.016798511 -0.54153496 -0.06504923 -0.7951819 0.0331985 0.1448075 -0.6870186 -0.52786726
-0.8755632 -0.56105685 -0.30607632 -0.07274478 -0.49862164 0.4270106 -0.53457147 0.2167436
0.61224145 -0.7073555 0.6484138 -0.95627356 -0.0035342723 -0.5777387 -0.32452565 0.06468815
-0.45843473 -1.1315534 1.0252032 -1.2016354 1.0966166 1.1777775 -0.047183644 -0.0461455
0.42228496 -0.07926265 -0.42859176 -0.015641436 -0.65410525 -0.08752008 -0.29554516 -0.07112487
-0.05129627 0.64841646 -0.8381726 0.46523514
00000000: 2171 61bd 8090 a83f e515 913e 9ce7 82bd
00000010: 9259 9f3f 1c59 69bf fea3 163f 20d3 cebb
00000020: 12c0 7d3d a280 9ebe e82a 2b3c 4a6b 85bd
00000030: f3c2 843f 444a e23e 1f96 c43d 79d4 8a3d
00000040: a629 383f 4d08 91bd bff1 1dbf fcb9 c2be
00000050: 25cd 87be 4772 a4bf ba8b 4f3d a5f5 c5bf
00000060: d9e4 183e ad21 303f bd37 b4bd 337e 8cbe
00000070: 1a45 b7be 7ce2 04bf ce69 053d 4b2d c73d
00000080: 7dbb c43e 9d52 3440 c9a3 a23d dd01 033f
00000090: d3e0 0b3f ebfa f73e 6702 d6be b6ac 6dbd
000000a0: 957c 473f c376 72bd a161 a73e 6ea2 76be
000000b0: f074 9dbe c628 09bf f3d1 73bd e935 18bf
000000c0: 3ce1 90be 0f95 9bbe 72d7 553d 4fff 923f
000000d0: 7b44 babd 63f3 8a3d 542c e23c d89a ab3d
000000e0: 089d 893c 09a2 0abf 8838 85bd 0a91 4bbf
000000f0: 26fb 073d 6b48 143e 73e0 2fbf 4f22 07bf
00000100: e924 60bf 6ca1 0fbf 09b6 9cbe 37fb 94bd
00000110: 564b ffbe 22a1 da3e add9 08bf 09f2 5d3e
00000120: dbbb 1c3f 4015 35bf 72fe 253f 58ce 74bf
00000130: 409f 67bb afe6 13bf 3a28 a6be 397b 843d
00000140: f5b7 eabe bed6 90bf dc39 833f 30cf 99bf
00000150: ef5d 8c3f 6ac1 963f a343 41bd 1003 3dbd
00000160: bc35 d83e 7554 a2bd 6170 dbbe 7822 80bc
00000170: 7173 27bf ba3d b3bd b251 97be eaa9 91bd
00000180: 0a1c 52bd 9ffe 253f 7b92 56bf 4d33 ee3e
