complete/floor/state6.pt (torch, 10937 bytes, 9 tensors)

weight f4 [100, 1]
00000000: 4bcb a73f b490 913f f4b2 d1bc c90a 39bf
00000010: 210e 813c 1c5a af3e 6bf5 8dbf b820 6e3f
00000020: bafb 18bf f5ea c1be d805 173e 44cc 72bf
00000030: a85e f2be 7101 053f bb84 453e 63cb 773f
00000040: 8cca d83e 0e4a 77bd f927 8c3f dfb8 47bf
00000050: b612 483f d8fd a13e 28fb 0fbf e602 65be
00000060: 1fd2 8ebe 2e32 333f 6fcc 34bf 60c8 01bf
00000070: acf0 42bf ec01 bebe 6c37 d03e 1157 0dbf
00000080: ab43 853f ef7e a0bf f231 34bf 7cc2 953e
00000090: 044f eebe 62e5 36bf b173 76bf a3b5 8ebf
000000a0: 1659 a9bf 4b4b 9dbf e08a 3cbd 3ce7 083f
000000b0: 3449 5d3f fccd acbe 3048 01be a46e 2bbf
000000c0: d68f a33f 70ec ff3d 93a0 34bf d821 a63f
000000d0: fade 0cbf c434 ae3e 484a 823f b451 a63f
000000e0: 98ba 83be ec0b 1cbf f426 3d3f 27d8 d1bf
000000f0: 0614 1abf 636f 29bf 38b9 5e3e e652 2cbf
00000100: 6bad 16bf 154e dfbf ec2a c1be 305e 903d
00000110: aea7 a73f 16ff 14bf 87af f43e a0c3 073d
00000120: 4087 a23e cf5c e03b fed8 30bf 96a8 4bbf
00000130: c20c 843f c1bb 90bf 0e14 70be cb01 81bf
00000140: 002e 18bd b015 debe 51aa ebbe a3b9 613f
00000150: 15b8 3ebf 7b92 7cbf 58da 3bbf 8089 d1bf
00000160: 6694 1abf 44f3 76bd 387f e13e 917a dc3c
00000170: 542e b0bf bea4 00bf ab2a 97bd 745f e8be
00000180: 3e03 6e3f 414b 79bf 797d a7be 5f88 70bf
1.3108915 1.1372285 -0.025598027 -0.7228208 0.015753808 0.34248435 -1.1090521 0.93018675
-0.59759104 -0.3787457 0.14748323 -0.94842935 -0.47337842 0.51955324 0.19288914 0.9679472
0.4234203 -0.06037336 1.0949699 -0.78016466 0.7815355 0.3163898 -0.5624261 -0.22364387
-0.27894685 0.69998443 -0.7062444 -0.50696373 -0.76148486 -0.3711084 0.40667284 -0.5521098
1.0411276 -1.2538737 -0.7038871 0.29249942 -0.4654466 -0.7144376 -0.9627028 -1.1149181
-1.3230312 -1.2288603 -0.04603088 0.53477836 0.86439824 -0.33750904 -0.12625194 -0.669657
1.277827 0.12496269 -0.70557517 1.2979078 -0.55027735 0.34024632 1.0178919 1.2993684
-0.25728297 -0.6095569 0.7388756 -1.639409 -0.60186803 -0.6618559 0.21750343 -0.6731399
-0.58858365 -1.7445704 -0.3772806 0.07049215 1.3098047 -0.5820173 0.47790167 0.033145547
0.31743813 0.006847001 -0.69081104 -0.79554117 1.0316393 -1.1307298 -0.2344515 -1.0078672
-0.037153244 -0.4337592 -0.4602838 0.88173884 -0.74499637 -0.9866101 -0.7338004 -1.6370087
-0.6038269 -0.06029059 0.44042373 0.026913913 -1.3764138 -0.50251377 -0.07381185 -0.45385325
0.929737 -0.97380453 -0.32712916 -0.93958086

bias f4 [100]
00000000: 603a 923f b92e 8e3e b76f bf3e 0431 85be
00000010: c19d d83e b283 6abf 4e8a 703f 6674 4f3f
00000020: 4243 6dbf 3b13 2b3e a441 53bf 1736 37bf
00000030: 2451 3c3f 26a1 683e 9fa8 cf3e 57e7 573f
00000040: db48 3c3f 5a68 be3e 5a21 55bf 449d 2dbf
00000050: b3df 44bf e620 2d3f ba47 71bf 4060 043f
00000060: 3c29 fa3e eef1 4ebf 5989 9f3e 3be3 db3e
00000070: 5827 253f 50ce 6cbf a040 5ebf 6b68 793e
00000080: eb48 683f 89fa 873f 8fb1 313e 3496 06bf
00000090: 28eb c93e ae97 3fbf cb66 203d a9c6 713f
000000a0: f473 8f3f cc46 853f f88e d6be 0d7d 273f
000000b0: 8aad f83e 3a6f 1bbf a414 363f bc0f 293e
000000c0: b734 663d 3839 ddbe df07 193f 72c6 903f
000000d0: ca07 a0be c670 38bf fb92 7e3e 2e05 edbe
000000e0: 908c 9dbe feaa 07bf b9d7 243f 3371 b6bf
000000f0: 58f8 77bf dff0 ddbd 2806 b5be 90e5 58bf
00000100: 0681 143e ac20 c2bf 8e70 56bf d40d d7be
00000110: df18 923f 5c6b fc3e 0531 d53e 8430 e3be
00000120: 7249 2bbf 3030 083f 40d4 153f 7988 2c3f
00000130: ab24 663f 61a2 7bbf 619d a13e fa9d 5a3f
00000140: 30e8 97bd 2463 26bf 10c6 4f3e bb51 c53e
00000150: 34de 0fbf 745b 243d 6924 1f3f ea26 b6bf
00000160: af7e 5ebe 7666 1d3f 780b 1dbf 3c20 273e
00000170: 88bd 66be 2b04 da3e dc70 003f 8c77 113f
00000180: a233 04bf f835 533f c971 303f ddc0 4b3f
1.1424065 0.27770022 0.3738992 -0.26013958 0.42307857 -0.916072 0.93961036 0.81036985
-0.9268075 0.16706555 -0.82522035 -0.7156691 0.7356131 0.22717723 0.40558335 0.8433737
0.7354867 0.3718899 -0.83254015 -0.67818093 -0.7690384 0.67628324 -0.9425007 0.51709366
0.48859584 -0.80837905 0.31159475 0.429468 0.6451316 -0.9250231 -0.8681736 0.24356239
0.90736264 1.0623332 0.1735289 -0.5257294 0.39437222 -0.7484082 0.03916053 0.94443756
1.1207261 1.041223 -0.41905951 0.6542519 0.485699 -0.60716593 0.71125245 0.16509908
0.056202617 -0.43207717 0.59777635 1.1310561 -0.31255943 -0.7204708 0.24860756 -0.46293014
-0.30771303 -0.5299529 0.64391667 -1.4253296 -0.9686332 -0.10836958 -0.3535626 -0.84725285
0.14502344 -1.5166221 -0.83765495 -0.42002738 1.141384 0.4930066 0.4163896 -0.44372952
-0.66908944 0.5319853 0.5852699 0.6739574 0.898997 -0.98294646 0.31565383 0.85397303
-0.07417333 -0.64995027 0.20290399 0.38538918 -0.5619843 0.04012628 0.6216493 -1.4230626
-0.21728013 0.6148447 -0.61345625 0.1632089 -0.22533238 0.42581305 0.5017221 0.5682304
-0.51641285 0.82504225 0.6892362 0.7959116

weight f4 [1, 100]
00000000: 99df 963f c4ec 3e3f 5641 203c 25e2 1abf
00000010: 40af cdbb 0c08 823c 5694 6fbf 2124 453f
00000020: 921f 0a3d 473a 6ebe 23f6 acbd 5ac7 80bf
00000030: 6030 853d e05f 3c3e 77d8 7dbd 3241 543f
00000040: 0824 63bc 1c8e 26bd 3811 363f 100e 623f
00000050: 5eab 9d3d 35dd 103c 58e8 9c3c 0014 7f3d
00000060: d4f2 373d d0eb 71bc 0b65 bdbe 5c07 d7be
00000070: 33c5 34bf f87c eebc 229b 473d e26d 9cbe
00000080: b7bd 763f dff7 8abf 4ae6 76be 4b90 a93d
00000090: 8045 ccbe 898c b53d 6a23 fdbe 3488 79bf
000000a0: 4fe8 98bf 33b1 8cbf 2252 3f3d 8fca c03b
000000b0: 505d a2be 829b acbd bbc9 af3d d19a 60be
000000c0: 1ac8 643f b2ee c8bd 55d4 24bf 55aa 963f
000000d0: 9c88 0cbf cd8c 983d 7a77 3a3f c922 903f
000000e0: fcaf ea3c 5a68 2c3f 5bc9 2d3f 3847 de3f
000000f0: e055 85bb 96b4 d4be ecd8 f2bc c059 733b
00000100: 422f 78be 7e7f f33f 6530 b33d 5cc8 da3c
00000110: 9017 983f 0522 01bf 2d0e d43e aac0 0a3d
00000120: 4df5 b7bd abf5 4e3c a595 26bf 1fdd 30bf
00000130: 260f 703f 63ae 993f 1eec 993d 897c 5cbf
00000140: 0c02 bb3c 46fa 11bd 3381 9ebe c696 783e
00000150: ab00 4cbf e215 f9be 32e3 20bf 98ba e53f
00000160: 09cd fbbe e8ff e2bb f3f0 93bd ca2e 633d
00000170: c2f3 61bf d7ac c8be 4fea 443d 918c 083e
00000180: 50f9 123f eaa0 67bf f30b 873d a3ad 45bf
1.1786987 0.74580026 0.009781202 -0.6050132 -0.006276995 0.015872978 -0.9358572 0.77008253
0.033721514 -0.23264419 -0.08445384 -1.0060837 0.065033674 0.18395948 -0.061974015 0.8291198
-0.013863571 -0.04066287 0.71120024 0.8830271 0.07698701 0.008841802 0.019153759 0.062274933
0.044909313 -0.014765695 -0.36991152 -0.41997802 -0.706134 -0.029112324 0.04873193 -0.30552584
0.9638323 -1.0856894 -0.24111286 0.08279475 -0.39896774 0.088646956 -0.4944108 -0.97473454
-1.1945895 -1.0991577 0.046709187 0.005883522 -0.31711817 -0.08428098 0.08583399 -0.21934058
0.8936783 -0.098111525 -0.6438649 1.1770731 -0.5489595 0.074487306 0.72838557 1.1260616
0.028648369 0.6734673 0.6788537 1.7365484 -0.004069075 -0.41544026 -0.029644452 0.0037132353
-0.24236777 1.9023283 0.08749465 0.026706867 1.1882191 -0.50442535 0.41417065 0.033875145
-0.08982334 0.012631814 -0.6507209 -0.69087404 0.93773115 1.2006344 0.07515739 -0.86127526
0.022828124 -0.03563907 -0.30957946 0.24276266 -0.7968852 -0.48649508 -0.6284667 1.7947569
-0.49179867 -0.006927479 -0.07223692 0.055464543 -0.8826257 -0.39194366 0.048075017 0.13334872
0.5741167 -0.9047991 0.06594076 -0.77218074

train_data f4 [600, 1]
00000000: 8815 253f b90f dabe 5c7a 42bf 1439 1dbe
00000010: 8eaa 213f 98d4 1abf 68f5 3a3f 5dcb 413f
00000020: 849b fd3e 9067 f53e efd4 353e 057a a7be
00000030: 919d 1fbf 4240 54bf 9925 1abf 3c90 82be
00000040: 8ab7 23bf e89d babe 7663 31bf 8d74 773e
00000050: 0cb1 223e 0a0f a43c 3cab 57bf 36aa 86be
00000060: dd22 c23d e6fb bbbe 1ae9 6ebf 27eb 903d
00000070: 30df 5fbf 863d fcbe 0287 293d cf05 cb3e
00000080: f75c 303e d59a c73d 7c49 2d3f 09d9 793f
00000090: b35f 08bf 1f7e 6b3f 9783 1bbf 0fbf 75bf
000000a0: 81de 29bf 3f83 80bd 50ae 4abf cd63 ccbe
000000b0: 933f 1e3f fe42 acbd cc12 cd3d 57e5 453f
000000c0: 3f83 803d 50ae 4a3f b5cb dcbe 1ddc 6cbf
000000d0: 2f8e 603f 7956 2f3f 904c 203f 7c49 2dbf
000000e0: 0fa4 a0be 44e2 52bf c197 d4be 935a f33d
000000f0: 98ef efbe 30c4 8abe 4977 4fbf 92ee 1e3f
00000100: 33d2 5d3f 91b8 743e bea4 56be 2ade 8e3e
00000110: 03d8 a8be 2ade 8ebe e9ee b93c ff93 abbe
00000120: 4f5d 4bbf 849b fdbe 5ad8 43bf 1c8b 6dbf
00000130: dd22 c2bd c62c 51be 9bc7 18bf 77b4 303f
00000140: 92ee 1ebf 39b8 593f bce7 02bf f025 b53e
00000150: 0888 7abf bc02 d8bd 85ec 7c3e 2b4a 63bf
00000160: e9ee b9bc f025 b5be e5aa bcbd 77b4 30bf
00000170: 0fa4 a03e 8c23 f83e 0595 7c3f 00e5 2abe
00000180: 3716 5b3f 9eba 163f c48a d2bd 4240 543f
00000190: a7ae e5bc 8c23 f8be e89d ba3e 36aa 863e
000001a0: a935 0fbf 0d02 a2be 8930 7a3e 5987 44bf
000001b0: 1146 9fbe 82f9 fe3e 2156 94be 3de1 01be
000001c0: fafe ae3a 6946 3abf 3a09 593f afe5 e03e
000001d0: 2c80 8d3e bfda 003f 8eaa 21bf db80 43be
000001e0: 03f3 7dbf 7aa7 2ebf c77d d0be 0888 7a3f
000001f0: 6653 3cbf 5987 443f 3b3f 83bb b187 df3e
00000200: d9de 44bc 0b60 a33e a9ff e4be a4a0 12bf
00000210: 0e53 a1bd f176 34bd 2b4a 633f 9a76 193f
00000220: 8815 25bf 4684 51bf c02b 003f c62c 513e
00000230: 9ed5 eb3e b9f4 04bf d449 c83e ee83 b63e
00000240: 81a8 7fbe 8a81 f93e e459 bdbe a8e4 0fbf
00000250: 85ec 7cbe 3559 07be 9f26 6bbd 0444 7dbf
00000260: b036 60bd e2b7 bebe 5836 453f 1d12 97be
00000270: 1010 75bf 4533 52bf e74c 3bbe 47d5 50bf
00000280: efd4 35be 384c 85be 269a 91be 37fb 853d
00000290: a50c 673e 54f2 473f 1cc1 173e 1998 6f3f
000002a0: a793 10bf 9a91 ee3e 0a2a 79bf 3867 5abf
000002b0: a4bb e7be 2c80 8dbe 5836 45bf 30df 5f3f
000002c0: 74c1 323f 1b3a 6e3f b8be dabb 1161 74bf
000002d0: a219 e9be 3115 0a3e 1161 743f 2f73 8bbd
000002e0: a65d e6be a36a e8bd f318 333e 2dd1 0c3e
000002f0: a642 113f 12b2 73bf 1ddc 6c3f 1ae9 6e3f
00000300: 71ce 34bf 269a 913e da2f c4be a65d e63e
00000310: 7512 323f d056 4abd 4f5d 4b3f 1847 703f
00000320: 24f8 923e 1010 753f 37fb 85bd dfc4 40be
00000330: e5aa bc3d 3115 0abe 06cb a6bd 30c4 8a3e
00000340: 3559 073e 8f16 76bd c02b 00bf 74c1 32bf
00000350: 33b7 08bd be89 01bf 41ef 54bf 2271 693f
00000360: 2564 673f 3266 893e ea3f b93e ad79 0c3f
00000370: 4c6a 4dbf 7805 30bf de73 c13e 6be8 383f
00000380: 24f8 92be 0136 aa3e 7370 333f 91b8 74be
00000390: 12b2 733f aa50 643e 36c5 5bbf 0151 7f3f
000003a0: b1bd 093f 2e22 8c3e 0e53 a13d de73 c1be
000003b0: 7d9a 2c3f c91f cfbe abd7 0d3f aba1 e3be
000003c0: e6fb bb3e a1c8 69be d056 4a3d b329 debe
000003d0: 721f 343f 6946 3a3f ad43 e2be 9940 6fbe
000003e0: 808d 2a3f 1fb4 953e 0151 7fbf 95e1 1c3f
000003f0: aa86 0ebf 086d 25be 399d 043e 20cf 6abf
0.6448598 -0.4259012 -0.75967956 -0.15353805 0.6315087 -0.6048064 0.7303071 0.7570093
0.49532712 0.47930574 0.17757009 -0.3271028 -0.623498 -0.8291055 -0.6021362 -0.25500667
-0.63951933 -0.36448598 -0.6929239 0.24165554 0.1588785 0.020026702 -0.8424566 -0.26301736
0.09479306 -0.3671562 -0.93324435 0.07076102 -0.8744993 -0.4926569 0.04138852 0.3965287
0.17222963 0.09746329 0.67690253 0.97596794 -0.53271025 0.9198932 -0.60747665 -0.9599466
-0.6635514 -0.06275033 -0.7917223 -0.39919892 0.61815757 -0.08411215 0.10013351 0.7730307
0.06275033 0.7917223 -0.43124166 -0.92523366 0.87716955 0.6849132 0.62616825 -0.67690253
-0.31375167 -0.82376504 -0.4152203 0.1188251 -0.46862483 -0.27102804 -0.8104139 0.6208278
0.86648864 0.23898531 -0.20961282 0.27903873 -0.32977304 -0.27903873 0.022696929 -0.3351135
-0.7943925 -0.49532712 -0.76502 -0.9279039 -0.09479306 -0.20427236 -0.59679574 0.6902537
-0.6208278 0.85046726 -0.5113485 0.35380507 -0.9786382 -0.105473965 0.246996 -0.88785046
-0.022696929 -0.35380507 -0.09212283 -0.6902537 0.31375167 0.4846462 0.98664886 -0.16688919
0.8558077 0.58878505 -0.10280374 0.8291055 -0.028037382 -0.4846462 0.36448598 0.26301736
-0.55941254 -0.3164219 0.24432577 -0.76769024 -0.31108144 0.49799734 -0.2897196 -0.12683578
0.0013351135 -0.7276369 0.84779704 0.43925235 0.2763685 0.5033378 -0.6315087 -0.19092123
-0.9919893 -0.682243 -0.4072096 0.9786382 -0.73564756 0.76769024 -0.0040053404 0.43658212
-0.012016022 0.31909212 -0.44726303 -0.5727637 -0.078771695 -0.044058744 0.88785046 0.59946597
-0.6448598 -0.8184246 0.5006676 0.20427236 0.46061414 -0.5193592 0.39118826 0.3564753
-0.24966623 0.48731643 -0.36982644 -0.56208277 -0.246996 -0.13217624 -0.05740988 -0.9893191
-0.054739654 -0.37249666 0.77036047 -0.29506007 -0.95727634 -0.8210948 -0.18291055 -0.81575435
-0.17757009 -0.26034713 -0.28437918 0.06542056 0.22563417 0.7810414 0.14819759 0.9359146
-0.564753 0.4659546 -0.9732977 -0.8531375 -0.45260346 -0.2763685 -0.77036047 0.8744993
0.69826436 0.9305741 -0.0066755675 -0.9546061 -0.4552737 0.13484646 0.9546061 -0.06809079
-0.44993323 -0.11348464 0.17489986 0.13751669 0.5674232 -0.9519359 0.92523366 0.93324435
-0.70627505 0.28437918 -0.38317758 0.44993323 0.69559413 -0.049399197 0.7943925 0.9385848
0.2870494 0.95727634 -0.06542056 -0.188251 0.09212283 -0.13484646 -0.081441924 0.27102804
0.13217624 -0.060080107 -0.5006676 -0.69826436 -0.033377837 -0.506008 -0.8317757 0.9118825
0.90387183 0.2683578 0.36181575 0.5487316 -0.8024032 -0.68758345 0.37783712 0.7222964
-0.2870494 0.33244327 0.7009346 -0.23898531 0.9519359 0.22296396 -0.85847795 0.9973298
0.5380507 0.27369827 0.078771695 -0.37783712 0.6742323 -0.40453938 0.5540721 -0.4445928
0.3671562 -0.2283044 0.049399197 -0.4339119 0.7036048 0.7276369 -0.44192258 -0.23364486
0.6662216 0.29238984 -0.9973298 0.6128171 -0.5567423 -0.16154873 0.129506 -0.917223

train_targets f4 [600, 1]
00000000: 0000 7041 0000 70c1 0000 a0c1 0000 a0c0
00000010: 0000 7041 0000 a0c1 0000 7041 0000 7041
00000020: 0000 2041 0000 2041 0000 0000 0000 20c1
00000030: 0000 a0c1 0000 c8c1 0000 a0c1 0000 20c1
00000040: 0000 a0c1 0000 20c1 0000 a0c1 0000 a040
00000050: 0000 0000 0000 0000 0000 c8c1 0000 20c1
00000060: 0000 0000 0000 20c1 0000 c8c1 0000 0000
00000070: 0000 c8c1 0000 70c1 0000 0000 0000 a040
00000080: 0000 0000 0000 0000 0000 7041 0000 a041
00000090: 0000 70c1 0000 a041 0000 a0c1 0000 c8c1
000000a0: 0000 a0c1 0000 a0c0 0000 a0c1 0000 20c1
000000b0: 0000 7041 0000 a0c0 0000 0000 0000 7041
000000c0: 0000 0000 0000 7041 0000 70c1 0000 c8c1
000000d0: 0000 a041 0000 7041 0000 7041 0000 a0c1
000000e0: 0000 20c1 0000 c8c1 0000 70c1 0000 0000
000000f0: 0000 70c1 0000 20c1 0000 c8c1 0000 7041
00000100: 0000 a041 0000 a040 0000 20c1 0000 a040
00000110: 0000 20c1 0000 20c1 0000 0000 0000 20c1
00000120: 0000 a0c1 0000 70c1 0000 a0c1 0000 c8c1
00000130: 0000 a0c0 0000 20c1 0000 70c1 0000 7041
00000140: 0000 a0c1 0000 a041 0000 70c1 0000 a040
00000150: 0000 c8c1 0000 a0c0 0000 a040 0000 c8c1
00000160: 0000 a0c0 0000 20c1 0000 a0c0 0000 a0c1
00000170: 0000 a040 0000 2041 0000 a041 0000 a0c0
00000180: 0000 a041 0000 2041 0000 a0c0 0000 a041
00000190: 0000 a0c0 0000 70c1 0000 a040 0000 a040
000001a0: 0000 70c1 0000 20c1 0000 a040 0000 a0c1
000001b0: 0000 20c1 0000 2041 0000 20c1 0000 a0c0
000001c0: 0000 0000 0000 a0c1 0000 a041 0000 2041
000001d0: 0000 a040 0000 2041 0000 a0c1 0000 a0c0
000001e0: 0000 c8c1 0000 a0c1 0000 70c1 0000 a041
000001f0: 0000 a0c1 0000 7041 0000 a0c0 0000 2041
00000200: 0000 a0c0 0000 a040 0000 70c1 0000 70c1
00000210: 0000 a0c0 0000 a0c0 0000 a041 0000 2041
00000220: 0000 a0c1 0000 c8c1 0000 2041 0000 a040
00000230: 0000 2041 0000 70c1 0000 a040 0000 a040
00000240: 0000 20c1 0000 2041 0000 20c1 0000 70c1
00000250: 0000 20c1 0000 a0c0 0000 a0c0 0000 c8c1
00000260: 0000 a0c0 0000 20c1 0000 7041 0000 20c1
00000270: 0000 c8c1 0000 c8c1 0000 a0c0 0000 c8c1
00000280: 0000 a0c0 0000 20c1 0000 20c1 0000 0000
00000290: 0000 a040 0000 7041 0000 0000 0000 a041
000002a0: 0000 70c1 0000 2041 0000 c8c1 0000 c8c1
000002b0: 0000 70c1 0000 20c1 0000 a0c1 0000 a041
000002c0: 0000 7041 0000 a041 0000 a0c0 0000 c8c1
000002d0: 0000 70c1 0000 0000 0000 a041 0000 a0c0
000002e0: 0000 70c1 0000 a0c0 0000 0000 0000 0000
000002f0: 0000 2041 0000 c8c1 0000 a041 0000 a041
00000300: 0000 a0c1 0000 a040 0000 20c1 0000 2041
00000310: 0000 7041 0000 a0c0 0000 7041 0000 a041
00000320: 0000 a040 0000 a041 0000 a0c0 0000 a0c0
00000330: 0000 0000 0000 a0c0 0000 a0c0 0000 a040
00000340: 0000 0000 0000 a0c0 0000 70c1 0000 a0c1
00000350: 0000 a0c0 0000 70c1 0000 c8c1 0000 a041
00000360: 0000 a041 0000 a040 0000 a040 0000 2041
00000370: 0000 c8c1 0000 a0c1 0000 a040 0000 7041
00000380: 0000 20c1 0000 a040 0000 7041 0000 20c1
00000390: 0000 a041 0000 a040 0000 c8c1 0000 a041
000003a0: 0000 2041 0000 a040 0000 0000 0000 20c1
000003b0: 0000 7041 0000 70c1 0000 2041 0000 70c1
000003c0: 0000 a040 0000 20c1 0000 0000 0000 70c1
000003d0: 0000 7041 0000 7041 0000 70c1 0000 20c1
000003e0: 0000 7041 0000 a040 0000 c8c1 0000 7041
000003f0: 0000 70c1 0000 a0c0 0000 0000 0000 c8c1
15.0 -15.0 -20.0 -5.0 15.0 -20.0 15.0 15.0
10.0 10.0 0.0 -10.0 -20.0 -25.0 -20.0 -10.0
-20.0 -10.0 -20.0 5.0 0.0 0.0 -25.0 -10.0
0.0 -10.0 -25.0 0.0 -25.0 -15.0 0.0 5.0
0.0 0.0 15.0 20.0 -15.0 20.0 -20.0 -25.0
-20.0 -5.0 -20.0 -10.0 15.0 -5.0 0.0 15.0
0.0 15.0 -15.0 -25.0 20.0 15.0 15.0 -20.0
-10.0 -25.0 -15.0 0.0 -15.0 -10.0 -25.0 15.0
20.0 5.0 -10.0 5.0 -10.0 -10.0 0.0 -10.0
-20.0 -15.0 -20.0 -25.0 -5.0 -10.0 -15.0 15.0
-20.0 20.0 -15.0 5.0 -25.0 -5.0 5.0 -25.0
-5.0 -10.0 -5.0 -20.0 5.0 10.0 20.0 -5.0
20.0 10.0 -5.0 20.0 -5.0 -15.0 5.0 5.0
-15.0 -10.0 5.0 -20.0 -10.0 10.0 -10.0 -5.0
0.0 -20.0 20.0 10.0 5.0 10.0 -20.0 -5.0
-25.0 -20.0 -15.0 20.0 -20.0 15.0 -5.0 10.0
-5.0 5.0 -15.0 -15.0 -5.0 -5.0 20.0 10.0
-20.0 -25.0 10.0 5.0 10.0 -15.0 5.0 5.0
-10.0 10.0 -10.0 -15.0 -10.0 -5.0 -5.0 -25.0
-5.0 -10.0 15.0 -10.0 -25.0 -25.0 -5.0 -25.0
-5.0 -10.0 -10.0 0.0 5.0 15.0 0.0 20.0
-15.0 10.0 -25.0 -25.0 -15.0 -10.0 -20.0 20.0
15.0 20.0 -5.0 -25.0 -15.0 0.0 20.0 -5.0
-15.0 -5.0 0.0 0.0 10.0 -25.0 20.0 20.0
-20.0 5.0 -10.0 10.0 15.0 -5.0 15.0 20.0
5.0 20.0 -5.0 -5.0 0.0 -5.0 -5.0 5.0
0.0 -5.0 -15.0 -20.0 -5.0 -15.0 -25.0 20.0
20.0 5.0 5.0 10.0 -25.0 -20.0 5.0 15.0
-10.0 5.0 15.0 -10.0 20.0 5.0 -25.0 20.0
10.0 5.0 0.0 -10.0 15.0 -15.0 10.0 -15.0
5.0 -10.0 0.0 -15.0 15.0 15.0 -15.0 -10.0
15.0 5.0 -25.0 15.0 -15.0 -5.0 0.0 -25.0

test_data f4 [150, 1]
00000000: 0000 70c1 0000 70c1 0000 a040 0000 2041
00000010: 0000 a041 0000 2041 0000 a041 0000 a040
00000020: 0000 2041 0000 7041 0000 70c1 0000 7041
00000030: 0000 7041 0000 a040 0000 2041 0000 a041
00000040: 0000 20c1 0000 20c1 0000 20c1 0000 a0c1
00000050: 0000 a0c0 0000 2041 0000 7041 0000 0000
00000060: 0000 c8c1 0000 a041 0000 20c1 0000 20c1
00000070: 0000 c8c1 0000 a041 0000 2041 0000 a041
00000080: 0000 7041 0000 a0c1 0000 a040 0000 7041
00000090: 0000 a0c1 0000 2041 0000 7041 0000 0000
000000a0: 0000 7041 0000 a041 0000 a0c0 0000 a0c1
000000b0: 0000 a0c1 0000 a0c0 0000 a0c1 0000 a040
000000c0: 0000 a040 0000 70c1 0000 a041 0000 0000
000000d0: 0000 a041 0000 c8c1 0000 2041 0000 7041
000000e0: 0000 70c1 0000 2041 0000 a040 0000 2041
000000f0: 0000 70c1 0000 a040 0000 a0c1 0000 7041
00000100: 0000 a040 0000 a041 0000 7041 0000 a0c0
00000110: 0000 2041 0000 c8c1 0000 2041 0000 a0c0
00000120: 0000 0000 0000 a041 0000 a0c0 0000 2041
00000130: 0000 7041 0000 70c1 0000 a0c1 0000 70c1
00000140: 0000 70c1 0000 c8c1 0000 7041 0000 a0c0
00000150: 0000 a041 0000 70c1 0000 70c1 0000 70c1
00000160: 0000 70c1 0000 a0c1 0000 a040 0000 7041
00000170: 0000 0000 0000 20c1 0000 a0c0 0000 20c1
00000180: 0000 c8c1 0000 c8c1 0000 7041 0000 2041
00000190: 0000 7041 0000 a040 0000 c8c1 0000 a0c1
000001a0: 0000 70c1 0000 a0c0 0000 a040 0000 70c1
000001b0: 0000 a0c0 0000 c8c1 0000 a041 0000 20c1
000001c0: 0000 2041 0000 a040 0000 7041 0000 7041
000001d0: 0000 a040 0000 0000 0000 0000 0000 a041
000001e0: 0000 20c1 0000 7041 0000 0000 0000 20c1
000001f0: 0000 a0c0 0000 2041 0000 a0c1 0000 a041
00000200: 0000 7041 0000 a041 0000 a0c0 0000 a041
00000210: 0000 c8c1 0000 7041 0000 a0c0 0000 a0c1
00000220: 0000 c8c1 0000 20c1 0000 a0c0 0000 2041
00000230: 0000 a0c1 0000 20c1 0000 a0c1 0000 0000
00000240: 0000 a0c0 0000 c8c1 0000 c8c1 0000 2041
00000250: 0000 a0c0 0000 0000
-15.0 -15.0 5.0 10.0 20.0 10.0 20.0 5.0
10.0 15.0 -15.0 15.0 15.0 5.0 10.0 20.0
-10.0 -10.0 -10.0 -20.0 -5.0 10.0 15.0 0.0
-25.0 20.0 -10.0 -10.0 -25.0 20.0 10.0 20.0
15.0 -20.0 5.0 15.0 -20.0 10.0 15.0 0.0
15.0 20.0 -5.0 -20.0 -20.0 -5.0 -20.0 5.0
5.0 -15.0 20.0 0.0 20.0 -25.0 10.0 15.0
-15.0 10.0 5.0 10.0 -15.0 5.0 -20.0 15.0
5.0 20.0 15.0 -5.0 10.0 -25.0 10.0 -5.0
0.0 20.0 -5.0 10.0 15.0 -15.0 -20.0 -15.0
-15.0 -25.0 15.0 -5.0 20.0 -15.0 -15.0 -15.0
-15.0 -20.0 5.0 15.0 0.0 -10.0 -5.0 -10.0
-25.0 -25.0 15.0 10.0 15.0 5.0 -25.0 -20.0
-15.0 -5.0 5.0 -15.0 -5.0 -25.0 20.0 -10.0
10.0 5.0 15.0 15.0 5.0 0.0 0.0 20.0
-10.0 15.0 0.0 -10.0 -5.0 10.0 -20.0 20.0
15.0 20.0 -5.0 20.0 -25.0 15.0 -5.0 -20.0
-25.0 -10.0 -5.0 10.0 -20.0 -10.0 -20.0 0.0
-5.0 -25.0 -25.0 10.0 -5.0 0.0

0.weight f4 [100, 1]
00000000: 4bcb a73f b490 913f f4b2 d1bc c90a 39bf
00000010: 210e 813c 1c5a af3e 6bf5 8dbf b820 6e3f
00000020: bafb 18bf f5ea c1be d805 173e 44cc 72bf
00000030: a85e f2be 7101 053f bb84 453e 63cb 773f
00000040: 8cca d83e 0e4a 77bd f927 8c3f dfb8 47bf
00000050: b612 483f d8fd a13e 28fb 0fbf e602 65be
00000060: 1fd2 8ebe 2e32 333f 6fcc 34bf 60c8 01bf
00000070: acf0 42bf ec01 bebe 6c37 d03e 1157 0dbf
00000080: ab43 853f ef7e a0bf f231 34bf 7cc2 953e
00000090: 044f eebe 62e5 36bf b173 76bf a3b5 8ebf
000000a0: 1659 a9bf 4b4b 9dbf e08a 3cbd 3ce7 083f
000000b0: 3449 5d3f fccd acbe 3048 01be a46e 2bbf
000000c0: d68f a33f 70ec ff3d 93a0 34bf d821 a63f
000000d0: fade 0cbf c434 ae3e 484a 823f b451 a63f
000000e0: 98ba 83be ec0b 1cbf f426 3d3f 27d8 d1bf
000000f0: 0614 1abf 636f 29bf 38b9 5e3e e652 2cbf
00000100: 6bad 16bf 154e dfbf ec2a c1be 305e 903d
00000110: aea7 a73f 16ff 14bf 87af f43e a0c3 073d
00000120: 4087 a23e cf5c e03b fed8 30bf 96a8 4bbf
00000130: c20c 843f c1bb 90bf 0e14 70be cb01 81bf
00000140: 002e 18bd b015 debe 51aa ebbe a3b9 613f
00000150: 15b8 3ebf 7b92 7cbf 58da 3bbf 8089 d1bf
00000160: 6694 1abf 44f3 76bd 387f e13e 917a dc3c
00000170: 542e b0bf bea4 00bf ab2a 97bd 745f e8be
00000180: 3e03 6e3f 414b 79bf 797d a7be 5f88 70bf
1.3108915 1.1372285 -0.025598027 -0.7228208 0.015753808 0.34248435 -1.1090521 0.93018675
-0.59759104 -0.3787457 0.14748323 -0.94842935 -0.47337842 0.51955324 0.19288914 0.9679472
0.4234203 -0.06037336 1.0949699 -0.78016466 0.7815355 0.3163898 -0.5624261 -0.22364387
-0.27894685 0.69998443 -0.7062444 -0.50696373 -0.76148486 -0.3711084 0.40667284 -0.5521098
1.0411276 -1.2538737 -0.7038871 0.29249942 -0.4654466 -0.7144376 -0.9627028 -1.1149181
-1.3230312 -1.2288603 -0.04603088 0.53477836 0.86439824 -0.33750904 -0.12625194 -0.669657
1.277827 0.12496269 -0.70557517 1.2979078 -0.55027735 0.34024632 1.0178919 1.2993684
-0.25728297 -0.6095569 0.7388756 -1.639409 -0.60186803 -0.6618559 0.21750343 -0.6731399
-0.58858365 -1.7445704 -0.3772806 0.07049215 1.3098047 -0.5820173 0.47790167 0.033145547
0.31743813 0.006847001 -0.69081104 -0.79554117 1.0316393 -1.1307298 -0.2344515 -1.0078672
-0.037153244 -0.4337592 -0.4602838 0.88173884 -0.74499637 -0.9866101 -0.7338004 -1.6370087
-0.6038269 -0.06029059 0.44042373 0.026913913 -1.3764138 -0.50251377 -0.07381185 -0.45385325
0.929737 -0.97380453 -0.32712916 -0.93958086

0.bias f4 [100]
00000000: 603a 923f b92e 8e3e b76f bf3e 0431 85be
00000010: c19d d83e b283 6abf 4e8a 703f 6674 4f3f
00000020: 4243 6dbf 3b13 2b3e a441 53bf 1736 37bf
00000030: 2451 3c3f 26a1 683e 9fa8 cf3e 57e7 573f
00000040: db48 3c3f 5a68 be3e 5a21 55bf 449d 2dbf
00000050: b3df 44bf e620 2d3f ba47 71bf 4060 043f
00000060: 3c29 fa3e eef1 4ebf 5989 9f3e 3be3 db3e
00000070: 5827 253f 50ce 6cbf a040 5ebf 6b68 793e
00000080: eb48 683f 89fa 873f 8fb1 313e 3496 06bf
00000090: 28eb c93e ae97 3fbf cb66 203d a9c6 713f
000000a0: f473 8f3f cc46 853f f88e d6be 0d7d 273f
000000b0: 8aad f83e 3a6f 1bbf a414 363f bc0f 293e
000000c0: b734 663d 3839 ddbe df07 193f 72c6 903f
000000d0: ca07 a0be c670 38bf fb92 7e3e 2e05 edbe
000000e0: 908c 9dbe feaa 07bf b9d7 243f 3371 b6bf
000000f0: 58f8 77bf dff0 ddbd 2806 b5be 90e5 58bf
00000100: 0681 143e ac20 c2bf 8e70 56bf d40d d7be
00000110: df18 923f 5c6b fc3e 0531 d53e 8430 e3be
00000120: 7249 2bbf 3030 083f 40d4 153f 7988 2c3f
00000130: ab24 663f 61a2 7bbf 619d a13e fa9d 5a3f
00000140: 30e8 97bd 2463 26bf 10c6 4f3e bb51 c53e
00000150: 34de 0fbf 745b 243d 6924 1f3f ea26 b6bf
00000160: af7e 5ebe 7666 1d3f 780b 1dbf 3c20 273e
00000170: 88bd 66be 2b04 da3e dc70 003f 8c77 113f
00000180: a233 04bf f835 533f c971 303f ddc0 4b3f
1.1424065 0.27770022 0.3738992 -0.26013958 0.42307857 -0.916072 0.93961036 0.81036985
-0.9268075 0.16706555 -0.82522035 -0.7156691 0.7356131 0.22717723 0.40558335 0.8433737
0.7354867 0.3718899 -0.83254015 -0.67818093 -0.7690384 0.67628324 -0.9425007 0.51709366
0.48859584 -0.80837905 0.31159475 0.429468 0.6451316 -0.9250231 -0.8681736 0.24356239
0.90736264 1.0623332 0.1735289 -0.5257294 0.39437222 -0.7484082 0.03916053 0.94443756
1.1207261 1.041223 -0.41905951 0.6542519 0.485699 -0.60716593 0.71125245 0.16509908
0.056202617 -0.43207717 0.59777635 1.1310561 -0.31255943 -0.7204708 0.24860756 -0.46293014
-0.30771303 -0.5299529 0.64391667 -1.4253296 -0.9686332 -0.10836958 -0.3535626 -0.84725285
0.14502344 -1.5166221 -0.83765495 -0.42002738 1.141384 0.4930066 0.4163896 -0.44372952
-0.66908944 0.5319853 0.5852699 0.6739574 0.898997 -0.98294646 0.31565383 0.85397303
-0.07417333 -0.64995027 0.20290399 0.38538918 -0.5619843 0.04012628 0.6216493 -1.4230626
-0.21728013 0.6148447 -0.61345625 0.1632089 -0.22533238 0.42581305 0.5017221 0.5682304
-0.51641285 0.82504225 0.6892362 0.7959116

2.weight f4 [1, 100]
00000000: 99df 963f c4ec 3e3f 5641 203c 25e2 1abf
00000010: 40af cdbb 0c08 823c 5694 6fbf 2124 453f
00000020: 921f 0a3d 473a 6ebe 23f6 acbd 5ac7 80bf
00000030: 6030 853d e05f 3c3e 77d8 7dbd 3241 543f
00000040: 0824 63bc 1c8e 26bd 3811 363f 100e 623f
00000050: 5eab 9d3d 35dd 103c 58e8 9c3c 0014 7f3d
00000060: d4f2 373d d0eb 71bc 0b65 bdbe 5c07 d7be
00000070: 33c5 34bf f87c eebc 229b 473d e26d 9cbe
00000080: b7bd 763f dff7 8abf 4ae6 76be 4b90 a93d
00000090: 8045 ccbe 898c b53d 6a23 fdbe 3488 79bf
000000a0: 4fe8 98bf 33b1 8cbf 2252 3f3d 8fca c03b
000000b0: 505d a2be 829b acbd bbc9 af3d d19a 60be
000000c0: 1ac8 643f b2ee c8bd 55d4 24bf 55aa 963f
000000d0: 9c88 0cbf cd8c 983d 7a77 3a3f c922 903f
000000e0: fcaf ea3c 5a68 2c3f 5bc9 2d3f 3847 de3f
000000f0: e055 85bb 96b4 d4be ecd8 f2bc c059 733b
00000100: 422f 78be 7e7f f33f 6530 b33d 5cc8 da3c
00000110: 9017 983f 0522 01bf 2d0e d43e aac0 0a3d
00000120: 4df5 b7bd abf5 4e3c a595 26bf 1fdd 30bf
00000130: 260f 703f 63ae 993f 1eec 993d 897c 5cbf
00000140: 0c02 bb3c 46fa 11bd 3381 9ebe c696 783e
00000150: ab00 4cbf e215 f9be 32e3 20bf 98ba e53f
00000160: 09cd fbbe e8ff e2bb f3f0 93bd ca2e 633d
00000170: c2f3 61bf d7ac c8be 4fea 443d 918c 083e
00000180: 50f9 123f eaa0 67bf f30b 873d a3ad 45bf
1.1786987 0.74580026 0.009781202 -0.6050132 -0.006276995 0.015872978 -0.9358572 0.77008253
0.033721514 -0.23264419 -0.08445384 -1.0060837 0.065033674 0.18395948 -0.061974015 0.8291198
-0.013863571 -0.04066287 0.71120024 0.8830271 0.07698701 0.008841802 0.019153759 0.062274933
0.044909313 -0.014765695 -0.36991152 -0.41997802 -0.706134 -0.029112324 0.04873193 -0.30552584
0.9638323 -1.0856894 -0.24111286 0.08279475 -0.39896774 0.088646956 -0.4944108 -0.97473454
-1.1945895 -1.0991577 0.046709187 0.005883522 -0.31711817 -0.08428098 0.08583399 -0.21934058
0.8936783 -0.098111525 -0.6438649 1.1770731 -0.5489595 0.074487306 0.72838557 1.1260616
0.028648369 0.6734673 0.6788537 1.7365484 -0.004069075 -0.41544026 -0.029644452 0.0037132353
-0.24236777 1.9023283 0.08749465 0.026706867 1.1882191 -0.50442535 0.41417065 0.033875145
-0.08982334 0.012631814 -0.6507209 -0.69087404 0.93773115 1.2006344 0.07515739 -0.86127526
0.022828124 -0.03563907 -0.30957946 0.24276266 -0.7968852 -0.48649508 -0.6284667 1.7947569
-0.49179867 -0.006927479 -0.07223692 0.055464543 -0.8826257 -0.39194366 0.048075017 0.13334872
0.5741167 -0.9047991 0.06594076 -0.77218074
