complete/floor/state7.pt (torch, 10937 bytes, 9 tensors)

weight f4 [100, 1]
00000000: 3be5 883f b83f 81be 76b8 60bf 987e eabe
00000010: a93b 4dbf 95f1 c03f da31 8a3e faae 1f3f
00000020: 0397 21bf 2e58 393f 4459 9f3f a662 303e
00000030: c1ea 6f3e a4c8 45bf d628 4e3f 3bd3 20bf
00000040: 971d c73f d71e cbbf ec76 80be e07b fa3e
00000050: 5287 893f c011 39be 5536 2fbf 36d9 3dbd
00000060: 67b0 4dbf 4538 9b3f c8cc 983e a4dc 683f
00000070: b012 fe3e 4f85 8dbf adcb 6d3f 2050 80bf
00000080: 008a 3d3b 30e6 62be 94dd e9be 341f febf
00000090: 93ac 91bf 3785 a63f 407d 98bf 260f 84bf
000000a0: 93c4 a23f 38da 0cbf 182b 54bf 69e0 41bd
000000b0: 9da5 aebe aac8 d73e e6d8 283f 28e0 7d3f
000000c0: 778e 39bf d131 83bf 96b9 0abf 65ff eabe
000000d0: 5cde ed3e 00df febc 584b d0be f130 233f
000000e0: 8025 8cbc 1e8a 19bf 462c 5abf c69c 543f
000000f0: e7ce 6b3f 50ee 643e 348b 5d3f 60b6 12bd
00000100: 2ca2 00bf 500e e1bd 8511 2f3f 60b1 27bd
00000110: 9489 aabe 2442 4e3f 6025 a13d e129 123f
00000120: 2ca4 8fbf bdb0 093f 50ee e9be a82d 523f
00000130: 4c34 01bf 5674 c9bf c8d6 8b3e a141 123f
00000140: b842 80be 6c69 1e3f 21fe a0bd d81e 5abe
00000150: 0740 85bf e50c 543f 688f 2d3e 4175 4cbf
00000160: 90f7 2b3f 7cab 3dbf c200 043f ce87 5fbf
00000170: d071 8f3e 645d 8c3e 0088 45bd fc8c 8bbf
00000180: eee0 1e3f ea5e a1bf c2cc 1abf 731d f13e
1.0694956 -0.25243926 -0.87781465 -0.45799708 -0.8016916 1.5073725 0.2699116 0.6237637
-0.6312105 0.72400177 1.2449117 0.17225131 0.23429395 -0.7725928 0.8053106 -0.6282231
1.5555905 -1.5868787 -0.2509073 0.48922634 1.0744421 -0.18073177 -0.6844228 -0.046349727
-0.80347294 1.2126547 0.29843736 0.9096167 0.49623632 -1.1056308 0.9288891 -1.0024452
0.0028921366 -0.22158122 -0.45676863 -1.9853272 -1.138079 1.3009404 -1.1913223 -1.0317123
1.271624 -0.55020475 -0.82878256 -0.047333155 -0.34110728 0.42145282 0.6595596 0.9917016
-0.7248301 -1.0249578 -0.5418943 -0.45897976 0.4645871 -0.031112194 -0.40682483 0.63746554
-0.017107725 -0.59976375 -0.85223806 0.8305172 0.9211258 0.22356534 0.8654053 -0.035818458
-0.50247455 -0.10989058 0.6838611 -0.040940642 -0.3330809 0.8056967 0.07868457 0.5709515
-1.1221976 0.53785306 -0.4568963 0.82100916 -0.50470424 -1.5738628 0.27312303 0.5713139
-0.25050902 0.6187961 -0.07860971 -0.21300828 -1.0410165 0.82832175 0.16949236 -0.79866415
0.67174625 -0.7408979 0.51563656 -0.87316597 0.2801652 0.27415 -0.048225403 -1.09024
0.62061965 -1.260709 -0.60468686 0.4709278

bias f4 [100]
00000000: 23a9 503d a220 4dbf 8c6d 5e3e 7cd4 20bf
00000010: 8357 303f aae6 a63f cfb8 f13e 82ca 6fbf
00000020: 6e5e b8be 8e8c ec3e 50d2 893f 8c7a 2f3d
00000030: 0aa5 1c3f c8a0 4bbf e40f 1dbf e130 0a3f
00000040: 5925 ac3f 757b 83be 2aa3 2fbf 106c a3bd
00000050: 815f 33be 6092 1abf 616e 2d3e 4456 9f3e
00000060: 3193 4b3e 6480 debe b0fd f9be 3dd0 483f
00000070: 588d 74bf 1d10 8c3e ed46 4d3f e986 5c3f
00000080: e8d5 32bf 8685 36bf fc5e 0cbf bb8e dbbf
00000090: 4f3c 26bf 3aad eebe cb0a 833f 6fe2 623f
000000a0: 5b3f 8cbf 3614 f23e ad58 363f e8f6 923e
000000b0: 1f4b 47be 5b1a d83e 5b2c 123f 7290 25be
000000c0: da8a 0cbf ee73 613f 535f ee3e 0201 b2be
000000d0: 833d ee3e 68f5 c7be 2601 0abf f1e7 b3be
000000e0: c084 4cbf 0dcc e03c a9e1 573e 8d76 373f
000000f0: 78d7 6a3e f0fe 69be 6992 10be 4cd5 57bf
00000100: 762d 5bbf a04e 10bf d1a0 173f e000 c7bd
00000110: 943d 1dbf db12 1d3d 1409 11bf eda8 fc3e
00000120: 10e6 763f f8cb 293f eaf9 c83e f15c 513e
00000130: c467 03bf b210 aebf e6a0 39bf 27e4 de3c
00000140: 148d 23bf 8822 093f e212 553f 3027 6bbe
00000150: 9984 bcbe 9d55 073f b03d 12bf 94ac 2f3f
00000160: 39be 143f 7cff 223f 43a1 293f 6e55 6fbf
00000170: a4b4 30bf c03c a4be cfef 423f 48d0 6f3f
00000180: 581b 1f3f 08ab 0e3f 8c22 75bf ff21 f03d
0.05094255 -0.8012792 0.21721476 -0.62824225 0.6888353 1.3039143 0.4721131 -0.9366838
-0.36009544 0.46200985 1.0767307 0.04284148 0.6118933 -0.7954221 -0.6135237 0.53980833
1.3448898 -0.25680128 -0.68608344 -0.07979596 -0.175169 -0.603796 0.16936637 0.31120503
0.19880368 -0.4345733 -0.4882636 0.78442746 -0.95528173 0.27356043 0.8018635 0.86143357
-0.69857645 -0.7129749 -0.54832435 -1.7152933 -0.64935774 -0.46616536 1.0237669 0.8862676
-1.0956835 0.47281045 0.7122906 0.28704 -0.1946225 0.42207608 0.5709893 -0.16168383
-0.5489937 0.8806752 0.46557102 -0.34766394 0.46531305 -0.39054418 -0.53908 -0.35137895
-0.7989006 0.027441049 0.21082176 0.7166527 0.22933757 -0.22851157 -0.14118351 -0.8430984
-0.8561624 -0.5636997 0.5922976 -0.09716964 -0.61422086 0.03834806 -0.5665448 0.4934763
0.964448 0.66326857 0.3925317 0.2044561 -0.5133021 -1.3598845 -0.72511137 0.0272084
-0.63887143 0.53568316 0.8323194 -0.22964168 -0.36819914 0.5286501 -0.5712538 0.6862271
0.58102757 0.6367109 0.6626169 -0.9348973 -0.69025636 -0.320776 0.7614717 0.93677187
0.621511 0.5572972 -0.9575584 0.11725234

weight f4 [1, 100]
00000000: c322 203f 0537 cc3d 9658 f5be 7af3 27bd
00000010: f322 36bf 9600 b73f 18c0 8ebe 0099 62bb
00000020: 6971 e2be 7500 9b3e 0455 963f ad27 ad3d
00000030: 5cc9 b3be 53bd 22bd 5a11 4a3f 0291 0ebf
00000040: d5d2 b93f b928 acbf 4edf 043d 3a3d bf3e
00000050: 6b0d 403f c09a 483b 1032 d9be 2634 b3bd
00000060: 2f1e ccbe 9efb 343f 0035 bdbb 04f7 473f
00000070: 6a68 c3bd 0536 2bbf 45e8 533f 7632 71bf
00000080: 8e1e 323d 6028 213b 1a87 5ebd aae2 1440
00000090: 1bab 3bbf a4cc 603f 8cca 8cbf 52e1 63bf
000000a0: e297 9bbf e2d7 03bf 3cc5 48bf 2a7d 52bd
000000b0: bc4d 43be dcbf 8bbe 1c3d 233f e9d1 2e3f
000000c0: 8111 ffbe acfb 68bf e3ec f4be 982c 91be
000000d0: 3e23 a1be 20d3 e1bb b0c5 9a3b a732 b03d
000000e0: 6a0e 543d 6071 f4be 2492 fcbe e0f0 3a3f
000000f0: cf7b ba3e 3064 4e3c 332f 113f 57a2 69bd
00000100: d254 4a3d 795c a13d 523c 2b3f 2630 94bd
00000110: 58e3 b7bd 67a2 d33e 35f8 853d 12f2 063f
00000120: 86b9 87bf 1201 b3be 820f c7be d58d 963e
00000130: bdc5 56bd 5e20 e93f e71a 43bd a045 a93e
00000140: 0016 c13a e06d 193f 6ec6 a4be 6882 cabd
00000150: a56d 3dbe 3883 a93e 9110 cb3d d205 3bbf
00000160: 05c9 213f bb7a 2bbf 8683 b2be 6dc5 8bbd
00000170: e950 a43d 511e 973d 334c 86be a6e9 6bbf
00000180: ab41 c0be 3da1 7abf 8ae1 96bd 07c9 2c3e
0.6255304 0.09971432 -0.47919148 -0.04100368 -0.7114708 1.4297054 -0.2788093 -0.0034576058
-0.4422715 0.30273786 1.1744695 0.08454833 -0.35114563 -0.039731335 0.78932726 -0.55690014
1.4517466 -1.3449928 0.032439522 0.373514 0.75020474 0.0030609816 -0.42421007 -0.08750181
-0.39866778 0.7069644 -0.0057741404 0.7811129 -0.095414 -0.668793 0.8277629 -0.9421762
0.04348617 0.0024590716 -0.05432806 2.3263345 -0.7330796 0.87812257 -1.0999312 -0.89015687
-1.2155726 -0.51501286 -0.78425956 -0.051388897 -0.19072622 -0.27294815 0.6376512 0.6828905
-0.49818042 -0.9100902 -0.4783698 -0.28354335 -0.314722 -0.006891623 0.004723273 0.08603411
0.05177156 -0.47742748 -0.49330246 0.73023796 0.36422583 0.012597129 0.56712645 -0.057039585
0.049397297 0.07878966 0.66888916 -0.07235746 -0.08978909 0.4133484 0.06541482 0.5271312
-1.0603492 -0.34961754 -0.3887902 0.29405084 -0.05243467 1.8213003 -0.047633078 0.33060932
0.0014731288 0.5993328 -0.3218264 -0.09888154 -0.18498857 0.33107924 0.09915269 -0.73055756
0.63197356 -0.66984147 -0.3486597 -0.06824765 0.08023245 0.07378829 -0.2623001 -0.92153394
-0.375501 -0.9790228 -0.07367237 0.16873561

train_data f4 [600, 1]
00000000: 95e1 1cbf 2dec 613f 7512 323f 4684 51bf
00000010: 5250 493f cd63 cc3e 8c23 f8be 7aa7 2ebf
00000020: 721f 34bf dfc4 40be 2e3d 61bf a36a e8bd
00000030: 5e1c 41bf 33d2 5dbf 9a91 ee3e d88d c5be
00000040: 5987 443f 1cc1 17be bff5 d53e 2b4a 63bf
00000050: 5dcb 41bf 1a1f 193c 23c2 683f 5dcb 413f
00000060: b2d8 5e3e 91b8 743e 27eb 90bd a8e4 0f3f
00000070: 1e63 96bd 4826 50bf 77b4 30bf b9f4 043f
00000080: 9940 6fbe 23a7 133d 8a81 f9be ea3f b9be
00000090: a34f 133f dfc4 403e 8f16 76bd abd7 0d3f
000000a0: 0d02 a23e 6f2c 36bf 03f3 7dbf 707d 353f
000000b0: fb4f ae3e 3867 5abf 2005 153e d2a7 c93e
000000c0: 3867 5a3f 9f26 6bbd 4533 523f 5c7a 42bf
000000d0: c77d d0be 12b2 733f 721f 343f 8ec5 f6be
000000e0: 935a f3bd 9eba 16bf 4826 503f 0fbf 753f
000000f0: 2706 66bf 2dd1 0cbe b20e 093f 1e2d 6cbf
00000100: 3de1 01be a9ff e43e 2156 943e 7805 30bf
00000110: d6eb c6be 3a09 59bf b752 063f afe5 e0be
00000120: a5f1 11bf 2413 68bf 1b3a 6e3f 1a1f 19bc
00000130: 822f 29bf 6653 3cbf 0429 283e b4b0 07bf
00000140: a50c 673e 0d1d 773f 00e5 2a3e ac28 0d3f
00000150: db80 433e b187 df3e 36c5 5bbf e166 3fbd
00000160: 1847 70bf 2e22 8c3e 5694 46bf fe42 ac3d
00000170: acf2 e2bd d59a c7bd a9ff e4be 6edb 363f
00000180: 1303 73bf ff93 ab3e 0e6e 76bf 9d84 6c3e
00000190: 283c 903e 057a a73e 3130 5fbf 82f9 febe
000001a0: b35f 08bf 77b4 303f 4977 4fbf a36a e83d
000001b0: dcd1 c23e ea3f b93e 071c a6be 2564 67bf
000001c0: 1b70 983e 9f26 6b3d 8673 26bf 0d1d 77bf
000001d0: a65d e6be 7bf8 2d3f bb96 03bf fb4f aebe
000001e0: 5836 45bf 1ae9 6e3f 0e53 a1bd 09d9 793f
000001f0: 298d 0f3e 878e fbbc 00e5 2abe 06cb a63d
00000200: 1f7e 6bbf cc12 cdbd 02a2 7ebf 0888 7abf
00000210: bd38 02bf 9ed5 eb3e 3e32 813e a7ae e53c
00000220: 5250 49bf c339 d33e ceb4 4b3e 03d8 a83e
00000230: 4e0c 4cbf c02b 00bf 707d 35bf 6a97 393f
00000240: 41ef 543f cbc1 cdbe d3f8 48be 2af9 633f
00000250: 3115 0abe 12b2 73bf 51ff 49bf aa50 643e
00000260: 3efc 56bf 3cab 573f f60b b1be f176 343d
00000270: f75c 30be 904c 203f 47d5 503f c91f cf3e
00000280: cc12 cd3d aa86 0e3f 5836 453f 9632 1c3f
00000290: abd7 0dbf a793 10bf fdf1 acbe 1146 9fbe
000002a0: c046 553d 3423 5dbf 4ac8 4ebf 8ab7 23bf
000002b0: 41ef 54bf ae94 61be 7370 333f b187 dfbe
000002c0: 98d4 1abf bbb1 d8be dd22 c2bd 9490 1dbf
000002d0: 98ef efbe bce7 023f 1998 6f3f b036 60bd
000002e0: 2549 123e 2b2f 8ebc 8966 24bf cd63 ccbe
000002f0: 9490 1d3f 9f0b 16bf 3408 883e f469 b23e
00000300: ca70 4e3e 1146 9f3e 30df 5f3f 09d9 79bf
00000310: 19ce 993e 95fc 713e 3574 5cbf 06cb a6bd
00000320: 23c2 68bf 2e22 8cbe 2dec 61bf 2ade 8e3e
00000330: 4240 543f 1297 1ebd cf05 cbbe ff93 abbe
00000340: 9c33 ed3e 6f2c 363f 8eaa 21bf 0444 7dbf
00000350: 8380 283f 30c4 8abe 2c80 8dbe 8a81 f93e
00000360: 1d12 973e 1847 703f c197 d43e 74c1 32bf
00000370: 6402 3dbf 6260 3ebf ba45 04bf 36aa 863e
00000380: 1297 1e3d 0fa4 a03e 0b60 a3be 1e63 963d
00000390: 37fb 853d e2b7 be3e 10f5 1f3e e5aa bcbd
000003a0: da2f c43e e308 3ebe 87c4 253f bfda 003f
000003b0: 3b3f 833b b76d dbbe 8c23 f83e cf05 cb3e
000003c0: 4c6a 4dbf 834a febd 4977 4f3f 8eaa 213f
000003d0: 2549 12be 6c39 38bf 20cf 6abf b9f4 04bf
000003e0: c02b 003f bc02 d8bd 979e 703c 5e1c 413f
000003f0: f176 34bd ceb4 4bbe 0cb1 223e 39b8 59bf
-0.6128171 0.88251 0.69559413 -0.8184246 0.78638184 0.39919892 -0.4846462 -0.682243
-0.7036048 -0.188251 -0.8798398 -0.11348464 -0.7543391 -0.86648864 0.4659546 -0.3858478
0.76769024 -0.14819759 0.41789052 -0.88785046 -0.7570093 0.009345794 0.9092123 0.7570093
0.2176235 0.23898531 -0.07076102 0.56208277 -0.07343124 -0.8130841 -0.6902537 0.5193592
-0.23364486 0.036048066 -0.48731643 -0.36181575 0.5754339 0.188251 -0.060080107 0.5540721
0.3164219 -0.7116155 -0.9919893 0.7089453 0.34045395 -0.8531375 0.14552736 0.3938585
0.8531375 -0.05740988 0.8210948 -0.75967956 -0.4072096 0.9519359 0.7036048 -0.48197597
-0.1188251 -0.58878505 0.8130841 0.9599466 -0.8985314 -0.13751669 0.5353805 -0.92256343
-0.12683578 0.44726303 0.2897196 -0.68758345 -0.38851804 -0.84779704 0.5246996 -0.43925235
-0.57009345 -0.90654206 0.9305741 -0.009345794 -0.66088116 -0.73564756 0.16421896 -0.53004
0.22563417 0.965287 0.16688919 0.55140185 0.19092123 0.43658212 -0.85847795 -0.046728972
-0.9385848 0.27369827 -0.7757009 0.08411215 -0.11081442 -0.09746329 -0.44726303 0.71428573
-0.94926566 0.3351135 -0.9626168 0.23097463 0.28170896 0.3271028 -0.8718291 -0.49799734
-0.53271025 0.6902537 -0.8104139 0.11348464 0.38050735 0.36181575 -0.32443258 -0.90387183
0.2977303 0.05740988 -0.65020025 -0.965287 -0.44993323 0.67957276 -0.5140187 -0.34045395
-0.77036047 0.93324435 -0.078771695 0.97596794 0.14018692 -0.03070761 -0.16688919 0.081441924
-0.9198932 -0.10013351 -0.99465954 -0.9786382 -0.50867826 0.46061414 0.25233644 0.028037382
-0.78638184 0.41255006 0.1989319 0.32977304 -0.79706275 -0.5006676 -0.7089453 0.72496665
0.8317757 -0.40186915 -0.19626169 0.8905207 -0.13484646 -0.9519359 -0.78905207 0.22296396
-0.8397864 0.8424566 -0.34579438 0.044058744 -0.17222963 0.62616825 0.81575435 0.40453938
0.10013351 0.5567423 0.77036047 0.6101469 -0.5540721 -0.564753 -0.33778372 -0.31108144
0.052069426 -0.8638184 -0.80774367 -0.63951933 -0.8317757 -0.22029373 0.7009346 -0.43658212
-0.6048064 -0.42323098 -0.09479306 -0.61548734 -0.46862483 0.5113485 0.9359146 -0.054739654
0.14285715 -0.017356476 -0.64218956 -0.39919892 0.61548734 -0.5861148 0.26568758 0.3484646
0.20160213 0.31108144 0.8744993 -0.97596794 0.30040053 0.23631509 -0.8611482 -0.081441924
-0.9092123 -0.27369827 -0.88251 0.27903873 0.8291055 -0.03871829 -0.3965287 -0.3351135
0.46328437 0.7116155 -0.6315087 -0.9893191 0.65821093 -0.27102804 -0.2763685 0.48731643
0.29506007 0.9385848 0.4152203 -0.69826436 -0.7383177 -0.7436582 -0.51668894 0.26301736
0.03871829 0.31375167 -0.31909212 0.07343124 0.06542056 0.37249666 0.15620828 -0.09212283
0.38317758 -0.18558078 0.64753 0.5033378 0.0040053404 -0.42857143 0.4846462 0.3965287
-0.8024032 -0.12416556 0.8104139 0.6315087 -0.14285715 -0.7196262 -0.917223 -0.5193592
0.5006676 -0.105473965 0.014686248 0.7543391 -0.044058744 -0.1989319 0.1588785 -0.85046726

train_targets f4 [600, 1]
00000000: 0000 a0c1 0000 a041 0000 7041 0000 c8c1
00000010: 0000 7041 0000 a040 0000 70c1 0000 a0c1
00000020: 0000 a0c1 0000 a0c0 0000 c8c1 0000 a0c0
00000030: 0000 a0c1 0000 c8c1 0000 2041 0000 20c1
00000040: 0000 7041 0000 a0c0 0000 2041 0000 c8c1
00000050: 0000 a0c1 0000 0000 0000 a041 0000 7041
00000060: 0000 a040 0000 a040 0000 a0c0 0000 2041
00000070: 0000 a0c0 0000 c8c1 0000 a0c1 0000 2041
00000080: 0000 20c1 0000 0000 0000 70c1 0000 20c1
00000090: 0000 2041 0000 0000 0000 a0c0 0000 2041
000000a0: 0000 a040 0000 a0c1 0000 c8c1 0000 7041
000000b0: 0000 a040 0000 c8c1 0000 0000 0000 a040
000000c0: 0000 a041 0000 a0c0 0000 a041 0000 a0c1
000000d0: 0000 70c1 0000 a041 0000 7041 0000 70c1
000000e0: 0000 a0c0 0000 70c1 0000 a041 0000 a041
000000f0: 0000 c8c1 0000 a0c0 0000 2041 0000 c8c1
00000100: 0000 a0c0 0000 2041 0000 a040 0000 a0c1
00000110: 0000 20c1 0000 c8c1 0000 2041 0000 70c1
00000120: 0000 70c1 0000 c8c1 0000 a041 0000 a0c0
00000130: 0000 a0c1 0000 a0c1 0000 0000 0000 70c1
00000140: 0000 a040 0000 a041 0000 0000 0000 2041
00000150: 0000 0000 0000 2041 0000 c8c1 0000 a0c0
00000160: 0000 c8c1 0000 a040 0000 a0c1 0000 0000
00000170: 0000 a0c0 0000 a0c0 0000 70c1 0000 7041
00000180: 0000 c8c1 0000 a040 0000 c8c1 0000 a040
00000190: 0000 a040 0000 a040 0000 c8c1 0000 70c1
000001a0: 0000 70c1 0000 7041 0000 c8c1 0000 0000
000001b0: 0000 a040 0000 a040 0000 20c1 0000 c8c1
000001c0: 0000 a040 0000 0000 0000 a0c1 0000 c8c1
000001d0: 0000 70c1 0000 7041 0000 70c1 0000 20c1
000001e0: 0000 a0c1 0000 a041 0000 a0c0 0000 a041
000001f0: 0000 0000 0000 a0c0 0000 a0c0 0000 0000
00000200: 0000 c8c1 0000 a0c0 0000 c8c1 0000 c8c1
00000210: 0000 70c1 0000 2041 0000 a040 0000 0000
00000220: 0000 a0c1 0000 2041 0000 0000 0000 a040
00000230: 0000 a0c1 0000 70c1 0000 a0c1 0000 7041
00000240: 0000 a041 0000 70c1 0000 a0c0 0000 a041
00000250: 0000 a0c0 0000 c8c1 0000 a0c1 0000 a040
00000260: 0000 c8c1 0000 a041 0000 20c1 0000 0000
00000270: 0000 a0c0 0000 7041 0000 a041 0000 2041
00000280: 0000 0000 0000 2041 0000 7041 0000 7041
00000290: 0000 70c1 0000 70c1 0000 20c1 0000 20c1
000002a0: 0000 0000 0000 c8c1 0000 c8c1 0000 a0c1
000002b0: 0000 c8c1 0000 20c1 0000 7041 0000 70c1
000002c0: 0000 a0c1 0000 70c1 0000 a0c0 0000 a0c1
000002d0: 0000 70c1 0000 2041 0000 a041 0000 a0c0
000002e0: 0000 0000 0000 a0c0 0000 a0c1 0000 20c1
000002f0: 0000 7041 0000 70c1 0000 a040 0000 a040
00000300: 0000 a040 0000 a040 0000 a041 0000 c8c1
00000310: 0000 a040 0000 a040 0000 c8c1 0000 a0c0
00000320: 0000 c8c1 0000 20c1 0000 c8c1 0000 a040
00000330: 0000 a041 0000 a0c0 0000 20c1 0000 20c1
00000340: 0000 2041 0000 7041 0000 a0c1 0000 c8c1
00000350: 0000 7041 0000 20c1 0000 20c1 0000 2041
00000360: 0000 a040 0000 a041 0000 2041 0000 a0c1
00000370: 0000 a0c1 0000 a0c1 0000 70c1 0000 a040
00000380: 0000 0000 0000 a040 0000 20c1 0000 0000
00000390: 0000 0000 0000 a040 0000 0000 0000 a0c0
000003a0: 0000 a040 0000 a0c0 0000 7041 0000 2041
000003b0: 0000 0000 0000 70c1 0000 2041 0000 a040
000003c0: 0000 c8c1 0000 a0c0 0000 a041 0000 7041
000003d0: 0000 a0c0 0000 a0c1 0000 c8c1 0000 70c1
000003e0: 0000 2041 0000 a0c0 0000 0000 0000 7041
000003f0: 0000 a0c0 0000 a0c0 0000 0000 0000 c8c1
-20.0 20.0 15.0 -25.0 15.0 5.0 -15.0 -20.0
-20.0 -5.0 -25.0 -5.0 -20.0 -25.0 10.0 -10.0
15.0 -5.0 10.0 -25.0 -20.0 0.0 20.0 15.0
5.0 5.0 -5.0 10.0 -5.0 -25.0 -20.0 10.0
-10.0 0.0 -15.0 -10.0 10.0 0.0 -5.0 10.0
5.0 -20.0 -25.0 15.0 5.0 -25.0 0.0 5.0
20.0 -5.0 20.0 -20.0 -15.0 20.0 15.0 -15.0
-5.0 -15.0 20.0 20.0 -25.0 -5.0 10.0 -25.0
-5.0 10.0 5.0 -20.0 -10.0 -25.0 10.0 -15.0
-15.0 -25.0 20.0 -5.0 -20.0 -20.0 0.0 -15.0
5.0 20.0 0.0 10.0 0.0 10.0 -25.0 -5.0
-25.0 5.0 -20.0 0.0 -5.0 -5.0 -15.0 15.0
-25.0 5.0 -25.0 5.0 5.0 5.0 -25.0 -15.0
-15.0 15.0 -25.0 0.0 5.0 5.0 -10.0 -25.0
5.0 0.0 -20.0 -25.0 -15.0 15.0 -15.0 -10.0
-20.0 20.0 -5.0 20.0 0.0 -5.0 -5.0 0.0
-25.0 -5.0 -25.0 -25.0 -15.0 10.0 5.0 0.0
-20.0 10.0 0.0 5.0 -20.0 -15.0 -20.0 15.0
20.0 -15.0 -5.0 20.0 -5.0 -25.0 -20.0 5.0
-25.0 20.0 -10.0 0.0 -5.0 15.0 20.0 10.0
0.0 10.0 15.0 15.0 -15.0 -15.0 -10.0 -10.0
0.0 -25.0 -25.0 -20.0 -25.0 -10.0 15.0 -15.0
-20.0 -15.0 -5.0 -20.0 -15.0 10.0 20.0 -5.0
0.0 -5.0 -20.0 -10.0 15.0 -15.0 5.0 5.0
5.0 5.0 20.0 -25.0 5.0 5.0 -25.0 -5.0
-25.0 -10.0 -25.0 5.0 20.0 -5.0 -10.0 -10.0
10.0 15.0 -20.0 -25.0 15.0 -10.0 -10.0 10.0
5.0 20.0 10.0 -20.0 -20.0 -20.0 -15.0 5.0
0.0 5.0 -10.0 0.0 0.0 5.0 0.0 -5.0
5.0 -5.0 15.0 10.0 0.0 -15.0 10.0 5.0
-25.0 -5.0 20.0 15.0 -5.0 -20.0 -25.0 -15.0
10.0 -5.0 0.0 15.0 -5.0 -5.0 0.0 -25.0

test_data f4 [150, 1]
00000000: 0000 2041 0000 a0c0 0000 c8c1 0000 20c1
00000010: 0000 20c1 0000 a041 0000 0000 0000 a041
00000020: 0000 7041 0000 a041 0000 a040 0000 70c1
00000030: 0000 70c1 0000 a0c1 0000 7041 0000 a040
00000040: 0000 a040 0000 a0c0 0000 20c1 0000 c8c1
00000050: 0000 70c1 0000 70c1 0000 7041 0000 2041
00000060: 0000 c8c1 0000 20c1 0000 0000 0000 a0c1
00000070: 0000 a0c1 0000 a040 0000 20c1 0000 c8c1
00000080: 0000 c8c1 0000 a040 0000 a0c1 0000 a040
00000090: 0000 a041 0000 2041 0000 a0c1 0000 2041
000000a0: 0000 2041 0000 a041 0000 2041 0000 20c1
000000b0: 0000 a0c0 0000 a0c1 0000 7041 0000 2041
000000c0: 0000 20c1 0000 7041 0000 0000 0000 70c1
000000d0: 0000 c8c1 0000 a040 0000 c8c1 0000 70c1
000000e0: 0000 c8c1 0000 a041 0000 a0c1 0000 a0c0
000000f0: 0000 0000 0000 2041 0000 a0c1 0000 2041
00000100: 0000 0000 0000 a0c1 0000 20c1 0000 a0c0
00000110: 0000 a040 0000 a041 0000 2041 0000 70c1
00000120: 0000 a0c0 0000 7041 0000 70c1 0000 a0c1
00000130: 0000 20c1 0000 a040 0000 a041 0000 c8c1
00000140: 0000 20c1 0000 a040 0000 7041 0000 2041
00000150: 0000 a041 0000 70c1 0000 20c1 0000 2041
00000160: 0000 2041 0000 20c1 0000 a041 0000 a040
00000170: 0000 c8c1 0000 a0c0 0000 2041 0000 7041
00000180: 0000 2041 0000 2041 0000 a0c1 0000 7041
00000190: 0000 7041 0000 70c1 0000 a041 0000 a0c1
000001a0: 0000 7041 0000 2041 0000 a040 0000 a041
000001b0: 0000 2041 0000 0000 0000 0000 0000 0000
000001c0: 0000 2041 0000 2041 0000 2041 0000 a040
000001d0: 0000 a041 0000 20c1 0000 c8c1 0000 a040
000001e0: 0000 20c1 0000 0000 0000 0000 0000 a0c0
000001f0: 0000 a041 0000 a0c1 0000 a040 0000 20c1
00000200: 0000 a041 0000 a0c1 0000 c8c1 0000 a0c1
00000210: 0000 20c1 0000 a0c0 0000 0000 0000 20c1
00000220: 0000 0000 0000 0000 0000 20c1 0000 a041
00000230: 0000 0000 0000 a041 0000 7041 0000 a0c1
00000240: 0000 20c1 0000 a041 0000 a0c0 0000 20c1
00000250: 0000 c8c1 0000 70c1
10.0 -5.0 -25.0 -10.0 -10.0 20.0 0.0 20.0
15.0 20.0 5.0 -15.0 -15.0 -20.0 15.0 5.0
5.0 -5.0 -10.0 -25.0 -15.0 -15.0 15.0 10.0
-25.0 -10.0 0.0 -20.0 -20.0 5.0 -10.0 -25.0
-25.0 5.0 -20.0 5.0 20.0 10.0 -20.0 10.0
10.0 20.0 10.0 -10.0 -5.0 -20.0 15.0 10.0
-10.0 15.0 0.0 -15.0 -25.0 5.0 -25.0 -15.0
-25.0 20.0 -20.0 -5.0 0.0 10.0 -20.0 10.0
0.0 -20.0 -10.0 -5.0 5.0 20.0 10.0 -15.0
-5.0 15.0 -15.0 -20.0 -10.0 5.0 20.0 -25.0
-10.0 5.0 15.0 10.0 20.0 -15.0 -10.0 10.0
10.0 -10.0 20.0 5.0 -25.0 -5.0 10.0 15.0
10.0 10.0 -20.0 15.0 15.0 -15.0 20.0 -20.0
15.0 10.0 5.0 20.0 10.0 0.0 0.0 0.0
10.0 10.0 10.0 5.0 20.0 -10.0 -25.0 5.0
-10.0 0.0 0.0 -5.0 20.0 -20.0 5.0 -10.0
20.0 -20.0 -25.0 -20.0 -10.0 -5.0 0.0 -10.0
0.0 0.0 -10.0 20.0 0.0 20.0 15.0 -20.0
-10.0 20.0 -5.0 -10.0 -25.0 -15.0

0.weight f4 [100, 1]
00000000: 3be5 883f b83f 81be 76b8 60bf 987e eabe
00000010: a93b 4dbf 95f1 c03f da31 8a3e faae 1f3f
00000020: 0397 21bf 2e58 393f 4459 9f3f a662 303e
00000030: c1ea 6f3e a4c8 45bf d628 4e3f 3bd3 20bf
00000040: 971d c73f d71e cbbf ec76 80be e07b fa3e
00000050: 5287 893f c011 39be 5536 2fbf 36d9 3dbd
00000060: 67b0 4dbf 4538 9b3f c8cc 983e a4dc 683f
00000070: b012 fe3e 4f85 8dbf adcb 6d3f 2050 80bf
00000080: 008a 3d3b 30e6 62be 94dd e9be 341f febf
00000090: 93ac 91bf 3785 a63f 407d 98bf 260f 84bf
000000a0: 93c4 a23f 38da 0cbf 182b 54bf 69e0 41bd
000000b0: 9da5 aebe aac8 d73e e6d8 283f 28e0 7d3f
000000c0: 778e 39bf d131 83bf 96b9 0abf 65ff eabe
000000d0: 5cde ed3e 00df febc 584b d0be f130 233f
000000e0: 8025 8cbc 1e8a 19bf 462c 5abf c69c 543f
000000f0: e7ce 6b3f 50ee 643e 348b 5d3f 60b6 12bd
00000100: 2ca2 00bf 500e e1bd 8511 2f3f 60b1 27bd
00000110: 9489 aabe 2442 4e3f 6025 a13d e129 123f
00000120: 2ca4 8fbf bdb0 093f 50ee e9be a82d 523f
00000130: 4c34 01bf 5674 c9bf c8d6 8b3e a141 123f
00000140: b842 80be 6c69 1e3f 21fe a0bd d81e 5abe
00000150: 0740 85bf e50c 543f 688f 2d3e 4175 4cbf
00000160: 90f7 2b3f 7cab 3dbf c200 043f ce87 5fbf
00000170: d071 8f3e 645d 8c3e 0088 45bd fc8c 8bbf
00000180: eee0 1e3f ea5e a1bf c2cc 1abf 731d f13e
1.0694956 -0.25243926 -0.87781465 -0.45799708 -0.8016916 1.5073725 0.2699116 0.6237637
-0.6312105 0.72400177 1.2449117 0.17225131 0.23429395 -0.7725928 0.8053106 -0.6282231
1.5555905 -1.5868787 -0.2509073 0.48922634 1.0744421 -0.18073177 -0.6844228 -0.046349727
-0.80347294 1.2126547 0.29843736 0.9096167 0.49623632 -1.1056308 0.9288891 -1.0024452
0.0028921366 -0.22158122 -0.45676863 -1.9853272 -1.138079 1.3009404 -1.1913223 -1.0317123
1.271624 -0.55020475 -0.82878256 -0.047333155 -0.34110728 0.42145282 0.6595596 0.9917016
-0.7248301 -1.0249578 -0.5418943 -0.45897976 0.4645871 -0.031112194 -0.40682483 0.63746554
-0.017107725 -0.59976375 -0.85223806 0.8305172 0.9211258 0.22356534 0.8654053 -0.035818458
-0.50247455 -0.10989058 0.6838611 -0.040940642 -0.3330809 0.8056967 0.07868457 0.5709515
-1.1221976 0.53785306 -0.4568963 0.82100916 -0.50470424 -1.5738628 0.27312303 0.5713139
-0.25050902 0.6187961 -0.07860971 -0.21300828 -1.0410165 0.82832175 0.16949236 -0.79866415
0.67174625 -0.7408979 0.51563656 -0.87316597 0.2801652 0.27415 -0.048225403 -1.09024
0.62061965 -1.260709 -0.60468686 0.4709278

0.bias f4 [100]
00000000: 23a9 503d a220 4dbf 8c6d 5e3e 7cd4 20bf
00000010: 8357 303f aae6 a63f cfb8 f13e 82ca 6fbf
00000020: 6e5e b8be 8e8c ec3e 50d2 893f 8c7a 2f3d
00000030: 0aa5 1c3f c8a0 4bbf e40f 1dbf e130 0a3f
00000040: 5925 ac3f 757b 83be 2aa3 2fbf 106c a3bd
00000050: 815f 33be 6092 1abf 616e 2d3e 4456 9f3e
00000060: 3193 4b3e 6480 debe b0fd f9be 3dd0 483f
00000070: 588d 74bf 1d10 8c3e ed46 4d3f e986 5c3f
00000080: e8d5 32bf 8685 36bf fc5e 0cbf bb8e dbbf
00000090: 4f3c 26bf 3aad eebe cb0a 833f 6fe2 623f
000000a0: 5b3f 8cbf 3614 f23e ad58 363f e8f6 923e
000000b0: 1f4b 47be 5b1a d83e 5b2c 123f 7290 25be
000000c0: da8a 0cbf ee73 613f 535f ee3e 0201 b2be
000000d0: 833d ee3e 68f5 c7be 2601 0abf f1e7 b3be
000000e0: c084 4cbf 0dcc e03c a9e1 573e 8d76 373f
000000f0: 78d7 6a3e f0fe 69be 6992 10be 4cd5 57bf
00000100: 762d 5bbf a04e 10bf d1a0 173f e000 c7bd
00000110: 943d 1dbf db12 1d3d 1409 11bf eda8 fc3e
00000120: 10e6 763f f8cb 293f eaf9 c83e f15c 513e
00000130: c467 03bf b210 aebf e6a0 39bf 27e4 de3c
00000140: 148d 23bf 8822 093f e212 553f 3027 6bbe
00000150: 9984 bcbe 9d55 073f b03d 12bf 94ac 2f3f
00000160: 39be 143f 7cff 223f 43a1 293f 6e55 6fbf
00000170: a4b4 30bf c03c a4be cfef 423f 48d0 6f3f
00000180: 581b 1f3f 08ab 0e3f 8c22 75bf ff21 f03d
0.05094255 -0.8012792 0.21721476 -0.62824225 0.6888353 1.3039143 0.4721131 -0.9366838
-0.36009544 0.46200985 1.0767307 0.04284148 0.6118933 -0.7954221 -0.6135237 0.53980833
1.3448898 -0.25680128 -0.68608344 -0.07979596 -0.175169 -0.603796 0.16936637 0.31120503
0.19880368 -0.4345733 -0.4882636 0.78442746 -0.95528173 0.27356043 0.8018635 0.86143357
-0.69857645 -0.7129749 -0.54832435 -1.7152933 -0.64935774 -0.46616536 1.0237669 0.8862676
-1.0956835 0.47281045 0.7122906 0.28704 -0.1946225 0.42207608 0.5709893 -0.16168383
-0.5489937 0.8806752 0.46557102 -0.34766394 0.46531305 -0.39054418 -0.53908 -0.35137895
-0.7989006 0.027441049 0.21082176 0.7166527 0.22933757 -0.22851157 -0.14118351 -0.8430984
-0.8561624 -0.5636997 0.5922976 -0.09716964 -0.61422086 0.03834806 -0.5665448 0.4934763
0.964448 0.66326857 0.3925317 0.2044561 -0.5133021 -1.3598845 -0.72511137 0.0272084
-0.63887143 0.53568316 0.8323194 -0.22964168 -0.36819914 0.5286501 -0.5712538 0.6862271
0.58102757 0.6367109 0.6626169 -0.9348973 -0.69025636 -0.320776 0.7614717 0.93677187
0.621511 0.5572972 -0.9575584 0.11725234

2.weight f4 [1, 100]
00000000: c322 203f 0537 cc3d 9658 f5be 7af3 27bd
00000010: f322 36bf 9600 b73f 18c0 8ebe 0099 62bb
00000020: 6971 e2be 7500 9b3e 0455 963f ad27 ad3d
00000030: 5cc9 b3be 53bd 22bd 5a11 4a3f 0291 0ebf
00000040: d5d2 b93f b928 acbf 4edf 043d 3a3d bf3e
00000050: 6b0d 403f c09a 483b 1032 d9be 2634 b3bd
00000060: 2f1e ccbe 9efb 343f 0035 bdbb 04f7 473f
00000070: 6a68 c3bd 0536 2bbf 45e8 533f 7632 71bf
00000080: 8e1e 323d 6028 213b 1a87 5ebd aae2 1440
00000090: 1bab 3bbf a4cc 603f 8cca 8cbf 52e1 63bf
000000a0: e297 9bbf e2d7 03bf 3cc5 48bf 2a7d 52bd
000000b0: bc4d 43be dcbf 8bbe 1c3d 233f e9d1 2e3f
000000c0: 8111 ffbe acfb 68bf e3ec f4be 982c 91be
000000d0: 3e23 a1be 20d3 e1bb b0c5 9a3b a732 b03d
000000e0: 6a0e 543d 6071 f4be 2492 fcbe e0f0 3a3f
000000f0: cf7b ba3e 3064 4e3c 332f 113f 57a2 69bd
00000100: d254 4a3d 795c a13d 523c 2b3f 2630 94bd
00000110: 58e3 b7bd 67a2 d33e 35f8 853d 12f2 063f
00000120: 86b9 87bf 1201 b3be 820f c7be d58d 963e
00000130: bdc5 56bd 5e20 e93f e71a 43bd a045 a93e
00000140: 0016 c13a e06d 193f 6ec6 a4be 6882 cabd
00000150: a56d 3dbe 3883 a93e 9110 cb3d d205 3bbf
00000160: 05c9 213f bb7a 2bbf 8683 b2be 6dc5 8bbd
00000170: e950 a43d 511e 973d 334c 86be a6e9 6bbf
00000180: ab41 c0be 3da1 7abf 8ae1 96bd 07c9 2c3e
0.6255304 0.09971432 -0.47919148 -0.04100368 -0.7114708 1.4297054 -0.2788093 -0.0034576058
-0.4422715 0.30273786 1.1744695 0.08454833 -0.35114563 -0.039731335 0.78932726 -0.55690014
1.4517466 -1.3449928 0.032439522 0.373514 0.75020474 0.0030609816 -0.42421007 -0.08750181
-0.39866778 0.7069644 -0.0057741404 0.7811129 -0.095414 -0.668793 0.8277629 -0.9421762
0.04348617 0.0024590716 -0.05432806 2.3263345 -0.7330796 0.87812257 -1.0999312 -0.89015687
-1.2155726 -0.51501286 -0.78425956 -0.051388897 -0.19072622 -0.27294815 0.6376512 0.6828905
-0.49818042 -0.9100902 -0.4783698 -0.28354335 -0.314722 -0.006891623 0.004723273 0.08603411
0.05177156 -0.47742748 -0.49330246 0.73023796 0.36422583 0.012597129 0.56712645 -0.057039585
0.049397297 0.07878966 0.66888916 -0.07235746 -0.08978909 0.4133484 0.06541482 0.5271312
-1.0603492 -0.34961754 -0.3887902 0.29405084 -0.05243467 1.8213003 -0.047633078 0.33060932
0.0014731288 0.5993328 -0.3218264 -0.09888154 -0.18498857 0.33107924 0.09915269 -0.73055756
0.63197356 -0.66984147 -0.3486597 -0.06824765 0.08023245 0.07378829 -0.2623001 -0.92153394
-0.375501 -0.9790228 -0.07367237 0.16873561
