complete/floor/state1.pt (torch, 10937 bytes, 9 tensors)

weight f4 [100, 1]
-0.49830303 1.1860327 -0.7957586 -0.8663894 -0.7678703 0.52180886 -0.4553301 -0.8511101
-0.27334756 0.059774823 -0.9614049 1.2983004 0.45909178 -0.96177685 -0.099276565 0.4188305
-0.41653115 -0.9949322 -0.47412527 0.35021377 -0.3733114 0.6633358 0.44275108 -0.6645155
-0.8421808 -0.6263848 0.79783714 -0.6481606 0.23213363 0.831916 -0.03383583 0.99858606
0.35935438 0.16433418 -0.08584726 1.0965266 -0.3119768 -0.32713017 -0.09006095 0.054213874
-0.32480013 0.2781656 -0.6073161 1.0782102 -0.6076014 -0.85881984 -0.18422961 0.9708605
0.78327143 0.31849965 -0.7835295 1.240299 0.71548176 -0.19120067 -0.5724143 0.7136178
0.8823427 0.9829366 0.47373402 -0.24136937 -0.92253405 0.1023898 -0.81376773 0.5867057
-0.052840948 0.14299679 1.0523366 0.65088874 0.065757155 0.8009193 -0.42125982 -0.75674415
0.35399246 -0.21551302 0.60898453 -0.63934064 -0.0886457 0.59008014 -0.2982446 -0.8748129
-0.65801895 -1.1808228 -0.8643516 -0.9262385 -1.1375558 -1.3768158 0.9104022 0.36191487
-0.9645584 0.04920254 -1.1173425 0.108244896 0.9451473 -0.20588674 0.33410037 0.018345118
0.704134 0.6442542 0.028407726 1.1493425
00000000: 9321 ffbe ebcf 973f d6b6 4bbf b2cb 5dbf
00000010: 2693 44bf 4495 053f 0721 e9be 5ae2 59bf
00000020: 36f4 8bbe 72d6 743d a21e 76bf b52e a63f
00000030: 140e eb3e 0237 76bf 8351 cbbd f470 d63e
00000040: 9243 d5be e0b3 7ebf 8cc0 f2be 384f b33e
00000050: ac22 bfbe 60d0 293f 45b0 e23e b01d 2abf
00000060: 2999 57bf c15a 20bf 0e3f 4c3f daed 25bf
00000070: 70b4 6d3e 72f8 543f 7097 0abd 56a3 7f3f
00000080: 4cfd b73e 3847 283e b0d0 afbd fc5a 8c3f
00000090: 6cbb 9fbe 9b7d a7be e071 b8bd 5e0f 5e3d
000000a0: 344c a6be b96b 8e3e 1179 1bbf cb02 8a3f
000000b0: c48b 1bbf 9edb 5bbf b0a6 3cbe 508a 783f
000000c0: 7a84 483f 6312 a33e 6495 48bf 1ec2 9e3f
000000d0: d029 373f 1cca 43be be89 12bf a8af 363f
000000e0: 36e1 613f bca1 7b3f 448d f23e 8829 77be
000000f0: 312b 6cbf beb1 d13d 1553 50bf 5832 163f
00000100: c06f 58bd c06d 123e f7b2 863f a5a0 263f
00000110: b0ab 863d 0c09 4d3f 5eaf d7be fcb9 41bf
00000120: 803e b53e 72af 5cbe 69e6 1b3f d4ab 23bf
00000130: e08b b5bd 7e0f 173f 84b3 98be bdf3 5fbf
00000140: ee73 28bf 3425 97bf 2546 5dbf f71d 6dbf
00000150: 6e9b 91bf 803b b0bf 1e10 693f e84c b93e
00000160: 4ded 76bf 9a88 493d 1405 8fbf 80af dd3d
00000170: 2cf5 713f f9d3 52be 340f ab3e 8048 963c
00000180: 2042 343f d8ed 243f 52b7 e83c a81d 933f

bias f4 [100]
0.43660086 0.9879745 0.7002714 -0.6273237 0.9761945 0.45210218 0.711841 0.75046116
0.2407565 0.7462212 0.2221597 1.1204336 -0.74171495 -0.54694146 0.58691895 -0.7482984
-0.3247907 0.653133 0.006088941 -0.7332592 -0.06694416 -0.901391 0.8321253 -0.8020766
0.1897925 0.55219555 0.70463127 0.046225164 -0.38271022 -0.61094373 0.71221507 -0.966461
-0.836339 -0.3805753 -0.2465899 0.95818394 0.6310061 0.15341526 -0.11746502 0.53135586
0.28661972 0.0064421925 -0.42345658 0.94233906 -0.8561517 0.96255934 -0.3871417 0.21666718
-0.9276031 0.92717624 0.8820487 1.0840656 0.63038397 0.64031017 0.51097274 -0.90085745
0.6061954 0.8809836 -0.84767914 -0.23156816 -0.680008 0.17793013 -0.60529095 0.76408046
-0.8489386 -0.43065393 -0.37051466 0.57226074 -0.27964735 -0.10576495 0.7565593 -0.99140847
-0.0884669 0.35528857 -0.09956912 -0.8099333 -0.24756587 0.99805164 -0.33848953 0.97530115
0.3066734 1.040381 0.39941013 0.8136977 0.9877934 1.2127042 -0.9778048 0.81986356
-0.49286032 0.8115065 0.9678668 -0.47351837 0.0333372 0.72086203 -0.9417199 -0.39417565
-0.24762446 0.2870422 0.4367374 0.79374593
00000000: 268a df3e e6eb 7c3f fd44 333f 4998 20bf
00000010: e2e7 793f f079 e73e 363b 363f 391e 403f
00000020: df88 763e 5a08 3f3f d57d 633e 5e6a 8f3f
00000030: 08e1 3dbf 5b04 0cbf 5240 163f 7c90 3fbf
00000040: f74a a6be b933 273f bd85 c73b e0b6 3bbf
00000050: 051a 89bd 90c1 66bf 2a06 553f e454 4dbf
00000060: f758 423e b05c 0d3f b762 343f 9956 3d3d
00000070: 98f2 c3be cf66 1cbf ba53 363f fd69 77bf
00000080: 501a 56bf c4da c2be 1082 7cbe 8b4b 753f
00000090: 9e89 213f e418 1d3e 8091 f0bd f006 083f
000000a0: d2bf 923e 0719 d33b 4dcf d8be 223d 713f
000000b0: c22c 5bbf 4a6a 763f 7037 c6be 00de 5d3e
000000c0: 6677 6dbf 6c5b 6d3f f2cd 613f a9c2 8a3f
000000d0: d860 213f 5eeb 233f 1ccf 023f 989e 66bf
000000e0: 9f2f 1b3f 2488 613f 8001 59bf 3420 6dbe
000000f0: 0115 2ebf 5133 363e 59f4 1abf c79a 433f
00000100: 0a54 59bf ac7e dcbe 19b4 bdbe ae7f 123f
00000110: f02d 8fbe 4b9b d8bd dfad 413f f2cc 7dbf
00000120: 222e b5bd 62e8 b53e e5ea cbbd ca57 4fbf
00000130: e881 7dbe 5080 7f3f 804e adbe 56ad 793f
00000140: 4c04 9d3e 342b 853f 7c7f cc3e 7e4e 503f
00000150: 07e0 7c3f e439 9b3f 6a51 7abf 94e2 513f
00000160: 3058 fcbe e4be 4f3f 1ec6 773f 0071 f2be
00000170: 968c 083d 6a8a 383f 8e14 71bf 64d1 c9be
00000180: 4491 7dbe 32f7 923e 0b9c df3e ef32 4b3f

weight f4 [1, 100]
-0.5182458 1.0052847 -0.77407753 -0.0669531 -0.6117175 0.49615166 -0.3729188 -0.767695
-0.25577486 0.033176333 -0.57461745 1.1759566 -0.05810199 -0.17157976 -0.12930948 -0.06184143
-0.08423556 -0.7766065 -0.18104757 0.039818652 -0.11200045 -0.031425104 0.28804424 -0.08086203
-0.4587728 -0.51269823 0.63820535 -0.3170874 0.07318003 0.08971856 -0.047154173 0.06309116
-0.0012230054 0.088091336 0.084559 0.92137396 -0.24920596 -0.21104267 -0.089559995 0.00808541
-0.29318872 0.094537705 -0.004017953 0.86147964 -0.07570678 -0.69124275 -0.0040971637 0.45105287
-0.041788995 0.16456446 -0.60106826 1.0411896 0.5148021 -0.17773163 -0.4933484 0.09487497
0.7026533 0.7418926 0.05214923 -0.010699017 -0.089568585 0.12011601 -0.049066637 0.40833366
0.010459378 -0.053552594 0.3075776 0.4819779 -0.07712889 0.35930187 -0.4133325 0.011556447
0.073584855 -0.22517185 0.31029183 0.0148681775 0.040410616 0.38719153 0.06419248 -0.6781354
-0.5143889 -1.0303295 -0.64896166 -0.91951185 -1.0813365 -1.2911983 -0.020486102 0.21963362
-0.18533148 0.0068457993 -0.93919826 0.013912298 0.4822458 -0.2442027 0.0917827 -0.02528312
0.19696207 0.3859323 -0.042021006 0.8605595
00000000: c2ab 04bf 2bad 803f f229 46bf b51e 89bd
00000010: 8599 1cbf 9707 fe3e 37ef bebe a987 44bf
00000020: ecf4 82be e8e3 073d 211a 13bf bf85 963f
00000030: 5afc 6dbd 9bb2 2fbe b469 04be 704d 7dbd
00000040: b183 acbd afcf 46bf 8964 39be e218 233d
00000050: 7e60 e5bd 9cb7 00bd 897a 933e fe9a a5bd
00000060: 45e4 eabe 3140 03bf 6d61 233f 4859 a2be
00000070: 69df 953d 5dbe b73d bc24 41bd f035 813d
00000080: 404d a0ba 3b69 b43d 452d ad3d 2adf 6b3f
00000090: d92f 7fbe 921b 58be 3b6b b7bd ab78 043c
000000a0: d51c 96be fc9c c13d 08a9 83bb ee89 5c3f
000000b0: 280c 9bbd 49f5 30bf 8041 86bb 67f0 e63e
000000c0: f02a 2bbd 9683 283e 9cdf 19bf b345 853f
000000d0: 12ca 033f 48ff 35be 2998 fcbe cf4d c23d
000000e0: 16e1 333f acec 3d3f 6e9a 553d ee4a 2fbc
000000f0: bc6f b7bd 62ff f53d 19fa 48bd 1c11 d13e
00000100: d05d 2b3c f759 5bbd d07a 9d3e cfc5 f63e
00000110: c0f5 9dbd 6af6 b73e 51a0 d3be 4057 3d3c
00000120: a8b3 963d 7393 66be 92de 9e3e a899 733c
00000130: 9a85 253d f83d c63e 5977 833d 489a 2dbf
00000140: feae 03bf d6e1 83bf 5a22 26bf 2165 6bbf
00000150: 3c69 8abf fc45 a5bf 78d2 a7bc a3e7 603e
00000160: 89c7 3dbe ba52 e03b 4c6f 70bf 68f0 633c
00000170: ece8 f63e 4610 7abe 91f8 bb3d 8c1e cfbc
00000180: 6db0 493e eb98 c53e 381e 2cbd a14d 5c3f

train_data f4 [600, 1]
0.23898531 -0.67690253 -0.92256343 -0.052069426 0.08678237 -0.06275033 -0.69559413 -0.0066755675
-0.5353805 -0.95727634 -0.025367156 -0.11081442 -0.85847795 -0.009345794 -0.08411215 0.78905207
-0.8638184 -0.35380507 0.05740988 -0.04138852 -0.31909212 0.564753 0.8905207 0.80774367
-1.0 0.09212283 -0.19359146 -0.36448598 -0.72496665 0.08411215 0.9546061 0.9599466
0.18291055 0.12683578 -0.7570093 -0.9626168 0.15086782 0.53004 -0.85046726 0.2870494
0.44192258 -0.03070761 0.24966623 -0.6715621 0.07076102 0.0894526 0.38851804 -0.11348464
0.3484646 -0.69826436 0.18558078 0.8985314 0.32977304 0.71428573 0.98664886 -0.5380507
0.92256343 0.44726303 -0.20961282 -0.33244327 -0.060080107 0.06542056 -0.30307075 -0.20427236
0.38050735 -0.7276369 0.21495327 0.53271025 0.8024032 0.8451268 -0.5834446 0.9359146
-0.078771695 0.8317757 0.20427236 -0.96795726 -0.8931909 -0.32176235 -0.012016022 0.47663552
0.8611482 -0.42857143 0.33244327 -0.15620828 0.3164219 0.2977303 -0.36982644 0.2897196
-0.7837116 -0.020026702 -0.83444595 0.48731643 0.8931909 0.46862483 0.61815757 0.42857143
-0.82376504 -0.9359146 0.7810414 0.5674232 -0.38851804 0.77837116 0.26301736 -0.7463284
-0.17489986 0.42056075 -0.5273698 0.7222964 -0.3564753 -0.08678237 -0.17757009 0.20961282
-0.8184246 0.7570093 0.9198932 -0.2763685 0.025367156 0.33778372 -0.7222964 -0.41255006
-0.044058744 -0.87716955 -0.71428573 0.81575435 -0.26301736 -0.07343124 0.19359146 -0.11615487
-0.12416556 0.32443258 -0.54339117 -0.79706275 0.44993323 0.69559413 -0.10280374 -0.16154873
0.42323098 -0.90387183 0.078771695 -0.09479306 0.43925235 0.15620828 -0.14819759 0.84779704
-0.38050735 0.8718291 0.40453938 0.012016022 0.36448598 -0.64753 0.5113485 -0.78905207
0.3671562 -0.4926569 -0.6368491 0.9706275 -0.6929239 0.4339119 0.29506007 0.6742323
-0.4259012 -0.94926566 -0.68758345 0.14552736 -0.78638184 1.0 0.1989319 -0.15353805
0.028037382 0.85847795 0.06809079 0.9732977 -0.8531375 -0.47930574 0.34045395 0.55941254
0.4445928 -0.16688919 0.67690253 0.90387183 -0.46061414 -0.48197597 -0.017356476 0.48197597
-0.1989319 -0.5006676 -0.9732977 -0.27903873 0.58077437 -0.7089453 0.35914552 -0.3271028
-0.3858478 0.11615487 0.10280374 -0.32977304 0.5033378 -0.31108144 -0.42056075 -0.40453938
-0.4552737 -0.47129506 -0.34045395 -0.623498 -0.8397864 0.1188251 0.94926566 -0.62616825
-0.57009345 -0.3484646 -0.48998666 0.90654206 0.13484646 -0.6902537 0.82376504 -0.081441924
-0.23898531 -0.6742323 0.7543391 -0.35113484 0.12149533 0.31909212 -0.506008 -0.24966623
-0.2897196 -0.10013351 0.5140187 0.5941255 -0.74098796 0.799733 -0.12683578 0.022696929
-0.07076102 -0.5941255 -0.4072096 0.73297733 0.14018692 -0.2977303 -0.42323098 0.3084112
0.7757009 0.77036047 -0.94392526 0.27369827 0.9786382 0.8424566 -0.16421896 0.25233644
0.0066755675 -0.67957276 -0.09746329 -0.59679574 -0.6849132 -0.022696929 0.4846462 0.7036048
00000000: 91b8 743e 7c49 2dbf 1e2d 6cbf c046 55bd
00000010: f5ba b13d 3f83 80bd 7512 32bf b8be dabb
00000020: b20e 09bf 1010 75bf c8ce cfbc acf2 e2bd
00000030: 36c5 5bbf 1a1f 19bc fe42 acbd 51ff 493f
00000040: 3423 5dbf f025 b5be 9f26 6b3d 0287 29bd
00000050: 0b60 a3be a793 103f 2af9 633f 4ac8 4e3f
00000060: 0000 80bf e5aa bc3d d73c 46be e89d babe
00000070: 6a97 39bf fe42 ac3d 1161 743f 0fbf 753f
00000080: e74c 3b3e 3de1 013e 5dcb 41bf 0e6e 76bf
00000090: 187d 1a3e b4b0 073f 39b8 59bf 24f8 923e
000000a0: ad43 e23e 878e fbbc 81a8 7f3e 7eeb 2bbf
000000b0: 27eb 903d ed32 b73d d6eb c63e a36a e8bd
000000c0: f469 b23e 74c1 32bf e308 3e3e 2706 663f
000000d0: 03d8 a83e 6edb 363f 0595 7c3f b1bd 09bf
000000e0: 1e2d 6c3f a9ff e43e bea4 56be 0136 aabe
000000f0: 8f16 76bd 37fb 853d 172c 9bbe c62c 51be
00000100: dcd1 c23e 6946 3abf b61c 5c3e b35f 083f
00000110: 4c6a 4d3f 3b5a 583f a05c 15bf 1998 6f3f
00000120: 0e53 a1bd 41ef 543f c62c 513e 0ccc 77bf
00000130: 29a8 64bf 09be a4be d9de 44bc 9209 f43e
00000140: 3574 5c3f b76d dbbe 0136 aa3e 10f5 1fbe
00000150: 0d02 a23e 1b70 983e e459 bdbe 2156 943e
00000160: 53a1 48bf 0a0f a4bc 409e 55bf 8a81 f93e
00000170: 29a8 643f 98ef ef3e 933f 1e3f b76d db3e
00000180: 44e2 52bf 1998 6fbf 54f2 473f a642 113f
00000190: d6eb c6be 5543 473f 36aa 863e 610f 3fbf
000001a0: f318 33be bd53 d73e b501 07bf 6be8 383f
000001b0: ee83 b6be f5ba b1bd efd4 35be bea4 563e
000001c0: 4684 51bf 5dcb 413f 1f7e 6b3f 2c80 8dbe
000001d0: c8ce cf3c fdf1 ac3e 6be8 38bf c339 d3be
000001e0: f176 34bd 2f8e 60bf 6edb 36bf 47d5 503f
000001f0: 36aa 86be 1e63 96bd d73c 463e 9be2 edbd
00000200: 834a febd 071c a63e af1b 0bbf 4e0c 4cbf
00000210: a65d e63e 7512 323f c48a d2bd 086d 25be
00000220: bbb1 d83e 2564 67bf 0e53 a13d dd22 c2bd
00000230: afe5 e03e 10f5 1f3e 1cc1 17be 3a09 593f
00000240: dcd1 c2be 3130 5f3f c91f cf3e d9de 443c
00000250: e89d ba3e 87c4 25bf bce7 023f 51ff 49bf
00000260: e6fb bb3e 863d fcbe 8b08 23bf 0b7b 783f
00000270: 7663 31bf b329 de3e 1d12 973e 7d9a 2c3f
00000280: b90f dabe 1303 73bf 7805 30bf 2005 153e
00000290: 5250 49bf 0000 803f ceb4 4b3e 1439 1dbe
000002a0: a7ae e53c 36c5 5b3f 2f73 8b3d 0a2a 793f
000002b0: 3867 5abf 9067 f5be fb4f ae3e a935 0f3f
000002c0: aba1 e33e 00e5 2abe 7c49 2d3f 2564 673f
000002d0: 9ed5 ebbe 8ec5 f6be 2b2f 8ebc 8ec5 f63e
000002e0: ceb4 4bbe c02b 00bf 0a2a 79bf 2ade 8ebe
000002f0: a1ad 143f 707d 35bf ece1 b73e 057a a7be
00000300: d88d c5be 9be2 ed3d c48a d23d 03d8 a8be
00000310: bfda 003f 1146 9fbe bd53 d7be c91f cfbe
00000320: a219 e9be 964d f1be fb4f aebe 919d 1fbf
00000330: 3efc 56bf 935a f33d 1303 733f 904c 20bf
00000340: a5f1 11bf f469 b2be 88df fabe 2413 683f
00000350: 3115 0a3e 77b4 30bf 44e2 523f 06cb a6bd
00000360: 91b8 74be 7d9a 2cbf 5e1c 413f f2c7 b3be
00000370: 8bd2 f83d 0b60 a33e be89 01bf 81a8 7fbe
00000380: 2156 94be cc12 cdbd bb96 033f 9c18 183f
00000390: 63b1 3dbf 4dbb 4c3f 3de1 01be e9ee b93c
000003a0: 27eb 90bd 9c18 18bf c77d d0be 67a4 3b3f
000003b0: 298d 0f3e 1b70 98be bbb1 d8be 13e8 9d3e
000003c0: 5694 463f 5836 453f 16a5 71bf 2e22 8c3e
000003d0: 0888 7a3f 3cab 573f 0429 28be 3e32 813e
000003e0: b8be da3b 7bf8 2dbf d59a c7bd 9bc7 18bf
000003f0: 7956 2fbf e9ee b9bc 8c23 f83e 721f 343f

train_targets f4 [600, 1]
5.0 -20.0 -25.0 -5.0 0.0 -5.0 -20.0 -5.0
-15.0 -25.0 -5.0 -5.0 -25.0 -5.0 -5.0 15.0
-25.0 -10.0 0.0 -5.0 -10.0 10.0 20.0 20.0
-25.0 0.0 -5.0 -10.0 -20.0 0.0 20.0 20.0
0.0 0.0 -20.0 -25.0 0.0 10.0 -25.0 5.0
10.0 -5.0 5.0 -20.0 0.0 0.0 5.0 -5.0
5.0 -20.0 0.0 20.0 5.0 15.0 20.0 -15.0
20.0 10.0 -10.0 -10.0 -5.0 0.0 -10.0 -10.0
5.0 -20.0 5.0 10.0 20.0 20.0 -15.0 20.0
-5.0 20.0 5.0 -25.0 -25.0 -10.0 -5.0 10.0
20.0 -15.0 5.0 -5.0 5.0 5.0 -10.0 5.0
-20.0 -5.0 -25.0 10.0 20.0 10.0 15.0 10.0
-25.0 -25.0 15.0 10.0 -10.0 15.0 5.0 -20.0
-5.0 10.0 -15.0 15.0 -10.0 -5.0 -5.0 5.0
-25.0 15.0 20.0 -10.0 0.0 5.0 -20.0 -15.0
-5.0 -25.0 -20.0 20.0 -10.0 -5.0 0.0 -5.0
-5.0 5.0 -15.0 -20.0 10.0 15.0 -5.0 -5.0
10.0 -25.0 0.0 -5.0 10.0 0.0 -5.0 20.0
-10.0 20.0 10.0 0.0 5.0 -20.0 10.0 -20.0
5.0 -15.0 -20.0 20.0 -20.0 10.0 5.0 15.0
-15.0 -25.0 -20.0 0.0 -20.0 25.0 0.0 -5.0
0.0 20.0 0.0 20.0 -25.0 -15.0 5.0 10.0
10.0 -5.0 15.0 20.0 -15.0 -15.0 -5.0 10.0
-5.0 -15.0 -25.0 -10.0 10.0 -20.0 5.0 -10.0
-10.0 0.0 0.0 -10.0 10.0 -10.0 -15.0 -15.0
-15.0 -15.0 -10.0 -20.0 -25.0 0.0 20.0 -20.0
-15.0 -10.0 -15.0 20.0 0.0 -20.0 20.0 -5.0
-10.0 -20.0 15.0 -10.0 0.0 5.0 -15.0 -10.0
-10.0 -5.0 10.0 10.0 -20.0 15.0 -5.0 0.0
-5.0 -15.0 -15.0 15.0 0.0 -10.0 -15.0 5.0
15.0 15.0 -25.0 5.0 20.0 20.0 -5.0 5.0
0.0 -20.0 -5.0 -15.0 -20.0 -5.0 10.0 15.0
00000000: 0000 a040 0000 a0c1 0000 c8c1 0000 a0c0
00000010: 0000 0000 0000 a0c0 0000 a0c1 0000 a0c0
00000020: 0000 70c1 0000 c8c1 0000 a0c0 0000 a0c0
00000030: 0000 c8c1 0000 a0c0 0000 a0c0 0000 7041
00000040: 0000 c8c1 0000 20c1 0000 0000 0000 a0c0
00000050: 0000 20c1 0000 2041 0000 a041 0000 a041
00000060: 0000 c8c1 0000 0000 0000 a0c0 0000 20c1
00000070: 0000 a0c1 0000 0000 0000 a041 0000 a041
00000080: 0000 0000 0000 0000 0000 a0c1 0000 c8c1
00000090: 0000 0000 0000 2041 0000 c8c1 0000 a040
000000a0: 0000 2041 0000 a0c0 0000 a040 0000 a0c1
000000b0: 0000 0000 0000 0000 0000 a040 0000 a0c0
000000c0: 0000 a040 0000 a0c1 0000 0000 0000 a041
000000d0: 0000 a040 0000 7041 0000 a041 0000 70c1
000000e0: 0000 a041 0000 2041 0000 20c1 0000 20c1
000000f0: 0000 a0c0 0000 0000 0000 20c1 0000 20c1
00000100: 0000 a040 0000 a0c1 0000 a040 0000 2041
00000110: 0000 a041 0000 a041 0000 70c1 0000 a041
00000120: 0000 a0c0 0000 a041 0000 a040 0000 c8c1
00000130: 0000 c8c1 0000 20c1 0000 a0c0 0000 2041
00000140: 0000 a041 0000 70c1 0000 a040 0000 a0c0
00000150: 0000 a040 0000 a040 0000 20c1 0000 a040
00000160: 0000 a0c1 0000 a0c0 0000 c8c1 0000 2041
00000170: 0000 a041 0000 2041 0000 7041 0000 2041
00000180: 0000 c8c1 0000 c8c1 0000 7041 0000 2041
00000190: 0000 20c1 0000 7041 0000 a040 0000 a0c1
000001a0: 0000 a0c0 0000 2041 0000 70c1 0000 7041
000001b0: 0000 20c1 0000 a0c0 0000 a0c0 0000 a040
000001c0: 0000 c8c1 0000 7041 0000 a041 0000 20c1
000001d0: 0000 0000 0000 a040 0000 a0c1 0000 70c1
000001e0: 0000 a0c0 0000 c8c1 0000 a0c1 0000 a041
000001f0: 0000 20c1 0000 a0c0 0000 0000 0000 a0c0
00000200: 0000 a0c0 0000 a040 0000 70c1 0000 a0c1
00000210: 0000 2041 0000 7041 0000 a0c0 0000 a0c0
00000220: 0000 2041 0000 c8c1 0000 0000 0000 a0c0
00000230: 0000 2041 0000 0000 0000 a0c0 0000 a041
00000240: 0000 20c1 0000 a041 0000 2041 0000 0000
00000250: 0000 a040 0000 a0c1 0000 2041 0000 a0c1
00000260: 0000 a040 0000 70c1 0000 a0c1 0000 a041
00000270: 0000 a0c1 0000 2041 0000 a040 0000 7041
00000280: 0000 70c1 0000 c8c1 0000 a0c1 0000 0000
00000290: 0000 a0c1 0000 c841 0000 0000 0000 a0c0
000002a0: 0000 0000 0000 a041 0000 0000 0000 a041
000002b0: 0000 c8c1 0000 70c1 0000 a040 0000 2041
000002c0: 0000 2041 0000 a0c0 0000 7041 0000 a041
000002d0: 0000 70c1 0000 70c1 0000 a0c0 0000 2041
000002e0: 0000 a0c0 0000 70c1 0000 c8c1 0000 20c1
000002f0: 0000 2041 0000 a0c1 0000 a040 0000 20c1
00000300: 0000 20c1 0000 0000 0000 0000 0000 20c1
00000310: 0000 2041 0000 20c1 0000 70c1 0000 70c1
00000320: 0000 70c1 0000 70c1 0000 20c1 0000 a0c1
00000330: 0000 c8c1 0000 0000 0000 a041 0000 a0c1
00000340: 0000 70c1 0000 20c1 0000 70c1 0000 a041
00000350: 0000 0000 0000 a0c1 0000 a041 0000 a0c0
00000360: 0000 20c1 0000 a0c1 0000 7041 0000 20c1
00000370: 0000 0000 0000 a040 0000 70c1 0000 20c1
00000380: 0000 20c1 0000 a0c0 0000 2041 0000 2041
00000390: 0000 a0c1 0000 7041 0000 a0c0 0000 0000
000003a0: 0000 a0c0 0000 70c1 0000 70c1 0000 7041
000003b0: 0000 0000 0000 20c1 0000 70c1 0000 a040
000003c0: 0000 7041 0000 7041 0000 c8c1 0000 a040
000003d0: 0000 a041 0000 a041 0000 a0c0 0000 a040
000003e0: 0000 0000 0000 a0c1 0000 a0c0 0000 70c1
000003f0: 0000 a0c1 0000 a0c0 0000 2041 0000 7041

test_data f4 [150, 1]
10.0 -15.0 15.0 10.0 5.0 10.0 5.0 -20.0
5.0 -20.0 -25.0 15.0 0.0 20.0 -25.0 -5.0
15.0 15.0 -25.0 0.0 -20.0 10.0 -25.0 -5.0
0.0 20.0 -15.0 -25.0 -25.0 10.0 -20.0 15.0
15.0 0.0 -10.0 -25.0 10.0 -15.0 -20.0 -5.0
10.0 -20.0 20.0 -20.0 -25.0 0.0 -5.0 -10.0
20.0 -15.0 15.0 0.0 -15.0 5.0 5.0 10.0
15.0 -20.0 10.0 -10.0 -20.0 -20.0 0.0 20.0
-25.0 -10.0 15.0 10.0 -20.0 -10.0 -15.0 -10.0
20.0 -25.0 -20.0 5.0 -25.0 5.0 5.0 -25.0
10.0 -10.0 0.0 -20.0 -10.0 15.0 -15.0 -5.0
-5.0 0.0 5.0 15.0 20.0 -5.0 -20.0 20.0
10.0 0.0 -20.0 20.0 5.0 15.0 -25.0 -25.0
20.0 0.0 20.0 -5.0 5.0 15.0 -5.0 15.0
-10.0 -25.0 -10.0 -5.0 10.0 0.0 -15.0 10.0
10.0 0.0 5.0 -20.0 -20.0 -25.0 10.0 0.0
5.0 -10.0 15.0 15.0 -25.0 -20.0 0.0 -15.0
-20.0 0.0 5.0 0.0 -20.0 20.0 -10.0 10.0
-5.0 -5.0 20.0 -15.0 -25.0 -25.0
00000000: 0000 2041 0000 70c1 0000 7041 0000 2041
00000010: 0000 a040 0000 2041 0000 a040 0000 a0c1
00000020: 0000 a040 0000 a0c1 0000 c8c1 0000 7041
00000030: 0000 0000 0000 a041 0000 c8c1 0000 a0c0
00000040: 0000 7041 0000 7041 0000 c8c1 0000 0000
00000050: 0000 a0c1 0000 2041 0000 c8c1 0000 a0c0
00000060: 0000 0000 0000 a041 0000 70c1 0000 c8c1
00000070: 0000 c8c1 0000 2041 0000 a0c1 0000 7041
00000080: 0000 7041 0000 0000 0000 20c1 0000 c8c1
00000090: 0000 2041 0000 70c1 0000 a0c1 0000 a0c0
000000a0: 0000 2041 0000 a0c1 0000 a041 0000 a0c1
000000b0: 0000 c8c1 0000 0000 0000 a0c0 0000 20c1
000000c0: 0000 a041 0000 70c1 0000 7041 0000 0000
000000d0: 0000 70c1 0000 a040 0000 a040 0000 2041
000000e0: 0000 7041 0000 a0c1 0000 2041 0000 20c1
000000f0: 0000 a0c1 0000 a0c1 0000 0000 0000 a041
00000100: 0000 c8c1 0000 20c1 0000 7041 0000 2041
00000110: 0000 a0c1 0000 20c1 0000 70c1 0000 20c1
00000120: 0000 a041 0000 c8c1 0000 a0c1 0000 a040
00000130: 0000 c8c1 0000 a040 0000 a040 0000 c8c1
00000140: 0000 2041 0000 20c1 0000 0000 0000 a0c1
00000150: 0000 20c1 0000 7041 0000 70c1 0000 a0c0
00000160: 0000 a0c0 0000 0000 0000 a040 0000 7041
00000170: 0000 a041 0000 a0c0 0000 a0c1 0000 a041
00000180: 0000 2041 0000 0000 0000 a0c1 0000 a041
00000190: 0000 a040 0000 7041 0000 c8c1 0000 c8c1
000001a0: 0000 a041 0000 0000 0000 a041 0000 a0c0
000001b0: 0000 a040 0000 7041 0000 a0c0 0000 7041
000001c0: 0000 20c1 0000 c8c1 0000 20c1 0000 a0c0
000001d0: 0000 2041 0000 0000 0000 70c1 0000 2041
000001e0: 0000 2041 0000 0000 0000 a040 0000 a0c1
000001f0: 0000 a0c1 0000 c8c1 0000 2041 0000 0000
00000200: 0000 a040 0000 20c1 0000 7041 0000 7041
00000210: 0000 c8c1 0000 a0c1 0000 0000 0000 70c1
00000220: 0000 a0c1 0000 0000 0000 a040 0000 0000
00000230: 0000 a0c1 0000 a041 0000 20c1 0000 2041
00000240: 0000 a0c0 0000 a0c0 0000 a041 0000 70c1
00000250: 0000 c8c1 0000 c8c1

0.weight f4 [100, 1]
-0.49830303 1.1860327 -0.7957586 -0.8663894 -0.7678703 0.52180886 -0.4553301 -0.8511101
-0.27334756 0.059774823 -0.9614049 1.2983004 0.45909178 -0.96177685 -0.099276565 0.4188305
-0.41653115 -0.9949322 -0.47412527 0.35021377 -0.3733114 0.6633358 0.44275108 -0.6645155
-0.8421808 -0.6263848 0.79783714 -0.6481606 0.23213363 0.831916 -0.03383583 0.99858606
0.35935438 0.16433418 -0.08584726 1.0965266 -0.3119768 -0.32713017 -0.09006095 0.054213874
-0.32480013 0.2781656 -0.6073161 1.0782102 -0.6076014 -0.85881984 -0.18422961 0.9708605
0.78327143 0.31849965 -0.7835295 1.240299 0.71548176 -0.19120067 -0.5724143 0.7136178
0.8823427 0.9829366 0.47373402 -0.24136937 -0.92253405 0.1023898 -0.81376773 0.5867057
-0.052840948 0.14299679 1.0523366 0.65088874 0.065757155 0.8009193 -0.42125982 -0.75674415
0.35399246 -0.21551302 0.60898453 -0.63934064 -0.0886457 0.59008014 -0.2982446 -0.8748129
-0.65801895 -1.1808228 -0.8643516 -0.9262385 -1.1375558 -1.3768158 0.9104022 0.36191487
-0.9645584 0.04920254 -1.1173425 0.108244896 0.9451473 -0.20588674 0.33410037 0.018345118
0.704134 0.6442542 0.028407726 1.1493425
00000000: 9321 ffbe ebcf 973f d6b6 4bbf b2cb 5dbf
00000010: 2693 44bf 4495 053f 0721 e9be 5ae2 59bf
00000020: 36f4 8bbe 72d6 743d a21e 76bf b52e a63f
00000030: 140e eb3e 0237 76bf 8351 cbbd f470 d63e
00000040: 9243 d5be e0b3 7ebf 8cc0 f2be 384f b33e
00000050: ac22 bfbe 60d0 293f 45b0 e23e b01d 2abf
00000060: 2999 57bf c15a 20bf 0e3f 4c3f daed 25bf
00000070: 70b4 6d3e 72f8 543f 7097 0abd 56a3 7f3f
00000080: 4cfd b73e 3847 283e b0d0 afbd fc5a 8c3f
00000090: 6cbb 9fbe 9b7d a7be e071 b8bd 5e0f 5e3d
000000a0: 344c a6be b96b 8e3e 1179 1bbf cb02 8a3f
000000b0: c48b 1bbf 9edb 5bbf b0a6 3cbe 508a 783f
000000c0: 7a84 483f 6312 a33e 6495 48bf 1ec2 9e3f
000000d0: d029 373f 1cca 43be be89 12bf a8af 363f
000000e0: 36e1 613f bca1 7b3f 448d f23e 8829 77be
000000f0: 312b 6cbf beb1 d13d 1553 50bf 5832 163f
00000100: c06f 58bd c06d 123e f7b2 863f a5a0 263f
00000110: b0ab 863d 0c09 4d3f 5eaf d7be fcb9 41bf
00000120: 803e b53e 72af 5cbe 69e6 1b3f d4ab 23bf
00000130: e08b b5bd 7e0f 173f 84b3 98be bdf3 5fbf
00000140: ee73 28bf 3425 97bf 2546 5dbf f71d 6dbf
00000150: 6e9b 91bf 803b b0bf 1e10 693f e84c b93e
00000160: 4ded 76bf 9a88 493d 1405 8fbf 80af dd3d
00000170: 2cf5 713f f9d3 52be 340f ab3e 8048 963c
00000180: 2042 343f d8ed 243f 52b7 e83c a81d 933f

0.bias f4 [100]
0.43660086 0.9879745 0.7002714 -0.6273237 0.9761945 0.45210218 0.711841 0.75046116
0.2407565 0.7462212 0.2221597 1.1204336 -0.74171495 -0.54694146 0.58691895 -0.7482984
-0.3247907 0.653133 0.006088941 -0.7332592 -0.06694416 -0.901391 0.8321253 -0.8020766
0.1897925 0.55219555 0.70463127 0.046225164 -0.38271022 -0.61094373 0.71221507 -0.966461
-0.836339 -0.3805753 -0.2465899 0.95818394 0.6310061 0.15341526 -0.11746502 0.53135586
0.28661972 0.0064421925 -0.42345658 0.94233906 -0.8561517 0.96255934 -0.3871417 0.21666718
-0.9276031 0.92717624 0.8820487 1.0840656 0.63038397 0.64031017 0.51097274 -0.90085745
0.6061954 0.8809836 -0.84767914 -0.23156816 -0.680008 0.17793013 -0.60529095 0.76408046
-0.8489386 -0.43065393 -0.37051466 0.57226074 -0.27964735 -0.10576495 0.7565593 -0.99140847
-0.0884669 0.35528857 -0.09956912 -0.8099333 -0.24756587 0.99805164 -0.33848953 0.97530115
0.3066734 1.040381 0.39941013 0.8136977 0.9877934 1.2127042 -0.9778048 0.81986356
-0.49286032 0.8115065 0.9678668 -0.47351837 0.0333372 0.72086203 -0.9417199 -0.39417565
-0.24762446 0.2870422 0.4367374 0.79374593
00000000: 268a df3e e6eb 7c3f fd44 333f 4998 20bf
00000010: e2e7 793f f079 e73e 363b 363f 391e 403f
00000020: df88 763e 5a08 3f3f d57d 633e 5e6a 8f3f
00000030: 08e1 3dbf 5b04 0cbf 5240 163f 7c90 3fbf
00000040: f74a a6be b933 273f bd85 c73b e0b6 3bbf
00000050: 051a 89bd 90c1 66bf 2a06 553f e454 4dbf
00000060: f758 423e b05c 0d3f b762 343f 9956 3d3d
00000070: 98f2 c3be cf66 1cbf ba53 363f fd69 77bf
00000080: 501a 56bf c4da c2be 1082 7cbe 8b4b 753f
00000090: 9e89 213f e418 1d3e 8091 f0bd f006 083f
000000a0: d2bf 923e 0719 d33b 4dcf d8be 223d 713f
000000b0: c22c 5bbf 4a6a 763f 7037 c6be 00de 5d3e
000000c0: 6677 6dbf 6c5b 6d3f f2cd 613f a9c2 8a3f
000000d0: d860 213f 5eeb 233f 1ccf 023f 989e 66bf
000000e0: 9f2f 1b3f 2488 613f 8001 59bf 3420 6dbe
000000f0: 0115 2ebf 5133 363e 59f4 1abf c79a 433f
00000100: 0a54 59bf ac7e dcbe 19b4 bdbe ae7f 123f
00000110: f02d 8fbe 4b9b d8bd dfad 413f f2cc 7dbf
00000120: 222e b5bd 62e8 b53e e5ea cbbd ca57 4fbf
00000130: e881 7dbe 5080 7f3f 804e adbe 56ad 793f
00000140: 4c04 9d3e 342b 853f 7c7f cc3e 7e4e 503f
00000150: 07e0 7c3f e439 9b3f 6a51 7abf 94e2 513f
00000160: 3058 fcbe e4be 4f3f 1ec6 773f 0071 f2be
00000170: 968c 083d 6a8a 383f 8e14 71bf 64d1 c9be
00000180: 4491 7dbe 32f7 923e 0b9c df3e ef32 4b3f

2.weight f4 [1, 100]
-0.5182458 1.0052847 -0.77407753 -0.0669531 -0.6117175 0.49615166 -0.3729188 -0.767695
-0.25577486 0.033176333 -0.57461745 1.1759566 -0.05810199 -0.17157976 -0.12930948 -0.06184143
-0.08423556 -0.7766065 -0.18104757 0.039818652 -0.11200045 -0.031425104 0.28804424 -0.08086203
-0.4587728 -0.51269823 0.63820535 -0.3170874 0.07318003 0.08971856 -0.047154173 0.06309116
-0.0012230054 0.088091336 0.084559 0.92137396 -0.24920596 -0.21104267 -0.089559995 0.00808541
-0.29318872 0.094537705 -0.004017953 0.86147964 -0.07570678 -0.69124275 -0.0040971637 0.45105287
-0.041788995 0.16456446 -0.60106826 1.0411896 0.5148021 -0.17773163 -0.4933484 0.09487497
0.7026533 0.7418926 0.05214923 -0.010699017 -0.089568585 0.12011601 -0.049066637 0.40833366
0.010459378 -0.053552594 0.3075776 0.4819779 -0.07712889 0.35930187 -0.4133325 0.011556447
0.073584855 -0.22517185 0.31029183 0.0148681775 0.040410616 0.38719153 0.06419248 -0.6781354
-0.5143889 -1.0303295 -0.64896166 -0.91951185 -1.0813365 -1.2911983 -0.020486102 0.21963362
-0.18533148 0.0068457993 -0.93919826 0.013912298 0.4822458 -0.2442027 0.0917827 -0.02528312
0.19696207 0.3859323 -0.042021006 0.8605595
00000000: c2ab 04bf 2bad 803f f229 46bf b51e 89bd
00000010: 8599 1cbf 9707 fe3e 37ef bebe a987 44bf
00000020: ecf4 82be e8e3 073d 211a 13bf bf85 963f
00000030: 5afc 6dbd 9bb2 2fbe b469 04be 704d 7dbd
00000040: b183 acbd afcf 46bf 8964 39be e218 233d
00000050: 7e60 e5bd 9cb7 00bd 897a 933e fe9a a5bd
00000060: 45e4 eabe 3140 03bf 6d61 233f 4859 a2be
00000070: 69df 953d 5dbe b73d bc24 41bd f035 813d
00000080: 404d a0ba 3b69 b43d 452d ad3d 2adf 6b3f
00000090: d92f 7fbe 921b 58be 3b6b b7bd ab78 043c
000000a0: d51c 96be fc9c c13d 08a9 83bb ee89 5c3f
000000b0: 280c 9bbd 49f5 30bf 8041 86bb 67f0 e63e
000000c0: f02a 2bbd 9683 283e 9cdf 19bf b345 853f
000000d0: 12ca 033f 48ff 35be 2998 fcbe cf4d c23d
000000e0: 16e1 333f acec 3d3f 6e9a 553d ee4a 2fbc
000000f0: bc6f b7bd 62ff f53d 19fa 48bd 1c11 d13e
00000100: d05d 2b3c f759 5bbd d07a 9d3e cfc5 f63e
00000110: c0f5 9dbd 6af6 b73e 51a0 d3be 4057 3d3c
00000120: a8b3 963d 7393 66be 92de 9e3e a899 733c
00000130: 9a85 253d f83d c63e 5977 833d 489a 2dbf
00000140: feae 03bf d6e1 83bf 5a22 26bf 2165 6bbf
00000150: 3c69 8abf fc45 a5bf 78d2 a7bc a3e7 603e
00000160: 89c7 3dbe ba52 e03b 4c6f 70bf 68f0 633c
00000170: ece8 f63e 4610 7abe 91f8 bb3d 8c1e cfbc
00000180: 6db0 493e eb98 c53e 381e 2cbd a14d 5c3f
