complete/floor/state3.pt (torch, 10937 bytes, 9 tensors)

weight f4 [100, 1]
0	0xbd0e41ae	-0.034730606
1	0xbf6d6240	-0.9272804
2	0x3f8829f7	1.0637807
3	0xbf2ad4e4	-0.66731095
4	0xbf60f68c	-0.878762
5	0x3ef93a73	0.48677406
6	0x3f788033	0.97070616
7	0x3e43adb8	0.19109237
8	0x3e641092	0.22271946
9	0x3f15ce11	0.5851756
10	0xbf406204	-0.7514956
11	0x3f8a7ab3	1.0818695
12	0xbc88b175	-0.01668618
13	0xbf27e566	-0.6558441
14	0x3eaf70e4	0.34265816
15	0x3f22b2cd	0.6355408
16	0xbef8fce1	-0.4863043
17	0x3e6e422d	0.23267432
18	0x3f56e5a5	0.8394416
19	0xbe6f1dd0	-0.23351216
20	0xbdcb638e	-0.09931098
21	0xbe82f755	-0.25579324
22	0x3e5e5eb8	0.2171582
23	0xbf7fcc7a	-0.9992138
24	0x3f032920	0.51234627
25	0xbee7ad24	-0.45249283
26	0x3f6eafc6	0.9323696
27	0x3f8e67e3	1.1125454
28	0xbee56504	-0.4480363
29	0xbf7eae98	-0.9948516
30	0x3f163e08	0.586884
31	0x3ebc7c84	0.36813748
32	0x3f53d6f8	0.8274989
33	0xbf04b506	-0.5183872
34	0x3f02a5a2	0.51033986
35	0xbf94b33e	-1.16172
36	0x3f395d67	0.72408146
37	0xbecbbe88	-0.397938
38	0xbf6bc1e5	-0.92092735
39	0xbf9a7de3	-1.2069668
40	0xbf7b6cf1	-0.98213106
41	0xbf45a475	-0.77204067
42	0x3f4c19f5	0.7972711
43	0x3f4c4e06	0.79806554
44	0xbf308eb6	-0.6896776
45	0x3eadbc9e	0.33932966
46	0x3dbeaad0	0.09309924
47	0x3f2f1c59	0.6840263
48	0x3eb8984d	0.36053696
49	0xbec9d4f8	-0.39420295
50	0xbf87083e	-1.054939
51	0x3d73ab04	0.059489265
52	0x3f38bb4d	0.721608
53	0x3f04cf55	0.51878864
54	0xbf34b1f9	-0.70584065
55	0x3ea04d84	0.3130914
56	0x3f204d8a	0.62618315
57	0x3e4f7c52	0.20262268
58	0xbd989ed9	-0.07452173
59	0xbf176bd3	-0.591489
60	0x3f989404	1.1920171
61	0x3e725878	0.2366656
62	0x3dfaf670	0.122540355
63	0xbe281e2c	-0.1641776
64	0x3f4c834d	0.7988785
65	0xbe16b670	-0.14718032
66	0x3f3d0fb6	0.738521
67	0xbf972597	-1.1808347
68	0x3de3ba50	0.11119521
69	0xbf6d3025	-0.9265159
70	0xbf4b1b93	-0.7933895
71	0xbf27ad2f	-0.6549863
72	0x3f16b16a	0.5886446
73	0xbf5bdde8	-0.8588548
74	0x3f888b0b	1.0667433
75	0x3cfef940	0.031124711
76	0x3f6e5494	0.93097806
77	0x3f07a83e	0.5299109
78	0xbf6ac71b	-0.9171006
79	0x3f8e27f8	1.1105947
80	0xbf515036	-0.8176302
81	0xbcdb4600	-0.026766777
82	0xbe0f8243	-0.14014535
83	0xbedaf93d	-0.4276828
84	0xbf8326fb	-1.0246271
85	0x3dc93600	0.09824753
86	0xbf9ccfb8	-1.2250891
87	0xbf80a30d	-1.0049759
88	0x3f96239a	1.1729615
89	0xbeed15ee	-0.46305794
90	0x3f828326	1.0196273
91	0x3f64d366	0.8938507
92	0xbf2fb5e0	-0.68636894
93	0xbf5500c9	-0.83204323
94	0xbec63abf	-0.38716695
95	0x3f66bcae	0.9013165
96	0x3f5212d7	0.8206
97	0xbe6de60b	-0.23232286
98	0xbd81cd10	-0.06337941
99	0x3f7b1b2b	0.9808833

bias f4 [100]
0	0x3f23b4b3	0.639476
1	0xbf026a7a	-0.5094372
2	0x3c283b64	0.010268066
3	0xbf51195a	-0.8167931
4	0x3f18b151	0.59645563
5	0x3eb8355c	0.3597821
6	0x3f5885c2	0.845791
7	0xbd7e7031	-0.062118713
8	0x3f1976de	0.59947
9	0x3f26ff47	0.6523327
10	0xbecf0e14	-0.40440428
11	0x3f4d69b6	0.8023943
12	0x3ec3b7b1	0.38226083
13	0xbe79a49d	-0.24379201
14	0xbf51a6e4	-0.8189528
15	0x3e1aa83d	0.1510324
16	0x3f1effc6	0.6210903
17	0xbe368834	-0.17825395
18	0xbe80c569	-0.25150612
19	0x3f6923d2	0.9107028
20	0x3f7a1372	0.9768592
21	0x3f602427	0.87555164
22	0xbf4b41e4	-0.79397416
23	0x3f613f0f	0.87986845
24	0x3d55a7b3	0.052161884
25	0xbf5791f6	-0.84207094
26	0x3f4fb02e	0.81128204
27	0x3f11c148	0.5693555
28	0x3f4c6a8d	0.79850084
29	0xbe2bc6d8	-0.16775072
30	0x3f027116	0.50953805
31	0xbea13625	-0.31486621
32	0x3f379b79	0.7172161
33	0x3f6fba77	0.936439
34	0x3edeed4d	0.4354042
35	0x3f82d31d	1.0220677
36	0x3f5c353f	0.8601875
37	0x3e8d77a9	0.27630356
38	0x3f4ce993	0.80043906
39	0x3f87f72b	1.0622305
40	0x3f5c783e	0.86120975
41	0x3f28c5eb	0.65927
42	0x3f322bf0	0.69598293
43	0xbf16ccb9	-0.5890613
44	0x3e126198	0.14295042
45	0x3f755275	0.95828944
46	0xbf28deca	-0.6596495
47	0x3efb21bc	0.49049175
48	0xbe6109b6	-0.2197636
49	0xbe8f705e	-0.28015417
50	0x3d11024d	0.035402585
51	0xbc244bc1	-0.010027827
52	0x3f2018e9	0.6253801
53	0xbebb8972	-0.366283
54	0x3e94ac1a	0.29037553
55	0xbe89e919	-0.26935652
56	0x3f0fbd7e	0.5614852
57	0x3f495671	0.78647524
58	0x3e9b40cb	0.3032287
59	0xbee9dde6	-0.45677108
60	0x3f84caca	1.0374386
61	0xbf547eb6	-0.83005846
62	0xbeff1514	-0.4982077
63	0x3f3fa770	0.74864864
64	0x3f00a8fb	0.50257844
65	0xbefea770	-0.4973712
66	0xbf23aafb	-0.6393277
67	0x3f512889	0.81702477
68	0xbe81717c	-0.25281894
69	0x3f1fa7fb	0.6236569
70	0xbedfede6	-0.4373619
71	0xbe9a643f	-0.30154607
72	0xbf0108b7	-0.5040392
73	0x3f72767d	0.9471205
74	0xbe40e274	-0.18836385
75	0xbf4d3bac	-0.8016918
76	0x3f5a2f09	0.8522802
77	0xbf5c46aa	-0.86045325
78	0xbf58ded1	-0.8471499
79	0x3f703188	0.9382558
80	0xbf54383e	-0.8289832
81	0xbee5e280	-0.44899368
82	0xbe00c683	-0.12575726
83	0x3ef8a19a	0.48560792
84	0xbf50a3fd	-0.81500226
85	0x3f5f03a1	0.8711491
86	0x3f89f264	1.0777097
87	0x3f5d96c4	0.86558175
88	0x3f82bfc0	1.0214767
89	0x3d4c89ed	0.049936224
90	0x3f6201cd	0.88284
91	0x3ecf3132	0.4046722
92	0xbf5d9072	-0.8654853
93	0x3f3111c5	0.6916774
94	0x3ea5063c	0.3223132
95	0xbe4e1e6e	-0.20128796
96	0x3f5cf4a0	0.8631077
97	0x3f2401ac	0.6406505
98	0xbebfb168	-0.37440038
99	0xbf172c14	-0.5905163

weight f4 [1, 100]
0	0xbe08caee	-0.13358662
1	0xbe4f924c	-0.20270652
2	0x3ee7f30f	0.45302626
3	0xbdc6fc30	-0.0971607
4	0xbf39e014	-0.7260754
5	0x3eb7562f	0.3580794
6	0x3f36ad02	0.7135774
7	0xbccdac5d	-0.025106603
8	0x3d29c221	0.0414449
9	0x3ed27270	0.41102934
10	0xbe36cf47	-0.17852508
11	0x3f491a6a	0.7855593
12	0x3c669ac0	0.014074981
13	0xbe594946	-0.21219358
14	0xbdb3c3ab	-0.08777555
15	0x3e848436	0.2588212
16	0xbeb2f27b	-0.34950623
17	0xbc5079fb	-0.012724395
18	0x3e27351a	0.1632885
19	0xbe83fe87	-0.25780126
20	0xbe23ecdd	-0.16008325
21	0xbe757a8b	-0.23972528
22	0x3d850845	0.06495718
23	0xbf676713	-0.90391654
24	0x3e8efe06	0.2792818
25	0x3cdd25d4	0.026995577
26	0x3f3a55db	0.72787255
27	0x3f379c64	0.7172301
28	0xbee7aaac	-0.452474
29	0xbebee652	-0.37285095
30	0x3ebd1a90	0.36934328
31	0xbd2ad437	-0.04170629
32	0x3f109655	0.5647939
33	0xbeeb8c2b	-0.46005377
34	0x3e93189c	0.28729713
35	0xbf7d7c64	-0.9901793
36	0x3eebf262	0.4608336
37	0xbebff02b	-0.3748792
38	0xbf518da3	-0.81856745
39	0xbf84e6cb	-1.0382932
40	0xbf6611ae	-0.8987073
41	0xbf27f233	-0.6560394
42	0x3f0c3740	0.54771805
43	0x3d582dcb	0.052778047
44	0xbeb3b3b0	-0.35098028
45	0x3dc7ca69	0.097554035
46	0xbd04771c	-0.032340154
47	0x3efce3cd	0.49392548
48	0x3d952e1f	0.072841875
49	0x3d3d61e4	0.046235934
50	0xbeece514	-0.46268523
51	0x3cce5d71	0.02519104
52	0x3f014f31	0.5051146
53	0x3e00b4a6	0.12568912
54	0xbef7bc3c	-0.483858
55	0xbd9d8230	-0.07690847
56	0x3ea8f2d0	0.3299775
57	0x3c4c628f	0.01247467
58	0xbc953759	-0.018214868
59	0x3d0e64c0	0.03476405
60	0x3f5946cb	0.84873646
61	0xbc737368	-0.014859058
62	0x3dbcbb0b	0.09215363
63	0xbe1de356	-0.15418753
64	0x3ee4d566	0.4469406
65	0x3d2368a2	0.039894708
66	0xbd463982	-0.048394687
67	0xbf694da3	-0.9113409
68	0xbdc03d7a	-0.09386726
69	0xbf289551	-0.6585284
70	0xbdf6b8d8	-0.12046975
71	0xbd767bdd	-0.06017672
72	0xbd769337	-0.06019899
73	0xbf2ffd9f	-0.6874637
74	0x3eadbf1d	0.3393487
75	0xbd587a30	-0.052850902
76	0x3f0ca0db	0.54932946
77	0x3da111fb	0.078647576
78	0xbd90a984	-0.070635825
79	0x3f58708b	0.84546727
80	0xbb8ee1e0	-0.0043604225
81	0x3ca3aaa8	0.019978836
82	0x3db9a4f3	0.09064665
83	0xbe999c66	-0.30002135
84	0xbdcbc936	-0.09950487
85	0xbc5a47e5	-0.013322805
86	0xbf8b99fc	-1.0906367
87	0xbf5ec295	-0.8701566
88	0x3f589925	0.8460868
89	0xbe231ff4	-0.15930158
90	0x3f277ad0	0.6542177
91	0x3eece6a5	0.46269718
92	0x3d967ea5	0.07348374
93	0xbf35da1d	-0.7103594
94	0xbeb10c4c	-0.34579694
95	0x3e8c2c28	0.2737744
96	0x3f112a36	0.56705034
97	0xbe2b09fb	-0.16703026
98	0xbd807424	-0.06272152
99	0x3e18f88c	0.14938563

train_data f4 [600, 1]
0	0x3f0bcaae	0.5460614
1	0x3dfe4a83	0.12416556
2	0xbe049d39	-0.129506
3	0x3f43d85a	0.76502
4	0xbea0a40f	-0.31375167
5	0xbf23088b	-0.6368491
6	0xbf0e86aa	-0.5567423
7	0x3d9bdb16	0.07610147
8	0x3f6d8b1c	0.9279039
9	0x3c191f1a	0.009345794
10	0x3efd9b84	0.49532712
11	0x3e6194ae	0.22029373
12	0xbf05a3b8	-0.5220294
13	0xbcfb8e87	-0.03070761
14	0xbb833f3b	-0.0040053404
15	0x3f090eb2	0.5353805
16	0xbf411c5e	-0.7543391
17	0x3ec2d1dc	0.38050735
18	0x3ea4be09	0.32176235
19	0x3ede29b3	0.4339119
20	0x3f787b0b	0.9706275
21	0x3e463cd7	0.19359146
22	0xbf0445ba	-0.51668894
23	0x3e98701b	0.2977303
24	0x3f23b78a	0.63951933
25	0xbf660627	-0.8985314
26	0x3e075935	0.13217624
27	0x3ee0e5af	0.43925235
28	0xbf6acf20	-0.917223
29	0xbe82903c	-0.25500667
30	0x3f704718	0.9385848
31	0x3f766e0e	0.9626168
32	0xbf09bdb1	-0.5380507
33	0xbf1ad498	-0.6048064
34	0x3f2d497c	0.67690253
35	0x3f32c174	0.69826436
36	0xbea77a05	-0.3271028
37	0x3f495052	0.78638184
38	0xbf2ea77a	-0.682243
39	0x3f02e7bc	0.5113485
40	0xbe71fc95	-0.23631509
41	0x3ebd59e4	0.36982644
42	0xbf52e244	-0.82376504
43	0xbf41cb5d	-0.7570093
44	0xbecc63cd	-0.39919892
45	0xbf7f5101	-0.9973298
46	0x3e6c849d	0.23097463
47	0xbea61c07	-0.32443258
48	0xbf7c9505	-0.98664886
49	0xbf0f35a9	-0.55941254
50	0xbf49ff51	-0.78905207
51	0xbf32c174	-0.69826436
52	0xbec015e0	-0.3751669
53	0xbec173de	-0.37783712
54	0xbf3a4669	-0.7276369
55	0x3e81323e	0.25233644
56	0xbf11f1a5	-0.57009345
57	0x3f6c2d1e	0.92256343
58	0xbf70f617	-0.94125503
59	0x3f16ba9e	0.58878505
60	0x3db1baf5	0.08678237
61	0x3ce5aea7	0.028037382
62	0xbf54ef41	-0.8317757
63	0x3bdabeb8	0.0066755675
64	0x3eafadf8	0.34312415
65	0x3f655728	0.89586115
66	0xbe124925	-0.14285715
67	0x3e3e08e3	0.18558078
68	0xbea8d803	-0.32977304
69	0x3ef6c58e	0.48197597
70	0x3f502648	0.8130841
71	0xbf585a3b	-0.8451268
72	0x3f427a5c	0.75967956
73	0xbf3af568	-0.7303071
74	0x3e9f4611	0.31108144
75	0x3f52e244	0.82376504
76	0x3f5e8132	0.86915886
77	0xbf321275	-0.69559413
78	0x3d4a56d0	0.049399197
79	0xbdede29b	-0.11615487
80	0xbeafadf8	-0.34312415
81	0x3f63f92a	0.8905207
82	0xbc8e2f2b	-0.017356476
83	0xbf30b477	-0.6902537
84	0xbd8b732f	-0.06809079
85	0xbe74b891	-0.23898531
86	0x3e512cc6	0.20427236
87	0xbed753bd	-0.42056075
88	0x3e670ca5	0.22563417
89	0x3f792a0a	0.9732977
90	0xbf160b9f	-0.5861148
91	0x3eba9de8	0.36448598
92	0xbe3e08e3	-0.18558078
93	0xbeb683ee	-0.3564753
94	0x3f13fea2	0.57810414
95	0x3f5d2334	0.8638184
96	0x3ea3600b	0.31909212
97	0xbe35d4ef	-0.17757009
98	0x3ebbfbe6	0.3671562
99	0xbe97121d	-0.29506007
100	0x3f68c223	0.9092123
101	0xbf0b1baf	-0.54339117
102	0xbeb3c7f2	-0.35113484
103	0x3eebd59e	0.46061414
104	0xbf4ec84a	-0.80774367
105	0x3f725415	0.9465955
106	0x3f204c90	0.62616825
107	0x3f3d0264	0.7383177
108	0xbf544042	-0.8291055
109	0x3eacf1fd	0.33778372
110	0x3f300578	0.68758345
111	0xbc709e97	-0.014686248
112	0xbf22598c	-0.6341789
113	0x3f5c7435	0.8611482
114	0x3f04f4b9	0.5193592
115	0xbf0fe4a8	-0.56208277
116	0x3e0f8d29	0.14018692
117	0x3ecb05cf	0.3965287
118	0xbf12a0a4	-0.5727637
119	0x3f59093a	0.84779704
120	0x3f6cdc1d	0.92523366
121	0x3f7b3707	0.9813084
122	0x3f288083	0.65821093
123	0x3ddd7ab4	0.108144194
124	0xbf4e194b	-0.80507344
125	0x3e1d3914	0.15353805
126	0x3e01e13d	0.12683578
127	0x3e5ed8b2	0.2176235
128	0xbf3f0f61	-0.7463284
129	0x3f7df303	0.9919893
130	0xbf73b212	-0.9519359
131	0xbef40992	-0.47663552
132	0x3f1142a6	0.5674232
133	0x3f411c5e	0.7543391
134	0x3eaa3601	0.33244327
135	0xbf406d5f	-0.7516689
136	0x3d08b733	0.033377837
137	0xbf75bf0f	-0.9599466
138	0xbf43d85a	-0.76502
139	0x3f1093a7	0.564753
140	0xbe92f824	-0.2870494
141	0xbf02e7bc	-0.5113485
142	0xbedf87b1	-0.43658212
143	0xbf14ada1	-0.58077437
144	0xbf1d9094	-0.61548734
145	0xbf7ea202	-0.99465954
146	0x3e7fa881	0.24966623
147	0xbf3db163	-0.74098796
148	0x3f54ef41	0.8317757
149	0x3f4aae50	0.7917223
150	0x3e48f8d3	0.19626169
151	0x3e86aa36	0.26301736
152	0xbeb7e1ec	-0.35914552
153	0xbf2b3c7f	-0.66889185
154	0xbf7df303	-0.9919893
155	0x3ec6ebd6	0.38851804
156	0xbf1a2599	-0.6021362
157	0xbf6a2021	-0.91455275
158	0xbda6cb06	-0.081441924
159	0xbee0e5af	-0.43925235
160	0xbdc79ad5	-0.09746329
161	0xbf4cbb4d	-0.799733
162	0x3dac42fe	0.08411215
163	0x3ec173de	0.37783712
164	0x3f134fa3	0.5754339
165	0x3e3890eb	0.18024032
166	0xbf1142a6	-0.5674232
167	0xbf3d0264	-0.7383177
168	0x3f085fb3	0.53271025
169	0x3e97121d	0.29506007
170	0x3f2a8d80	0.6662216
171	0xbe903c28	-0.28170896
172	0xbf5f3031	-0.8718291
173	0x3f00dabf	0.5033378
174	0x3e4e70ca	0.20160213
175	0x3cb9eee9	0.022696929
176	0x3f75bf0f	0.9599466
177	0xbd85fb37	-0.06542056
178	0xbe3890eb	-0.18024032
179	0x3e854c38	0.26034713
180	0x3f246689	0.64218956
181	0x3f18c79b	0.59679574
182	0xbe01e13d	-0.12683578
183	0xbf681324	-0.90654206
184	0xbe9c8a15	-0.30574098
185	0xbf0c79ad	-0.5487316
186	0xbf71a516	-0.94392526
187	0xbf559e40	-0.83444595
188	0xbf38e86b	-0.7222964
189	0xbf4b5d4f	-0.7943925
190	0xbe945621	-0.2897196
191	0x3f730313	0.94926566
192	0x3e22b10c	0.1588785
193	0xbe95b41f	-0.29238984
194	0x3e5960ba	0.21228305
195	0x3efadf88	0.48998666
196	0x3f0e86aa	0.5567423
197	0xbe8d802c	-0.2763685
198	0x3e282904	0.16421896
199	0x3f3ba467	0.73297733
200	0x3e99ce19	0.30040053
201	0xbf771d0d	-0.965287
202	0xbede29b3	-0.4339119
203	0xbf56fc3e	-0.8397864
204	0x3e4380db	0.19092123
205	0xbefef982	-0.49799734
206	0x3f09bdb1	0.5380507
207	0xbebbfbe6	-0.3671562
208	0xbec6ebd6	-0.38851804
209	0xbf4f7749	-0.8104139
210	0x3f3af568	0.7303071
211	0xbf68c223	-0.9092123
212	0xbf20fb8f	-0.6288385
213	0x3f0fe4a8	0.56208277
214	0x3f7c9505	0.98664886
215	0x3f5dd233	0.86648864
216	0xbedccbb5	-0.43124166
217	0x3f07b0b4	0.53004
218	0xbe22b10c	-0.1588785
219	0xbd90eb27	-0.07076102
220	0x3f474355	0.77837116
221	0x3ecdc1cb	0.40186915
222	0x3f1eee92	0.6208278
223	0x3f2df87b	0.67957276
224	0x3f7a8808	0.9786382
225	0xbeee919a	-0.4659546
226	0xbe4e70ca	-0.20160213
227	0x3f73b212	0.9519359
228	0xbd3476f1	-0.044058744
229	0x3edf87b1	0.43658212
230	0x3f41cb5d	0.7570093
231	0xbe0a1531	-0.13484646
232	0x3e56a4be	0.20961282
233	0x3e1a7d18	0.15086782
234	0x3f29de81	0.6635514
235	0x3f27d184	0.6555407
236	0x3f3e6062	0.7436582
237	0xbefadf88	-0.48998666
238	0xbf0a6cb0	-0.54072094
239	0xbf792a0a	-0.9732977
240	0x3e3318f3	0.17489986
241	0x3eb10bf6	0.34579438
242	0xbf5e8132	-0.86915886
243	0x3f21aa8e	0.6315087
244	0x3f613d2e	0.8798398
245	0x3f20fb8f	0.6288385
246	0xbf3c5366	-0.73564756
247	0x3e35d4ef	0.17757009
248	0xbe77748d	-0.24165554
249	0xbf5b1637	-0.8558077
250	0xbedb6db7	-0.42857143
251	0xbf3ba467	-0.73297733
252	0xbe99ce19	-0.30040053
253	0x3ee919a2	0.4552737
254	0x3f0445ba	0.51668894
255	0x3eb683ee	0.3564753

train_targets f4 [600, 1]
0	0x41200000	10.0
1	0x00000000	0.0
2	0xc0a00000	-5.0
3	0x41700000	15.0
4	0xc1200000	-10.0
5	0xc1a00000	-20.0
6	0xc1700000	-15.0
7	0x00000000	0.0
8	0x41a00000	20.0
9	0x00000000	0.0
10	0x41200000	10.0
11	0x40a00000	5.0
12	0xc1700000	-15.0
13	0xc0a00000	-5.0
14	0xc0a00000	-5.0
15	0x41200000	10.0
16	0xc1a00000	-20.0
17	0x40a00000	5.0
18	0x40a00000	5.0
19	0x41200000	10.0
20	0x41a00000	20.0
21	0x00000000	0.0
22	0xc1700000	-15.0
23	0x40a00000	5.0
24	0x41700000	15.0
25	0xc1c80000	-25.0
26	0x00000000	0.0
27	0x41200000	10.0
28	0xc1c80000	-25.0
29	0xc1200000	-10.0
30	0x41a00000	20.0
31	0x41a00000	20.0
32	0xc1700000	-15.0
33	0xc1a00000	-20.0
34	0x41700000	15.0
35	0x41700000	15.0
36	0xc1200000	-10.0
37	0x41700000	15.0
38	0xc1a00000	-20.0
39	0x41200000	10.0
40	0xc1200000	-10.0
41	0x40a00000	5.0
42	0xc1c80000	-25.0
43	0xc1a00000	-20.0
44	0xc1200000	-10.0
45	0xc1c80000	-25.0
46	0x40a00000	5.0
47	0xc1200000	-10.0
48	0xc1c80000	-25.0
49	0xc1700000	-15.0
50	0xc1a00000	-20.0
51	0xc1a00000	-20.0
52	0xc1200000	-10.0
53	0xc1200000	-10.0
54	0xc1a00000	-20.0
55	0x40a00000	5.0
56	0xc1700000	-15.0
57	0x41a00000	20.0
58	0xc1c80000	-25.0
59	0x41200000	10.0
60	0x00000000	0.0
61	0x00000000	0.0
62	0xc1c80000	-25.0
63	0x00000000	0.0
64	0x40a00000	5.0
65	0x41a00000	20.0
66	0xc0a00000	-5.0
67	0x00000000	0.0
68	0xc1200000	-10.0
69	0x41200000	10.0
70	0x41a00000	20.0
71	0xc1c80000	-25.0
72	0x41700000	15.0
73	0xc1a00000	-20.0
74	0x40a00000	5.0
75	0x41a00000	20.0
76	0x41a00000	20.0
77	0xc1a00000	-20.0
78	0x00000000	0.0
79	0xc0a00000	-5.0
80	0xc1200000	-10.0
81	0x41a00000	20.0
82	0xc0a00000	-5.0
83	0xc1a00000	-20.0
84	0xc0a00000	-5.0
85	0xc1200000	-10.0
86	0x40a00000	5.0
87	0xc1700000	-15.0
88	0x40a00000	5.0
89	0x41a00000	20.0
90	0xc1700000	-15.0
91	0x40a00000	5.0
92	0xc0a00000	-5.0
93	0xc1200000	-10.0
94	0x41200000	10.0
95	0x41a00000	20.0
96	0x40a00000	5.0
97	0xc0a00000	-5.0
98	0x40a00000	5.0
99	0xc1200000	-10.0
100	0x41a00000	20.0
101	0xc1700000	-15.0
102	0xc1200000	-10.0
103	0x41200000	10.0
104	0xc1c80000	-25.0
105	0x41a00000	20.0
106	0x41700000	15.0
107	0x41700000	15.0
108	0xc1c80000	-25.0
109	0x40a00000	5.0
110	0x41700000	15.0
111	0xc0a00000	-5.0
112	0xc1a00000	-20.0
113	0x41a00000	20.0
114	0x41200000	10.0
115	0xc1700000	-15.0
116	0x00000000	0.0
117	0x40a00000	5.0
118	0xc1700000	-15.0
119	0x41a00000	20.0
120	0x41a00000	20.0
121	0x41a00000	20.0
122	0x41700000	15.0
123	0x00000000	0.0
124	0xc1c80000	-25.0
125	0x00000000	0.0
126	0x00000000	0.0
127	0x40a00000	5.0
128	0xc1a00000	-20.0
129	0x41a00000	20.0
130	0xc1c80000	-25.0
131	0xc1700000	-15.0
132	0x41200000	10.0
133	0x41700000	15.0
134	0x40a00000	5.0
135	0xc1a00000	-20.0
136	0x00000000	0.0
137	0xc1c80000	-25.0
138	0xc1a00000	-20.0
139	0x41200000	10.0
140	0xc1200000	-10.0
141	0xc1700000	-15.0
142	0xc1700000	-15.0
143	0xc1700000	-15.0
144	0xc1a00000	-20.0
145	0xc1c80000	-25.0
146	0x40a00000	5.0
147	0xc1a00000	-20.0
148	0x41a00000	20.0
149	0x41700000	15.0
150	0x00000000	0.0
151	0x40a00000	5.0
152	0xc1200000	-10.0
153	0xc1a00000	-20.0
154	0xc1c80000	-25.0
155	0x40a00000	5.0
156	0xc1a00000	-20.0
157	0xc1c80000	-25.0
158	0xc0a00000	-5.0
159	0xc1700000	-15.0
160	0xc0a00000	-5.0
161	0xc1a00000	-20.0
162	0x00000000	0.0
163	0x40a00000	5.0
164	0x41200000	10.0
165	0x00000000	0.0
166	0xc1700000	-15.0
167	0xc1a00000	-20.0
168	0x41200000	10.0
169	0x40a00000	5.0
170	0x41700000	15.0
171	0xc1200000	-10.0
172	0xc1c80000	-25.0
173	0x41200000	10.0
174	0x40a00000	5.0
175	0x00000000	0.0
176	0x41a00000	20.0
177	0xc0a00000	-5.0
178	0xc0a00000	-5.0
179	0x40a00000	5.0
180	0x41700000	15.0
181	0x41200000	10.0
182	0xc0a00000	-5.0
183	0xc1c80000	-25.0
184	0xc1200000	-10.0
185	0xc1700000	-15.0
186	0xc1c80000	-25.0
187	0xc1c80000	-25.0
188	0xc1a00000	-20.0
189	0xc1a00000	-20.0
190	0xc1200000	-10.0
191	0x41a00000	20.0
192	0x00000000	0.0
193	0xc1200000	-10.0
194	0x40a00000	5.0
195	0x41200000	10.0
196	0x41200000	10.0
197	0xc1200000	-10.0
198	0x00000000	0.0
199	0x41700000	15.0
200	0x40a00000	5.0
201	0xc1c80000	-25.0
202	0xc1700000	-15.0
203	0xc1c80000	-25.0
204	0x00000000	0.0
205	0xc1700000	-15.0
206	0x41200000	10.0
207	0xc1200000	-10.0
208	0xc1200000	-10.0
209	0xc1c80000	-25.0
210	0x41700000	15.0
211	0xc1c80000	-25.0
212	0xc1a00000	-20.0
213	0x41200000	10.0
214	0x41a00000	20.0
215	0x41a00000	20.0
216	0xc1700000	-15.0
217	0x41200000	10.0
218	0xc0a00000	-5.0
219	0xc0a00000	-5.0
220	0x41700000	15.0
221	0x41200000	10.0
222	0x41700000	15.0
223	0x41700000	15.0
224	0x41a00000	20.0
225	0xc1700000	-15.0
226	0xc1200000	-10.0
227	0x41a00000	20.0
228	0xc0a00000	-5.0
229	0x41200000	10.0
230	0x41700000	15.0
231	0xc0a00000	-5.0
232	0x40a00000	5.0
233	0x00000000	0.0
234	0x41700000	15.0
235	0x41700000	15.0
236	0x41700000	15.0
237	0xc1700000	-15.0
238	0xc1700000	-15.0
239	0xc1c80000	-25.0
240	0x00000000	0.0
241	0x40a00000	5.0
242	0xc1c80000	-25.0
243	0x41700000	15.0
244	0x41a00000	20.0
245	0x41700000	15.0
246	0xc1a00000	-20.0
247	0x00000000	0.0
248	0xc1200000	-10.0
249	0xc1c80000	-25.0
250	0xc1700000	-15.0
251	0xc1a00000	-20.0
252	0xc1200000	-10.0
253	0x41200000	10.0
254	0x41200000	10.0
255	0x40a00000	5.0

test_data f4 [150, 1]
0	0xc1700000	-15.0
1	0x41700000	15.0
2	0xc1c80000	-25.0
3	0x41200000	10.0
4	0x41700000	15.0
5	0x41a00000	20.0
6	0xc1c80000	-25.0
7	0xc1200000	-10.0
8	0xc1a00000	-20.0
9	0xc1200000	-10.0
10	0x00000000	0.0
11	0x41200000	10.0
12	0x41200000	10.0
13	0x41700000	15.0
14	0xc1c80000	-25.0
15	0x41a00000	20.0
16	0x41a00000	20.0
17	0x41700000	15.0
18	0x40a00000	5.0
19	0x00000000	0.0
20	0xc1c80000	-25.0
21	0x41700000	15.0
22	0x40a00000	5.0
23	0xc1c80000	-25.0
24	0x00000000	0.0
25	0x00000000	0.0
26	0xc1c80000	-25.0
27	0x41a00000	20.0
28	0xc1a00000	-20.0
29	0xc1a00000	-20.0
30	0x41200000	10.0
31	0x00000000	0.0
32	0x40a00000	5.0
33	0x00000000	0.0
34	0x41a00000	20.0
35	0xc0a00000	-5.0
36	0x40a00000	5.0
37	0xc1a00000	-20.0
38	0xc1700000	-15.0
39	0xc1c80000	-25.0
40	0x41700000	15.0
41	0xc1700000	-15.0
42	0xc1200000	-10.0
43	0xc0a00000	-5.0
44	0x41700000	15.0
45	0xc0a00000	-5.0
46	0xc1a00000	-20.0
47	0xc1a00000	-20.0
48	0xc1700000	-15.0
49	0xc1a00000	-20.0
50	0x41700000	15.0
51	0x41700000	15.0
52	0xc1200000	-10.0
53	0x41a00000	20.0
54	0x40a00000	5.0
55	0xc1200000	-10.0
56	0xc1700000	-15.0
57	0xc1200000	-10.0
58	0xc1200000	-10.0
59	0xc1c80000	-25.0
60	0xc1200000	-10.0
61	0x41700000	15.0
62	0xc1200000	-10.0
63	0xc1700000	-15.0
64	0x41a00000	20.0
65	0xc1700000	-15.0
66	0x00000000	0.0
67	0x41a00000	20.0
68	0x41200000	10.0
69	0xc0a00000	-5.0
70	0xc1a00000	-20.0
71	0x41200000	10.0
72	0x00000000	0.0
73	0x00000000	0.0
74	0xc1c80000	-25.0
75	0xc1c80000	-25.0
76	0x40a00000	5.0
77	0x40a00000	5.0
78	0xc1700000	-15.0
79	0x00000000	0.0
80	0x41700000	15.0
81	0xc1700000	-15.0
82	0x00000000	0.0
83	0xc1a00000	-20.0
84	0xc0a00000	-5.0
85	0xc1700000	-15.0
86	0x00000000	0.0
87	0xc1c80000	-25.0
88	0xc1200000	-10.0
89	0xc1200000	-10.0
90	0x00000000	0.0
91	0x40a00000	5.0
92	0x41200000	10.0
93	0xc1a00000	-20.0
94	0xc1200000	-10.0
95	0x41700000	15.0
96	0x40a00000	5.0
97	0x41200000	10.0
98	0xc1700000	-15.0
99	0xc1c80000	-25.0
100	0x41200000	10.0
101	0x40a00000	5.0
102	0xc1700000	-15.0
103	0x41200000	10.0
104	0xc0a00000	-5.0
105	0xc0a00000	-5.0
106	0x41a00000	20.0
107	0xc1700000	-15.0
108	0xc0a00000	-5.0
109	0xc1c80000	-25.0
110	0xc1200000	-10.0
111	0xc1200000	-10.0
112	0x00000000	0.0
113	0x41700000	15.0
114	0xc1200000	-10.0
115	0x41a00000	20.0
116	0x41200000	10.0
117	0xc1c80000	-25.0
118	0xc1a00000	-20.0
119	0xc1700000	-15.0
120	0x41200000	10.0
121	0x41200000	10.0
122	0xc1200000	-10.0
123	0x41700000	15.0
124	0x41200000	10.0
125	0xc1700000	-15.0
126	0xc1700000	-15.0
127	0x40a00000	5.0
128	0xc1200000	-10.0
129	0xc1700000	-15.0
130	0x41200000	10.0
131	0xc1700000	-15.0
132	0x41700000	15.0
133	0xc1a00000	-20.0
134	0x41700000	15.0
135	0x41700000	15.0
136	0xc1a00000	-20.0
137	0x41200000	10.0
138	0x00000000	0.0
139	0xc1700000	-15.0
140	0xc0a00000	-5.0
141	0xc1200000	-10.0
142	0x41200000	10.0
143	0x41200000	10.0
144	0xc0a00000	-5.0
145	0x41700000	15.0
146	0x40a00000	5.0
147	0x41a00000	20.0
148	0xc1200000	-10.0
149	0x00000000	0.0

0.weight f4 [100, 1]
0	0xbd0e41ae	-0.034730606
1	0xbf6d6240	-0.9272804
2	0x3f8829f7	1.0637807
3	0xbf2ad4e4	-0.66731095
4	0xbf60f68c	-0.878762
5	0x3ef93a73	0.48677406
6	0x3f788033	0.97070616
7	0x3e43adb8	0.19109237
8	0x3e641092	0.22271946
9	0x3f15ce11	0.5851756
10	0xbf406204	-0.7514956
11	0x3f8a7ab3	1.0818695
12	0xbc88b175	-0.01668618
13	0xbf27e566	-0.6558441
14	0x3eaf70e4	0.34265816
15	0x3f22b2cd	0.6355408
16	0xbef8fce1	-0.4863043
17	0x3e6e422d	0.23267432
18	0x3f56e5a5	0.8394416
19	0xbe6f1dd0	-0.23351216
20	0xbdcb638e	-0.09931098
21	0xbe82f755	-0.25579324
22	0x3e5e5eb8	0.2171582
23	0xbf7fcc7a	-0.9992138
24	0x3f032920	0.51234627
25	0xbee7ad24	-0.45249283
26	0x3f6eafc6	0.9323696
27	0x3f8e67e3	1.1125454
28	0xbee56504	-0.4480363
29	0xbf7eae98	-0.9948516
30	0x3f163e08	0.586884
31	0x3ebc7c84	0.36813748
32	0x3f53d6f8	0.8274989
33	0xbf04b506	-0.5183872
34	0x3f02a5a2	0.51033986
35	0xbf94b33e	-1.16172
36	0x3f395d67	0.72408146
37	0xbecbbe88	-0.397938
38	0xbf6bc1e5	-0.92092735
39	0xbf9a7de3	-1.2069668
40	0xbf7b6cf1	-0.98213106
41	0xbf45a475	-0.77204067
42	0x3f4c19f5	0.7972711
43	0x3f4c4e06	0.79806554
44	0xbf308eb6	-0.6896776
45	0x3eadbc9e	0.33932966
46	0x3dbeaad0	0.09309924
47	0x3f2f1c59	0.6840263
48	0x3eb8984d	0.36053696
49	0xbec9d4f8	-0.39420295
50	0xbf87083e	-1.054939
51	0x3d73ab04	0.059489265
52	0x3f38bb4d	0.721608
53	0x3f04cf55	0.51878864
54	0xbf34b1f9	-0.70584065
55	0x3ea04d84	0.3130914
56	0x3f204d8a	0.62618315
57	0x3e4f7c52	0.20262268
58	0xbd989ed9	-0.07452173
59	0xbf176bd3	-0.591489
60	0x3f989404	1.1920171
61	0x3e725878	0.2366656
62	0x3dfaf670	0.122540355
63	0xbe281e2c	-0.1641776
64	0x3f4c834d	0.7988785
65	0xbe16b670	-0.14718032
66	0x3f3d0fb6	0.738521
67	0xbf972597	-1.1808347
68	0x3de3ba50	0.11119521
69	0xbf6d3025	-0.9265159
70	0xbf4b1b93	-0.7933895
71	0xbf27ad2f	-0.6549863
72	0x3f16b16a	0.5886446
73	0xbf5bdde8	-0.8588548
74	0x3f888b0b	1.0667433
75	0x3cfef940	0.031124711
76	0x3f6e5494	0.93097806
77	0x3f07a83e	0.5299109
78	0xbf6ac71b	-0.9171006
79	0x3f8e27f8	1.1105947
80	0xbf515036	-0.8176302
81	0xbcdb4600	-0.026766777
82	0xbe0f8243	-0.14014535
83	0xbedaf93d	-0.4276828
84	0xbf8326fb	-1.0246271
85	0x3dc93600	0.09824753
86	0xbf9ccfb8	-1.2250891
87	0xbf80a30d	-1.0049759
88	0x3f96239a	1.1729615
89	0xbeed15ee	-0.46305794
90	0x3f828326	1.0196273
91	0x3f64d366	0.8938507
92	0xbf2fb5e0	-0.68636894
93	0xbf5500c9	-0.83204323
94	0xbec63abf	-0.38716695
95	0x3f66bcae	0.9013165
96	0x3f5212d7	0.8206
97	0xbe6de60b	-0.23232286
98	0xbd81cd10	-0.06337941
99	0x3f7b1b2b	0.9808833

0.bias f4 [100]
0	0x3f23b4b3	0.639476
1	0xbf026a7a	-0.5094372
2	0x3c283b64	0.010268066
3	0xbf51195a	-0.8167931
4	0x3f18b151	0.59645563
5	0x3eb8355c	0.3597821
6	0x3f5885c2	0.845791
7	0xbd7e7031	-0.062118713
8	0x3f1976de	0.59947
9	0x3f26ff47	0.6523327
10	0xbecf0e14	-0.40440428
11	0x3f4d69b6	0.8023943
12	0x3ec3b7b1	0.38226083
13	0xbe79a49d	-0.24379201
14	0xbf51a6e4	-0.8189528
15	0x3e1aa83d	0.1510324
16	0x3f1effc6	0.6210903
17	0xbe368834	-0.17825395
18	0xbe80c569	-0.25150612
19	0x3f6923d2	0.9107028
20	0x3f7a1372	0.9768592
21	0x3f602427	0.87555164
22	0xbf4b41e4	-0.79397416
23	0x3f613f0f	0.87986845
24	0x3d55a7b3	0.052161884
25	0xbf5791f6	-0.84207094
26	0x3f4fb02e	0.81128204
27	0x3f11c148	0.5693555
28	0x3f4c6a8d	0.79850084
29	0xbe2bc6d8	-0.16775072
30	0x3f027116	0.50953805
31	0xbea13625	-0.31486621
32	0x3f379b79	0.7172161
33	0x3f6fba77	0.936439
34	0x3edeed4d	0.4354042
35	0x3f82d31d	1.0220677
36	0x3f5c353f	0.8601875
37	0x3e8d77a9	0.27630356
38	0x3f4ce993	0.80043906
39	0x3f87f72b	1.0622305
40	0x3f5c783e	0.86120975
41	0x3f28c5eb	0.65927
42	0x3f322bf0	0.69598293
43	0xbf16ccb9	-0.5890613
44	0x3e126198	0.14295042
45	0x3f755275	0.95828944
46	0xbf28deca	-0.6596495
47	0x3efb21bc	0.49049175
48	0xbe6109b6	-0.2197636
49	0xbe8f705e	-0.28015417
50	0x3d11024d	0.035402585
51	0xbc244bc1	-0.010027827
52	0x3f2018e9	0.6253801
53	0xbebb8972	-0.366283
54	0x3e94ac1a	0.29037553
55	0xbe89e919	-0.26935652
56	0x3f0fbd7e	0.5614852
57	0x3f495671	0.78647524
58	0x3e9b40cb	0.3032287
59	0xbee9dde6	-0.45677108
60	0x3f84caca	1.0374386
61	0xbf547eb6	-0.83005846
62	0xbeff1514	-0.4982077
63	0x3f3fa770	0.74864864
64	0x3f00a8fb	0.50257844
65	0xbefea770	-0.4973712
66	0xbf23aafb	-0.6393277
67	0x3f512889	0.81702477
68	0xbe81717c	-0.25281894
69	0x3f1fa7fb	0.6236569
70	0xbedfede6	-0.4373619
71	0xbe9a643f	-0.30154607
72	0xbf0108b7	-0.5040392
73	0x3f72767d	0.9471205
74	0xbe40e274	-0.18836385
75	0xbf4d3bac	-0.8016918
76	0x3f5a2f09	0.8522802
77	0xbf5c46aa	-0.86045325
78	0xbf58ded1	-0.8471499
79	0x3f703188	0.9382558
80	0xbf54383e	-0.8289832
81	0xbee5e280	-0.44899368
82	0xbe00c683	-0.12575726
83	0x3ef8a19a	0.48560792
84	0xbf50a3fd	-0.81500226
85	0x3f5f03a1	0.8711491
86	0x3f89f264	1.0777097
87	0x3f5d96c4	0.86558175
88	0x3f82bfc0	1.0214767
89	0x3d4c89ed	0.049936224
90	0x3f6201cd	0.88284
91	0x3ecf3132	0.4046722
92	0xbf5d9072	-0.8654853
93	0x3f3111c5	0.6916774
94	0x3ea5063c	0.3223132
95	0xbe4e1e6e	-0.20128796
96	0x3f5cf4a0	0.8631077
97	0x3f2401ac	0.6406505
98	0xbebfb168	-0.37440038
99	0xbf172c14	-0.5905163

2.weight f4 [1, 100]
0	0xbe08caee	-0.13358662
1	0xbe4f924c	-0.20270652
2	0x3ee7f30f	0.45302626
3	0xbdc6fc30	-0.0971607
4	0xbf39e014	-0.7260754
5	0x3eb7562f	0.3580794
6	0x3f36ad02	0.7135774
7	0xbccdac5d	-0.025106603
8	0x3d29c221	0.0414449
9	0x3ed27270	0.41102934
10	0xbe36cf47	-0.17852508
11	0x3f491a6a	0.7855593
12	0x3c669ac0	0.014074981
13	0xbe594946	-0.21219358
14	0xbdb3c3ab	-0.08777555
15	0x3e848436	0.2588212
16	0xbeb2f27b	-0.34950623
17	0xbc5079fb	-0.012724395
18	0x3e27351a	0.1632885
19	0xbe83fe87	-0.25780126
20	0xbe23ecdd	-0.16008325
21	0xbe757a8b	-0.23972528
22	0x3d850845	0.06495718
23	0xbf676713	-0.90391654
24	0x3e8efe06	0.2792818
25	0x3cdd25d4	0.026995577
26	0x3f3a55db	0.72787255
27	0x3f379c64	0.7172301
28	0xbee7aaac	-0.452474
29	0xbebee652	-0.37285095
30	0x3ebd1a90	0.36934328
31	0xbd2ad437	-0.04170629
32	0x3f109655	0.5647939
33	0xbeeb8c2b	-0.46005377
34	0x3e93189c	0.28729713
35	0xbf7d7c64	-0.9901793
36	0x3eebf262	0.4608336
37	0xbebff02b	-0.3748792
38	0xbf518da3	-0.81856745
39	0xbf84e6cb	-1.0382932
40	0xbf6611ae	-0.8987073
41	0xbf27f233	-0.6560394
42	0x3f0c3740	0.54771805
43	0x3d582dcb	0.052778047
44	0xbeb3b3b0	-0.35098028
45	0x3dc7ca69	0.097554035
46	0xbd04771c	-0.032340154
47	0x3efce3cd	0.49392548
48	0x3d952e1f	0.072841875
49	0x3d3d61e4	0.046235934
50	0xbeece514	-0.46268523
51	0x3cce5d71	0.02519104
52	0x3f014f31	0.5051146
53	0x3e00b4a6	0.12568912
54	0xbef7bc3c	-0.483858
55	0xbd9d8230	-0.07690847
56	0x3ea8f2d0	0.3299775
57	0x3c4c628f	0.01247467
58	0xbc953759	-0.018214868
59	0x3d0e64c0	0.03476405
60	0x3f5946cb	0.84873646
61	0xbc737368	-0.014859058
62	0x3dbcbb0b	0.09215363
63	0xbe1de356	-0.15418753
64	0x3ee4d566	0.4469406
65	0x3d2368a2	0.039894708
66	0xbd463982	-0.048394687
67	0xbf694da3	-0.9113409
68	0xbdc03d7a	-0.09386726
69	0xbf289551	-0.6585284
70	0xbdf6b8d8	-0.12046975
71	0xbd767bdd	-0.06017672
72	0xbd769337	-0.06019899
73	0xbf2ffd9f	-0.6874637
74	0x3eadbf1d	0.3393487
75	0xbd587a30	-0.052850902
76	0x3f0ca0db	0.54932946
77	0x3da111fb	0.078647576
78	0xbd90a984	-0.070635825
79	0x3f58708b	0.84546727
80	0xbb8ee1e0	-0.0043604225
81	0x3ca3aaa8	0.019978836
82	0x3db9a4f3	0.09064665
83	0xbe999c66	-0.30002135
84	0xbdcbc936	-0.09950487
85	0xbc5a47e5	-0.013322805
86	0xbf8b99fc	-1.0906367
87	0xbf5ec295	-0.8701566
88	0x3f589925	0.8460868
89	0xbe231ff4	-0.15930158
90	0x3f277ad0	0.6542177
91	0x3eece6a5	0.46269718
92	0x3d967ea5	0.07348374
93	0xbf35da1d	-0.7103594
94	0xbeb10c4c	-0.34579694
95	0x3e8c2c28	0.2737744
96	0x3f112a36	0.56705034
97	0xbe2b09fb	-0.16703026
98	0xbd807424	-0.06272152
99	0x3e18f88c	0.14938563
