complete/absolute/state1.pt (torch, 10937 bytes, 9 tensors)

weight f4 [100, 1]
000000 b0 ad f9 3d 5a 9e 7e bf 40 1b b3 3d 56 e7 81 3f
       0.121913314 -0.99460375 0.08745432 1.0148723
000010 14 e1 13 3f 6f cf 65 3f 52 1a 29 bf bf 75 56 3f
       0.57765317 0.89769644 -0.66055787 0.83773416
000020 c7 01 88 bd 3d 69 2a bf 64 40 a6 3e c4 1a 5d bf
       -0.06640964 -0.6656683 0.32471 -0.86368966
000030 5e cf c9 3b 36 4c d0 be 90 e4 75 3f e0 95 13 3f
       0.0061587533 -0.40683144 0.96051884 0.57650566
000040 1b a6 4d 3f be 14 50 bc 3f 74 46 3f d9 6c 25 bf
       0.8033158 -0.012700258 0.7752113 -0.64619213
000050 4d 07 22 bf 60 b6 7b be 60 3c ee bd f7 6e 47 3f
       -0.6329239 -0.2458129 -0.11632609 0.77903694
000060 cc 8f e5 be 20 af 1a bd c0 af 7d 3e fb 77 8e bb
       -0.4483627 -0.03776467 0.24774075 -0.004347799
000070 c1 53 1c bf 2d 61 2c 3f 62 82 1b bc 50 b9 cf bd
       -0.610653 0.6733578 -0.009491535 -0.101427674
000080 1c 30 5a bf e8 88 d2 3e e7 73 14 be c0 9e f1 3e
       -0.8522966 0.41120076 -0.14497338 0.4719143
000090 00 a5 a0 3e 50 7e 1f 3e fd 5e 44 3f a3 5b ce 3e
       0.31375885 0.15575528 0.7670744 0.40304288
0000a0 63 31 1a 3f 37 52 38 3f 84 73 33 3f 30 e5 53 bf
       0.6023161 0.7200045 0.7009814 -0.8277159
0000b0 76 42 0a 3f 4f f8 c9 3e 99 c3 76 3f 7c af 0c bf
       0.5400766 0.39447257 0.9639221 -0.5495527
0000c0 b3 a3 65 3f bc f9 a4 3e 34 e1 bb be 63 05 28 3f
       0.8970291 0.32221782 -0.36695254 0.6563322
0000d0 a7 26 c2 3e 66 b4 16 bf b5 74 3b bf d5 23 81 3f
       0.37920114 -0.58869016 -0.73224956 1.008906
0000e0 d1 3c 7f 3f f7 d4 8d 3e 12 b6 f7 be 49 fa 50 3f
       0.99702173 0.27701542 -0.48381096 0.81631905
0000f0 ae 86 a4 be 90 f8 5f be bb f6 64 bc e5 91 6f 3f
       -0.32134002 -0.21872163 -0.013974841 0.9358199
000100 4b 66 4d bf 11 41 38 3f f2 aa f5 3e af d4 7c bf
       -0.8023421 0.71974283 0.47981983 -0.9876203
000110 86 df 40 bf da 61 4c bf 51 5e 57 bf fb 69 d3 3e
       -0.7534107 -0.7983681 -0.8412829 0.41291794
000120 31 6f 0b 3f 9a ea 14 3f 08 71 44 bf 98 36 6e be
       0.5446654 0.58170474 -0.7673497 -0.23263013
000130 86 66 1f bf 4a 6f 98 3e 46 1f 09 bf 81 68 f8 be
       -0.62265813 0.29772407 -0.53563344 -0.4851723
000140 ac 8c 5e bf 30 bb 36 3f a4 56 bb 3e e6 b2 52 3f
       -0.869334 0.71379375 0.3658954 0.8230423
000150 20 cf dd bd f2 16 40 bf 65 ab 38 3e 05 71 73 3e
       -0.108305216 -0.7503501 0.18034132 0.23773582
000160 1f 37 c3 be 00 1b 6e bf 2a ad a7 3e 5a 4b 39 3f
       -0.38127992 -0.9300995 0.327493 0.723806
000170 80 b3 a4 be 2e 51 37 be 98 88 65 bf ee b5 85 bf
       -0.32168198 -0.17902061 -0.8966155 -1.0446146
000180 f4 18 0e 3f 96 37 20 bf 2a e2 76 3f 8f 54 93 be
       0.55506825 -0.6258482 0.9643885 -0.2877545

bias f4 [100]
000000 38 61 c9 be 98 24 45 bf 80 72 2e be c6 a0 97 3e
       -0.39331985 -0.7700896 -0.17035866 0.29614848
000010 da 93 6b bf 51 2a fa 3e 7d 3f 61 3f f9 b9 40 bf
       -0.9202248 0.4886041 0.879875 -0.7528377
000020 df ae 6a 3f 5b 12 80 be 6c 78 49 3f 92 2c 5e bf
       0.9167308 -0.25014004 0.78699374 -0.8678676
000030 b4 3d 57 3e 7a 11 09 3f 93 80 fc bd 3f b6 a8 3e
       0.21019632 0.5354229 -0.12329211 0.32951543
000040 7d e9 2a 3f af cf 69 3f 7e 3b 59 ba a6 f7 a7 be
       0.66762525 0.91332525 -0.0008286758 -0.32806128
000050 dc 8f c9 3e 74 a5 b9 be b8 fe c4 be ff 8f 0b 3f
       0.39367568 -0.36259043 -0.38475585 0.54516596
000060 e8 02 4d be a8 16 7e bf 46 c3 0c bf f1 80 c2 3e
       -0.2002064 -0.9925332 -0.54985464 0.37989
000070 74 62 18 bf 3c 0c 07 3f 9b bd 1a 3f d0 50 69 bf
       -0.5952523 0.52753043 0.60445565 -0.91138935
000080 f2 24 31 bb e2 2b 52 3f ab 0d db 3d 16 2a 64 bf
       -0.0027030078 0.8209821 0.10695966 -0.8912672
000090 aa dd 27 bf 10 e2 9f be 74 ac ef 3e cf bf 42 3f
       -0.6557261 -0.3122716 0.4681126 0.76073927
0000a0 a4 10 dc 3e 22 2f 80 3f bc e1 47 bf a6 50 34 bf
       0.42981446 1.0014384 -0.7807882 -0.7043556
0000b0 d1 27 2e 3c 97 11 9b 3e ea 15 99 be 4a 16 71 bf
       0.01062961 0.30286857 -0.29899532 -0.94174635
0000c0 b9 61 d6 be 84 35 3c bf 06 7f 23 bf 86 73 b5 be
       -0.4187143 -0.7351916 -0.638657 -0.354397
0000d0 9c 21 71 3f 0e 52 27 3a ba 49 b2 be 88 3a ad be
       0.9419191 0.00063827715 -0.34821874 -0.33833718
0000e0 26 94 43 bf ee 96 6e 3f ff f6 33 3e 95 d5 be be
       -0.7639793 0.9319905 0.1757469 -0.37272325
0000f0 1c 23 45 3e 27 b5 a8 3e 1f b1 7c 3f c5 7e c9 3e
       0.19251674 0.32950708 0.98707765 0.3935453
000100 5e 92 dc bb 8c 63 df be 66 34 23 3f 19 e6 58 bd
       -0.0067313155 -0.43630636 0.6375183 -0.052953813
000110 89 b3 4b 3f 02 05 7b bf 92 e2 09 bf 1f 55 c7 bd
       0.79570824 -0.98054516 -0.53861344 -0.097330324
000120 36 b1 00 3f 0f 8e 1b ba e8 4f 6d bf 18 88 73 bf
       0.502704 -0.0005933949 -0.9270005 -0.9512954
000130 89 32 00 3a 0a 32 49 3f 9e be 16 bd 04 b2 6a 3f
       0.0004890343 0.7859198 -0.03680288 0.9167788
000140 b0 62 24 bf db ae fa 3d f0 ca 05 bf 56 ce 61 bf
       -0.64213085 0.12240382 -0.52262783 -0.8820547
000150 50 9b 25 be 23 c0 e7 3c a7 0a 3e 3e 2a cb 9a bd
       -0.16172528 0.02828986 0.18558751 -0.07558282
000160 91 a0 06 3f 1e 51 78 3a 1e 79 b6 3e 80 b0 43 3f
       0.52588755 0.00094725366 0.3563928 0.7644119
000170 ea aa 58 bf c8 5f 6a 3f af 11 83 3d 6e 37 6f 3a
       -0.84635794 0.915524 0.06399857 0.0009125386
000180 84 50 5c bf c0 a3 83 bd 01 a7 72 bf 2d 53 96 3e
       -0.8606036 -0.06427717 -0.9478608 0.29360333

weight f4 [1, 100]
000000 0f cc 89 3d db 5a a9 bd b0 be bf bb 89 b6 fa 3c
       0.06728374 -0.082692824 -0.005851589 0.030604618
000010 ec 93 19 bd 46 3c 63 3d 95 d6 eb bd a0 5a 7c bd
       -0.037494585 0.055477403 -0.11515538 -0.061609864
000020 96 61 ab 3c 6f dc 88 bd 42 20 47 3d 1a a4 ac bd
       0.020920556 -0.06682669 0.048614748 -0.084297374
000030 56 50 b0 bd 6b 8a 78 3c 12 4d fc 3d d2 da 44 3d
       -0.08609073 0.01516972 0.123193875 0.048060246
000040 e3 ed f8 3d 37 4f 49 3d c3 7f 64 3e aa dd 41 bd
       0.12154748 0.04914781 0.22314362 -0.047330536
000050 31 47 be 3a e8 bf 8e 3c 41 4a ac 3d 20 ec c5 bb
       0.0014517066 0.017425492 0.084126 -0.006040111
000060 40 94 ad 3c a0 83 ad 3c 20 94 88 bb 6d aa 50 3d
       0.021188855 0.021180928 -0.0041680485 0.05094378
000070 1c 08 c6 3d ea 82 93 bd d2 0a 13 3c e2 59 a4 bd
       0.096695155 -0.07202704 0.008974748 -0.08024956
000080 fe bb 40 3e 3e 0d 90 bc a8 2b 93 bb 8c d5 9c bc
       0.18821713 -0.01758444 -0.004491288 -0.019144796
000090 73 9f 95 bd 62 9a 4a 3d 45 5f b5 3c c3 0d bc 3d
       -0.07305803 0.049463637 0.022140155 0.09182312
0000a0 3d f7 03 bc 11 9d 17 bd 61 0f 89 3d 8a cb 9b 3b
       -0.008054552 -0.037015025 0.066923864 0.0047544884
0000b0 73 ec 9f 3d 74 63 37 3d ec 30 55 3c 40 ec 7b bd
       0.07808771 0.04477258 0.013012152 -0.061504602
0000c0 f7 45 82 bd 78 6e ad bd 8a 4b 20 bd ba 52 7a 3d
       -0.06361001 -0.08468336 -0.03913454 0.06111405
0000d0 6f b1 b5 bd e0 c9 34 3e ac db b0 bd 98 20 4c 3c
       -0.088717334 0.17655134 -0.08635649 0.012458943
0000e0 c8 77 3e 3c cb 4b b9 bd f8 95 51 bd 4d bf 3a 3d
       0.011625238 -0.090476595 -0.051168412 0.045592595
0000f0 24 91 67 3d da ec 59 bd 9a 0f 81 3d 9e 40 11 3d
       0.0565349 -0.053204395 0.06301804 0.035462014
000100 e5 c0 2f 3e c3 37 95 bd 4c 47 d5 3d 0d 9b 39 3e
       0.17163427 -0.07286026 0.104139894 0.18125553
000110 d9 0d 86 bd 77 a3 c9 3d 1e dc 63 bd 90 11 03 3c
       -0.0654561 0.098456316 -0.055629842 0.007999793
000120 f3 cd fc bc 1c c7 4a 3e b4 e2 d0 bc 92 61 55 3d
       -0.030859923 0.19802517 -0.025498725 0.052095003
000130 64 f0 7f 3e 5b f7 16 3d 88 aa 8e 3d 5c e6 f5 bd
       0.24994045 0.03685699 0.0696612 -0.12006828
000140 fb 26 8b 3d 43 23 da 3c be 0a 97 bd 83 88 8d 3d
       0.06794544 0.026628142 -0.07375096 0.06910803
000150 60 c2 03 bb e2 b5 f9 3d 3d 42 cf 3c ac d1 c2 bd
       -0.002010487 0.121928945 0.02530014 -0.09512648
000160 86 35 ac bd 47 16 67 3e 89 44 22 3c e7 88 f3 3d
       -0.08408646 0.22567092 0.009904035 0.118913464
000170 2b b8 aa bd e5 30 21 bd 3b c7 c0 3d da 23 b4 3e
       -0.083359085 -0.03935327 0.09413 0.35183603
000180 be 6a 10 3d c8 5e 69 3d 0c 30 2f bd f2 fd 19 bd
       0.035258047 0.056975156 -0.04277043 -0.037595697

train_data f4 [600, 1]
000000 27 06 66 3f 56 94 46 bf b3 5f 08 bf 98 d4 1a 3f
       0.8985314 -0.7757009 -0.53271025 0.6048064
000010 38 4c 85 be a8 e4 0f 3f 60 be 3f 3f 17 f6 70 3f
       -0.26034713 0.56208277 0.74899864 0.94125503
000020 d4 49 c8 3e 21 56 94 be 37 fb 85 3d 35 59 07 3e
       0.39118826 -0.2897196 0.06542056 0.13217624
000030 34 08 88 3e a3 4f 13 3f a8 e4 0f bf 86 3d fc 3e
       0.26568758 0.5754339 -0.56208277 0.4926569
000040 5b 29 43 bf 0c cc 77 bf 87 8e fb bc 14 39 1d 3e
       -0.7623498 -0.96795726 -0.03070761 0.15353805
000050 e9 ee b9 3c 6d 8a 37 bf 32 66 89 be 7a a7 2e bf
       0.022696929 -0.71695596 -0.2683578 -0.682243
000060 6f 2c 36 bf 45 33 52 3f fa fe ae 3a f7 5c 30 3e
       -0.7116155 0.8210948 0.0013351135 0.17222963
000070 79 56 2f bf af e5 e0 3e c2 e8 53 3e 3e fc 56 bf
       -0.6849132 0.43925235 0.20694259 -0.8397864
000080 58 36 45 3f 08 88 7a bf 2d d1 0c be e6 fb bb be
       0.77036047 -0.9786382 -0.13751669 -0.3671562
000090 98 d4 1a bf 94 ab f2 3e 28 3c 90 be 06 cb a6 3d
       -0.6048064 0.4739653 -0.28170896 0.081441924
0000a0 55 43 47 3f ff 93 ab 3e 0b 60 a3 3e b4 7a dd bd
       0.77837116 0.3351135 0.31909212 -0.108144194
0000b0 84 d1 27 bf 38 4c 85 3e a3 4f 13 bf b0 6c 0a 3f
       -0.6555407 0.26034713 -0.5754339 0.54072094
0000c0 ee 83 b6 be b2 0e 09 bf 83 4a fe 3d 9c 18 18 bf
       -0.3564753 -0.5353805 0.12416556 -0.5941255
0000d0 2e 22 8c be 0a 0f a4 3c 0d 02 a2 be 08 6d 25 3e
       -0.27369827 0.020026702 -0.3164219 0.16154873
0000e0 e3 08 3e 3e f1 76 34 3d b9 0f da be b4 7a dd 3d
       0.18558078 0.044058744 -0.4259012 0.108144194
0000f0 0f a4 a0 be 04 29 28 3e 2f 8e 60 3f 01 36 aa 3e
       -0.31375167 0.16421896 0.87716955 0.33244327
000100 02 87 29 bd b7 6d db 3e 00 e5 2a 3e 76 63 31 bf
       -0.04138852 0.42857143 0.16688919 -0.6929239
000110 38 67 5a bf 92 ee 1e bf be a4 56 be 37 16 5b bf
       -0.8531375 -0.6208278 -0.20961282 -0.8558077
000120 9a 76 19 3f 70 7d 35 3f 8a b7 23 3f 82 2f 29 3f
       0.59946597 0.7089453 0.63951933 0.66088116
000130 4a c8 4e bf 12 97 1e 3d 5f 6d 40 3f da 2f c4 3e
       -0.80774367 0.03871829 0.7516689 0.38317758
000140 54 f2 47 bf 53 a1 48 bf 8e aa 21 3f 3a 09 59 bf
       -0.7810414 -0.7837116 0.6315087 -0.84779704
000150 1f 7e 6b 3f 9c 18 18 3f b4 b0 07 bf 37 fb 85 bd
       0.9198932 0.5941255 -0.53004 -0.06542056
000160 bf da 00 bf b0 36 60 bd 8f fb 20 bf 96 32 1c 3f
       -0.5033378 -0.054739654 -0.6288385 0.6101469
000170 89 30 7a 3e 9d 84 6c 3e ad 43 e2 be 85 22 27 3f
       0.24432577 0.23097463 -0.44192258 0.6528705
000180 07 1c a6 3e 01 36 aa be c1 97 d4 3e 34 23 5d bf
       0.32443258 -0.33244327 0.4152203 -0.8638184
000190 3d e1 01 be 75 12 32 bf 0c b1 22 be 57 e5 45 3f
       -0.12683578 -0.69559413 -0.1588785 0.7730307
0001a0 b3 29 de be 1e 2d 6c bf 81 de 29 bf f3 18 33 3e
       -0.4339119 -0.92256343 -0.6635514 0.17489986
0001b0 7c 49 2d 3f 8c 59 22 3f 72 1f 34 bf b8 be da 3b
       0.67690253 0.6341789 -0.7036048 0.0066755675
0001c0 06 cb a6 bd a9 35 0f 3f 75 12 32 3f c3 39 d3 3e
       -0.081441924 0.55941254 0.69559413 0.41255006
0001d0 62 60 3e bf 40 9e 55 3f 86 73 26 bf 30 c4 8a be
       -0.7436582 0.83444595 -0.65020025 -0.27102804
0001e0 9f 0b 16 bf 81 a8 7f be d8 8d c5 3e a9 ff e4 3e
       -0.5861148 -0.24966623 0.3858478 0.44726303
0001f0 93 5a f3 3d a1 ad 14 bf df c4 40 3e 9d 69 17 3f
       0.1188251 -0.58077437 0.188251 0.5914553
000200 bc e7 02 bf 22 71 69 bf 83 4a fe bd db 80 43 be
       -0.5113485 -0.9118825 -0.12416556 -0.19092123
000210 e1 66 3f 3d 3c 90 82 be 95 e1 1c 3f 91 9d 1f bf
       0.046728972 -0.25500667 0.6128171 -0.623498
000220 92 ee 1e 3f cf 05 cb 3e 31 15 0a be f4 69 b2 be
       0.6208278 0.3965287 -0.13484646 -0.3484646
000230 a3 6a e8 bd 6d 8a 37 3f 20 cf 6a bf b1 bd 09 3f
       -0.11348464 0.71695596 -0.917223 0.5380507
000240 91 b8 74 be fd f1 ac be d6 eb c6 be 1c 8b 6d 3f
       -0.23898531 -0.33778372 -0.38851804 0.9279039
000250 9f 26 6b bd 17 2c 9b 3e cb c1 cd 3e 00 00 80 bf
       -0.05740988 0.30307075 0.40186915 -1.0
000260 45 33 52 bf 1f 7e 6b bf a9 35 0f bf 82 f9 fe 3e
       -0.8210948 -0.9198932 -0.55941254 0.49799734
000270 4b 19 4e bf 35 59 07 be 52 50 49 bf a0 77 ea 3e
       -0.80507344 -0.13217624 -0.78638184 0.45794392
000280 3c ab 57 3f 46 84 51 3f 1c 8b 6d bf 76 63 31 3f
       0.8424566 0.8184246 -0.9279039 0.6929239
000290 b7 52 06 bf a6 42 11 bf 48 26 50 bf 07 37 7b bf
       -0.5246996 -0.5674232 -0.8130841 -0.9813084
0002a0 0d 1d 77 bf fc a0 2d be cf 05 cb be bf f5 d5 be
       -0.965287 -0.16955942 -0.3965287 -0.41789052
0002b0 24 13 68 bf 7d 9a 2c bf 11 46 9f be ba 45 04 bf
       -0.90654206 -0.6742323 -0.31108144 -0.51668894
0002c0 dc d1 c2 be 41 ef 54 3f b1 bd 09 bf aa 86 0e 3f
       -0.38050735 0.8317757 -0.5380507 0.5567423
0002d0 b1 87 df 3e b1 87 df be f3 18 33 be d2 a7 c9 3e
       0.43658212 -0.43658212 -0.17489986 0.3938585
0002e0 25 49 12 3e 22 71 69 3f 6e db 36 bf 1e 63 96 bd
       0.14285715 0.9118825 -0.71428573 -0.07343124
0002f0 95 e1 1c bf 23 a7 13 3d 99 40 6f be 41 ef 54 bf
       -0.6128171 0.036048066 -0.23364486 -0.8317757
000300 a4 a0 12 bf 88 df fa be 1b 70 98 be 8b d2 f8 3d
       -0.5727637 -0.48998666 -0.2977303 0.12149533
000310 13 e8 9d 3e 92 09 f4 be 0b 7b 78 bf ff 93 ab be
       0.3084112 -0.47663552 -0.9706275 -0.3351135
000320 78 05 30 bf 9d 84 6c be a2 fe 13 bf 94 90 1d bf
       -0.68758345 -0.23097463 -0.57810414 -0.61548734
000330 9a 91 ee be 54 f2 47 3f 31 15 0a 3e 36 c5 5b 3f
       -0.4659546 0.7810414 0.13484646 0.85847795
000340 4f 5d 4b bf 97 83 1b bf 3a ee 83 be 95 fc 71 3e
       -0.7943925 -0.60747665 -0.2576769 0.23631509
000350 39 9d 04 be 1d 12 97 3e 09 d9 79 3f 0e 6e 76 bf
       -0.129506 0.29506007 0.97596794 -0.9626168
000360 2d d1 0c 3e 08 88 7a 3f 36 aa 86 3e 99 40 6f 3e
       0.13751669 0.9786382 0.26301736 0.23364486
000370 b9 f4 04 bf 33 d2 5d bf fd f1 ac 3e b3 29 de 3e
       -0.5193592 -0.86648864 0.33778372 0.4339119
000380 9b c7 18 3f a6 42 11 3f 32 66 89 3e 9c 33 ed be
       0.59679574 0.5674232 0.2683578 -0.46328437
000390 f2 c7 b3 be 83 80 28 3f 33 d2 5d 3f 21 56 94 3e
       -0.35113484 0.65821093 0.86648864 0.2897196
0003a0 44 e2 52 3f d0 56 4a bd 47 d5 50 3f 23 a7 13 bd
       0.82376504 -0.049399197 0.81575435 -0.036048066
0003b0 cc 12 cd 3d be 89 01 bf 1a e9 6e 3f 25 64 67 3f
       0.10013351 -0.506008 0.93324435 0.90387183
0003c0 30 df 5f 3f 17 2c 9b be f8 ad af 3e 7a a7 2e 3f
       0.8744993 -0.30307075 0.34312415 0.682243
0003d0 ab d7 0d 3f e1 66 3f bd a1 c8 69 3e ad 43 e2 3e
       0.5540721 -0.046728972 0.2283044 0.44192258
0003e0 f6 0b b1 3e 6b e8 38 bf 9b e2 ed 3d 0c cc 77 3f
       0.34579438 -0.7222964 0.11615487 0.96795726
0003f0 2b 4a 63 bf e7 4c 3b 3e e8 9d ba be 60 be 3f bf
       -0.88785046 0.18291055 -0.36448598 -0.74899864

train_targets f4 [600, 1]
000000 27 06 66 3f 56 94 46 3f b3 5f 08 3f 98 d4 1a 3f
       0.8985314 0.7757009 0.53271025 0.6048064
000010 38 4c 85 3e a8 e4 0f 3f 60 be 3f 3f 17 f6 70 3f
       0.26034713 0.56208277 0.74899864 0.94125503
000020 d4 49 c8 3e 21 56 94 3e 37 fb 85 3d 35 59 07 3e
       0.39118826 0.2897196 0.06542056 0.13217624
000030 34 08 88 3e a3 4f 13 3f a8 e4 0f 3f 86 3d fc 3e
       0.26568758 0.5754339 0.56208277 0.4926569
000040 5b 29 43 3f 0c cc 77 3f 87 8e fb 3c 14 39 1d 3e
       0.7623498 0.96795726 0.03070761 0.15353805
000050 e9 ee b9 3c 6d 8a 37 3f 32 66 89 3e 7a a7 2e 3f
       0.022696929 0.71695596 0.2683578 0.682243
000060 6f 2c 36 3f 45 33 52 3f fa fe ae 3a f7 5c 30 3e
       0.7116155 0.8210948 0.0013351135 0.17222963
000070 79 56 2f 3f af e5 e0 3e c2 e8 53 3e 3e fc 56 3f
       0.6849132 0.43925235 0.20694259 0.8397864
000080 58 36 45 3f 08 88 7a 3f 2d d1 0c 3e e6 fb bb 3e
       0.77036047 0.9786382 0.13751669 0.3671562
000090 98 d4 1a 3f 94 ab f2 3e 28 3c 90 3e 06 cb a6 3d
       0.6048064 0.4739653 0.28170896 0.081441924
0000a0 55 43 47 3f ff 93 ab 3e 0b 60 a3 3e b4 7a dd 3d
       0.77837116 0.3351135 0.31909212 0.108144194
0000b0 84 d1 27 3f 38 4c 85 3e a3 4f 13 3f b0 6c 0a 3f
       0.6555407 0.26034713 0.5754339 0.54072094
0000c0 ee 83 b6 3e b2 0e 09 3f 83 4a fe 3d 9c 18 18 3f
       0.3564753 0.5353805 0.12416556 0.5941255
0000d0 2e 22 8c 3e 0a 0f a4 3c 0d 02 a2 3e 08 6d 25 3e
       0.27369827 0.020026702 0.3164219 0.16154873
0000e0 e3 08 3e 3e f1 76 34 3d b9 0f da 3e b4 7a dd 3d
       0.18558078 0.044058744 0.4259012 0.108144194
0000f0 0f a4 a0 3e 04 29 28 3e 2f 8e 60 3f 01 36 aa 3e
       0.31375167 0.16421896 0.87716955 0.33244327
000100 02 87 29 3d b7 6d db 3e 00 e5 2a 3e 76 63 31 3f
       0.04138852 0.42857143 0.16688919 0.6929239
000110 38 67 5a 3f 92 ee 1e 3f be a4 56 3e 37 16 5b 3f
       0.8531375 0.6208278 0.20961282 0.8558077
000120 9a 76 19 3f 70 7d 35 3f 8a b7 23 3f 82 2f 29 3f
       0.59946597 0.7089453 0.63951933 0.66088116
000130 4a c8 4e 3f 12 97 1e 3d 5f 6d 40 3f da 2f c4 3e
       0.80774367 0.03871829 0.7516689 0.38317758
000140 54 f2 47 3f 53 a1 48 3f 8e aa 21 3f 3a 09 59 3f
       0.7810414 0.7837116 0.6315087 0.84779704
000150 1f 7e 6b 3f 9c 18 18 3f b4 b0 07 3f 37 fb 85 3d
       0.9198932 0.5941255 0.53004 0.06542056
000160 bf da 00 3f b0 36 60 3d 8f fb 20 3f 96 32 1c 3f
       0.5033378 0.054739654 0.6288385 0.6101469
000170 89 30 7a 3e 9d 84 6c 3e ad 43 e2 3e 85 22 27 3f
       0.24432577 0.23097463 0.44192258 0.6528705
000180 07 1c a6 3e 01 36 aa 3e c1 97 d4 3e 34 23 5d 3f
       0.32443258 0.33244327 0.4152203 0.8638184
000190 3d e1 01 3e 75 12 32 3f 0c b1 22 3e 57 e5 45 3f
       0.12683578 0.69559413 0.1588785 0.7730307
0001a0 b3 29 de 3e 1e 2d 6c 3f 81 de 29 3f f3 18 33 3e
       0.4339119 0.92256343 0.6635514 0.17489986
0001b0 7c 49 2d 3f 8c 59 22 3f 72 1f 34 3f b8 be da 3b
       0.67690253 0.6341789 0.7036048 0.0066755675
0001c0 06 cb a6 3d a9 35 0f 3f 75 12 32 3f c3 39 d3 3e
       0.081441924 0.55941254 0.69559413 0.41255006
0001d0 62 60 3e 3f 40 9e 55 3f 86 73 26 3f 30 c4 8a 3e
       0.7436582 0.83444595 0.65020025 0.27102804
0001e0 9f 0b 16 3f 81 a8 7f 3e d8 8d c5 3e a9 ff e4 3e
       0.5861148 0.24966623 0.3858478 0.44726303
0001f0 93 5a f3 3d a1 ad 14 3f df c4 40 3e 9d 69 17 3f
       0.1188251 0.58077437 0.188251 0.5914553
000200 bc e7 02 3f 22 71 69 3f 83 4a fe 3d db 80 43 3e
       0.5113485 0.9118825 0.12416556 0.19092123
000210 e1 66 3f 3d 3c 90 82 3e 95 e1 1c 3f 91 9d 1f 3f
       0.046728972 0.25500667 0.6128171 0.623498
000220 92 ee 1e 3f cf 05 cb 3e 31 15 0a 3e f4 69 b2 3e
       0.6208278 0.3965287 0.13484646 0.3484646
000230 a3 6a e8 3d 6d 8a 37 3f 20 cf 6a 3f b1 bd 09 3f
       0.11348464 0.71695596 0.917223 0.5380507
000240 91 b8 74 3e fd f1 ac 3e d6 eb c6 3e 1c 8b 6d 3f
       0.23898531 0.33778372 0.38851804 0.9279039
000250 9f 26 6b 3d 17 2c 9b 3e cb c1 cd 3e 00 00 80 3f
       0.05740988 0.30307075 0.40186915 1.0
000260 45 33 52 3f 1f 7e 6b 3f a9 35 0f 3f 82 f9 fe 3e
       0.8210948 0.9198932 0.55941254 0.49799734
000270 4b 19 4e 3f 35 59 07 3e 52 50 49 3f a0 77 ea 3e
       0.80507344 0.13217624 0.78638184 0.45794392
000280 3c ab 57 3f 46 84 51 3f 1c 8b 6d 3f 76 63 31 3f
       0.8424566 0.8184246 0.9279039 0.6929239
000290 b7 52 06 3f a6 42 11 3f 48 26 50 3f 07 37 7b 3f
       0.5246996 0.5674232 0.8130841 0.9813084
0002a0 0d 1d 77 3f fc a0 2d 3e cf 05 cb 3e bf f5 d5 3e
       0.965287 0.16955942 0.3965287 0.41789052
0002b0 24 13 68 3f 7d 9a 2c 3f 11 46 9f 3e ba 45 04 3f
       0.90654206 0.6742323 0.31108144 0.51668894
0002c0 dc d1 c2 3e 41 ef 54 3f b1 bd 09 3f aa 86 0e 3f
       0.38050735 0.8317757 0.5380507 0.5567423
0002d0 b1 87 df 3e b1 87 df 3e f3 18 33 3e d2 a7 c9 3e
       0.43658212 0.43658212 0.17489986 0.3938585
0002e0 25 49 12 3e 22 71 69 3f 6e db 36 3f 1e 63 96 3d
       0.14285715 0.9118825 0.71428573 0.07343124
0002f0 95 e1 1c 3f 23 a7 13 3d 99 40 6f 3e 41 ef 54 3f
       0.6128171 0.036048066 0.23364486 0.8317757
000300 a4 a0 12 3f 88 df fa 3e 1b 70 98 3e 8b d2 f8 3d
       0.5727637 0.48998666 0.2977303 0.12149533
000310 13 e8 9d 3e 92 09 f4 3e 0b 7b 78 3f ff 93 ab 3e
       0.3084112 0.47663552 0.9706275 0.3351135
000320 78 05 30 3f 9d 84 6c 3e a2 fe 13 3f 94 90 1d 3f
       0.68758345 0.23097463 0.57810414 0.61548734
000330 9a 91 ee 3e 54 f2 47 3f 31 15 0a 3e 36 c5 5b 3f
       0.4659546 0.7810414 0.13484646 0.85847795
000340 4f 5d 4b 3f 97 83 1b 3f 3a ee 83 3e 95 fc 71 3e
       0.7943925 0.60747665 0.2576769 0.23631509
000350 39 9d 04 3e 1d 12 97 3e 09 d9 79 3f 0e 6e 76 3f
       0.129506 0.29506007 0.97596794 0.9626168
000360 2d d1 0c 3e 08 88 7a 3f 36 aa 86 3e 99 40 6f 3e
       0.13751669 0.9786382 0.26301736 0.23364486
000370 b9 f4 04 3f 33 d2 5d 3f fd f1 ac 3e b3 29 de 3e
       0.5193592 0.86648864 0.33778372 0.4339119
000380 9b c7 18 3f a6 42 11 3f 32 66 89 3e 9c 33 ed 3e
       0.59679574 0.5674232 0.2683578 0.46328437
000390 f2 c7 b3 3e 83 80 28 3f 33 d2 5d 3f 21 56 94 3e
       0.35113484 0.65821093 0.86648864 0.2897196
0003a0 44 e2 52 3f d0 56 4a 3d 47 d5 50 3f 23 a7 13 3d
       0.82376504 0.049399197 0.81575435 0.036048066
0003b0 cc 12 cd 3d be 89 01 3f 1a e9 6e 3f 25 64 67 3f
       0.10013351 0.506008 0.93324435 0.90387183
0003c0 30 df 5f 3f 17 2c 9b 3e f8 ad af 3e 7a a7 2e 3f
       0.8744993 0.30307075 0.34312415 0.682243
0003d0 ab d7 0d 3f e1 66 3f 3d a1 c8 69 3e ad 43 e2 3e
       0.5540721 0.046728972 0.2283044 0.44192258
0003e0 f6 0b b1 3e 6b e8 38 3f 9b e2 ed 3d 0c cc 77 3f
       0.34579438 0.7222964 0.11615487 0.96795726
0003f0 2b 4a 63 3f e7 4c 3b 3e e8 9d ba 3e 60 be 3f 3f
       0.88785046 0.18291055 0.36448598 0.74899864

test_data f4 [150, 1]
000000 2d ec 61 3f c4 8a d2 3d 66 53 3c 3f c5 db d1 3e
       0.88251 0.10280374 0.73564756 0.40987983
000010 2a de 8e 3e 0b 7b 78 3f 9e d5 eb 3e aa 50 64 3e
       0.27903873 0.9706275 0.46061414 0.22296396
000020 0a 2a 79 3f 16 a5 71 3f 9c 33 ed 3e 04 29 28 3e
       0.9732977 0.94392526 0.46328437 0.16421896
000030 bd 38 02 3f 52 50 49 3f 9b e2 ed 3d 34 23 5d 3f
       0.50867826 0.78638184 0.11615487 0.8638184
000040 c4 8a d2 3d 88 15 25 3f 85 ec 7c 3e d9 de 44 3c
       0.10280374 0.6448598 0.246996 0.012016022
000050 1b 3a 6e 3f 8b 08 23 3f a3 6a e8 3d f5 ba b1 3d
       0.9305741 0.6368491 0.11348464 0.08678237
000060 8e c5 f6 3e bb 96 03 3f 64 02 3d 3f 09 d9 79 3f
       0.48197597 0.5140187 0.7383177 0.97596794
000070 8a 81 f9 3e 29 8d 0f 3e 30 df 5f 3f a4 bb e7 3e
       0.48731643 0.14018692 0.8744993 0.45260346
000080 48 26 50 3f 74 c1 32 3f 97 9e 70 3c 26 9a 91 3e
       0.8130841 0.69826436 0.014686248 0.28437918
000090 0d 02 a2 3e 87 8e fb 3c df c4 40 3e 29 a8 64 3f
       0.3164219 0.03070761 0.188251 0.8931909
0000a0 43 91 53 3f 8b 08 23 3f 03 f3 7d 3f 79 56 2f 3f
       0.82643527 0.6368491 0.9919893 0.6849132
0000b0 e7 4c 3b 3e 07 1c a6 3e 19 ce 99 3e 2f 73 8b 3d
       0.18291055 0.32443258 0.30040053 0.06809079
0000c0 6e db 36 3f f4 69 b2 3e 9d 69 17 3f 7d 9a 2c 3f
       0.71428573 0.3484646 0.5914553 0.6742323
0000d0 2c 9b 62 3f d3 f8 48 3e 11 46 9f 3e c8 ce cf 3c
       0.88518023 0.19626169 0.31108144 0.025367156
0000e0 f8 ad af 3e 50 ae 4a 3f 4d bb 4c 3f d7 3c 46 3e
       0.34312415 0.7917223 0.799733 0.19359146
0000f0 c0 2b 00 3f 94 ab f2 3e 91 b8 74 3e d4 49 c8 3e
       0.5006676 0.4739653 0.23898531 0.39118826
000100 ac f2 e2 3d 00 e5 2a 3e 25 64 67 3f 06 e6 7b 3f
       0.11081442 0.16688919 0.90387183 0.9839786
000110 86 3d fc 3e 2c 80 8d 3e 8a b7 23 3f 85 ec 7c 3e
       0.4926569 0.2763685 0.63951933 0.246996
000120 20 05 15 3e 2b 2f 8e 3c 15 54 72 3f 2b 4a 63 3f
       0.14552736 0.017356476 0.9465955 0.88785046
000130 a5 0c 67 3e 10 10 75 3f c1 97 d4 3e 34 08 88 3e
       0.22563417 0.95727634 0.4152203 0.26568758
000140 f6 0b b1 3e 97 83 1b 3f 26 9a 91 3e 71 ce 34 3f
       0.34579438 0.60747665 0.28437918 0.70627505
000150 95 fc 71 3e 02 87 29 3d a5 f1 11 3f 2b 2f 8e 3c
       0.23631509 0.04138852 0.57009345 0.017356476
000160 83 80 28 3f 39 b8 59 3f c9 1f cf 3e a5 f1 11 3f
       0.65821093 0.85046726 0.40453938 0.57009345
000170 a7 93 10 3f 5b 29 43 3f 55 43 47 3f 9e ba 16 3f
       0.564753 0.7623498 0.77837116 0.58878505
000180 96 4d f1 3e 4a c8 4e 3f ab d7 0d 3f ba 60 59 3e
       0.47129506 0.80774367 0.5540721 0.21228305
000190 67 a4 3b 3f 31 30 5f 3f 03 d8 a8 3e 1e 63 96 3d
       0.73297733 0.8718291 0.32977304 0.07343124
0001a0 ab a1 e3 3e 3e 32 81 3e bb b1 d8 3e 04 44 7d 3f
       0.4445928 0.25233644 0.42323098 0.9893191
0001b0 26 b5 66 3f 16 a5 71 3f 84 9b fd 3e 70 7d 35 3f
       0.9012016 0.94392526 0.49532712 0.7089453
0001c0 2f 73 8b 3d 32 81 5e 3f 23 c2 68 3f 58 36 45 3f
       0.06809079 0.86915886 0.9092123 0.77036047
0001d0 38 67 5a 3f 7b f8 2d 3f 4f 5d 4b 3f 89 66 24 3f
       0.8531375 0.67957276 0.7943925 0.64218956
0001e0 68 f5 3a 3f eb 90 38 3e dd 22 c2 3d 0b 60 a3 3e
       0.7303071 0.18024032 0.09479306 0.31909212
0001f0 03 f3 7d 3f 7b f8 2d 3f ea 3f b9 3e 77 b4 30 3f
       0.9919893 0.67957276 0.36181575 0.6902537
000200 1b 3a 6e 3f 92 09 f4 3e b2 0e 09 3f 16 db 9b 3d
       0.9305741 0.47663552 0.5353805 0.07610147
000210 01 51 7f 3f ba 60 59 3e 72 1f 34 3f c8 ce cf 3c
       0.9973298 0.21228305 0.7036048 0.025367156
000220 2e 3d 61 3f d5 9a c7 3d 19 98 6f 3f bd 53 d7 3e
       0.8798398 0.09746329 0.9359146 0.42056075
000230 ac f2 e2 3d bf da 00 3f 6a 97 39 3f fe 42 ac 3d
       0.11081442 0.5033378 0.72496665 0.08411215
000240 09 be a4 3e f1 76 34 3d cd 63 cc 3e 3b 5a 58 3f
       0.32176235 0.044058744 0.39919892 0.8451268
000250 e3 08 3e 3e ae ca 0b 3f
       0.18558078 0.5460614

0.weight f4 [100, 1]
000000 b0 ad f9 3d 5a 9e 7e bf 40 1b b3 3d 56 e7 81 3f
       0.121913314 -0.99460375 0.08745432 1.0148723
000010 14 e1 13 3f 6f cf 65 3f 52 1a 29 bf bf 75 56 3f
       0.57765317 0.89769644 -0.66055787 0.83773416
000020 c7 01 88 bd 3d 69 2a bf 64 40 a6 3e c4 1a 5d bf
       -0.06640964 -0.6656683 0.32471 -0.86368966
000030 5e cf c9 3b 36 4c d0 be 90 e4 75 3f e0 95 13 3f
       0.0061587533 -0.40683144 0.96051884 0.57650566
000040 1b a6 4d 3f be 14 50 bc 3f 74 46 3f d9 6c 25 bf
       0.8033158 -0.012700258 0.7752113 -0.64619213
000050 4d 07 22 bf 60 b6 7b be 60 3c ee bd f7 6e 47 3f
       -0.6329239 -0.2458129 -0.11632609 0.77903694
000060 cc 8f e5 be 20 af 1a bd c0 af 7d 3e fb 77 8e bb
       -0.4483627 -0.03776467 0.24774075 -0.004347799
000070 c1 53 1c bf 2d 61 2c 3f 62 82 1b bc 50 b9 cf bd
       -0.610653 0.6733578 -0.009491535 -0.101427674
000080 1c 30 5a bf e8 88 d2 3e e7 73 14 be c0 9e f1 3e
       -0.8522966 0.41120076 -0.14497338 0.4719143
000090 00 a5 a0 3e 50 7e 1f 3e fd 5e 44 3f a3 5b ce 3e
       0.31375885 0.15575528 0.7670744 0.40304288
0000a0 63 31 1a 3f 37 52 38 3f 84 73 33 3f 30 e5 53 bf
       0.6023161 0.7200045 0.7009814 -0.8277159
0000b0 76 42 0a 3f 4f f8 c9 3e 99 c3 76 3f 7c af 0c bf
       0.5400766 0.39447257 0.9639221 -0.5495527
0000c0 b3 a3 65 3f bc f9 a4 3e 34 e1 bb be 63 05 28 3f
       0.8970291 0.32221782 -0.36695254 0.6563322
0000d0 a7 26 c2 3e 66 b4 16 bf b5 74 3b bf d5 23 81 3f
       0.37920114 -0.58869016 -0.73224956 1.008906
0000e0 d1 3c 7f 3f f7 d4 8d 3e 12 b6 f7 be 49 fa 50 3f
       0.99702173 0.27701542 -0.48381096 0.81631905
0000f0 ae 86 a4 be 90 f8 5f be bb f6 64 bc e5 91 6f 3f
       -0.32134002 -0.21872163 -0.013974841 0.9358199
000100 4b 66 4d bf 11 41 38 3f f2 aa f5 3e af d4 7c bf
       -0.8023421 0.71974283 0.47981983 -0.9876203
000110 86 df 40 bf da 61 4c bf 51 5e 57 bf fb 69 d3 3e
       -0.7534107 -0.7983681 -0.8412829 0.41291794
000120 31 6f 0b 3f 9a ea 14 3f 08 71 44 bf 98 36 6e be
       0.5446654 0.58170474 -0.7673497 -0.23263013
000130 86 66 1f bf 4a 6f 98 3e 46 1f 09 bf 81 68 f8 be
       -0.62265813 0.29772407 -0.53563344 -0.4851723
000140 ac 8c 5e bf 30 bb 36 3f a4 56 bb 3e e6 b2 52 3f
       -0.869334 0.71379375 0.3658954 0.8230423
000150 20 cf dd bd f2 16 40 bf 65 ab 38 3e 05 71 73 3e
       -0.108305216 -0.7503501 0.18034132 0.23773582
000160 1f 37 c3 be 00 1b 6e bf 2a ad a7 3e 5a 4b 39 3f
       -0.38127992 -0.9300995 0.327493 0.723806
000170 80 b3 a4 be 2e 51 37 be 98 88 65 bf ee b5 85 bf
       -0.32168198 -0.17902061 -0.8966155 -1.0446146
000180 f4 18 0e 3f 96 37 20 bf 2a e2 76 3f 8f 54 93 be
       0.55506825 -0.6258482 0.9643885 -0.2877545

0.bias f4 [100]
000000 38 61 c9 be 98 24 45 bf 80 72 2e be c6 a0 97 3e
       -0.39331985 -0.7700896 -0.17035866 0.29614848
000010 da 93 6b bf 51 2a fa 3e 7d 3f 61 3f f9 b9 40 bf
       -0.9202248 0.4886041 0.879875 -0.7528377
000020 df ae 6a 3f 5b 12 80 be 6c 78 49 3f 92 2c 5e bf
       0.9167308 -0.25014004 0.78699374 -0.8678676
000030 b4 3d 57 3e 7a 11 09 3f 93 80 fc bd 3f b6 a8 3e
       0.21019632 0.5354229 -0.12329211 0.32951543
000040 7d e9 2a 3f af cf 69 3f 7e 3b 59 ba a6 f7 a7 be
       0.66762525 0.91332525 -0.0008286758 -0.32806128
000050 dc 8f c9 3e 74 a5 b9 be b8 fe c4 be ff 8f 0b 3f
       0.39367568 -0.36259043 -0.38475585 0.54516596
000060 e8 02 4d be a8 16 7e bf 46 c3 0c bf f1 80 c2 3e
       -0.2002064 -0.9925332 -0.54985464 0.37989
000070 74 62 18 bf 3c 0c 07 3f 9b bd 1a 3f d0 50 69 bf
       -0.5952523 0.52753043 0.60445565 -0.91138935
000080 f2 24 31 bb e2 2b 52 3f ab 0d db 3d 16 2a 64 bf
       -0.0027030078 0.8209821 0.10695966 -0.8912672
000090 aa dd 27 bf 10 e2 9f be 74 ac ef 3e cf bf 42 3f
       -0.6557261 -0.3122716 0.4681126 0.76073927
0000a0 a4 10 dc 3e 22 2f 80 3f bc e1 47 bf a6 50 34 bf
       0.42981446 1.0014384 -0.7807882 -0.7043556
0000b0 d1 27 2e 3c 97 11 9b 3e ea 15 99 be 4a 16 71 bf
       0.01062961 0.30286857 -0.29899532 -0.94174635
0000c0 b9 61 d6 be 84 35 3c bf 06 7f 23 bf 86 73 b5 be
       -0.4187143 -0.7351916 -0.638657 -0.354397
0000d0 9c 21 71 3f 0e 52 27 3a ba 49 b2 be 88 3a ad be
       0.9419191 0.00063827715 -0.34821874 -0.33833718
0000e0 26 94 43 bf ee 96 6e 3f ff f6 33 3e 95 d5 be be
       -0.7639793 0.9319905 0.1757469 -0.37272325
0000f0 1c 23 45 3e 27 b5 a8 3e 1f b1 7c 3f c5 7e c9 3e
       0.19251674 0.32950708 0.98707765 0.3935453
000100 5e 92 dc bb 8c 63 df be 66 34 23 3f 19 e6 58 bd
       -0.0067313155 -0.43630636 0.6375183 -0.052953813
000110 89 b3 4b 3f 02 05 7b bf 92 e2 09 bf 1f 55 c7 bd
       0.79570824 -0.98054516 -0.53861344 -0.097330324
000120 36 b1 00 3f 0f 8e 1b ba e8 4f 6d bf 18 88 73 bf
       0.502704 -0.0005933949 -0.9270005 -0.9512954
000130 89 32 00 3a 0a 32 49 3f 9e be 16 bd 04 b2 6a 3f
       0.0004890343 0.7859198 -0.03680288 0.9167788
000140 b0 62 24 bf db ae fa 3d f0 ca 05 bf 56 ce 61 bf
       -0.64213085 0.12240382 -0.52262783 -0.8820547
000150 50 9b 25 be 23 c0 e7 3c a7 0a 3e 3e 2a cb 9a bd
       -0.16172528 0.02828986 0.18558751 -0.07558282
000160 91 a0 06 3f 1e 51 78 3a 1e 79 b6 3e 80 b0 43 3f
       0.52588755 0.00094725366 0.3563928 0.7644119
000170 ea aa 58 bf c8 5f 6a 3f af 11 83 3d 6e 37 6f 3a
       -0.84635794 0.915524 0.06399857 0.0009125386
000180 84 50 5c bf c0 a3 83 bd 01 a7 72 bf 2d 53 96 3e
       -0.8606036 -0.06427717 -0.9478608 0.29360333

2.weight f4 [1, 100]
000000 0f cc 89 3d db 5a a9 bd b0 be bf bb 89 b6 fa 3c
       0.06728374 -0.082692824 -0.005851589 0.030604618
000010 ec 93 19 bd 46 3c 63 3d 95 d6 eb bd a0 5a 7c bd
       -0.037494585 0.055477403 -0.11515538 -0.061609864
000020 96 61 ab 3c 6f dc 88 bd 42 20 47 3d 1a a4 ac bd
       0.020920556 -0.06682669 0.048614748 -0.084297374
000030 56 50 b0 bd 6b 8a 78 3c 12 4d fc 3d d2 da 44 3d
       -0.08609073 0.01516972 0.123193875 0.048060246
000040 e3 ed f8 3d 37 4f 49 3d c3 7f 64 3e aa dd 41 bd
       0.12154748 0.04914781 0.22314362 -0.047330536
000050 31 47 be 3a e8 bf 8e 3c 41 4a ac 3d 20 ec c5 bb
       0.0014517066 0.017425492 0.084126 -0.006040111
000060 40 94 ad 3c a0 83 ad 3c 20 94 88 bb 6d aa 50 3d
       0.021188855 0.021180928 -0.0041680485 0.05094378
000070 1c 08 c6 3d ea 82 93 bd d2 0a 13 3c e2 59 a4 bd
       0.096695155 -0.07202704 0.008974748 -0.08024956
000080 fe bb 40 3e 3e 0d 90 bc a8 2b 93 bb 8c d5 9c bc
       0.18821713 -0.01758444 -0.004491288 -0.019144796
000090 73 9f 95 bd 62 9a 4a 3d 45 5f b5 3c c3 0d bc 3d
       -0.07305803 0.049463637 0.022140155 0.09182312
0000a0 3d f7 03 bc 11 9d 17 bd 61 0f 89 3d 8a cb 9b 3b
       -0.008054552 -0.037015025 0.066923864 0.0047544884
0000b0 73 ec 9f 3d 74 63 37 3d ec 30 55 3c 40 ec 7b bd
       0.07808771 0.04477258 0.013012152 -0.061504602
0000c0 f7 45 82 bd 78 6e ad bd 8a 4b 20 bd ba 52 7a 3d
       -0.06361001 -0.08468336 -0.03913454 0.06111405
0000d0 6f b1 b5 bd e0 c9 34 3e ac db b0 bd 98 20 4c 3c
       -0.088717334 0.17655134 -0.08635649 0.012458943
0000e0 c8 77 3e 3c cb 4b b9 bd f8 95 51 bd 4d bf 3a 3d
       0.011625238 -0.090476595 -0.051168412 0.045592595
0000f0 24 91 67 3d da ec 59 bd 9a 0f 81 3d 9e 40 11 3d
       0.0565349 -0.053204395 0.06301804 0.035462014
000100 e5 c0 2f 3e c3 37 95 bd 4c 47 d5 3d 0d 9b 39 3e
       0.17163427 -0.07286026 0.104139894 0.18125553
000110 d9 0d 86 bd 77 a3 c9 3d 1e dc 63 bd 90 11 03 3c
       -0.0654561 0.098456316 -0.055629842 0.007999793
000120 f3 cd fc bc 1c c7 4a 3e b4 e2 d0 bc 92 61 55 3d
       -0.030859923 0.19802517 -0.025498725 0.052095003
000130 64 f0 7f 3e 5b f7 16 3d 88 aa 8e 3d 5c e6 f5 bd
       0.24994045 0.03685699 0.0696612 -0.12006828
000140 fb 26 8b 3d 43 23 da 3c be 0a 97 bd 83 88 8d 3d
       0.06794544 0.026628142 -0.07375096 0.06910803
000150 60 c2 03 bb e2 b5 f9 3d 3d 42 cf 3c ac d1 c2 bd
       -0.002010487 0.121928945 0.02530014 -0.09512648
000160 86 35 ac bd 47 16 67 3e 89 44 22 3c e7 88 f3 3d
       -0.08408646 0.22567092 0.009904035 0.118913464
000170 2b b8 aa bd e5 30 21 bd 3b c7 c0 3d da 23 b4 3e
       -0.083359085 -0.03935327 0.09413 0.35183603
000180 be 6a 10 3d c8 5e 69 3d 0c 30 2f bd f2 fd 19 bd
       0.035258047 0.056975156 -0.04277043 -0.037595697
