complete/absolute/state5.pt (torch, 10937 bytes, 9 tensors)

weight f4 [100, 1]
0.24839711 -0.28297853 -0.63714415 -0.98845893 -0.15651567 0.32744682 -0.79290426 -0.45267728
0.42355305 -0.16808528 -0.49359867 0.02093947 0.15211122 -0.54934514 0.92474824 -0.069756575
0.514313 -0.29723722 0.558675 -0.08522905 -0.49773738 -0.42006132 0.48934326 -0.7788652
0.41011405 0.97509164 -0.74245346 0.80393666 -0.73181105 -0.8943497 0.33644402 -0.23051317
-0.080739394 -0.31507257 0.58337665 0.23364756 0.46347135 0.3005691 0.7808987 -0.63519895
0.64764076 0.02483827 -0.21971336 -0.64371246 0.8480014 0.6241346 0.37288478 -0.6138533
-0.09443037 -0.045614123 -0.8042456 -0.84472173 0.6930737 0.71484005 0.08207015 -0.031698942
0.20534061 0.04575944 0.7245141 0.0106785605 0.3927409 1.0070134 -0.07506037 0.9157056
0.042599067 -0.10696293 -0.28142095 0.9452047 -0.32991478 0.41511208 -0.6077837 -0.685047
-0.82581025 -0.54784507 -0.9618349 0.41453695 1.0436696 0.97504663 0.89778125 0.07707417
0.724029 -0.69573766 -0.60857594 -0.18587254 -0.745547 -0.51187015 0.16975832 -0.8067959
-0.95577234 0.116840005 -0.97593665 0.32738608 0.50921416 -0.537656 0.42586005 0.19245686
0.5783316 -0.8175654 -0.65843916 0.9254759
00000000: d05b 7e3e 90e2 90be e11b 23bf a50b 7dbf
00000010: a545 20be 1ca7 a73e c6fb 4abf 51c5 e7be
00000020: f2db d83e 8c1e 2cbe f7b8 fcbe 4089 ab3c
00000030: 0bc3 1b3e e2a1 0cbf 4dbc 6c3f 89dc 8ebd
00000040: 04aa 033f 7a2f 98be 5305 0f3f 918c aebd
00000050: 6fd7 febe 4712 d7be 338b fa3e b663 47bf
00000060: 78fa d13e 9b9f 793f 6e11 3ebf cbce 4d3f
00000070: f857 3bbf 1af4 64bf 6442 ac3e a50b 6cbe
00000080: b25a a5bd 3151 a1be 2c58 153f 4e41 6f3e
00000090: 1e4c ed3e 31e4 993e fae8 473f 669c 22bf
000000a0: c9cb 253f a179 cb3c 8afc 60be 57ca 24bf
000000b0: 9f16 593f 49c7 1f3f c1ea be3e 7d25 1dbf
000000c0: b664 c1bd e0d5 3abd 0ae3 4dbf af3f 58bf
000000d0: 476d 313f c2ff 363f 6514 a83d c0d6 01bd
000000e0: cf44 523e 406e 3b3d c279 393f 21f5 2e3c
000000f0: 5615 c93e d1e5 803f 40b9 99bd af6b 6a3f
00000100: 5c7c 2e3d 610f dbbd 6816 90be eff8 713f
00000110: 97ea a8be 9289 d43e b697 1bbf 3d5f 2fbf
00000120: 4d68 53bf 933f 0cbf d03a 76bf 303e d43e
00000130: f796 853f a89c 793f fed4 653f 10d9 9d3d
00000140: f759 393f dd1b 32bf a2cb 1bbf 5f55 3ebe
00000150: 2bdc 3ebf ec09 03bf 20d5 2d3e 2d8a 4ebf
00000160: 7fad 74bf d049 ef3d fcd6 79bf 269f a73e
00000170: dc5b 023f d3a3 09bf 540a da3e 6913 453e
00000180: 8a0d 143f f74b 51bf 788f 28bf fdeb 6c3f

bias f4 [100]
-0.47071147 -0.80964315 0.04247348 -0.0015988961 0.4098423 -0.8866149 0.40072727 0.47745818
0.17471223 0.30350754 -0.08862043 -0.2311188 0.2839312 0.68405837 0.37177795 0.78423023
0.6536822 0.48873332 0.27837178 0.7699098 0.39338073 0.41747257 -0.425981 -0.67728025
-0.45714974 -0.00039292575 -0.8108126 0.6122825 -0.8527068 -0.76688427 -0.035749312 0.985068
0.19752869 0.6137789 0.45889926 0.96340585 -0.31287226 0.9095198 0.0013800729 -0.5113195
0.48408714 0.085867085 0.49979055 0.9219438 0.37578902 0.097025596 -0.320794 0.501429
0.11042602 -0.3883648 -0.6554093 -0.02153827 -0.50471205 0.97048134 0.60715604 -0.19191194
0.22713763 -0.67110467 0.01374533 0.32254264 0.74307626 0.093942 -0.44794798 0.7943871
0.40404963 0.21674204 -0.96242857 0.48329464 -0.26834556 0.27744645 -0.7490214 0.8296658
-0.41288984 -0.0007313466 -0.9795897 -0.66649187 0.0013927951 0.7742485 -0.7254553 -0.48377645
-0.57437795 0.76484853 -0.50374365 -0.17020166 -0.4459251 -0.2974711 -0.1738435 0.04910855
-0.43856233 -0.35062385 0.009078098 -0.2956359 -0.2919577 0.0047909147 -0.47952855 0.17010134
-0.79277277 0.48488224 0.35404846 -0.11911684
00000000: 1801 f1be c644 4fbf acf8 2d3d 0d92 d1ba
00000010: dad6 d13e 32f9 62bf 202c cd3e 6675 f43e
00000020: c3e7 323e 5765 9b3e a17e b5bd 68aa 6cbe
00000030: 6e5f 913e 731e 2f3f ae59 be3e 50c3 483f
00000040: b757 273f 413b fa3e bf86 8e3e cf18 453f
00000050: 3369 c93e f7be d53e 2e1a dabe 3d62 2dbf
00000060: 880f eabe 9a01 ceb9 6a91 4fbf 8cbe 1c3f
00000070: fe4a 5abf 8752 44bf df6d 12bd 6b2d 7c3f
00000080: f644 4a3e 9d20 1d3f d8f4 ea3e c4a1 763f
00000090: cb30 a0be 4ad6 683f 90e3 b43a d6e5 02bf
000000a0: 45da f73e 15db af3d 8ce4 ff3e 8204 6c3f
000000b0: 6b67 c03e 5bb5 c63d 1c3f a4be a75d 003f
000000c0: 0a27 e23d c0d7 c6be e7c8 27bf 0771 b0bc
000000d0: cf34 01bf 7771 783f 946e 1b3f 9084 44be
000000e0: c496 683e 84cd 2bbf 1834 613c 4f24 a53e
000000f0: 3f3a 3e3f aa64 c03d 7059 e5be f45c 4b3f
00000100: 98df ce3e a0f1 5d3e b861 76bf 6572 f73e
00000110: 9764 89be 760d 8e3e debf 3fbf fa64 543f
00000120: 4c66 d3be d7b7 3fba 64c6 7abf 369f 2abf
00000130: 738e b63a 2635 463f 70b7 39bf 8cb1 f7be
00000140: 6f0a 13bf 1dcd 433f 58f5 00bf 5849 2ebe
00000150: 4b50 e4be 224e 98be 0804 32be 0c26 493d
00000160: 3e8b e0be f884 b3be 4ebc 143c 975d 97be
00000170: 7b7b 95be 1bfd 9c3b c484 f5be 0c2f 2e3e
00000180: 28f3 4abf 7c42 f83e d745 b53e 88f3 f3bd

weight f4 [1, 100]
0.05687038 0.017554678 0.12419418 0.227763 -0.037726358 0.022549413 0.008743942 0.07808782
0.09488691 -0.0604485 0.027833961 -0.030044675 0.04497659 0.0108450595 -0.05493486 -0.03817009
-0.018023498 -0.026678676 -0.031344153 0.0023698858 0.087371215 -0.017674174 0.07566817 0.062582344
0.0925292 0.31452435 -0.052865673 0.038039267 0.07365013 -0.0137356 -0.013907048 -0.029178826
0.06411093 -0.04444902 -0.080338486 0.04354585 -0.056008507 -0.092367046 0.20204069 0.09529802
-0.02321502 -0.09610523 -0.0059722704 0.04832992 0.008762326 0.12550256 -0.023781048 -0.050903704
-0.06584283 0.07258687 -0.099988766 0.10850229 -0.022435179 0.08342277 0.07523952 0.082920484
0.0948424 0.09803685 0.14022325 -0.10009012 -0.082710356 0.08699453 -0.08314439 -0.056281533
0.00448179 0.007518398 0.024351455 0.025112348 0.0092850225 0.03941604 -0.031559967 0.07106577
0.09647361 0.2235614 -0.029584646 0.018018499 0.30865884 0.054642346 -0.021397885 0.09859126
0.024147661 0.06304145 0.064297594 0.05022531 -0.060068645 -0.0454933 0.0013910383 0.06942042
-0.08144602 -0.042946447 0.2504028 0.065885976 -0.047826737 0.12634099 0.008695565 -0.04150749
-0.056486618 0.006180881 0.011829315 0.09863714
00000000: eaf0 683d d4ce 8f3c 8559 fe3d b43a 693e
00000010: f486 1abd 8cb9 b83c c042 0f3c 82ec 9f3d
00000020: 1154 c23d d998 77bd 0c04 e43c 4020 f6bc
00000030: 5f39 383d 7aaf 313c 6003 61bd 3e58 1cbd
00000040: 04a6 93bc 3d8d dabc ba62 00bd 1650 1b3b
00000050: aeef b23d 6ec9 90bc eaf7 9a3d 2c2b 803d
00000060: f37f bd3d 5609 a13e ad89 58bd 10cf 1b3d
00000070: e1d5 963d 480b 61bc 63da 63bc 6f08 efbc
00000080: 974c 833d 2d10 36bd 8188 a4bd 225d 323d
00000090: 2d69 65bd ef2a bdbd c1e3 4e3e 9c2b c33d
000000a0: 6d2d bebc d2d2 c4bd 09b3 c3bb 98f5 453d
000000b0: dc8f 0f3c be83 003e 79d0 c2bc 6780 50bd
000000c0: 9bd8 86bd 6da8 943d e9c6 ccbd 7336 de3d
000000d0: fbc9 b7bc 8fd9 aa3d 2d17 9a3d 37d2 a93d
000000e0: bb3c c23d 8bc7 c83d af96 0f3e 0dfc ccbd
000000f0: 0c64 a9bd 302a b23d 9b47 aabd 7787 66bd
00000100: fbdb 923b e55c f63b b47c c73c 69b8 cd3c
00000110: 3520 183c b772 213d 0645 01bd ee8a 913d
00000120: f593 c53d 48ed 643e 805b f2bc 889b 933c
00000130: 8808 9e3e a7d0 5f3d 9e4a afbc 37ea c93d
00000140: 51d1 c53c e01b 813d 75ae 833d 0eb9 4d3d
00000150: 8a0a 76bd 2f57 3abd 8053 b63a 4b2c 8e3d
00000160: 2ccd a6bd 9de8 2fbd cc34 803e 3aef 863d
00000170: f8e5 43bd 885f 013e d877 0e3c c203 2abd
00000180: 835e 67bd fd88 ca3b becf 413c 4502 ca3d

train_data f4 [600, 1]
0.965287 -0.9893191 0.7516689 0.62616825 0.82643527 0.8371162 0.66088116 0.2176235
0.8451268 0.8638184 0.53004 0.6368491 -0.8985314 -0.4846462 0.30307075 0.72496665
0.19092123 0.1588785 0.3164219 -0.37249666 -0.682243 0.2870494 0.38050735 -0.2576769
0.48731643 -0.99465954 0.8210948 0.5220294 -0.65020025 -0.76502 0.64753 -0.41789052
-0.10280374 -0.34312415 -0.4445928 -0.25233644 -0.40453938 0.5273698 -0.6288385 -0.129506
-0.39919892 0.48998666 -0.017356476 0.9839786 0.73564756 -0.16688919 0.78638184 -0.046728972
0.3564753 0.8905207 0.71695596 -0.38851804 -0.5273698 -0.23364486 -0.32443258 0.8985314
0.27903873 -0.6662216 0.6715621 0.34045395 0.25500667 0.9599466 -0.29238984 -0.9279039
-0.82643527 -0.23097463 0.86648864 -0.14018692 -0.020026702 0.97596794 0.28437918 0.7917223
0.014686248 -0.46328437 -0.49799734 -0.49532712 -0.90387183 -0.09212283 0.05740988 0.12416556
-0.2977303 -0.5113485 0.6528705 0.4072096 0.74098796 0.09479306 -0.108144194 -0.9546061
0.4445928 -0.2283044 -0.6715621 -0.78638184 0.22563417 -0.8397864 -0.61815757 -0.73297733
0.108144194 -0.9012016 0.51668894 0.7810414 1.0 -0.5006676 -0.7009346 -0.38317758
-0.80774367 0.9359146 -0.8611482 -0.11615487 0.188251 -0.6742323 0.94125503 0.5487316
0.11081442 0.12149533 -0.46862483 -0.9465955 0.8317757 0.95727634 0.93324435 -0.31108144
0.4739653 -0.79706275 0.5353805 -0.6929239 -0.7730307 0.46061414 0.16688919 -0.08678237
0.9465955 0.96795726 -0.54339117 -0.3484646 0.078771695 -0.564753 -0.8104139 0.5540721
0.71428573 0.21495327 -0.623498 -0.50867826 0.66889185 -0.48731643 -0.054739654 0.36982644
0.06275033 0.9092123 0.7036048 0.2683578 0.8291055 0.24966623 -0.71695596 0.105473965
-0.43124166 0.47129506 -0.9519359 0.9732977 0.7943925 -0.6635514 -0.69826436 -0.66889185
0.9919893 0.8424566 0.9279039 0.9786382 -0.06542056 -0.44726303 0.03070761 0.7116155
0.6288385 -0.6368491 0.09212283 0.9118825 -0.052069426 0.54339117 0.23097463 -0.35914552
-0.16154873 0.60747665 -0.8024032 -0.03871829 -0.67690253 -0.9732977 0.8104139 0.45260346
0.7623498 -0.47129506 -0.081441924 0.9546061 -0.3671562 -0.07076102 -0.35380507 -0.6902537
-0.12416556 0.4259012 -0.22296396 -0.9919893 0.46328437 0.6315087 0.9012016 0.73297733
-0.8531375 -0.5380507 -0.77837116 -0.16421896 0.18024032 -0.9599466 0.12683578 0.50867826
-0.70627505 -0.7516689 -0.76769024 0.1188251 0.55941254 -0.21495327 0.43658212 0.022696929
-0.24165554 0.012016022 -0.9626168 0.85046726 -0.3164219 -0.93324435 0.15353805 -0.33778372
-0.4072096 -0.7116155 0.9626168 -0.42857143 -0.77036047 -0.83444595 -0.6021362 -0.9786382
0.06542056 0.5140187 0.49799734 -0.74899864 -0.2870494 0.32443258 0.009345794 0.7222964
0.5567423 -0.8451268 0.20160213 -0.96795726 -0.9118825 0.4926569 0.33778372 0.88251
0.69826436 -0.39118826 -0.8638184 0.47663552 0.98664886 0.14018692 0.052069426 -0.025367156
00000000: 0d1d 773f 0444 7dbf 5f6d 403f 904c 203f
00000010: 4391 533f 3f4d 563f 822f 293f b2d8 5e3e
00000020: 3b5a 583f 3423 5d3f b4b0 073f 8b08 233f
00000030: 2706 66bf 8c23 f8be 172c 9b3e 6a97 393f
00000040: db80 433e 0cb1 223e 0d02 a23e e2b7 bebe
00000050: 7aa7 2ebf 24f8 923e dcd1 c23e 3aee 83be
00000060: 8a81 f93e 02a2 7ebf 4533 523f b8a3 053f
00000070: 8673 26bf 5ad8 43bf 87c4 253f bff5 d5be
00000080: c48a d2bd f8ad afbe aba1 e3be 3e32 81be
00000090: c91f cfbe b501 073f 8ffb 20bf 399d 04be
000000a0: cd63 ccbe 88df fa3e 2b2f 8ebc 06e6 7b3f
000000b0: 6653 3c3f 00e5 2abe 5250 493f e166 3fbd
000000c0: ee83 b63e 2af9 633f 6d8a 373f d6eb c6be
000000d0: b501 07bf 9940 6fbe 071c a6be 2706 663f
000000e0: 2ade 8e3e 808d 2abf 7eeb 2b3f fb4f ae3e
000000f0: 3c90 823e 0fbf 753f 1fb4 95be 1c8b 6dbf
00000100: 4391 53bf 9d84 6cbe 33d2 5d3f 298d 0fbe
00000110: 0a0f a4bc 09d9 793f 269a 913e 50ae 4a3f
00000120: 979e 703c 9c33 edbe 82f9 febe 849b fdbe
00000130: 2564 67bf e5aa bcbd 9f26 6b3d 834a fe3d
00000140: 1b70 98be bce7 02bf 8522 273f c77d d03e
00000150: 63b1 3d3f dd22 c23d b47a ddbd 1161 74bf
00000160: aba1 e33e a1c8 69be 7eeb 2bbf 5250 49bf
00000170: a50c 673e 3efc 56bf 933f 1ebf 67a4 3bbf
00000180: b47a dd3d 26b5 66bf ba45 043f 54f2 473f
00000190: 0000 803f c02b 00bf 7370 33bf da2f c4be
000001a0: 4ac8 4ebf 1998 6f3f 3574 5cbf 9be2 edbd
000001b0: dfc4 403e 7d9a 2cbf 17f6 703f ad79 0c3f
000001c0: acf2 e23d 8bd2 f83d 98ef efbe 1554 72bf
000001d0: 41ef 543f 1010 753f 1ae9 6e3f 1146 9fbe
000001e0: 94ab f23e 4e0c 4cbf b20e 093f 7663 31bf
000001f0: 57e5 45bf 9ed5 eb3e 00e5 2a3e f5ba b1bd
00000200: 1554 723f 0ccc 773f af1b 0bbf f469 b2be
00000210: 0e53 a13d a793 10bf 4977 4fbf abd7 0d3f
00000220: 6edb 363f b61c 5c3e 919d 1fbf bd38 02bf
00000230: 7f3c 2b3f 8a81 f9be b036 60bd e459 bd3e
00000240: 3f83 803d 23c2 683f 721f 343f 3266 893e
00000250: 4240 543f 81a8 7f3e 6d8a 37bf bc02 d83d
00000260: b5cb dcbe 964d f13e 12b2 73bf 0a2a 793f
00000270: 4f5d 4b3f 81de 29bf 74c1 32bf 7f3c 2bbf
00000280: 03f3 7d3f 3cab 573f 1c8b 6d3f 0888 7a3f
00000290: 37fb 85bd a9ff e4be 878e fb3c 6f2c 363f
000002a0: 8ffb 203f 8b08 23bf e5aa bc3d 2271 693f
000002b0: c046 55bd af1b 0b3f 9d84 6c3e ece1 b7be
000002c0: 086d 25be 9783 1b3f 4c6a 4dbf 1297 1ebd
000002d0: 7c49 2dbf 0a2a 79bf 4977 4f3f a4bb e73e
000002e0: 5b29 433f 964d f1be 06cb a6bd 1161 743f
000002f0: e6fb bbbe 27eb 90bd f025 b5be 77b4 30bf
00000300: 834a febd b90f da3e aa50 64be 03f3 7dbf
00000310: 9c33 ed3e 8eaa 213f 26b5 663f 67a4 3b3f
00000320: 3867 5abf b1bd 09bf 5543 47bf 0429 28be
00000330: eb90 383e 0fbf 75bf 3de1 013e bd38 023f
00000340: 71ce 34bf 5f6d 40bf 5987 44bf 935a f33d
00000350: a935 0f3f b61c 5cbe b187 df3e e9ee b93c
00000360: 8d74 77be d9de 443c 0e6e 76bf 39b8 593f
00000370: 0d02 a2be 1ae9 6ebf 1439 1d3e fdf1 acbe
00000380: c77d d0be 6f2c 36bf 0e6e 763f b76d dbbe
00000390: 5836 45bf 409e 55bf 9925 1abf 0888 7abf
000003a0: 37fb 853d bb96 033f 82f9 fe3e 60be 3fbf
000003b0: 24f8 92be 071c a63e 1a1f 193c 6be8 383f
000003c0: aa86 0e3f 3b5a 58bf ca70 4e3e 0ccc 77bf
000003d0: 2271 69bf 863d fc3e fdf1 ac3e 2dec 613f
000003e0: 74c1 323f d449 c8be 3423 5dbf 9209 f43e
000003f0: 0595 7c3f 298d 0f3e c046 553d c8ce cfbc

train_targets f4 [600, 1]
0.965287 0.9893191 0.7516689 0.62616825 0.82643527 0.8371162 0.66088116 0.2176235
0.8451268 0.8638184 0.53004 0.6368491 0.8985314 0.4846462 0.30307075 0.72496665
0.19092123 0.1588785 0.3164219 0.37249666 0.682243 0.2870494 0.38050735 0.2576769
0.48731643 0.99465954 0.8210948 0.5220294 0.65020025 0.76502 0.64753 0.41789052
0.10280374 0.34312415 0.4445928 0.25233644 0.40453938 0.5273698 0.6288385 0.129506
0.39919892 0.48998666 0.017356476 0.9839786 0.73564756 0.16688919 0.78638184 0.046728972
0.3564753 0.8905207 0.71695596 0.38851804 0.5273698 0.23364486 0.32443258 0.8985314
0.27903873 0.6662216 0.6715621 0.34045395 0.25500667 0.9599466 0.29238984 0.9279039
0.82643527 0.23097463 0.86648864 0.14018692 0.020026702 0.97596794 0.28437918 0.7917223
0.014686248 0.46328437 0.49799734 0.49532712 0.90387183 0.09212283 0.05740988 0.12416556
0.2977303 0.5113485 0.6528705 0.4072096 0.74098796 0.09479306 0.108144194 0.9546061
0.4445928 0.2283044 0.6715621 0.78638184 0.22563417 0.8397864 0.61815757 0.73297733
0.108144194 0.9012016 0.51668894 0.7810414 1.0 0.5006676 0.7009346 0.38317758
0.80774367 0.9359146 0.8611482 0.11615487 0.188251 0.6742323 0.94125503 0.5487316
0.11081442 0.12149533 0.46862483 0.9465955 0.8317757 0.95727634 0.93324435 0.31108144
0.4739653 0.79706275 0.5353805 0.6929239 0.7730307 0.46061414 0.16688919 0.08678237
0.9465955 0.96795726 0.54339117 0.3484646 0.078771695 0.564753 0.8104139 0.5540721
0.71428573 0.21495327 0.623498 0.50867826 0.66889185 0.48731643 0.054739654 0.36982644
0.06275033 0.9092123 0.7036048 0.2683578 0.8291055 0.24966623 0.71695596 0.105473965
0.43124166 0.47129506 0.9519359 0.9732977 0.7943925 0.6635514 0.69826436 0.66889185
0.9919893 0.8424566 0.9279039 0.9786382 0.06542056 0.44726303 0.03070761 0.7116155
0.6288385 0.6368491 0.09212283 0.9118825 0.052069426 0.54339117 0.23097463 0.35914552
0.16154873 0.60747665 0.8024032 0.03871829 0.67690253 0.9732977 0.8104139 0.45260346
0.7623498 0.47129506 0.081441924 0.9546061 0.3671562 0.07076102 0.35380507 0.6902537
0.12416556 0.4259012 0.22296396 0.9919893 0.46328437 0.6315087 0.9012016 0.73297733
0.8531375 0.5380507 0.77837116 0.16421896 0.18024032 0.9599466 0.12683578 0.50867826
0.70627505 0.7516689 0.76769024 0.1188251 0.55941254 0.21495327 0.43658212 0.022696929
0.24165554 0.012016022 0.9626168 0.85046726 0.3164219 0.93324435 0.15353805 0.33778372
0.4072096 0.7116155 0.9626168 0.42857143 0.77036047 0.83444595 0.6021362 0.9786382
0.06542056 0.5140187 0.49799734 0.74899864 0.2870494 0.32443258 0.009345794 0.7222964
0.5567423 0.8451268 0.20160213 0.96795726 0.9118825 0.4926569 0.33778372 0.88251
0.69826436 0.39118826 0.8638184 0.47663552 0.98664886 0.14018692 0.052069426 0.025367156
00000000: 0d1d 773f 0444 7d3f 5f6d 403f 904c 203f
00000010: 4391 533f 3f4d 563f 822f 293f b2d8 5e3e
00000020: 3b5a 583f 3423 5d3f b4b0 073f 8b08 233f
00000030: 2706 663f 8c23 f83e 172c 9b3e 6a97 393f
00000040: db80 433e 0cb1 223e 0d02 a23e e2b7 be3e
00000050: 7aa7 2e3f 24f8 923e dcd1 c23e 3aee 833e
00000060: 8a81 f93e 02a2 7e3f 4533 523f b8a3 053f
00000070: 8673 263f 5ad8 433f 87c4 253f bff5 d53e
00000080: c48a d23d f8ad af3e aba1 e33e 3e32 813e
00000090: c91f cf3e b501 073f 8ffb 203f 399d 043e
000000a0: cd63 cc3e 88df fa3e 2b2f 8e3c 06e6 7b3f
000000b0: 6653 3c3f 00e5 2a3e 5250 493f e166 3f3d
000000c0: ee83 b63e 2af9 633f 6d8a 373f d6eb c63e
000000d0: b501 073f 9940 6f3e 071c a63e 2706 663f
000000e0: 2ade 8e3e 808d 2a3f 7eeb 2b3f fb4f ae3e
000000f0: 3c90 823e 0fbf 753f 1fb4 953e 1c8b 6d3f
00000100: 4391 533f 9d84 6c3e 33d2 5d3f 298d 0f3e
00000110: 0a0f a43c 09d9 793f 269a 913e 50ae 4a3f
00000120: 979e 703c 9c33 ed3e 82f9 fe3e 849b fd3e
00000130: 2564 673f e5aa bc3d 9f26 6b3d 834a fe3d
00000140: 1b70 983e bce7 023f 8522 273f c77d d03e
00000150: 63b1 3d3f dd22 c23d b47a dd3d 1161 743f
00000160: aba1 e33e a1c8 693e 7eeb 2b3f 5250 493f
00000170: a50c 673e 3efc 563f 933f 1e3f 67a4 3b3f
00000180: b47a dd3d 26b5 663f ba45 043f 54f2 473f
00000190: 0000 803f c02b 003f 7370 333f da2f c43e
000001a0: 4ac8 4e3f 1998 6f3f 3574 5c3f 9be2 ed3d
000001b0: dfc4 403e 7d9a 2c3f 17f6 703f ad79 0c3f
000001c0: acf2 e23d 8bd2 f83d 98ef ef3e 1554 723f
000001d0: 41ef 543f 1010 753f 1ae9 6e3f 1146 9f3e
000001e0: 94ab f23e 4e0c 4c3f b20e 093f 7663 313f
000001f0: 57e5 453f 9ed5 eb3e 00e5 2a3e f5ba b13d
00000200: 1554 723f 0ccc 773f af1b 0b3f f469 b23e
00000210: 0e53 a13d a793 103f 4977 4f3f abd7 0d3f
00000220: 6edb 363f b61c 5c3e 919d 1f3f bd38 023f
00000230: 7f3c 2b3f 8a81 f93e b036 603d e459 bd3e
00000240: 3f83 803d 23c2 683f 721f 343f 3266 893e
00000250: 4240 543f 81a8 7f3e 6d8a 373f bc02 d83d
00000260: b5cb dc3e 964d f13e 12b2 733f 0a2a 793f
00000270: 4f5d 4b3f 81de 293f 74c1 323f 7f3c 2b3f
00000280: 03f3 7d3f 3cab 573f 1c8b 6d3f 0888 7a3f
00000290: 37fb 853d a9ff e43e 878e fb3c 6f2c 363f
000002a0: 8ffb 203f 8b08 233f e5aa bc3d 2271 693f
000002b0: c046 553d af1b 0b3f 9d84 6c3e ece1 b73e
000002c0: 086d 253e 9783 1b3f 4c6a 4d3f 1297 1e3d
000002d0: 7c49 2d3f 0a2a 793f 4977 4f3f a4bb e73e
000002e0: 5b29 433f 964d f13e 06cb a63d 1161 743f
000002f0: e6fb bb3e 27eb 903d f025 b53e 77b4 303f
00000300: 834a fe3d b90f da3e aa50 643e 03f3 7d3f
00000310: 9c33 ed3e 8eaa 213f 26b5 663f 67a4 3b3f
00000320: 3867 5a3f b1bd 093f 5543 473f 0429 283e
00000330: eb90 383e 0fbf 753f 3de1 013e bd38 023f
00000340: 71ce 343f 5f6d 403f 5987 443f 935a f33d
00000350: a935 0f3f b61c 5c3e b187 df3e e9ee b93c
00000360: 8d74 773e d9de 443c 0e6e 763f 39b8 593f
00000370: 0d02 a23e 1ae9 6e3f 1439 1d3e fdf1 ac3e
00000380: c77d d03e 6f2c 363f 0e6e 763f b76d db3e
00000390: 5836 453f 409e 553f 9925 1a3f 0888 7a3f
000003a0: 37fb 853d bb96 033f 82f9 fe3e 60be 3f3f
000003b0: 24f8 923e 071c a63e 1a1f 193c 6be8 383f
000003c0: aa86 0e3f 3b5a 583f ca70 4e3e 0ccc 773f
000003d0: 2271 693f 863d fc3e fdf1 ac3e 2dec 613f
000003e0: 74c1 323f d449 c83e 3423 5d3f 9209 f43e
000003f0: 0595 7c3f 298d 0f3e c046 553d c8ce cf3c

test_data f4 [150, 1]
0.13484646 0.28437918 0.38050735 0.6902537 0.5914553 0.8798398 0.63951933 0.11615487
0.20694259 0.4659546 0.012016022 0.4659546 0.3351135 0.80507344 0.95727634 0.8718291
0.036048066 0.5380507 0.72496665 0.68758345 0.85046726 0.22029373 0.10013351 0.028037382
0.47930574 0.9973298 0.2683578 0.21228305 0.7543391 0.6555407 0.76502 0.24432577
0.18291055 0.77036047 0.9706275 0.044058744 0.80774367 0.9198932 0.7543391 0.81575435
0.84779704 0.20961282 0.41789052 0.08411215 0.27903873 0.07343124 0.7009346 0.8184246
0.5246996 0.53004 0.87716955 0.6128171 0.6448598 0.6208278 0.8397864 0.46862483
0.9839786 0.5754339 0.14819759 0.5941255 0.8611482 0.6528705 0.91455275 0.44993323
0.65821093 0.7196262 0.188251 0.07343124 0.5460614 0.40186915 0.55140185 0.64218956
0.8531375 0.23898531 0.017356476 0.71428573 0.3858478 0.6635514 0.22563417 0.27102804
0.0040053404 0.63951933 0.43925235 0.19092123 0.3564753 0.44726303 0.53271025 0.57810414
0.32176235 0.7036048 0.43925235 0.0013351135 0.799733 0.8744993 0.246996 0.90654206
0.19359146 0.15086782 0.5033378 0.3751669 0.89586115 0.8718291 0.3084112 0.7303071
0.32977304 0.3965287 0.5674232 0.42323098 0.43124166 0.6555407 0.12683578 0.060080107
0.54072094 0.5834446 0.57009345 0.31108144 0.3351135 0.17757009 0.54072094 0.6128171
0.68758345 0.6849132 0.022696929 0.94392526 0.20427236 0.11081442 0.26301736 0.64753
0.31909212 0.2576769 0.6448598 0.98664886 0.028037382 1.0 0.18291055 0.917223
0.89586115 0.8130841 0.2977303 0.3938585 0.7303071 0.94926566 0.10013351 0.2763685
0.049399197 0.1588785 0.90387183 0.25233644 0.31375167 0.11348464
00000000: 3115 0a3e 269a 913e dcd1 c23e 77b4 303f
00000010: 9d69 173f 2e3d 613f 8ab7 233f 9be2 ed3d
00000020: c2e8 533e 9a91 ee3e d9de 443c 9a91 ee3e
00000030: ff93 ab3e 4b19 4e3f 1010 753f 3130 5f3f
00000040: 23a7 133d b1bd 093f 6a97 393f 7805 303f
00000050: 39b8 593f ae94 613e cc12 cd3d a7ae e53c
00000060: 9067 f53e 0151 7f3f 3266 893e ba60 593e
00000070: 5e1c 413f 84d1 273f 5ad8 433f 8930 7a3e
00000080: e74c 3b3e 5836 453f 0b7b 783f f176 343d
00000090: 4ac8 4e3f 1f7e 6b3f 5e1c 413f 47d5 503f
000000a0: 3a09 593f bea4 563e bff5 d53e fe42 ac3d
000000b0: 2ade 8e3e 1e63 963d 7370 333f 4684 513f
000000c0: b752 063f b4b0 073f 2f8e 603f 95e1 1c3f
000000d0: 8815 253f 92ee 1e3f 3efc 563f 98ef ef3e
000000e0: 06e6 7b3f a34f 133f 1cc1 173e 9c18 183f
000000f0: 3574 5c3f 8522 273f 2120 6a3f a65d e63e
00000100: 8380 283f 6c39 383f dfc4 403e 1e63 963d
00000110: aeca 0b3f cbc1 cd3e ac28 0d3f 8966 243f
00000120: 3867 5a3f 91b8 743e 2b2f 8e3c 6edb 363f
00000130: d88d c53e 81de 293f a50c 673e 30c4 8a3e
00000140: 3b3f 833b 8ab7 233f afe5 e03e db80 433e
00000150: ee83 b63e a9ff e43e b35f 083f a2fe 133f
00000160: 09be a43e 721f 343f afe5 e03e fafe ae3a
00000170: 4dbb 4c3f 30df 5f3f 85ec 7c3e 2413 683f
00000180: d73c 463e 187d 1a3e bfda 003f e015 c03e
00000190: 2857 653f 3130 5f3f 13e8 9d3e 68f5 3a3f
000001a0: 03d8 a83e cf05 cb3e a642 113f bbb1 d83e
000001b0: b5cb dc3e 84d1 273f 3de1 013e 8f16 763d
000001c0: b06c 0a3f a05c 153f a5f1 113f 1146 9f3e
000001d0: ff93 ab3e efd4 353e b06c 0a3f 95e1 1c3f
000001e0: 7805 303f 7956 2f3f e9ee b93c 16a5 713f
000001f0: c62c 513e acf2 e23d 36aa 863e 87c4 253f
00000200: 0b60 a33e 3aee 833e 8815 253f 0595 7c3f
00000210: a7ae e53c 0000 803f e74c 3b3e 20cf 6a3f
00000220: 2857 653f 4826 503f 1b70 983e d2a7 c93e
00000230: 68f5 3a3f 1303 733f cc12 cd3d 2c80 8d3e
00000240: d056 4a3d 0cb1 223e 2564 673f 3e32 813e
00000250: 0fa4 a03e a36a e83d

0.weight f4 [100, 1]
0.24839711 -0.28297853 -0.63714415 -0.98845893 -0.15651567 0.32744682 -0.79290426 -0.45267728
0.42355305 -0.16808528 -0.49359867 0.02093947 0.15211122 -0.54934514 0.92474824 -0.069756575
0.514313 -0.29723722 0.558675 -0.08522905 -0.49773738 -0.42006132 0.48934326 -0.7788652
0.41011405 0.97509164 -0.74245346 0.80393666 -0.73181105 -0.8943497 0.33644402 -0.23051317
-0.080739394 -0.31507257 0.58337665 0.23364756 0.46347135 0.3005691 0.7808987 -0.63519895
0.64764076 0.02483827 -0.21971336 -0.64371246 0.8480014 0.6241346 0.37288478 -0.6138533
-0.09443037 -0.045614123 -0.8042456 -0.84472173 0.6930737 0.71484005 0.08207015 -0.031698942
0.20534061 0.04575944 0.7245141 0.0106785605 0.3927409 1.0070134 -0.07506037 0.9157056
0.042599067 -0.10696293 -0.28142095 0.9452047 -0.32991478 0.41511208 -0.6077837 -0.685047
-0.82581025 -0.54784507 -0.9618349 0.41453695 1.0436696 0.97504663 0.89778125 0.07707417
0.724029 -0.69573766 -0.60857594 -0.18587254 -0.745547 -0.51187015 0.16975832 -0.8067959
-0.95577234 0.116840005 -0.97593665 0.32738608 0.50921416 -0.537656 0.42586005 0.19245686
0.5783316 -0.8175654 -0.65843916 0.9254759
00000000: d05b 7e3e 90e2 90be e11b 23bf a50b 7dbf
00000010: a545 20be 1ca7 a73e c6fb 4abf 51c5 e7be
00000020: f2db d83e 8c1e 2cbe f7b8 fcbe 4089 ab3c
00000030: 0bc3 1b3e e2a1 0cbf 4dbc 6c3f 89dc 8ebd
00000040: 04aa 033f 7a2f 98be 5305 0f3f 918c aebd
00000050: 6fd7 febe 4712 d7be 338b fa3e b663 47bf
00000060: 78fa d13e 9b9f 793f 6e11 3ebf cbce 4d3f
00000070: f857 3bbf 1af4 64bf 6442 ac3e a50b 6cbe
00000080: b25a a5bd 3151 a1be 2c58 153f 4e41 6f3e
00000090: 1e4c ed3e 31e4 993e fae8 473f 669c 22bf
000000a0: c9cb 253f a179 cb3c 8afc 60be 57ca 24bf
000000b0: 9f16 593f 49c7 1f3f c1ea be3e 7d25 1dbf
000000c0: b664 c1bd e0d5 3abd 0ae3 4dbf af3f 58bf
000000d0: 476d 313f c2ff 363f 6514 a83d c0d6 01bd
000000e0: cf44 523e 406e 3b3d c279 393f 21f5 2e3c
000000f0: 5615 c93e d1e5 803f 40b9 99bd af6b 6a3f
00000100: 5c7c 2e3d 610f dbbd 6816 90be eff8 713f
00000110: 97ea a8be 9289 d43e b697 1bbf 3d5f 2fbf
00000120: 4d68 53bf 933f 0cbf d03a 76bf 303e d43e
00000130: f796 853f a89c 793f fed4 653f 10d9 9d3d
00000140: f759 393f dd1b 32bf a2cb 1bbf 5f55 3ebe
00000150: 2bdc 3ebf ec09 03bf 20d5 2d3e 2d8a 4ebf
00000160: 7fad 74bf d049 ef3d fcd6 79bf 269f a73e
00000170: dc5b 023f d3a3 09bf 540a da3e 6913 453e
00000180: 8a0d 143f f74b 51bf 788f 28bf fdeb 6c3f

0.bias f4 [100]
-0.47071147 -0.80964315 0.04247348 -0.0015988961 0.4098423 -0.8866149 0.40072727 0.47745818
0.17471223 0.30350754 -0.08862043 -0.2311188 0.2839312 0.68405837 0.37177795 0.78423023
0.6536822 0.48873332 0.27837178 0.7699098 0.39338073 0.41747257 -0.425981 -0.67728025
-0.45714974 -0.00039292575 -0.8108126 0.6122825 -0.8527068 -0.76688427 -0.035749312 0.985068
0.19752869 0.6137789 0.45889926 0.96340585 -0.31287226 0.9095198 0.0013800729 -0.5113195
0.48408714 0.085867085 0.49979055 0.9219438 0.37578902 0.097025596 -0.320794 0.501429
0.11042602 -0.3883648 -0.6554093 -0.02153827 -0.50471205 0.97048134 0.60715604 -0.19191194
0.22713763 -0.67110467 0.01374533 0.32254264 0.74307626 0.093942 -0.44794798 0.7943871
0.40404963 0.21674204 -0.96242857 0.48329464 -0.26834556 0.27744645 -0.7490214 0.8296658
-0.41288984 -0.0007313466 -0.9795897 -0.66649187 0.0013927951 0.7742485 -0.7254553 -0.48377645
-0.57437795 0.76484853 -0.50374365 -0.17020166 -0.4459251 -0.2974711 -0.1738435 0.04910855
-0.43856233 -0.35062385 0.009078098 -0.2956359 -0.2919577 0.0047909147 -0.47952855 0.17010134
-0.79277277 0.48488224 0.35404846 -0.11911684
00000000: 1801 f1be c644 4fbf acf8 2d3d 0d92 d1ba
00000010: dad6 d13e 32f9 62bf 202c cd3e 6675 f43e
00000020: c3e7 323e 5765 9b3e a17e b5bd 68aa 6cbe
00000030: 6e5f 913e 731e 2f3f ae59 be3e 50c3 483f
00000040: b757 273f 413b fa3e bf86 8e3e cf18 453f
00000050: 3369 c93e f7be d53e 2e1a dabe 3d62 2dbf
00000060: 880f eabe 9a01 ceb9 6a91 4fbf 8cbe 1c3f
00000070: fe4a 5abf 8752 44bf df6d 12bd 6b2d 7c3f
00000080: f644 4a3e 9d20 1d3f d8f4 ea3e c4a1 763f
00000090: cb30 a0be 4ad6 683f 90e3 b43a d6e5 02bf
000000a0: 45da f73e 15db af3d 8ce4 ff3e 8204 6c3f
000000b0: 6b67 c03e 5bb5 c63d 1c3f a4be a75d 003f
000000c0: 0a27 e23d c0d7 c6be e7c8 27bf 0771 b0bc
000000d0: cf34 01bf 7771 783f 946e 1b3f 9084 44be
000000e0: c496 683e 84cd 2bbf 1834 613c 4f24 a53e
000000f0: 3f3a 3e3f aa64 c03d 7059 e5be f45c 4b3f
00000100: 98df ce3e a0f1 5d3e b861 76bf 6572 f73e
00000110: 9764 89be 760d 8e3e debf 3fbf fa64 543f
00000120: 4c66 d3be d7b7 3fba 64c6 7abf 369f 2abf
00000130: 738e b63a 2635 463f 70b7 39bf 8cb1 f7be
00000140: 6f0a 13bf 1dcd 433f 58f5 00bf 5849 2ebe
00000150: 4b50 e4be 224e 98be 0804 32be 0c26 493d
00000160: 3e8b e0be f884 b3be 4ebc 143c 975d 97be
00000170: 7b7b 95be 1bfd 9c3b c484 f5be 0c2f 2e3e
00000180: 28f3 4abf 7c42 f83e d745 b53e 88f3 f3bd

2.weight f4 [1, 100]
0.05687038 0.017554678 0.12419418 0.227763 -0.037726358 0.022549413 0.008743942 0.07808782
0.09488691 -0.0604485 0.027833961 -0.030044675 0.04497659 0.0108450595 -0.05493486 -0.03817009
-0.018023498 -0.026678676 -0.031344153 0.0023698858 0.087371215 -0.017674174 0.07566817 0.062582344
0.0925292 0.31452435 -0.052865673 0.038039267 0.07365013 -0.0137356 -0.013907048 -0.029178826
0.06411093 -0.04444902 -0.080338486 0.04354585 -0.056008507 -0.092367046 0.20204069 0.09529802
-0.02321502 -0.09610523 -0.0059722704 0.04832992 0.008762326 0.12550256 -0.023781048 -0.050903704
-0.06584283 0.07258687 -0.099988766 0.10850229 -0.022435179 0.08342277 0.07523952 0.082920484
0.0948424 0.09803685 0.14022325 -0.10009012 -0.082710356 0.08699453 -0.08314439 -0.056281533
0.00448179 0.007518398 0.024351455 0.025112348 0.0092850225 0.03941604 -0.031559967 0.07106577
0.09647361 0.2235614 -0.029584646 0.018018499 0.30865884 0.054642346 -0.021397885 0.09859126
0.024147661 0.06304145 0.064297594 0.05022531 -0.060068645 -0.0454933 0.0013910383 0.06942042
-0.08144602 -0.042946447 0.2504028 0.065885976 -0.047826737 0.12634099 0.008695565 -0.04150749
-0.056486618 0.006180881 0.011829315 0.09863714
00000000: eaf0 683d d4ce 8f3c 8559 fe3d b43a 693e
00000010: f486 1abd 8cb9 b83c c042 0f3c 82ec 9f3d
00000020: 1154 c23d d998 77bd 0c04 e43c 4020 f6bc
00000030: 5f39 383d 7aaf 313c 6003 61bd 3e58 1cbd
00000040: 04a6 93bc 3d8d dabc ba62 00bd 1650 1b3b
00000050: aeef b23d 6ec9 90bc eaf7 9a3d 2c2b 803d
00000060: f37f bd3d 5609 a13e ad89 58bd 10cf 1b3d
00000070: e1d5 963d 480b 61bc 63da 63bc 6f08 efbc
00000080: 974c 833d 2d10 36bd 8188 a4bd 225d 323d
00000090: 2d69 65bd ef2a bdbd c1e3 4e3e 9c2b c33d
000000a0: 6d2d bebc d2d2 c4bd 09b3 c3bb 98f5 453d
000000b0: dc8f 0f3c be83 003e 79d0 c2bc 6780 50bd
000000c0: 9bd8 86bd 6da8 943d e9c6 ccbd 7336 de3d
000000d0: fbc9 b7bc 8fd9 aa3d 2d17 9a3d 37d2 a93d
000000e0: bb3c c23d 8bc7 c83d af96 0f3e 0dfc ccbd
000000f0: 0c64 a9bd 302a b23d 9b47 aabd 7787 66bd
00000100: fbdb 923b e55c f63b b47c c73c 69b8 cd3c
00000110: 3520 183c b772 213d 0645 01bd ee8a 913d
00000120: f593 c53d 48ed 643e 805b f2bc 889b 933c
00000130: 8808 9e3e a7d0 5f3d 9e4a afbc 37ea c93d
00000140: 51d1 c53c e01b 813d 75ae 833d 0eb9 4d3d
00000150: 8a0a 76bd 2f57 3abd 8053 b63a 4b2c 8e3d
00000160: 2ccd a6bd 9de8 2fbd cc34 803e 3aef 863d
00000170: f8e5 43bd 885f 013e d877 0e3c c203 2abd
00000180: 835e 67bd fd88 ca3b becf 413c 4502 ca3d
