complete/absolute/state8.pt (torch, 10937 bytes, 9 tensors)

weight f4 [100, 1]
000000 40 5b 2a be 89 73 67 bf f0 85 6a bd 2b 4b 89 3e
       -0.16636372 -0.9041067 -0.05725664 0.2681516
000010 80 ed d7 bc 0f 4f 21 bf 5d 00 72 3d e3 6e 4a bf
       -0.026358366 -0.6301126 0.059082378 -0.7907545
000020 ae 57 57 bf 00 28 41 3c 57 a8 9b 3e 5e e4 2f 3f
       -0.84118164 0.011789322 0.3040187 0.68707836
000030 78 21 ee 3e f7 e2 dc 3e 1f 6a b2 3e 30 b9 0e bf
       0.4650991 0.4314191 0.3484659 -0.55751324
000040 c3 04 cb be 00 82 60 bc 40 97 8d 3d 6a 95 50 bf
       -0.3965207 -0.013702869 0.06913614 -0.8147799
000050 1a 96 4e bf 5f 37 8f bc c0 18 80 3e 00 58 8e 3a
       -0.80697787 -0.017482458 0.25018883 0.0010859966
000060 c0 ae da be 6f b7 69 3f 0d 16 6e 3f 0e d5 2b 3e
       -0.4271145 0.9129552 0.93002397 0.16780493
000070 63 91 cf 3c 3c 0a 6d 3f f1 4b 33 3f a3 f6 40 bc
       0.02533788 0.9259374 0.7003775 -0.011777553
000080 33 da 5f be e0 43 f8 bd 4c a0 06 3e 37 1a 61 bf
       -0.2186058 -0.12122321 0.13147086 -0.87930626
000090 00 13 10 3f c0 e2 41 3d 0c 2d a1 3e 16 e0 73 3f
       0.5627899 0.047335386 0.3147968 0.95263803
0000a0 1b 50 a3 be 84 8f 98 bd 0b 08 22 3f 48 70 73 3e
       -0.31897053 -0.074492484 0.6329352 0.237733
0000b0 77 58 71 bf 0c bf c0 be 55 4b a3 3e 93 7f d0 3e
       -0.9427561 -0.37645757 0.3189341 0.4072233
0000c0 9c ab 81 3f 5e 37 10 bf 23 fb 06 3f fb 21 f9 3d
       1.0130496 -0.56334484 0.52726954 0.121646844
0000d0 17 12 52 bf c6 00 4f 3f 36 87 a0 be 92 a3 2b bf
       -0.8205885 0.80860555 -0.31353158 -0.67046463
0000e0 8f 91 e8 3d 61 d5 66 3f 90 74 6b be 24 e9 86 be
       0.11355888 0.9016934 -0.22993684 -0.26349747
0000f0 c0 2e f5 bd 60 32 d5 3d d4 7d 6e be 8e 7d e6 be
       -0.119718075 0.10409999 -0.23290187 -0.45017666
000100 ac 1e 04 3f af 4b ff be b8 63 a9 be 04 eb 2b be
       0.516093 -0.4986243 -0.33083892 -0.1678887
000110 01 96 50 3f 02 93 47 bf 31 d8 c1 3e 80 b6 67 3c
       0.8147889 -0.7795869 0.37860253 0.0141426325
000120 4a a2 58 3f 8f 36 63 bf d8 f6 1d 3e 88 99 c2 3e
       0.84622633 -0.88755125 0.15426195 0.3800776
000130 5a 10 02 3f 77 00 7e bf cc a5 cf be 43 77 57 3f
       0.508062 -0.9921946 -0.4055618 0.84166354
000140 5c ba 15 bf 7e c6 65 3f a0 72 44 3e 8c df 8d be
       -0.58487487 0.89756 0.19184351 -0.27709615
000150 a5 f5 13 bf fb 73 7a 3f 3d 77 1e 3f 2d ce 19 bf
       -0.577967 0.9783322 0.61900693 -0.60080224
000160 27 c0 50 bf a2 a2 84 be 51 af 24 bf 40 48 18 bd
       -0.815432 -0.2590533 -0.6433001 -0.037178278
000170 70 51 0d 3e f0 98 c2 bd 96 d2 4b be 6f 8b 3e 3e
       0.13800597 -0.09501827 -0.19904551 0.18607877
000180 f7 f3 25 3f c0 d3 20 3d e1 8d 28 3f 92 9f fc bd
       0.64825386 0.03926444 0.6584149 -0.12335123

bias f4 [100]
000000 4c ef 93 be 85 9d 58 3f a0 b5 a0 3e 63 cf 2d 3f
       -0.28893507 0.84615356 0.3138857 0.6789457
000010 70 43 cf be 44 4c 59 3f 4c 06 54 3f e0 55 1e 3f
       -0.40481138 0.84882 0.8282211 0.61849785
000020 c1 cc a5 bd 74 9f 18 bf e9 0e ea 3e 04 59 50 bf
       -0.08095694 -0.59618306 0.457145 -0.8138583
000030 0d 3e 20 3f 64 25 6a 3f b7 9b 82 ba f4 22 17 3e
       0.6259468 0.91463304 -0.000996462 0.14759427
000040 62 a3 08 3f de 4b 07 bf d8 9b f7 be 98 46 df 3e
       0.533743 -0.5285014 -0.48361087 0.43608546
000050 6a 3b 2c 3c bd 2e b8 3d e2 97 07 bf 94 86 31 bf
       0.010512212 0.089932896 -0.5296613 -0.69345975
000060 de 4c d4 be 36 2e ab 3e 6a f1 d8 3d 86 12 da bd
       -0.41464895 0.33433694 0.10592921 -0.10648064
000070 ce 2e 34 3f 4f 6c 1d 3c 0a e2 06 bf 00 81 31 3f
       0.7038392 0.009608342 -0.5268866 0.69337463
000080 59 22 28 3a f9 14 18 3f 1b 61 db 3e da 9a 50 be
       0.00064138096 0.59407 0.42847523 -0.20371571
000090 a6 91 3f bf 88 24 41 be 10 a5 45 be 4c 5f 12 3f
       -0.74831617 -0.18861592 -0.19301248 0.5717666
0000a0 db e4 0f 3f 02 e2 ff 3e b4 91 cd be b8 ea 4a bf
       0.5620858 0.49977118 -0.40150225 -0.792644
0000b0 55 9e 0b bf f8 e5 4e bf 38 7e 90 ba c3 64 d0 3e
       -0.5453847 -0.80819654 -0.0011023944 0.40701875
0000c0 fe 1e 4c 3d 79 b0 58 be ec 92 f8 3e 9f 85 6e 3f
       0.049834244 -0.21161069 0.48549592 0.9317264
0000d0 6c 79 05 3f dd 32 0d 3e c2 6e 92 3e 05 9f c9 be
       0.521384 0.13788934 0.28600127 -0.39379135
0000e0 74 52 f7 3e 6d 3e 32 bc f6 b0 78 bf 06 ce 55 bf
       0.48305094 -0.010879141 -0.9714502 -0.8351749
0000f0 60 b6 57 be 40 44 f5 bd cb e8 73 3f 6f 87 5d 3f
       -0.21065664 -0.11975908 0.9527709 0.8653478
000100 89 23 48 3f b6 31 92 3e fe ba 67 bf c3 99 63 3f
       0.7817922 0.2855355 -0.905197 0.88906497
000110 84 50 99 bc 02 86 5c be 76 75 49 be ca 74 78 bf
       -0.01871515 -0.21535495 -0.19673714 -0.97053206
000120 24 84 5d bb 58 47 2e 3b b0 f2 bf be 4d 44 cb 3e
       -0.0033800686 0.0026592817 -0.37489843 0.39700547
000130 4e fc 0f 3e 52 16 69 3f 30 8b 5f 3e ce 2a 10 3b
       0.1406109 0.91049683 0.2183044 0.002199817
000140 df 6d 8b 3d 6a dc 65 3f ba 8c 3b bf 60 fb 56 bf
       0.068080656 0.8978945 -0.73261607 -0.8397732
000150 5f 8d cc 3a b6 2c 53 bf 22 d8 09 ba 90 d5 77 3f
       0.0015606097 -0.824901 -0.00052583416 0.96810246
000160 bc 3c de be 65 fa c6 3e 97 7c 25 3f 18 cf 42 be
       -0.43405712 0.3886291 0.64643234 -0.19024312
000170 44 1f 8e be d9 f7 50 3d 0a 8d 19 3f aa ff 29 be
       -0.2775823 0.051017616 0.59980834 -0.16601434
000180 95 1b 04 bb ee 18 22 bf ec fc 63 3d 3b 1f a7 39
       -0.0020158042 -0.6331929 0.055661127 0.0003187599

weight f4 [1, 100]
000000 ca 0f 62 3d d4 52 26 3d 13 5d ae 3d 71 02 67 3d
       0.05519084 0.040606335 0.08513846 0.056398813
000010 4a 55 c6 bd f9 35 14 3c 30 5d 99 3d 50 6d 02 bd
       -0.09684236 0.009046071 0.07488477 -0.03184253
000020 54 41 92 3d 18 18 62 3c e0 00 c3 3b 30 1f 3e bc
       0.071413666 0.01379969 0.005951032 -0.011604115
000030 5a 89 02 be c6 c9 2b 3b 1f 40 1a 3e c5 ce 84 3c
       -0.12747708 0.0026212796 0.15063523 0.016211877
000040 3c 09 56 bc fd d6 50 bd 94 32 c1 3c 91 47 63 3d
       -0.013063725 -0.05098628 0.023583688 0.055488173
000050 2a f4 22 3e 5a 97 b5 3c 1e 7e 38 3d c2 7a 6b 3d
       0.15913454 0.022166897 0.04504215 0.057490118
000060 c1 4d b8 3d 73 af a8 ba 95 ed 0c 3d 20 26 a4 bd
       0.089992054 -0.0012869671 0.034406263 -0.08015084
000070 52 3c 98 bc 84 15 24 3e be 26 31 3d 23 a5 cc bc
       -0.01858345 0.16023833 0.043249838 -0.024981087
000080 b3 68 9f 3d c6 25 97 bd 24 21 bf bc 40 02 18 bc
       0.07783642 -0.073802516 -0.023331232 -0.00927788
000090 f2 1e 3f 3d b8 9c c7 3c 62 e1 c7 bd a9 15 d3 3c
       0.04666037 0.024366722 -0.09759785 0.025767164
0000a0 fb 4f cf 3d 7d fc 87 bd 88 9e 8b bd 28 32 56 bc
       0.10122677 -0.06639955 -0.06817347 -0.013073482
0000b0 a8 ad 2c bd 60 33 d8 bb 91 8f ad 3d 68 72 5c bd
       -0.0421578 -0.0065979213 0.08474649 -0.053820044
0000c0 a5 80 05 3e 05 fd bc bd b4 4c 2b ba 17 30 d0 bd
       0.13037355 -0.09227947 -0.0006534562 -0.101654224
0000d0 46 db b3 3d 54 19 e1 3c 3e c0 e1 3c ab be 21 bd
       0.087820575 0.027477898 0.027557489 -0.039488476
0000e0 0d 21 d8 3c cf cc 55 3e ed f8 bb 3d dd f7 8b bd
       0.026382947 0.2087891 0.09178338 -0.068343855
0000f0 c7 d4 4e bd 03 6b 1d bd 66 05 af 3d 7d ce e8 bb
       -0.05049589 -0.038432132 0.085459515 -0.0071046934
000100 0a e0 4f 3c 70 c0 3e 3d 63 7c b8 bd 05 0c b8 3d
       0.012687692 0.04657024 -0.090081 0.089866675
000110 df 12 49 3e 0c fc 2b 3d f3 a6 c6 bd e4 9e fc 3c
       0.19636105 0.041988418 -0.09699812 0.030837484
000120 44 ee 52 3e c1 75 98 3e e1 70 ba 3d 26 4b 3f 3d
       0.20598704 0.2977734 0.09103561 0.046702527
000130 8a 1c a6 bc e1 f0 91 bc 68 8f 86 bd 68 4a 22 3e
       -0.02027728 -0.017815055 -0.06570321 0.15848696
000140 77 83 f3 3d c7 92 d8 bd 60 fa 8f bb b6 e4 28 3d
       0.11890309 -0.105748706 -0.0043938607 0.04123374
000150 ac 66 80 3e a1 d7 c9 bc 14 f9 1a 3e bf f9 81 bd
       0.25078332 -0.024638953 0.15134078 -0.063464634
000160 a7 15 80 3d 96 2e 54 bd b8 f9 d7 3d 98 3f 81 3c
       0.0625413 -0.05180224 0.10545677 0.015777394
000170 75 83 a5 bd 97 cf 18 bd 6a 80 4d 3d 61 bb 83 bd
       -0.08081714 -0.037307348 0.050171293 -0.06432224
000180 f6 6f 60 3e fb 6a a3 bd 88 c9 39 3d 17 f5 62 3d
       0.2191771 -0.07979389 0.04535821 0.055409517

train_data f4 [600, 1]
000000 bd 53 d7 3e 28 57 65 bf a1 c8 69 be 15 54 72 bf
       0.42056075 -0.89586115 -0.2283044 -0.9465955
000010 f1 76 34 bd f2 c7 b3 be a5 f1 11 bf d4 49 c8 3e
       -0.044058744 -0.35113484 -0.57009345 0.39118826
000020 49 77 4f 3f e9 ee b9 bc 0b 7b 78 bf cc 12 cd bd
       0.8104139 -0.022696929 -0.9706275 -0.10013351
000030 b4 7a dd bd be 89 01 3f c8 ce cf bc a7 ae e5 bc
       -0.108144194 0.506008 -0.025367156 -0.028037382
000040 84 d1 27 3f 1f 7e 6b bf e4 59 bd be 22 71 69 bf
       0.6555407 -0.9198932 -0.36982644 -0.9118825
000050 1f 7e 6b 3f 2c 80 8d be 36 c5 5b bf 07 1c a6 3e
       0.9198932 -0.2763685 -0.85847795 0.32443258
000060 10 f5 1f be a3 6a e8 bd c1 97 d4 3e 2f 8e 60 bf
       -0.15620828 -0.11348464 0.4152203 -0.87716955
000070 b4 7a dd 3d 31 30 5f 3f 8a b7 23 bf 31 15 0a 3e
       0.108144194 0.8718291 -0.63951933 0.13484646
000080 12 97 1e 3d 13 03 73 bf 3b 5a 58 3f 10 10 75 3f
       0.03871829 -0.94926566 0.8451268 0.95727634
000090 02 87 29 bd f0 25 b5 be e2 b7 be 3e 2e 3d 61 bf
       -0.04138852 -0.35380507 0.37249666 -0.8798398
0000a0 76 63 31 bf 98 ef ef 3e 0a 2a 79 bf db 80 43 be
       -0.6929239 0.46862483 -0.9732977 -0.19092123
0000b0 23 a7 13 bd 64 02 3d bf a5 f1 11 3f a2 fe 13 3f
       -0.036048066 -0.7383177 0.57009345 0.57810414
0000c0 bd 38 02 bf 7b f8 2d 3f 46 84 51 bf 82 2f 29 3f
       -0.50867826 0.67957276 -0.8184246 0.66088116
0000d0 c7 7d d0 3e 35 74 5c 3f e6 fb bb 3e 54 f2 47 bf
       0.4072096 0.8611482 0.3671562 -0.7810414
0000e0 8d 74 77 be 14 39 1d 3e f5 ba b1 3d 9d 69 17 3f
       -0.24165554 0.15353805 0.08678237 0.5914553
0000f0 51 ff 49 bf 17 2c 9b 3e 01 36 aa 3e 3a ee 83 3e
       -0.78905207 0.30307075 0.33244327 0.2576769
000100 86 73 26 bf 6c 39 38 3f 87 c4 25 bf 6b e8 38 bf
       -0.65020025 0.7196262 -0.64753 -0.7222964
000110 fa fe ae 3a 32 81 5e 3f ee 83 b6 be bb b1 d8 be
       0.0013351135 0.86915886 -0.3564753 -0.42323098
000120 df c4 40 be 08 6d 25 be 13 e8 9d be 2e 22 8c be
       -0.188251 -0.16154873 -0.3084112 -0.27369827
000130 97 83 1b bf 4e 0c 4c bf d7 3c 46 3e 6d 8a 37 3f
       -0.60747665 -0.79706275 0.19359146 0.71695596
000140 ec e1 b7 be 9c 33 ed 3e a0 5c 15 3f bc 02 d8 3d
       -0.35914552 0.46328437 0.5834446 0.105473965
000150 d3 f8 48 3e 11 61 74 bf 85 ec 7c 3e 9a 76 19 bf
       0.19626169 -0.9546061 0.246996 -0.59946597
000160 7a a7 2e bf 1c 8b 6d 3f 39 9d 04 be 11 61 74 3f
       -0.682243 0.9279039 -0.129506 0.9546061
000170 15 8a 9c 3e e6 fb bb be 23 a7 13 3d 45 33 52 bf
       0.30574098 -0.3671562 0.036048066 -0.8210948
000180 df c4 40 3e ac f2 e2 bd d3 f8 48 be 19 ce 99 3e
       0.188251 -0.11081442 -0.19626169 0.30040053
000190 9e ba 16 3f 8e c5 f6 be 08 88 7a 3f 14 39 1d be
       0.58878505 -0.48197597 0.9786382 -0.15353805
0001a0 8a 81 f9 3e 87 c4 25 3f 33 d2 5d bf 3a ee 83 be
       0.48731643 0.64753 -0.86648864 -0.2576769
0001b0 58 36 45 bf 2b 4a 63 bf 81 de 29 3f ac f2 e2 3d
       -0.77036047 -0.88785046 0.6635514 0.11081442
0001c0 68 f5 3a bf 4d bb 4c bf 42 40 54 3f fb 4f ae be
       -0.7303071 -0.799733 0.8291055 -0.34045395
0001d0 44 e2 52 bf ed 32 b7 bd 4c 6a 4d bf e0 15 c0 be
       -0.82376504 -0.0894526 -0.8024032 -0.3751669
0001e0 23 c2 68 3f ff 93 ab be 46 84 51 3f 86 73 26 3f
       0.9092123 -0.3351135 0.8184246 0.65020025
0001f0 52 50 49 bf b2 0e 09 bf 96 32 1c bf ea 3f b9 3e
       -0.78638184 -0.5353805 -0.6101469 0.36181575
000200 f8 ad af 3e 96 4d f1 3e c0 46 55 bd 59 87 44 bf
       0.34312415 0.47129506 -0.052069426 -0.76769024
000210 26 b5 66 bf 67 a4 3b 3f c0 2b 00 bf 02 87 29 3d
       -0.9012016 0.73297733 -0.5006676 0.04138852
000220 74 c1 32 3f 1e 2d 6c bf a3 4f 13 3f b7 6d db 3e
       0.69826436 -0.92256343 0.5754339 0.42857143
000230 81 de 29 bf 95 fc 71 3e 84 9b fd 3e 3e fc 56 3f
       -0.6635514 0.23631509 0.49532712 0.8397864
000240 fd f1 ac be ae ca 0b 3f 95 fc 71 be c6 2c 51 be
       -0.33778372 0.5460614 -0.23631509 -0.20427236
000250 ec e1 b7 3e 72 1f 34 bf 2b 2f 8e 3c da 2f c4 be
       0.35914552 -0.7036048 0.017356476 -0.38317758
000260 8b 08 23 bf de 73 c1 be 4a c8 4e 3f 7e eb 2b bf
       -0.6368491 -0.37783712 0.80774367 -0.6715621
000270 e4 59 bd 3e b2 0e 09 3f 30 c4 8a 3e 60 be 3f 3f
       0.36982644 0.5353805 0.27102804 0.74899864
000280 a0 5c 15 bf c5 db d1 be b6 1c 5c 3e 0d 1d 77 3f
       -0.5834446 -0.40987983 0.21495327 0.965287
000290 07 1c a6 be 2a f9 63 3f a8 e4 0f 3f b8 a3 05 3f
       -0.32443258 0.8905207 0.56208277 0.5220294
0002a0 82 f9 fe 3e a9 35 0f bf fe 42 ac bd 5b 29 43 bf
       0.49799734 -0.55941254 -0.08411215 -0.7623498
0002b0 78 05 30 3f 5e 1c 41 3f cd 63 cc be bc e7 02 bf
       0.68758345 0.7543391 -0.39919892 -0.5113485
0002c0 45 33 52 3f 58 36 45 3f 39 9d 04 3e 8d 74 77 3e
       0.8210948 0.77036047 0.129506 0.24165554
0002d0 3e 32 81 3e 02 a2 7e bf 60 be 3f bf a5 0c 67 be
       0.25233644 -0.99465954 -0.74899864 -0.22563417
0002e0 b6 1c 5c be 9a 91 ee be 2f 73 8b bd f0 25 b5 3e
       -0.21495327 -0.4659546 -0.06809079 0.35380507
0002f0 aa 50 64 be 44 e2 52 3f 09 d9 79 bf 27 eb 90 3d
       -0.22296396 0.82376504 -0.97596794 0.07076102
000300 a0 77 ea 3e 98 d4 1a bf ba 45 04 bf d4 49 c8 be
       0.45794392 -0.6048064 -0.51668894 -0.39118826
000310 fc a0 2d 3e 38 4c 85 be e7 4c 3b 3e 74 c1 32 bf
       0.16955942 -0.26034713 0.18291055 -0.69826436
000320 0f bf 75 bf 25 64 67 3f b5 01 07 3f b2 d8 5e be
       -0.9599466 0.90387183 0.5273698 -0.2176235
000330 a6 5d e6 3e 34 08 88 be 30 c4 8a be 7c 49 2d bf
       0.44993323 -0.26568758 -0.27102804 -0.67690253
000340 16 a5 71 3f 3f 83 80 3d 73 70 33 bf 21 56 94 3e
       0.94392526 0.06275033 -0.7009346 0.2897196
000350 2e 22 8c 3e 92 09 f4 be 00 e5 2a 3e 9f 26 6b bd
       0.27369827 -0.47663552 0.16688919 -0.05740988
000360 93 3f 1e 3f 89 66 24 3f 85 ec 7c be bf f5 d5 3e
       0.61815757 0.64218956 -0.246996 0.41789052
000370 fe 42 ac 3d 83 4a fe 3d e3 08 3e be 52 50 49 3f
       0.08411215 0.12416556 -0.18558078 0.78638184
000380 1b 3a 6e bf 4b 19 4e 3f 2e 3d 61 3f 29 a8 64 3f
       -0.9305741 0.80507344 0.8798398 0.8931909
000390 25 49 12 3e ab a1 e3 3e b1 bd 09 3f 07 37 7b bf
       0.14285715 0.4445928 0.5380507 -0.9813084
0003a0 e9 ee b9 3c bf f5 d5 be fc a0 2d be 04 29 28 3e
       0.022696929 -0.41789052 -0.16955942 0.16421896
0003b0 a9 ff e4 3e 63 b1 3d bf b9 0f da 3e 71 ce 34 3f
       0.44726303 -0.74098796 0.4259012 0.70627505
0003c0 ad 43 e2 be f7 5c 30 3e 0c b1 22 3e 3d e1 01 3e
       -0.44192258 0.17222963 0.1588785 0.12683578
0003d0 f1 76 34 3d ad 79 0c bf 9d 84 6c 3e 06 e6 7b bf
       0.044058744 -0.5487316 0.23097463 -0.9839786
0003e0 33 d2 5d 3f 23 c2 68 bf 77 b4 30 bf 86 3d fc 3e
       0.86648864 -0.9092123 -0.6902537 0.4926569
0003f0 b3 29 de be b2 d8 5e 3e 12 97 1e bd b5 cb dc 3e
       -0.4339119 0.2176235 -0.03871829 0.43124166

train_targets f4 [600, 1]
000000 bd 53 d7 3e 28 57 65 3f a1 c8 69 3e 15 54 72 3f
       0.42056075 0.89586115 0.2283044 0.9465955
000010 f1 76 34 3d f2 c7 b3 3e a5 f1 11 3f d4 49 c8 3e
       0.044058744 0.35113484 0.57009345 0.39118826
000020 49 77 4f 3f e9 ee b9 3c 0b 7b 78 3f cc 12 cd 3d
       0.8104139 0.022696929 0.9706275 0.10013351
000030 b4 7a dd 3d be 89 01 3f c8 ce cf 3c a7 ae e5 3c
       0.108144194 0.506008 0.025367156 0.028037382
000040 84 d1 27 3f 1f 7e 6b 3f e4 59 bd 3e 22 71 69 3f
       0.6555407 0.9198932 0.36982644 0.9118825
000050 1f 7e 6b 3f 2c 80 8d 3e 36 c5 5b 3f 07 1c a6 3e
       0.9198932 0.2763685 0.85847795 0.32443258
000060 10 f5 1f 3e a3 6a e8 3d c1 97 d4 3e 2f 8e 60 3f
       0.15620828 0.11348464 0.4152203 0.87716955
000070 b4 7a dd 3d 31 30 5f 3f 8a b7 23 3f 31 15 0a 3e
       0.108144194 0.8718291 0.63951933 0.13484646
000080 12 97 1e 3d 13 03 73 3f 3b 5a 58 3f 10 10 75 3f
       0.03871829 0.94926566 0.8451268 0.95727634
000090 02 87 29 3d f0 25 b5 3e e2 b7 be 3e 2e 3d 61 3f
       0.04138852 0.35380507 0.37249666 0.8798398
0000a0 76 63 31 3f 98 ef ef 3e 0a 2a 79 3f db 80 43 3e
       0.6929239 0.46862483 0.9732977 0.19092123
0000b0 23 a7 13 3d 64 02 3d 3f a5 f1 11 3f a2 fe 13 3f
       0.036048066 0.7383177 0.57009345 0.57810414
0000c0 bd 38 02 3f 7b f8 2d 3f 46 84 51 3f 82 2f 29 3f
       0.50867826 0.67957276 0.8184246 0.66088116
0000d0 c7 7d d0 3e 35 74 5c 3f e6 fb bb 3e 54 f2 47 3f
       0.4072096 0.8611482 0.3671562 0.7810414
0000e0 8d 74 77 3e 14 39 1d 3e f5 ba b1 3d 9d 69 17 3f
       0.24165554 0.15353805 0.08678237 0.5914553
0000f0 51 ff 49 3f 17 2c 9b 3e 01 36 aa 3e 3a ee 83 3e
       0.78905207 0.30307075 0.33244327 0.2576769
000100 86 73 26 3f 6c 39 38 3f 87 c4 25 3f 6b e8 38 3f
       0.65020025 0.7196262 0.64753 0.7222964
000110 fa fe ae 3a 32 81 5e 3f ee 83 b6 3e bb b1 d8 3e
       0.0013351135 0.86915886 0.3564753 0.42323098
000120 df c4 40 3e 08 6d 25 3e 13 e8 9d 3e 2e 22 8c 3e
       0.188251 0.16154873 0.3084112 0.27369827
000130 97 83 1b 3f 4e 0c 4c 3f d7 3c 46 3e 6d 8a 37 3f
       0.60747665 0.79706275 0.19359146 0.71695596
000140 ec e1 b7 3e 9c 33 ed 3e a0 5c 15 3f bc 02 d8 3d
       0.35914552 0.46328437 0.5834446 0.105473965
000150 d3 f8 48 3e 11 61 74 3f 85 ec 7c 3e 9a 76 19 3f
       0.19626169 0.9546061 0.246996 0.59946597
000160 7a a7 2e 3f 1c 8b 6d 3f 39 9d 04 3e 11 61 74 3f
       0.682243 0.9279039 0.129506 0.9546061
000170 15 8a 9c 3e e6 fb bb 3e 23 a7 13 3d 45 33 52 3f
       0.30574098 0.3671562 0.036048066 0.8210948
000180 df c4 40 3e ac f2 e2 3d d3 f8 48 3e 19 ce 99 3e
       0.188251 0.11081442 0.19626169 0.30040053
000190 9e ba 16 3f 8e c5 f6 3e 08 88 7a 3f 14 39 1d 3e
       0.58878505 0.48197597 0.9786382 0.15353805
0001a0 8a 81 f9 3e 87 c4 25 3f 33 d2 5d 3f 3a ee 83 3e
       0.48731643 0.64753 0.86648864 0.2576769
0001b0 58 36 45 3f 2b 4a 63 3f 81 de 29 3f ac f2 e2 3d
       0.77036047 0.88785046 0.6635514 0.11081442
0001c0 68 f5 3a 3f 4d bb 4c 3f 42 40 54 3f fb 4f ae 3e
       0.7303071 0.799733 0.8291055 0.34045395
0001d0 44 e2 52 3f ed 32 b7 3d 4c 6a 4d 3f e0 15 c0 3e
       0.82376504 0.0894526 0.8024032 0.3751669
0001e0 23 c2 68 3f ff 93 ab 3e 46 84 51 3f 86 73 26 3f
       0.9092123 0.3351135 0.8184246 0.65020025
0001f0 52 50 49 3f b2 0e 09 3f 96 32 1c 3f ea 3f b9 3e
       0.78638184 0.5353805 0.6101469 0.36181575
000200 f8 ad af 3e 96 4d f1 3e c0 46 55 3d 59 87 44 3f
       0.34312415 0.47129506 0.052069426 0.76769024
000210 26 b5 66 3f 67 a4 3b 3f c0 2b 00 3f 02 87 29 3d
       0.9012016 0.73297733 0.5006676 0.04138852
000220 74 c1 32 3f 1e 2d 6c 3f a3 4f 13 3f b7 6d db 3e
       0.69826436 0.92256343 0.5754339 0.42857143
000230 81 de 29 3f 95 fc 71 3e 84 9b fd 3e 3e fc 56 3f
       0.6635514 0.23631509 0.49532712 0.8397864
000240 fd f1 ac 3e ae ca 0b 3f 95 fc 71 3e c6 2c 51 3e
       0.33778372 0.5460614 0.23631509 0.20427236
000250 ec e1 b7 3e 72 1f 34 3f 2b 2f 8e 3c da 2f c4 3e
       0.35914552 0.7036048 0.017356476 0.38317758
000260 8b 08 23 3f de 73 c1 3e 4a c8 4e 3f 7e eb 2b 3f
       0.6368491 0.37783712 0.80774367 0.6715621
000270 e4 59 bd 3e b2 0e 09 3f 30 c4 8a 3e 60 be 3f 3f
       0.36982644 0.5353805 0.27102804 0.74899864
000280 a0 5c 15 3f c5 db d1 3e b6 1c 5c 3e 0d 1d 77 3f
       0.5834446 0.40987983 0.21495327 0.965287
000290 07 1c a6 3e 2a f9 63 3f a8 e4 0f 3f b8 a3 05 3f
       0.32443258 0.8905207 0.56208277 0.5220294
0002a0 82 f9 fe 3e a9 35 0f 3f fe 42 ac 3d 5b 29 43 3f
       0.49799734 0.55941254 0.08411215 0.7623498
0002b0 78 05 30 3f 5e 1c 41 3f cd 63 cc 3e bc e7 02 3f
       0.68758345 0.7543391 0.39919892 0.5113485
0002c0 45 33 52 3f 58 36 45 3f 39 9d 04 3e 8d 74 77 3e
       0.8210948 0.77036047 0.129506 0.24165554
0002d0 3e 32 81 3e 02 a2 7e 3f 60 be 3f 3f a5 0c 67 3e
       0.25233644 0.99465954 0.74899864 0.22563417
0002e0 b6 1c 5c 3e 9a 91 ee 3e 2f 73 8b 3d f0 25 b5 3e
       0.21495327 0.4659546 0.06809079 0.35380507
0002f0 aa 50 64 3e 44 e2 52 3f 09 d9 79 3f 27 eb 90 3d
       0.22296396 0.82376504 0.97596794 0.07076102
000300 a0 77 ea 3e 98 d4 1a 3f ba 45 04 3f d4 49 c8 3e
       0.45794392 0.6048064 0.51668894 0.39118826
000310 fc a0 2d 3e 38 4c 85 3e e7 4c 3b 3e 74 c1 32 3f
       0.16955942 0.26034713 0.18291055 0.69826436
000320 0f bf 75 3f 25 64 67 3f b5 01 07 3f b2 d8 5e 3e
       0.9599466 0.90387183 0.5273698 0.2176235
000330 a6 5d e6 3e 34 08 88 3e 30 c4 8a 3e 7c 49 2d 3f
       0.44993323 0.26568758 0.27102804 0.67690253
000340 16 a5 71 3f 3f 83 80 3d 73 70 33 3f 21 56 94 3e
       0.94392526 0.06275033 0.7009346 0.2897196
000350 2e 22 8c 3e 92 09 f4 3e 00 e5 2a 3e 9f 26 6b 3d
       0.27369827 0.47663552 0.16688919 0.05740988
000360 93 3f 1e 3f 89 66 24 3f 85 ec 7c 3e bf f5 d5 3e
       0.61815757 0.64218956 0.246996 0.41789052
000370 fe 42 ac 3d 83 4a fe 3d e3 08 3e 3e 52 50 49 3f
       0.08411215 0.12416556 0.18558078 0.78638184
000380 1b 3a 6e 3f 4b 19 4e 3f 2e 3d 61 3f 29 a8 64 3f
       0.9305741 0.80507344 0.8798398 0.8931909
000390 25 49 12 3e ab a1 e3 3e b1 bd 09 3f 07 37 7b 3f
       0.14285715 0.4445928 0.5380507 0.9813084
0003a0 e9 ee b9 3c bf f5 d5 3e fc a0 2d 3e 04 29 28 3e
       0.022696929 0.41789052 0.16955942 0.16421896
0003b0 a9 ff e4 3e 63 b1 3d 3f b9 0f da 3e 71 ce 34 3f
       0.44726303 0.74098796 0.4259012 0.70627505
0003c0 ad 43 e2 3e f7 5c 30 3e 0c b1 22 3e 3d e1 01 3e
       0.44192258 0.17222963 0.1588785 0.12683578
0003d0 f1 76 34 3d ad 79 0c 3f 9d 84 6c 3e 06 e6 7b 3f
       0.044058744 0.5487316 0.23097463 0.9839786
0003e0 33 d2 5d 3f 23 c2 68 3f 77 b4 30 3f 86 3d fc 3e
       0.86648864 0.9092123 0.6902537 0.4926569
0003f0 b3 29 de 3e b2 d8 5e 3e 12 97 1e 3d b5 cb dc 3e
       0.4339119 0.2176235 0.03871829 0.43124166

test_data f4 [150, 1]
000000 82 2f 29 3f 83 80 28 3f 40 9e 55 3f da 2f c4 3e
       0.66088116 0.65821093 0.83444595 0.38317758
000010 f4 69 b2 3e 97 83 1b 3f 80 8d 2a 3f 17 f6 70 3f
       0.3484646 0.60747665 0.6662216 0.94125503
000020 32 66 89 3e 03 f3 7d 3f 95 e1 1c 3f 9a 91 ee 3e
       0.2683578 0.9919893 0.6128171 0.4659546
000030 dc d1 c2 3e 04 29 28 3e cf 05 cb 3e 94 ab f2 3e
       0.38050735 0.16421896 0.3965287 0.4739653
000040 55 43 47 3f ab d7 0d 3f 0c cc 77 3f 03 d8 a8 3e
       0.77837116 0.5540721 0.96795726 0.32977304
000050 d9 de 44 3c 66 53 3c 3f 20 cf 6a 3f dd 22 c2 3d
       0.012016022 0.73564756 0.917223 0.09479306
000060 63 b1 3d 3f b4 b0 07 3f c3 39 d3 3e 5a d8 43 3f
       0.74098796 0.53004 0.41255006 0.76502
000070 6e db 36 3f ac 28 0d 3f 37 fb 85 3d 91 b8 74 3e
       0.71428573 0.55140185 0.06542056 0.23898531
000080 eb 90 38 3e 00 00 80 3f 26 9a 91 3e a4 a0 12 3f
       0.18024032 1.0 0.28437918 0.5727637
000090 8b 08 23 3f 09 be a4 3e 05 95 7c 3f 9b e2 ed 3d
       0.6368491 0.32176235 0.98664886 0.11615487
0000a0 6e db 36 3f b3 5f 08 3f a3 6a e8 3d 9f 26 6b 3d
       0.71428573 0.53271025 0.11348464 0.05740988
0000b0 16 db 9b 3d 0e 6e 76 3f 36 aa 86 3e 06 e6 7b 3f
       0.07610147 0.9626168 0.26301736 0.9839786
0000c0 f3 18 33 3e 5c 7a 42 3f 5f 6d 40 3f bf da 00 3f
       0.17489986 0.75967956 0.7516689 0.5033378
0000d0 c7 7d d0 3e 28 57 65 3f 43 91 53 3f 5d cb 41 3f
       0.4072096 0.89586115 0.82643527 0.7570093
0000e0 21 56 94 3e ae ca 0b 3f 27 06 66 3f 20 05 15 3e
       0.2897196 0.5460614 0.8985314 0.14552736
0000f0 a9 ff e4 3e eb 90 38 3e 3c 90 82 3e aa 50 64 3e
       0.44726303 0.18024032 0.25500667 0.22296396
000100 8f 16 76 3d bd 53 d7 3e 19 ce 99 3e 36 aa 86 3e
       0.060080107 0.42056075 0.30040053 0.26301736
000110 78 05 30 3f 41 ef 54 3f 06 cb a6 3d af e5 e0 3e
       0.68758345 0.8317757 0.081441924 0.43925235
000120 ae 94 61 3e b0 36 60 3d 16 a5 71 3f 5d cb 41 3f
       0.22029373 0.054739654 0.94392526 0.7570093
000130 90 4c 20 3f ca 70 4e 3e 8e c5 f6 3e 01 51 7f 3f
       0.62616825 0.20160213 0.48197597 0.9973298
000140 8f 16 76 3d 3c 90 82 3e 6b e8 38 3f 53 a1 48 3f
       0.060080107 0.25500667 0.7222964 0.7837116
000150 af 1b 0b 3f 49 77 4f 3f a1 ad 14 3f 10 f5 1f 3e
       0.54339117 0.8104139 0.58077437 0.15620828
000160 c6 2c 51 3e d6 eb c6 3e 1b 70 98 3e e7 4c 3b 3e
       0.20427236 0.38851804 0.2977303 0.18291055
000170 0a 2a 79 3f 96 4d f1 3e b1 bd 09 3f 0f a4 a0 3e
       0.9732977 0.47129506 0.5380507 0.31375167
000180 e1 66 3f 3d 69 46 3a 3f ca 70 4e 3e 3a 09 59 3f
       0.046728972 0.7276369 0.20160213 0.84779704
000190 77 b4 30 3f 2d ec 61 3f 8c 59 22 3f 08 6d 25 3e
       0.6902537 0.88251 0.6341789 0.16154873
0001a0 30 df 5f 3f b1 87 df 3e 93 5a f3 3d 97 9e 70 3c
       0.8744993 0.43658212 0.1188251 0.014686248
0001b0 d5 9a c7 3d 33 b7 08 3d 24 13 68 3f bc e7 02 3f
       0.09746329 0.033377837 0.90654206 0.5113485
0001c0 c2 e8 53 3e a7 93 10 3f 08 88 7a 3f bb b1 d8 3e
       0.20694259 0.564753 0.9786382 0.42323098
0001d0 ba 60 59 3e a4 bb e7 3e d0 56 4a 3d 34 08 88 3e
       0.21228305 0.45260346 0.049399197 0.26568758
0001e0 4b 19 4e 3f 3c ab 57 3f e2 b7 be 3e 1a e9 6e 3f
       0.80507344 0.8424566 0.37249666 0.93324435
0001f0 1b 3a 6e 3f 3c ab 57 3f 3f 4d 56 3f 1f b4 95 3e
       0.9305741 0.8424566 0.8371162 0.29238984
000200 ab a1 e3 3e 68 f5 3a 3f 43 91 53 3f d5 9a c7 3d
       0.4445928 0.7303071 0.82643527 0.09746329
000210 00 e5 2a 3e 34 23 5d 3f 88 df fa 3e c9 1f cf 3e
       0.16688919 0.8638184 0.48998666 0.40453938
000220 94 90 1d 3f 36 c5 5b 3f 07 37 7b 3f 54 f2 47 3f
       0.61548734 0.85847795 0.9813084 0.7810414
000230 53 a1 48 3f 32 81 5e 3f 9c 18 18 3f 9d 69 17 3f
       0.7837116 0.86915886 0.5941255 0.5914553
000240 4f 5d 4b 3f 94 90 1d 3f 62 60 3e 3f 40 9e 55 3f
       0.7943925 0.61548734 0.7436582 0.83444595
000250 02 a2 7e 3f 56 94 46 3f
       0.99465954 0.7757009

0.weight f4 [100, 1]
000000 40 5b 2a be 89 73 67 bf f0 85 6a bd 2b 4b 89 3e
       -0.16636372 -0.9041067 -0.05725664 0.2681516
000010 80 ed d7 bc 0f 4f 21 bf 5d 00 72 3d e3 6e 4a bf
       -0.026358366 -0.6301126 0.059082378 -0.7907545
000020 ae 57 57 bf 00 28 41 3c 57 a8 9b 3e 5e e4 2f 3f
       -0.84118164 0.011789322 0.3040187 0.68707836
000030 78 21 ee 3e f7 e2 dc 3e 1f 6a b2 3e 30 b9 0e bf
       0.4650991 0.4314191 0.3484659 -0.55751324
000040 c3 04 cb be 00 82 60 bc 40 97 8d 3d 6a 95 50 bf
       -0.3965207 -0.013702869 0.06913614 -0.8147799
000050 1a 96 4e bf 5f 37 8f bc c0 18 80 3e 00 58 8e 3a
       -0.80697787 -0.017482458 0.25018883 0.0010859966
000060 c0 ae da be 6f b7 69 3f 0d 16 6e 3f 0e d5 2b 3e
       -0.4271145 0.9129552 0.93002397 0.16780493
000070 63 91 cf 3c 3c 0a 6d 3f f1 4b 33 3f a3 f6 40 bc
       0.02533788 0.9259374 0.7003775 -0.011777553
000080 33 da 5f be e0 43 f8 bd 4c a0 06 3e 37 1a 61 bf
       -0.2186058 -0.12122321 0.13147086 -0.87930626
000090 00 13 10 3f c0 e2 41 3d 0c 2d a1 3e 16 e0 73 3f
       0.5627899 0.047335386 0.3147968 0.95263803
0000a0 1b 50 a3 be 84 8f 98 bd 0b 08 22 3f 48 70 73 3e
       -0.31897053 -0.074492484 0.6329352 0.237733
0000b0 77 58 71 bf 0c bf c0 be 55 4b a3 3e 93 7f d0 3e
       -0.9427561 -0.37645757 0.3189341 0.4072233
0000c0 9c ab 81 3f 5e 37 10 bf 23 fb 06 3f fb 21 f9 3d
       1.0130496 -0.56334484 0.52726954 0.121646844
0000d0 17 12 52 bf c6 00 4f 3f 36 87 a0 be 92 a3 2b bf
       -0.8205885 0.80860555 -0.31353158 -0.67046463
0000e0 8f 91 e8 3d 61 d5 66 3f 90 74 6b be 24 e9 86 be
       0.11355888 0.9016934 -0.22993684 -0.26349747
0000f0 c0 2e f5 bd 60 32 d5 3d d4 7d 6e be 8e 7d e6 be
       -0.119718075 0.10409999 -0.23290187 -0.45017666
000100 ac 1e 04 3f af 4b ff be b8 63 a9 be 04 eb 2b be
       0.516093 -0.4986243 -0.33083892 -0.1678887
000110 01 96 50 3f 02 93 47 bf 31 d8 c1 3e 80 b6 67 3c
       0.8147889 -0.7795869 0.37860253 0.0141426325
000120 4a a2 58 3f 8f 36 63 bf d8 f6 1d 3e 88 99 c2 3e
       0.84622633 -0.88755125 0.15426195 0.3800776
000130 5a 10 02 3f 77 00 7e bf cc a5 cf be 43 77 57 3f
       0.508062 -0.9921946 -0.4055618 0.84166354
000140 5c ba 15 bf 7e c6 65 3f a0 72 44 3e 8c df 8d be
       -0.58487487 0.89756 0.19184351 -0.27709615
000150 a5 f5 13 bf fb 73 7a 3f 3d 77 1e 3f 2d ce 19 bf
       -0.577967 0.9783322 0.61900693 -0.60080224
000160 27 c0 50 bf a2 a2 84 be 51 af 24 bf 40 48 18 bd
       -0.815432 -0.2590533 -0.6433001 -0.037178278
000170 70 51 0d 3e f0 98 c2 bd 96 d2 4b be 6f 8b 3e 3e
       0.13800597 -0.09501827 -0.19904551 0.18607877
000180 f7 f3 25 3f c0 d3 20 3d e1 8d 28 3f 92 9f fc bd
       0.64825386 0.03926444 0.6584149 -0.12335123

0.bias f4 [100]
000000 4c ef 93 be 85 9d 58 3f a0 b5 a0 3e 63 cf 2d 3f
       -0.28893507 0.84615356 0.3138857 0.6789457
000010 70 43 cf be 44 4c 59 3f 4c 06 54 3f e0 55 1e 3f
       -0.40481138 0.84882 0.8282211 0.61849785
000020 c1 cc a5 bd 74 9f 18 bf e9 0e ea 3e 04 59 50 bf
       -0.08095694 -0.59618306 0.457145 -0.8138583
000030 0d 3e 20 3f 64 25 6a 3f b7 9b 82 ba f4 22 17 3e
       0.6259468 0.91463304 -0.000996462 0.14759427
000040 62 a3 08 3f de 4b 07 bf d8 9b f7 be 98 46 df 3e
       0.533743 -0.5285014 -0.48361087 0.43608546
000050 6a 3b 2c 3c bd 2e b8 3d e2 97 07 bf 94 86 31 bf
       0.010512212 0.089932896 -0.5296613 -0.69345975
000060 de 4c d4 be 36 2e ab 3e 6a f1 d8 3d 86 12 da bd
       -0.41464895 0.33433694 0.10592921 -0.10648064
000070 ce 2e 34 3f 4f 6c 1d 3c 0a e2 06 bf 00 81 31 3f
       0.7038392 0.009608342 -0.5268866 0.69337463
000080 59 22 28 3a f9 14 18 3f 1b 61 db 3e da 9a 50 be
       0.00064138096 0.59407 0.42847523 -0.20371571
000090 a6 91 3f bf 88 24 41 be 10 a5 45 be 4c 5f 12 3f
       -0.74831617 -0.18861592 -0.19301248 0.5717666
0000a0 db e4 0f 3f 02 e2 ff 3e b4 91 cd be b8 ea 4a bf
       0.5620858 0.49977118 -0.40150225 -0.792644
0000b0 55 9e 0b bf f8 e5 4e bf 38 7e 90 ba c3 64 d0 3e
       -0.5453847 -0.80819654 -0.0011023944 0.40701875
0000c0 fe 1e 4c 3d 79 b0 58 be ec 92 f8 3e 9f 85 6e 3f
       0.049834244 -0.21161069 0.48549592 0.9317264
0000d0 6c 79 05 3f dd 32 0d 3e c2 6e 92 3e 05 9f c9 be
       0.521384 0.13788934 0.28600127 -0.39379135
0000e0 74 52 f7 3e 6d 3e 32 bc f6 b0 78 bf 06 ce 55 bf
       0.48305094 -0.010879141 -0.9714502 -0.8351749
0000f0 60 b6 57 be 40 44 f5 bd cb e8 73 3f 6f 87 5d 3f
       -0.21065664 -0.11975908 0.9527709 0.8653478
000100 89 23 48 3f b6 31 92 3e fe ba 67 bf c3 99 63 3f
       0.7817922 0.2855355 -0.905197 0.88906497
000110 84 50 99 bc 02 86 5c be 76 75 49 be ca 74 78 bf
       -0.01871515 -0.21535495 -0.19673714 -0.97053206
000120 24 84 5d bb 58 47 2e 3b b0 f2 bf be 4d 44 cb 3e
       -0.0033800686 0.0026592817 -0.37489843 0.39700547
000130 4e fc 0f 3e 52 16 69 3f 30 8b 5f 3e ce 2a 10 3b
       0.1406109 0.91049683 0.2183044 0.002199817
000140 df 6d 8b 3d 6a dc 65 3f ba 8c 3b bf 60 fb 56 bf
       0.068080656 0.8978945 -0.73261607 -0.8397732
000150 5f 8d cc 3a b6 2c 53 bf 22 d8 09 ba 90 d5 77 3f
       0.0015606097 -0.824901 -0.00052583416 0.96810246
000160 bc 3c de be 65 fa c6 3e 97 7c 25 3f 18 cf 42 be
       -0.43405712 0.3886291 0.64643234 -0.19024312
000170 44 1f 8e be d9 f7 50 3d 0a 8d 19 3f aa ff 29 be
       -0.2775823 0.051017616 0.59980834 -0.16601434
000180 95 1b 04 bb ee 18 22 bf ec fc 63 3d 3b 1f a7 39
       -0.0020158042 -0.6331929 0.055661127 0.0003187599

2.weight f4 [1, 100]
000000 ca 0f 62 3d d4 52 26 3d 13 5d ae 3d 71 02 67 3d
       0.05519084 0.040606335 0.08513846 0.056398813
000010 4a 55 c6 bd f9 35 14 3c 30 5d 99 3d 50 6d 02 bd
       -0.09684236 0.009046071 0.07488477 -0.03184253
000020 54 41 92 3d 18 18 62 3c e0 00 c3 3b 30 1f 3e bc
       0.071413666 0.01379969 0.005951032 -0.011604115
000030 5a 89 02 be c6 c9 2b 3b 1f 40 1a 3e c5 ce 84 3c
       -0.12747708 0.0026212796 0.15063523 0.016211877
000040 3c 09 56 bc fd d6 50 bd 94 32 c1 3c 91 47 63 3d
       -0.013063725 -0.05098628 0.023583688 0.055488173
000050 2a f4 22 3e 5a 97 b5 3c 1e 7e 38 3d c2 7a 6b 3d
       0.15913454 0.022166897 0.04504215 0.057490118
000060 c1 4d b8 3d 73 af a8 ba 95 ed 0c 3d 20 26 a4 bd
       0.089992054 -0.0012869671 0.034406263 -0.08015084
000070 52 3c 98 bc 84 15 24 3e be 26 31 3d 23 a5 cc bc
       -0.01858345 0.16023833 0.043249838 -0.024981087
000080 b3 68 9f 3d c6 25 97 bd 24 21 bf bc 40 02 18 bc
       0.07783642 -0.073802516 -0.023331232 -0.00927788
000090 f2 1e 3f 3d b8 9c c7 3c 62 e1 c7 bd a9 15 d3 3c
       0.04666037 0.024366722 -0.09759785 0.025767164
0000a0 fb 4f cf 3d 7d fc 87 bd 88 9e 8b bd 28 32 56 bc
       0.10122677 -0.06639955 -0.06817347 -0.013073482
0000b0 a8 ad 2c bd 60 33 d8 bb 91 8f ad 3d 68 72 5c bd
       -0.0421578 -0.0065979213 0.08474649 -0.053820044
0000c0 a5 80 05 3e 05 fd bc bd b4 4c 2b ba 17 30 d0 bd
       0.13037355 -0.09227947 -0.0006534562 -0.101654224
0000d0 46 db b3 3d 54 19 e1 3c 3e c0 e1 3c ab be 21 bd
       0.087820575 0.027477898 0.027557489 -0.039488476
0000e0 0d 21 d8 3c cf cc 55 3e ed f8 bb 3d dd f7 8b bd
       0.026382947 0.2087891 0.09178338 -0.068343855
0000f0 c7 d4 4e bd 03 6b 1d bd 66 05 af 3d 7d ce e8 bb
       -0.05049589 -0.038432132 0.085459515 -0.0071046934
000100 0a e0 4f 3c 70 c0 3e 3d 63 7c b8 bd 05 0c b8 3d
       0.012687692 0.04657024 -0.090081 0.089866675
000110 df 12 49 3e 0c fc 2b 3d f3 a6 c6 bd e4 9e fc 3c
       0.19636105 0.041988418 -0.09699812 0.030837484
000120 44 ee 52 3e c1 75 98 3e e1 70 ba 3d 26 4b 3f 3d
       0.20598704 0.2977734 0.09103561 0.046702527
000130 8a 1c a6 bc e1 f0 91 bc 68 8f 86 bd 68 4a 22 3e
       -0.02027728 -0.017815055 -0.06570321 0.15848696
000140 77 83 f3 3d c7 92 d8 bd 60 fa 8f bb b6 e4 28 3d
       0.11890309 -0.105748706 -0.0043938607 0.04123374
000150 ac 66 80 3e a1 d7 c9 bc 14 f9 1a 3e bf f9 81 bd
       0.25078332 -0.024638953 0.15134078 -0.063464634
000160 a7 15 80 3d 96 2e 54 bd b8 f9 d7 3d 98 3f 81 3c
       0.0625413 -0.05180224 0.10545677 0.015777394
000170 75 83 a5 bd 97 cf 18 bd 6a 80 4d 3d 61 bb 83 bd
       -0.08081714 -0.037307348 0.050171293 -0.06432224
000180 f6 6f 60 3e fb 6a a3 bd 88 c9 39 3d 17 f5 62 3d
       0.2191771 -0.07979389 0.04535821 0.055409517
