complete/absolute/state2.pt (torch, 10937 bytes, 9 tensors)

weight f4 [100, 1]
0	0x3e55ed65	0.2089134
1	0x3ec2b16c	0.38025987
2	0x3f4f8a54	0.81070447
3	0xbf7e2c0b	-0.99285954
4	0x3f3fc1f4	0.74905324
5	0xbdfc8e70	-0.12331855
6	0xbe103150	-0.14081311
7	0xbeeed16c	-0.4664415
8	0xbf37a2a3	-0.7173254
9	0xbe2e1e80	-0.17003822
10	0xbf796a3d	-0.9742773
11	0x3ed4e43c	0.4158038
12	0xbf44e3f8	-0.7691035
13	0x3ed0bbc0	0.40768242
14	0xbd2a4d80	-0.041577816
15	0x3e7fab86	0.24967775
16	0xbef0dca4	-0.47043335
17	0x3f1b558c	0.6067741
18	0xbdda046d	-0.106453754
19	0xbe6039ca	-0.21897045
20	0x3f779e44	0.9672587
21	0x3f443d05	0.7665561
22	0x3f61c175	0.88185817
23	0xbf410ba3	-0.7540838
24	0x3f4c20cb	0.7973754
25	0xbf16820f	-0.58792204
26	0x3f5a4b9b	0.85271615
27	0x3dc52fb8	0.09628242
28	0xbe9a39a7	-0.3012211
29	0xbca08b80	-0.019597769
30	0xbe8af41c	-0.27139366
31	0xbf0996df	-0.53745836
32	0x3f36dcbe	0.71430576
33	0x3f4de480	0.8042679
34	0xbf1ef2e6	-0.62089384
35	0x3e8a7d48	0.27048707
36	0xbf55daf1	-0.83537203
37	0x3f270cf3	0.65254134
38	0xbe814444	-0.25247395
39	0xbf7144b8	-0.9424548
40	0x3ef77ebc	0.48338878
41	0x3e51dd00	0.20494461
42	0xbf328097	-0.6972746
43	0x3eadda9a	0.33955842
44	0x3e9f5dc4	0.31126225
45	0xbe87ca98	-0.26521754
46	0x3f509367	0.8147492
47	0x3f7d88c6	0.99036825
48	0x3f26094b	0.6485793
49	0xbf0e2e29	-0.55539185
50	0xbf51db65	-0.81975394
51	0x3f62ee8e	0.88645256
52	0xbe87f77f	-0.26556012
53	0x3cf7f218	0.030266806
54	0x3f18afba	0.5964314
55	0xbecd6b48	-0.40120912
56	0xbec696c4	-0.387869
57	0xbbd35526	-0.0064493595
58	0xbedf5dc1	-0.43626216
59	0x3e989e4c	0.2980827
60	0xbd5c5e26	-0.053800724
61	0xbdc409a9	-0.09572155
62	0xbf083c7a	-0.5321728
63	0xbf708935	-0.9395936
64	0x3ed9b675	0.42522016
65	0xbf78bc8e	-0.9716271
66	0x3f7c5607	0.9856877
67	0xbf4f7171	-0.8103247
68	0x3f03ffea	0.5156237
69	0xbe005500	-0.12532425
70	0x3e693ea9	0.22777809
71	0xbee47660	-0.44621563
72	0x3ccc0ac0	0.02490747
73	0xbea7b784	-0.327572
74	0xbf62ed7d	-0.8864363
75	0x3e46c6b0	0.19411731
76	0x3df78dba	0.12087579
77	0x3f0f4202	0.55960095
78	0x3eb75ee8	0.35814595
79	0xbe44b7b8	-0.19210708
80	0xbf3a83d1	-0.72857386
81	0xbf5f8924	-0.87318635
82	0xbeaf1614	-0.34196532
83	0xbf65a7b6	-0.8970903
84	0xbf52f0e7	-0.8239884
85	0xbf79e915	-0.9762128
86	0xbf58548c	-0.8450401
87	0x3ef10d44	0.47080433
88	0x3f4ba2d9	0.7954536
89	0x3f3be731	0.73399645
90	0x3ea2d003	0.31799325
91	0xbd4cd960	-0.050011992
92	0x3f6eed8a	0.93331206
93	0x3f2d30cf	0.676526
94	0xbd7ede00	-0.062223434
95	0xbce13465	-0.027490804
96	0xbe722dc0	-0.23650265
97	0x3f4ce8cc	0.8004272
98	0xbe54ccdd	-0.20781274
99	0x3f323890	0.6961756

bias f4 [100]
0	0x3f3ce253	0.73782843
1	0xbe1b76c6	-0.15182027
2	0xbb3b3275	-0.002856401
3	0xbf7a59a4	-0.9779303
4	0x3e713996	0.23557124
5	0xbf6a1582	-0.9143907
6	0x3e4e4776	0.20144448
7	0xbf3c147e	-0.7346877
8	0x3f3305d9	0.699308
9	0xbf2d5c56	-0.6771902
10	0x3d131d1b	0.03591643
11	0xbf779892	-0.9671718
12	0x3d17e488	0.03708318
13	0x3e680cf5	0.22661193
14	0xbf3106a2	-0.69150746
15	0x3f475b5d	0.77873784
16	0xbf454c32	-0.7706939
17	0xbe942262	-0.28932482
18	0x3ea3854c	0.31937635
19	0x3e249f1c	0.1607632
20	0xbf7a447a	-0.97760737
21	0xbf3653e9	-0.71221787
22	0xbf143959	-0.57900006
23	0x3f609890	0.8773279
24	0xbf07586b	-0.5286929
25	0x3a4e17c3	0.0007861817
26	0x3ed71e61	0.42015365
27	0x3f28c27f	0.6592178
28	0x3e9b4f95	0.30334154
29	0xbe6d7cb8	-0.23192108
30	0xbf028e68	-0.50998545
31	0xbeaad32a	-0.3336423
32	0xbf35976a	-0.70934165
33	0xbf5790fa	-0.8420559
34	0x3edd2828	0.431947
35	0xbf598f4e	-0.8498429
36	0x3f304596	0.6885618
37	0xbf0bceae	-0.54612243
38	0xbf7a898a	-0.9786612
39	0x3f20e4a2	0.62848866
40	0xbf177e76	-0.5917734
41	0xbe977c88	-0.29587197
42	0x3ee01bde	0.4377126
43	0x3f36894e	0.7130326
44	0xbefe7770	-0.497005
45	0xbf419a5a	-0.75626147
46	0xbd306203	-0.04306222
47	0x3c3cdbfd	0.011527059
48	0xbf1ee1f7	-0.62063545
49	0x3a42d40d	0.0007432111
50	0x3e5e7632	0.21724775
51	0x3d2b20e3	0.04177941
52	0x3f308213	0.6894848
53	0x3f5b29c4	0.85610604
54	0xbf202280	-0.6255264
55	0xbed94150	-0.42432642
56	0xbf66edde	-0.90206707
57	0x3eb03036	0.34411782
58	0xbeda576f	-0.42644832
59	0x3ab038d3	0.0013444669
60	0x3f0a76c1	0.54087454
61	0x3f16b885	0.58875304
62	0x3d739b42	0.059474237
63	0x3f55364f	0.83285993
64	0x3ea9f9b7	0.3319833
65	0xbe2cfeee	-0.16894123
66	0xbf07b5b1	-0.53011614
67	0x3f1f231e	0.6216296
68	0xbf48bbae	-0.78411376
69	0xbed07fbc	-0.40722454
70	0xb99f37e7	-0.00030368494
71	0x3f26b710	0.6512308
72	0xbf3ad7e6	-0.72985685
73	0xbf0056b0	-0.50132275
74	0xbda7e5db	-0.08198138
75	0xbf21e1f0	-0.6323538
76	0x3ea7d7b4	0.32781756
77	0x3f4ccb40	0.79997635
78	0xbf5c5078	-0.86060286
79	0xbf188c12	-0.5958873
80	0xbea96261	-0.3308287
81	0x3f16c9f7	0.58901924
82	0xbf1b08ae	-0.6056012
83	0xbb98cbb9	-0.0046629575
84	0x3e4ee00e	0.20202658
85	0xb7d34cd7	-2.5188941e-05
86	0x3f32ce3e	0.6984595
87	0xbe545645	-0.20736034
88	0x3d87ab3f	0.066244595
89	0xbb27cc34	-0.0025603892
90	0xbe883f17	-0.26610634
91	0xbf1fdfb6	-0.6245073
92	0xbf0ff5e0	-0.5623455
93	0xbcccd27e	-0.025002714
94	0xbe35bc78	-0.17747676
95	0x3f09d043	0.5383341
96	0xbedd58f4	-0.43231928
97	0x3f052248	0.52005434
98	0x3dce4529	0.10071785
99	0x3f5f91d7	0.8733191

weight f4 [1, 100]
0	0x3d3a4d56	0.04548391
1	0xbc83e0c3	-0.016098386
2	0x3e43cee7	0.19121896
3	0x3d1dcc47	0.038524892
4	0xbd1cbd86	-0.03826668
5	0xbc504510	-0.012711778
6	0xbdb42bde	-0.087974295
7	0x3d93b74f	0.07212698
8	0xbd019207	-0.031633403
9	0x3cf92f64	0.030418105
10	0x3e2dc34b	0.1696903
11	0x3b15eea0	0.0022877827
12	0x3e1877c5	0.14889438
13	0xbb060c33	-0.0020454049
14	0xbd8a2ba0	-0.06746602
15	0xbd145baa	-0.03622023
16	0x3dc649a9	0.09682018
17	0xbd21384e	-0.039360337
18	0xbd7f6ab4	-0.06235762
19	0xbb31221b	-0.0027028385
20	0xbdacd842	-0.084396854
21	0xbd77eb11	-0.06052691
22	0xbd9e6e84	-0.07735923
23	0xbcf5dda6	-0.030012917
24	0xbcd2dbb4	-0.025739528
25	0x3e4eaa7b	0.2018222
26	0x3a8a1a30	0.0010536369
27	0xbd69f696	-0.05711993
28	0x3d514345	0.051089544
29	0xbb7b43a0	-0.0038339868
30	0x3d6eec76	0.058330975
31	0x3cd4cde2	0.025977079
32	0xbb3212d6	-0.0027171872
33	0x3d5590d6	0.05214008
34	0xbdbf5847	-0.093430094
35	0x3d597f22	0.05309976
36	0xbd9785b1	-0.073985465
37	0x3dac5f9d	0.08416674
38	0x3db3edef	0.087856166
39	0x3dad6d19	0.08468074
40	0x3d0f8d7e	0.035047047
41	0x3d5e50a2	0.054276116
42	0x3d6e3302	0.058154114
43	0x3c0aee9d	0.008479741
44	0x3da295e9	0.07938749
45	0x3d76ec0e	0.060283713
46	0x3d946adc	0.07246944
47	0x3e619427	0.22029172
48	0x3d1ecc01	0.038768772
49	0x3e4cd372	0.20002535
50	0xbc8a4839	-0.016880142
51	0x3db59528	0.0886634
52	0xbcb25c99	-0.02177267
53	0xbcddd1d2	-0.02707759
54	0x3db5c91d	0.0887625
55	0x3cf93964	0.030422874
56	0x3d526092	0.051361628
57	0xbd6415f3	-0.055684995
58	0x3ca74dff	0.020422934
59	0x3db88e73	0.09011545
60	0x3da5c35d	0.08093903
61	0x3d392726	0.04520335
62	0x3c79398a	0.015211472
63	0x3d46a638	0.048498362
64	0x3cb161c5	0.021653065
65	0x3c5cf6de	0.013486592
66	0x3ce5e73a	0.028064359
67	0x3d845cb3	0.064629935
68	0x3c643758	0.013929211
69	0x3c10c768	0.008836605
70	0x3e176ab7	0.14786802
71	0xbde49ea4	-0.11163071
72	0x3d98bdc3	0.07458069
73	0x3d6316c2	0.055441625
74	0x3d9ac925	0.075578965
75	0x3d6a6202	0.057222374
76	0xbd45c627	-0.048284676
77	0x3d2ba081	0.041901115
78	0x3d76b4f2	0.060231157
79	0x3dc19693	0.09452548
80	0xbd2e0832	-0.042488284
81	0xbd8104ac	-0.06299719
82	0x3dab084f	0.08351194
83	0x3e52a164	0.20569378
84	0x3cbf9a5c	0.023389034
85	0x3e90176b	0.28142866
86	0x3d4c5eb6	0.04989501
87	0xbd44d1a0	-0.048051476
88	0x3e355891	0.17709567
89	0x3e56be6e	0.2097108
90	0xbd336445	-0.043796796
91	0xbab45600	-0.001375854
92	0x3cf27b61	0.029599847
93	0x3e3b1fd1	0.18273856
94	0xbd836ac8	-0.06416851
95	0xbd3c515f	-0.04597604
96	0x3d862925	0.065508164
97	0x3c5b345f	0.013379185
98	0x3d014a2f	0.031564888
99	0x3ca7ece0	0.020498693

train_data f4 [600, 1]
0	0x3f0bcaae	0.5460614
1	0xbf406d5f	-0.7516689
2	0xbf3db163	-0.74098796
3	0xbf427a5c	-0.75967956
4	0x3f0d28ac	0.55140185
5	0xbf1e3f93	-0.61815757
6	0x3b833f3b	0.0040053404
7	0x3f6d8b1c	0.9279039
8	0x3f18189c	0.5941255
9	0xbf57ab3c	-0.8424566
10	0x3f5d2334	0.8638184
11	0x3d6036b0	0.054739654
12	0x3f2b3c7f	0.66889185
13	0xbf59b839	-0.85046726
14	0x3f6f9819	0.9359146
15	0xbe71fc95	-0.23631509
16	0xbe6450aa	-0.22296396
17	0xbe6194ae	-0.22029373
18	0x3f5c7435	0.8611482
19	0xbf38396c	-0.7196262
20	0x3f5b1637	0.8558077
21	0xbf05a3b8	-0.5220294
22	0x3f09bdb1	0.5380507
23	0x3f300578	0.68758345
24	0xbe53e8c2	-0.20694259
25	0x3e71fc95	0.23631509
26	0xbf4e194b	-0.80507344
27	0x3e8d802c	0.2763685
28	0x3eb93fea	0.36181575
29	0x3e77748d	0.24165554
30	0x3f3ba467	0.73297733
31	0xbf660627	-0.8985314
32	0x3f29de81	0.6635514
33	0xbf0b1baf	-0.54339117
34	0xbf160b9f	-0.5861148
35	0xbdf35a93	-0.1188251
36	0x3ed5f5bf	0.41789052
37	0x3c8e2f2b	0.017356476
38	0xbed5f5bf	-0.41789052
39	0x3e6f4099	0.23364486
40	0xbf14ada1	-0.58077437
41	0x3e075935	0.13217624
42	0x3eea77a0	0.45794392
43	0x3e7fa881	0.24966623
44	0x3edf87b1	0.43658212
45	0x3f3d0264	0.7383177
46	0xbdd802bc	-0.105473965
47	0x3f085fb3	0.53271025
48	0xbe6f4099	-0.23364486
49	0x3ee0e5af	0.43925235
50	0xbe4bb4ce	-0.1989319
51	0xbf155ca0	-0.5834446
52	0xbf0445ba	-0.51668894
53	0x3e2da0fc	0.16955942
54	0xbf6cdc1d	-0.92523366
55	0x3f04f4b9	0.5193592
56	0xbe9c8a15	-0.30574098
57	0xbe74b891	-0.23898531
58	0xbf21aa8e	-0.6315087
59	0x3f4c0c4e	0.79706275
60	0xbe8ac430	-0.27102804
61	0xbf20fb8f	-0.6288385
62	0x3f16ba9e	0.58878505
63	0xbe945621	-0.2897196
64	0x3f321275	0.69559413
65	0xbecdc1cb	-0.40186915
66	0xbf681324	-0.90654206
67	0xbf1f9d91	-0.623498
68	0xbdf8d28b	-0.12149533
69	0xbe2da0fc	-0.16955942
70	0xbca40f0a	-0.020026702
71	0xbe919a26	-0.28437918
72	0x3ecf1fc9	0.40453938
73	0x3f474355	0.77837116
74	0x3f0b1baf	0.54339117
75	0xbe3890eb	-0.18024032
76	0xbe81323e	-0.25233644
77	0x3f564d3f	0.8371162
78	0x3f0701b5	0.5273698
79	0x3f5e8132	0.86915886
80	0xbf7f5101	-0.9973298
81	0x3ecb05cf	0.3965287
82	0xbf1ce195	-0.6128171
83	0x3f4b5d4f	0.7943925
84	0xbf585a3b	-0.8451268
85	0x3f7b3707	0.9813084
86	0x3ea0a40f	0.31375167
87	0xbf1a2599	-0.6021362
88	0x3e305cf7	0.17222963
89	0xbd08b733	-0.033377837
90	0xbf43d85a	-0.76502
91	0x3d96631e	0.07343124
92	0xbcfb8e87	-0.03070761
93	0xbe7a3089	-0.24432577
94	0x3e53e8c2	0.20694259
95	0xbec849d4	-0.39118826
96	0xbe98701b	-0.2977303
97	0x3ebeb7e2	0.37249666
98	0x3e463cd7	0.19359146
99	0x3bdabeb8	0.0066755675
100	0x3d13a723	0.036048066
101	0x3edb6db7	0.42857143
102	0xbf288083	-0.65821093
103	0x3f0189be	0.506008
104	0x3e01e13d	0.12683578
105	0x3f204c90	0.62616825
106	0xbf502648	-0.8130841
107	0x3d90eb27	0.07076102
108	0xbf362c6f	-0.7116155
109	0xbee0e5af	-0.43925235
110	0x3ec42fda	0.38317758
111	0x3d1e9712	0.03871829
112	0xbd4a56d0	-0.049399197
113	0xbf7df303	-0.9919893
114	0xbf43295b	-0.7623498
115	0x3eab93ff	0.3351135
116	0xbf4c0c4e	-0.79706275
117	0xbd5546c0	-0.052069426
118	0xbc8e2f2b	-0.017356476
119	0x3ede29b3	0.4339119
120	0xbf64a829	-0.8931909
121	0xbccfcec8	-0.025367156
122	0x3f1ad498	0.6048064
123	0x3f27d184	0.6555407
124	0xbf469456	-0.7757009
125	0x3f704718	0.9385848
126	0xbf7be606	-0.9839786
127	0x3e9f4611	0.31108144
128	0xbf77cc0c	-0.96795726
129	0xbf3fbe60	-0.74899864
130	0xbf5c7435	-0.8611482
131	0x3f681324	0.90654206
132	0x3f792a0a	0.9732977
133	0xbeee919a	-0.4659546
134	0xbde86aa3	-0.11348464
135	0xbeb7e1ec	-0.35914552
136	0xbef14d96	-0.47129506
137	0x3e5ed8b2	0.2176235
138	0x3efd9b84	0.49532712
139	0xbf11f1a5	-0.57009345
140	0xbf0d28ac	-0.55140185
141	0xbc44ded9	-0.012016022
142	0x3ec9a7d2	0.3938585
143	0x3f22598c	0.6341789
144	0x3dfe4a83	0.12416556
145	0x3f090eb2	0.5353805
146	0x3dd802bc	0.105473965
147	0x3f59093a	0.84779704
148	0xbe4e70ca	-0.20160213
149	0x3cfb8e87	0.03070761
150	0xbf800000	-1.0
151	0xbf12a0a4	-0.5727637
152	0xbe075935	-0.13217624
153	0x3dd28ac4	0.10280374
154	0x3e3e08e3	0.18558078
155	0x3ea8d803	0.32977304
156	0x3f292f82	0.66088116
157	0x3f0fe4a8	0.56208277
158	0xbf0238bd	-0.50867826
159	0xbeea77a0	-0.45794392
160	0x3ef14d96	0.47129506
161	0xbedf87b1	-0.43658212
162	0xbe7fa881	-0.24966623
163	0xbd96631e	-0.07343124
164	0xbe5c1cb6	-0.21495327
165	0x3f7a8808	0.9786382
166	0xbf3a4669	-0.7276369
167	0x3f3a4669	0.7276369
168	0xbf38e86b	-0.7222964
169	0xbf5bc536	-0.85847795
170	0xbd1e9712	-0.03871829
171	0xbf7a8808	-0.9786382
172	0xbf090eb2	-0.5353805
173	0x3e98701b	0.2977303
174	0xbf474355	-0.77837116
175	0x3f613d2e	0.8798398
176	0xbce5aea7	-0.028037382
177	0xbf539143	-0.82643527
178	0xbe854c38	-0.26034713
179	0x3e92f824	0.2870494
180	0xbf357d70	-0.7089453
181	0x3d80833f	0.06275033
182	0xbf68c223	-0.9092123
183	0x3f730313	0.94926566
184	0xbe7cec85	-0.246996
185	0xbf0a6cb0	-0.54072094
186	0xbef2ab94	-0.4739653
187	0x3f155ca0	0.5834446
188	0xbf002bc0	-0.5006676
189	0x3df8d28b	0.12149533
190	0xbe4380db	-0.19092123
191	0xbe9de813	-0.3084112
192	0xbf544042	-0.8291055
193	0xbf18189c	-0.5941255
194	0x3f0a6cb0	0.54072094
195	0x3f38e86b	0.7222964
196	0x3e6450aa	0.22296396
197	0x3db1baf5	0.08678237
198	0xbeed339c	-0.46328437
199	0x3ef2ab94	0.4739653
200	0xbe9b2c17	-0.30307075
201	0xbee4ffa9	-0.44726303
202	0xbf1c3296	-0.6101469
203	0x3eb683ee	0.3564753
204	0xbec6ebd6	-0.38851804
205	0x3ef8238c	0.4846462
206	0x3f18c79b	0.59679574
207	0x3f134fa3	0.5754339
208	0xbdc222dd	-0.09479306
209	0xbf272285	-0.6528705
210	0x3e4380db	0.19092123
211	0xbf2b3c7f	-0.66889185
212	0xbee65da6	-0.44993323
213	0xbf18c79b	-0.59679574
214	0xbdc79ad5	-0.09746329
215	0xbee243ad	-0.44192258
216	0xbd13a723	-0.036048066
217	0x3f251588	0.6448598
218	0x3f41cb5d	0.7570093
219	0x3eacf1fd	0.33778372
220	0xbee919a2	-0.4552737
221	0x3f448759	0.76769024
222	0xbf134fa3	-0.5754339
223	0x3e3890eb	0.18024032
224	0x3f378a6d	0.71695596
225	0xbf751010	-0.95727634
226	0xbf655728	-0.89586115
227	0x3f5fdf30	0.8744993
228	0x3f70f617	0.94125503
229	0xbf634a2b	-0.88785046
230	0xbebd59e4	-0.36982644
231	0xbf0189be	-0.506008
232	0x3f43295b	0.7623498
233	0xbf378a6d	-0.71695596
234	0xbf5b1637	-0.8558077
235	0xbed07dc7	-0.4072096
236	0xbe282904	-0.16421896
237	0x3e919a26	0.28437918
238	0x3f34ce71	0.70627505
239	0x3ee7bba4	0.45260346
240	0x3ed1dbc5	0.40987983
241	0xbf704718	-0.9385848
242	0x3f1e3f93	0.61815757
243	0xbf204c90	-0.62616825
244	0x3ce5aea7	0.028037382
245	0x3f6b7e1f	0.9198932
246	0x3f39976a	0.72496665
247	0xbea2020d	-0.3164219
248	0x3e1d3914	0.15353805
249	0xbdd28ac4	-0.10280374
250	0x3e86aa36	0.26301736
251	0xbd3476f1	-0.044058744
252	0x3f6a2021	0.91455275
253	0xbe95b41f	-0.29238984
254	0xbf3e6062	-0.7436582
255	0xbe86aa36	-0.26301736

train_targets f4 [600, 1]
0	0x3f0bcaae	0.5460614
1	0x3f406d5f	0.7516689
2	0x3f3db163	0.74098796
3	0x3f427a5c	0.75967956
4	0x3f0d28ac	0.55140185
5	0x3f1e3f93	0.61815757
6	0x3b833f3b	0.0040053404
7	0x3f6d8b1c	0.9279039
8	0x3f18189c	0.5941255
9	0x3f57ab3c	0.8424566
10	0x3f5d2334	0.8638184
11	0x3d6036b0	0.054739654
12	0x3f2b3c7f	0.66889185
13	0x3f59b839	0.85046726
14	0x3f6f9819	0.9359146
15	0x3e71fc95	0.23631509
16	0x3e6450aa	0.22296396
17	0x3e6194ae	0.22029373
18	0x3f5c7435	0.8611482
19	0x3f38396c	0.7196262
20	0x3f5b1637	0.8558077
21	0x3f05a3b8	0.5220294
22	0x3f09bdb1	0.5380507
23	0x3f300578	0.68758345
24	0x3e53e8c2	0.20694259
25	0x3e71fc95	0.23631509
26	0x3f4e194b	0.80507344
27	0x3e8d802c	0.2763685
28	0x3eb93fea	0.36181575
29	0x3e77748d	0.24165554
30	0x3f3ba467	0.73297733
31	0x3f660627	0.8985314
32	0x3f29de81	0.6635514
33	0x3f0b1baf	0.54339117
34	0x3f160b9f	0.5861148
35	0x3df35a93	0.1188251
36	0x3ed5f5bf	0.41789052
37	0x3c8e2f2b	0.017356476
38	0x3ed5f5bf	0.41789052
39	0x3e6f4099	0.23364486
40	0x3f14ada1	0.58077437
41	0x3e075935	0.13217624
42	0x3eea77a0	0.45794392
43	0x3e7fa881	0.24966623
44	0x3edf87b1	0.43658212
45	0x3f3d0264	0.7383177
46	0x3dd802bc	0.105473965
47	0x3f085fb3	0.53271025
48	0x3e6f4099	0.23364486
49	0x3ee0e5af	0.43925235
50	0x3e4bb4ce	0.1989319
51	0x3f155ca0	0.5834446
52	0x3f0445ba	0.51668894
53	0x3e2da0fc	0.16955942
54	0x3f6cdc1d	0.92523366
55	0x3f04f4b9	0.5193592
56	0x3e9c8a15	0.30574098
57	0x3e74b891	0.23898531
58	0x3f21aa8e	0.6315087
59	0x3f4c0c4e	0.79706275
60	0x3e8ac430	0.27102804
61	0x3f20fb8f	0.6288385
62	0x3f16ba9e	0.58878505
63	0x3e945621	0.2897196
64	0x3f321275	0.69559413
65	0x3ecdc1cb	0.40186915
66	0x3f681324	0.90654206
67	0x3f1f9d91	0.623498
68	0x3df8d28b	0.12149533
69	0x3e2da0fc	0.16955942
70	0x3ca40f0a	0.020026702
71	0x3e919a26	0.28437918
72	0x3ecf1fc9	0.40453938
73	0x3f474355	0.77837116
74	0x3f0b1baf	0.54339117
75	0x3e3890eb	0.18024032
76	0x3e81323e	0.25233644
77	0x3f564d3f	0.8371162
78	0x3f0701b5	0.5273698
79	0x3f5e8132	0.86915886
80	0x3f7f5101	0.9973298
81	0x3ecb05cf	0.3965287
82	0x3f1ce195	0.6128171
83	0x3f4b5d4f	0.7943925
84	0x3f585a3b	0.8451268
85	0x3f7b3707	0.9813084
86	0x3ea0a40f	0.31375167
87	0x3f1a2599	0.6021362
88	0x3e305cf7	0.17222963
89	0x3d08b733	0.033377837
90	0x3f43d85a	0.76502
91	0x3d96631e	0.07343124
92	0x3cfb8e87	0.03070761
93	0x3e7a3089	0.24432577
94	0x3e53e8c2	0.20694259
95	0x3ec849d4	0.39118826
96	0x3e98701b	0.2977303
97	0x3ebeb7e2	0.37249666
98	0x3e463cd7	0.19359146
99	0x3bdabeb8	0.0066755675
100	0x3d13a723	0.036048066
101	0x3edb6db7	0.42857143
102	0x3f288083	0.65821093
103	0x3f0189be	0.506008
104	0x3e01e13d	0.12683578
105	0x3f204c90	0.62616825
106	0x3f502648	0.8130841
107	0x3d90eb27	0.07076102
108	0x3f362c6f	0.7116155
109	0x3ee0e5af	0.43925235
110	0x3ec42fda	0.38317758
111	0x3d1e9712	0.03871829
112	0x3d4a56d0	0.049399197
113	0x3f7df303	0.9919893
114	0x3f43295b	0.7623498
115	0x3eab93ff	0.3351135
116	0x3f4c0c4e	0.79706275
117	0x3d5546c0	0.052069426
118	0x3c8e2f2b	0.017356476
119	0x3ede29b3	0.4339119
120	0x3f64a829	0.8931909
121	0x3ccfcec8	0.025367156
122	0x3f1ad498	0.6048064
123	0x3f27d184	0.6555407
124	0x3f469456	0.7757009
125	0x3f704718	0.9385848
126	0x3f7be606	0.9839786
127	0x3e9f4611	0.31108144
128	0x3f77cc0c	0.96795726
129	0x3f3fbe60	0.74899864
130	0x3f5c7435	0.8611482
131	0x3f681324	0.90654206
132	0x3f792a0a	0.9732977
133	0x3eee919a	0.4659546
134	0x3de86aa3	0.11348464
135	0x3eb7e1ec	0.35914552
136	0x3ef14d96	0.47129506
137	0x3e5ed8b2	0.2176235
138	0x3efd9b84	0.49532712
139	0x3f11f1a5	0.57009345
140	0x3f0d28ac	0.55140185
141	0x3c44ded9	0.012016022
142	0x3ec9a7d2	0.3938585
143	0x3f22598c	0.6341789
144	0x3dfe4a83	0.12416556
145	0x3f090eb2	0.5353805
146	0x3dd802bc	0.105473965
147	0x3f59093a	0.84779704
148	0x3e4e70ca	0.20160213
149	0x3cfb8e87	0.03070761
150	0x3f800000	1.0
151	0x3f12a0a4	0.5727637
152	0x3e075935	0.13217624
153	0x3dd28ac4	0.10280374
154	0x3e3e08e3	0.18558078
155	0x3ea8d803	0.32977304
156	0x3f292f82	0.66088116
157	0x3f0fe4a8	0.56208277
158	0x3f0238bd	0.50867826
159	0x3eea77a0	0.45794392
160	0x3ef14d96	0.47129506
161	0x3edf87b1	0.43658212
162	0x3e7fa881	0.24966623
163	0x3d96631e	0.07343124
164	0x3e5c1cb6	0.21495327
165	0x3f7a8808	0.9786382
166	0x3f3a4669	0.7276369
167	0x3f3a4669	0.7276369
168	0x3f38e86b	0.7222964
169	0x3f5bc536	0.85847795
170	0x3d1e9712	0.03871829
171	0x3f7a8808	0.9786382
172	0x3f090eb2	0.5353805
173	0x3e98701b	0.2977303
174	0x3f474355	0.77837116
175	0x3f613d2e	0.8798398
176	0x3ce5aea7	0.028037382
177	0x3f539143	0.82643527
178	0x3e854c38	0.26034713
179	0x3e92f824	0.2870494
180	0x3f357d70	0.7089453
181	0x3d80833f	0.06275033
182	0x3f68c223	0.9092123
183	0x3f730313	0.94926566
184	0x3e7cec85	0.246996
185	0x3f0a6cb0	0.54072094
186	0x3ef2ab94	0.4739653
187	0x3f155ca0	0.5834446
188	0x3f002bc0	0.5006676
189	0x3df8d28b	0.12149533
190	0x3e4380db	0.19092123
191	0x3e9de813	0.3084112
192	0x3f544042	0.8291055
193	0x3f18189c	0.5941255
194	0x3f0a6cb0	0.54072094
195	0x3f38e86b	0.7222964
196	0x3e6450aa	0.22296396
197	0x3db1baf5	0.08678237
198	0x3eed339c	0.46328437
199	0x3ef2ab94	0.4739653
200	0x3e9b2c17	0.30307075
201	0x3ee4ffa9	0.44726303
202	0x3f1c3296	0.6101469
203	0x3eb683ee	0.3564753
204	0x3ec6ebd6	0.38851804
205	0x3ef8238c	0.4846462
206	0x3f18c79b	0.59679574
207	0x3f134fa3	0.5754339
208	0x3dc222dd	0.09479306
209	0x3f272285	0.6528705
210	0x3e4380db	0.19092123
211	0x3f2b3c7f	0.66889185
212	0x3ee65da6	0.44993323
213	0x3f18c79b	0.59679574
214	0x3dc79ad5	0.09746329
215	0x3ee243ad	0.44192258
216	0x3d13a723	0.036048066
217	0x3f251588	0.6448598
218	0x3f41cb5d	0.7570093
219	0x3eacf1fd	0.33778372
220	0x3ee919a2	0.4552737
221	0x3f448759	0.76769024
222	0x3f134fa3	0.5754339
223	0x3e3890eb	0.18024032
224	0x3f378a6d	0.71695596
225	0x3f751010	0.95727634
226	0x3f655728	0.89586115
227	0x3f5fdf30	0.8744993
228	0x3f70f617	0.94125503
229	0x3f634a2b	0.88785046
230	0x3ebd59e4	0.36982644
231	0x3f0189be	0.506008
232	0x3f43295b	0.7623498
233	0x3f378a6d	0.71695596
234	0x3f5b1637	0.8558077
235	0x3ed07dc7	0.4072096
236	0x3e282904	0.16421896
237	0x3e919a26	0.28437918
238	0x3f34ce71	0.70627505
239	0x3ee7bba4	0.45260346
240	0x3ed1dbc5	0.40987983
241	0x3f704718	0.9385848
242	0x3f1e3f93	0.61815757
243	0x3f204c90	0.62616825
244	0x3ce5aea7	0.028037382
245	0x3f6b7e1f	0.9198932
246	0x3f39976a	0.72496665
247	0x3ea2020d	0.3164219
248	0x3e1d3914	0.15353805
249	0x3dd28ac4	0.10280374
250	0x3e86aa36	0.26301736
251	0x3d3476f1	0.044058744
252	0x3f6a2021	0.91455275
253	0x3e95b41f	0.29238984
254	0x3f3e6062	0.7436582
255	0x3e86aa36	0.26301736

test_data f4 [150, 1]
0	0x3f6acf20	0.917223
1	0x3f63f92a	0.8905207
2	0x3ed1dbc5	0.40987983
3	0x3e7cec85	0.246996
4	0x3f453658	0.77036047
5	0x3d6b269f	0.05740988
6	0x3eba9de8	0.36448598
7	0x3aaefefa	0.0013351135
8	0x3cb9eee9	0.022696929
9	0x3eb269f4	0.3484646
10	0x3e5960ba	0.21228305
11	0x3f4f7749	0.8104139
12	0x3f6acf20	0.917223
13	0x3f2f5679	0.6849132
14	0x3d8b732f	0.06809079
15	0x3ec58dd8	0.3858478
16	0x3ec849d4	0.39118826
17	0x3f4cbb4d	0.799733
18	0x3f5d2334	0.8638184
19	0x3f71a516	0.94392526
20	0x3f585a3b	0.8451268
21	0x3f68c223	0.9092123
22	0x3eb683ee	0.3564753
23	0x3e049d39	0.129506
24	0x3e6c849d	0.23097463
25	0x3f766e0e	0.9626168
26	0x3e77748d	0.24165554
27	0x3f544042	0.8291055
28	0x3f792a0a	0.9732977
29	0x3f564d3f	0.8371162
30	0x3f2f5679	0.6849132
31	0x3d298702	0.04138852
32	0x3f5fdf30	0.8744993
33	0x3f5f3031	0.8718291
34	0x3eaa3601	0.33244327
35	0x3eae4ffb	0.34045395
36	0x3f47f254	0.7810414
37	0x3ec173de	0.37783712
38	0x3e17c11c	0.14819759
39	0x3e0a1531	0.13484646
40	0x3efef982	0.49799734
41	0x3d5546c0	0.052069426
42	0x3f29de81	0.6635514
43	0x3f17699d	0.5914553
44	0x3f272285	0.6528705
45	0x3e6194ae	0.22029373
46	0x3e282904	0.16421896
47	0x3f725415	0.9465955
48	0x3c709e97	0.014686248
49	0x3f09bdb1	0.5380507
50	0x3ea3600b	0.31909212
51	0x3f341f72	0.7036048
52	0x3f518446	0.8184246
53	0x3c709e97	0.014686248
54	0x3ef6c58e	0.48197597
55	0x3f411c5e	0.7543391
56	0x3ed339c3	0.41255006
57	0x3e97121d	0.29506007
58	0x3e81323e	0.25233644
59	0x3f337073	0.7009346
60	0x3eb7e1ec	0.35914552
61	0x3ddd7ab4	0.108144194
62	0x3f3e6062	0.7436582
63	0x3dc79ad5	0.09746329
64	0x3f0dd7ab	0.5540721
65	0x3f5dd233	0.86648864
66	0x3f1eee92	0.6208278
67	0x3e1d3914	0.15353805
68	0x3f2ea77a	0.682243
69	0x3eefef98	0.46862483
70	0x3f36db6e	0.71428573
71	0x3f61ec2d	0.88251
72	0x3e1ff510	0.15620828
73	0x3f50d547	0.81575435
74	0x3d80833f	0.06275033
75	0x3ee7bba4	0.45260346
76	0x3e512cc6	0.20427236
77	0x3f7b3707	0.9813084
78	0x3f0bcaae	0.5460614
79	0x3f787b0b	0.9706275
80	0x3f0238bd	0.50867826
81	0x3dbcaae5	0.09212283
82	0x3e3318f3	0.17489986
83	0x3bdabeb8	0.0066755675
84	0x3de86aa3	0.11348464
85	0x3f002bc0	0.5006676
86	0x3ca40f0a	0.020026702
87	0x3da1530e	0.078771695
88	0x3f1c3296	0.6101469
89	0x3d3f66e1	0.046728972
90	0x3e92f824	0.2870494
91	0x3f56fc3e	0.8397864
92	0x3e896632	0.2683578
93	0x3da6cb06	0.081441924
94	0x3f0396bb	0.5140187
95	0x3f362c6f	0.7116155
96	0x3f3fbe60	0.74899864
97	0x3f19769a	0.59946597
98	0x3ef40992	0.47663552
99	0x3ed497c1	0.4152203
100	0x3e99ce19	0.30040053
101	0x3ecf1fc9	0.40453938
102	0x3efc3d86	0.4926569
103	0x3f2df87b	0.67957276
104	0x3ea4be09	0.32176235
105	0x3f2df87b	0.67957276
106	0x3f321275	0.69559413
107	0x3f38396c	0.7196262
108	0x3f48a153	0.7837116
109	0x3f66b526	0.9012016
110	0x3ddd7ab4	0.108144194
111	0x3e3e08e3	0.18558078
112	0x3e2ae500	0.16688919
113	0x3ea2020d	0.3164219
114	0x3e1a7d18	0.15086782
115	0x3d6036b0	0.054739654
116	0x3ea0a40f	0.31375167
117	0x3f453658	0.77036047
118	0x3e512cc6	0.20427236
119	0x3f730313	0.94926566
120	0x3f75bf0f	0.9599466
121	0x3f75bf0f	0.9599466
122	0x3f697122	0.9118825
123	0x3f300578	0.68758345
124	0x3f676425	0.90387183
125	0x3ec015e0	0.3751669
126	0x3f1ad498	0.6048064
127	0x3ecdc1cb	0.40186915
128	0x3f5bc536	0.85847795
129	0x3eab93ff	0.3351135
130	0x3dcd12cc	0.10013351
131	0x3f469456	0.7757009
132	0x3eefef98	0.46862483
133	0x3e9de813	0.3084112
134	0x3e880834	0.26568758
135	0x3f7c9505	0.98664886
136	0x3f6cdc1d	0.92523366
137	0x3e48f8d3	0.19626169
138	0x3f07b0b4	0.53004
139	0x3f49ff51	0.78905207
140	0x3e22b10c	0.1588785
141	0x3f676425	0.90387183
142	0x3db732ed	0.0894526
143	0x3f316376	0.6929239
144	0x3f07b0b4	0.53004
145	0x3f47f254	0.7810414
146	0x3e5960ba	0.21228305
147	0x3f45e557	0.7730307
148	0x3f0e86aa	0.5567423
149	0x3e2ae500	0.16688919

0.weight f4 [100, 1]
0	0x3e55ed65	0.2089134
1	0x3ec2b16c	0.38025987
2	0x3f4f8a54	0.81070447
3	0xbf7e2c0b	-0.99285954
4	0x3f3fc1f4	0.74905324
5	0xbdfc8e70	-0.12331855
6	0xbe103150	-0.14081311
7	0xbeeed16c	-0.4664415
8	0xbf37a2a3	-0.7173254
9	0xbe2e1e80	-0.17003822
10	0xbf796a3d	-0.9742773
11	0x3ed4e43c	0.4158038
12	0xbf44e3f8	-0.7691035
13	0x3ed0bbc0	0.40768242
14	0xbd2a4d80	-0.041577816
15	0x3e7fab86	0.24967775
16	0xbef0dca4	-0.47043335
17	0x3f1b558c	0.6067741
18	0xbdda046d	-0.106453754
19	0xbe6039ca	-0.21897045
20	0x3f779e44	0.9672587
21	0x3f443d05	0.7665561
22	0x3f61c175	0.88185817
23	0xbf410ba3	-0.7540838
24	0x3f4c20cb	0.7973754
25	0xbf16820f	-0.58792204
26	0x3f5a4b9b	0.85271615
27	0x3dc52fb8	0.09628242
28	0xbe9a39a7	-0.3012211
29	0xbca08b80	-0.019597769
30	0xbe8af41c	-0.27139366
31	0xbf0996df	-0.53745836
32	0x3f36dcbe	0.71430576
33	0x3f4de480	0.8042679
34	0xbf1ef2e6	-0.62089384
35	0x3e8a7d48	0.27048707
36	0xbf55daf1	-0.83537203
37	0x3f270cf3	0.65254134
38	0xbe814444	-0.25247395
39	0xbf7144b8	-0.9424548
40	0x3ef77ebc	0.48338878
41	0x3e51dd00	0.20494461
42	0xbf328097	-0.6972746
43	0x3eadda9a	0.33955842
44	0x3e9f5dc4	0.31126225
45	0xbe87ca98	-0.26521754
46	0x3f509367	0.8147492
47	0x3f7d88c6	0.99036825
48	0x3f26094b	0.6485793
49	0xbf0e2e29	-0.55539185
50	0xbf51db65	-0.81975394
51	0x3f62ee8e	0.88645256
52	0xbe87f77f	-0.26556012
53	0x3cf7f218	0.030266806
54	0x3f18afba	0.5964314
55	0xbecd6b48	-0.40120912
56	0xbec696c4	-0.387869
57	0xbbd35526	-0.0064493595
58	0xbedf5dc1	-0.43626216
59	0x3e989e4c	0.2980827
60	0xbd5c5e26	-0.053800724
61	0xbdc409a9	-0.09572155
62	0xbf083c7a	-0.5321728
63	0xbf708935	-0.9395936
64	0x3ed9b675	0.42522016
65	0xbf78bc8e	-0.9716271
66	0x3f7c5607	0.9856877
67	0xbf4f7171	-0.8103247
68	0x3f03ffea	0.5156237
69	0xbe005500	-0.12532425
70	0x3e693ea9	0.22777809
71	0xbee47660	-0.44621563
72	0x3ccc0ac0	0.02490747
73	0xbea7b784	-0.327572
74	0xbf62ed7d	-0.8864363
75	0x3e46c6b0	0.19411731
76	0x3df78dba	0.12087579
77	0x3f0f4202	0.55960095
78	0x3eb75ee8	0.35814595
79	0xbe44b7b8	-0.19210708
80	0xbf3a83d1	-0.72857386
81	0xbf5f8924	-0.87318635
82	0xbeaf1614	-0.34196532
83	0xbf65a7b6	-0.8970903
84	0xbf52f0e7	-0.8239884
85	0xbf79e915	-0.9762128
86	0xbf58548c	-0.8450401
87	0x3ef10d44	0.47080433
88	0x3f4ba2d9	0.7954536
89	0x3f3be731	0.73399645
90	0x3ea2d003	0.31799325
91	0xbd4cd960	-0.050011992
92	0x3f6eed8a	0.93331206
93	0x3f2d30cf	0.676526
94	0xbd7ede00	-0.062223434
95	0xbce13465	-0.027490804
96	0xbe722dc0	-0.23650265
97	0x3f4ce8cc	0.8004272
98	0xbe54ccdd	-0.20781274
99	0x3f323890	0.6961756

0.bias f4 [100]
0	0x3f3ce253	0.73782843
1	0xbe1b76c6	-0.15182027
2	0xbb3b3275	-0.002856401
3	0xbf7a59a4	-0.9779303
4	0x3e713996	0.23557124
5	0xbf6a1582	-0.9143907
6	0x3e4e4776	0.20144448
7	0xbf3c147e	-0.7346877
8	0x3f3305d9	0.699308
9	0xbf2d5c56	-0.6771902
10	0x3d131d1b	0.03591643
11	0xbf779892	-0.9671718
12	0x3d17e488	0.03708318
13	0x3e680cf5	0.22661193
14	0xbf3106a2	-0.69150746
15	0x3f475b5d	0.77873784
16	0xbf454c32	-0.7706939
17	0xbe942262	-0.28932482
18	0x3ea3854c	0.31937635
19	0x3e249f1c	0.1607632
20	0xbf7a447a	-0.97760737
21	0xbf3653e9	-0.71221787
22	0xbf143959	-0.57900006
23	0x3f609890	0.8773279
24	0xbf07586b	-0.5286929
25	0x3a4e17c3	0.0007861817
26	0x3ed71e61	0.42015365
27	0x3f28c27f	0.6592178
28	0x3e9b4f95	0.30334154
29	0xbe6d7cb8	-0.23192108
30	0xbf028e68	-0.50998545
31	0xbeaad32a	-0.3336423
32	0xbf35976a	-0.70934165
33	0xbf5790fa	-0.8420559
34	0x3edd2828	0.431947
35	0xbf598f4e	-0.8498429
36	0x3f304596	0.6885618
37	0xbf0bceae	-0.54612243
38	0xbf7a898a	-0.9786612
39	0x3f20e4a2	0.62848866
40	0xbf177e76	-0.5917734
41	0xbe977c88	-0.29587197
42	0x3ee01bde	0.4377126
43	0x3f36894e	0.7130326
44	0xbefe7770	-0.497005
45	0xbf419a5a	-0.75626147
46	0xbd306203	-0.04306222
47	0x3c3cdbfd	0.011527059
48	0xbf1ee1f7	-0.62063545
49	0x3a42d40d	0.0007432111
50	0x3e5e7632	0.21724775
51	0x3d2b20e3	0.04177941
52	0x3f308213	0.6894848
53	0x3f5b29c4	0.85610604
54	0xbf202280	-0.6255264
55	0xbed94150	-0.42432642
56	0xbf66edde	-0.90206707
57	0x3eb03036	0.34411782
58	0xbeda576f	-0.42644832
59	0x3ab038d3	0.0013444669
60	0x3f0a76c1	0.54087454
61	0x3f16b885	0.58875304
62	0x3d739b42	0.059474237
63	0x3f55364f	0.83285993
64	0x3ea9f9b7	0.3319833
65	0xbe2cfeee	-0.16894123
66	0xbf07b5b1	-0.53011614
67	0x3f1f231e	0.6216296
68	0xbf48bbae	-0.78411376
69	0xbed07fbc	-0.40722454
70	0xb99f37e7	-0.00030368494
71	0x3f26b710	0.6512308
72	0xbf3ad7e6	-0.72985685
73	0xbf0056b0	-0.50132275
74	0xbda7e5db	-0.08198138
75	0xbf21e1f0	-0.6323538
76	0x3ea7d7b4	0.32781756
77	0x3f4ccb40	0.79997635
78	0xbf5c5078	-0.86060286
79	0xbf188c12	-0.5958873
80	0xbea96261	-0.3308287
81	0x3f16c9f7	0.58901924
82	0xbf1b08ae	-0.6056012
83	0xbb98cbb9	-0.0046629575
84	0x3e4ee00e	0.20202658
85	0xb7d34cd7	-2.5188941e-05
86	0x3f32ce3e	0.6984595
87	0xbe545645	-0.20736034
88	0x3d87ab3f	0.066244595
89	0xbb27cc34	-0.0025603892
90	0xbe883f17	-0.26610634
91	0xbf1fdfb6	-0.6245073
92	0xbf0ff5e0	-0.5623455
93	0xbcccd27e	-0.025002714
94	0xbe35bc78	-0.17747676
95	0x3f09d043	0.5383341
96	0xbedd58f4	-0.43231928
97	0x3f052248	0.52005434
98	0x3dce4529	0.10071785
99	0x3f5f91d7	0.8733191

2.weight f4 [1, 100]
0	0x3d3a4d56	0.04548391
1	0xbc83e0c3	-0.016098386
2	0x3e43cee7	0.19121896
3	0x3d1dcc47	0.038524892
4	0xbd1cbd86	-0.03826668
5	0xbc504510	-0.012711778
6	0xbdb42bde	-0.087974295
7	0x3d93b74f	0.07212698
8	0xbd019207	-0.031633403
9	0x3cf92f64	0.030418105
10	0x3e2dc34b	0.1696903
11	0x3b15eea0	0.0022877827
12	0x3e1877c5	0.14889438
13	0xbb060c33	-0.0020454049
14	0xbd8a2ba0	-0.06746602
15	0xbd145baa	-0.03622023
16	0x3dc649a9	0.09682018
17	0xbd21384e	-0.039360337
18	0xbd7f6ab4	-0.06235762
19	0xbb31221b	-0.0027028385
20	0xbdacd842	-0.084396854
21	0xbd77eb11	-0.06052691
22	0xbd9e6e84	-0.07735923
23	0xbcf5dda6	-0.030012917
24	0xbcd2dbb4	-0.025739528
25	0x3e4eaa7b	0.2018222
26	0x3a8a1a30	0.0010536369
27	0xbd69f696	-0.05711993
28	0x3d514345	0.051089544
29	0xbb7b43a0	-0.0038339868
30	0x3d6eec76	0.058330975
31	0x3cd4cde2	0.025977079
32	0xbb3212d6	-0.0027171872
33	0x3d5590d6	0.05214008
34	0xbdbf5847	-0.093430094
35	0x3d597f22	0.05309976
36	0xbd9785b1	-0.073985465
37	0x3dac5f9d	0.08416674
38	0x3db3edef	0.087856166
39	0x3dad6d19	0.08468074
40	0x3d0f8d7e	0.035047047
41	0x3d5e50a2	0.054276116
42	0x3d6e3302	0.058154114
43	0x3c0aee9d	0.008479741
44	0x3da295e9	0.07938749
45	0x3d76ec0e	0.060283713
46	0x3d946adc	0.07246944
47	0x3e619427	0.22029172
48	0x3d1ecc01	0.038768772
49	0x3e4cd372	0.20002535
50	0xbc8a4839	-0.016880142
51	0x3db59528	0.0886634
52	0xbcb25c99	-0.02177267
53	0xbcddd1d2	-0.02707759
54	0x3db5c91d	0.0887625
55	0x3cf93964	0.030422874
56	0x3d526092	0.051361628
57	0xbd6415f3	-0.055684995
58	0x3ca74dff	0.020422934
59	0x3db88e73	0.09011545
60	0x3da5c35d	0.08093903
61	0x3d392726	0.04520335
62	0x3c79398a	0.015211472
63	0x3d46a638	0.048498362
64	0x3cb161c5	0.021653065
65	0x3c5cf6de	0.013486592
66	0x3ce5e73a	0.028064359
67	0x3d845cb3	0.064629935
68	0x3c643758	0.013929211
69	0x3c10c768	0.008836605
70	0x3e176ab7	0.14786802
71	0xbde49ea4	-0.11163071
72	0x3d98bdc3	0.07458069
73	0x3d6316c2	0.055441625
74	0x3d9ac925	0.075578965
75	0x3d6a6202	0.057222374
76	0xbd45c627	-0.048284676
77	0x3d2ba081	0.041901115
78	0x3d76b4f2	0.060231157
79	0x3dc19693	0.09452548
80	0xbd2e0832	-0.042488284
81	0xbd8104ac	-0.06299719
82	0x3dab084f	0.08351194
83	0x3e52a164	0.20569378
84	0x3cbf9a5c	0.023389034
85	0x3e90176b	0.28142866
86	0x3d4c5eb6	0.04989501
87	0xbd44d1a0	-0.048051476
88	0x3e355891	0.17709567
89	0x3e56be6e	0.2097108
90	0xbd336445	-0.043796796
91	0xbab45600	-0.001375854
92	0x3cf27b61	0.029599847
93	0x3e3b1fd1	0.18273856
94	0xbd836ac8	-0.06416851
95	0xbd3c515f	-0.04597604
96	0x3d862925	0.065508164
97	0x3c5b345f	0.013379185
98	0x3d014a2f	0.031564888
99	0x3ca7ece0	0.020498693
