complete/absolute/state3.pt (torch, 10937 bytes, 9 tensors)

weight f4 [100, 1]
00000000: 2b14 7c3e 20d7 ff3d 8050 cebc 7676 1b3f
00000010: fc05 3ebf 0f48 28bd 1b16 2b3f 74bc f8be
00000020: f40a bebe 4f3b 4e3f 8acc 043f df68 c6bd
00000030: bdf7 91be 746c 2e3f 1c9d 98be 4a11 dc3e
00000040: 9d14 5bbf c3ed 8cbe 6bb6 573f 629b 173f
00000050: 39c6 edbe 6877 0ebf f8c9 653e f061 293f
00000060: 8941 8bbe 803f 3e3e a4af 63bf 3c68 033f
00000070: 6d6b 1abe e8e2 3ebe a9bf cb3e b771 3b3f
00000080: 1f5e cabe 328a 7f3f e018 633e 4c53 743f
00000090: 7732 56be a939 4abf 8453 43bf bcdc 1abf
000000a0: 7caf 22bf 0c83 b03e 860a a03d a086 a03e
000000b0: d5cc a33e de14 203f 82d0 0abf 4c24 33bf
000000c0: d0bc 883e cc47 8bbe 2008 25bd de9d dc3d
000000d0: 48bf 49be 0099 4fbd c3e6 19be 08aa 463f
000000e0: 7637 54bf c3d1 653f bf63 6dbf 5c6e a63e
000000f0: b563 69be 515e 45bf f287 723f 6310 febe
00000100: 707b 72be 77e0 6abf 8ea8 313f 6a3f 65be
00000110: 4054 213d e47c 5e3f 64e9 f73e 7812 123f
00000120: 3cc1 f5be b90e 3b3f 90a2 543e 6885 56be
00000130: 684d a3be d10d 0d3f 6594 6ebf 5ba1 773f
00000140: 3dac d0be 23de 9bbe 4a24 5d3f b0d8 fa3e
00000150: 00bb 2fbf a895 fe3e 6986 643f 34b1 853e
00000160: 476f 5cbf 678b 793f 01ce 1ebf e895 aa3e
00000170: eaa7 213f 404d 74bd c829 653f d037 0b3e
00000180: 4bd7 30bf 42fe b4be 5d37 9f3e 80ac 25bf
0.24617068 0.12492204 -0.02518487 0.6072763 -0.7422788 -0.041084345 0.66830605 -0.48581278
-0.37117732 0.8055925 0.518746 -0.09687971 -0.28509322 0.68134236 -0.29807365 0.4298194
-0.8557833 -0.27525148 0.8426272 0.5922147 -0.46440294 -0.5565095 0.22440326 0.66165066
-0.27198437 0.18578911 -0.8893988 0.51330924 -0.15080042 -0.18641245 0.39794663 0.7322039
-0.39524934 0.99820244 0.22177458 0.954396 -0.20917688 -0.7899423 -0.7629931 -0.60493064
-0.6354902 0.3447498 0.07814507 0.3135271 0.31992212 0.6253184 -0.5422441 -0.6997726
0.26706553 -0.27203214 -0.04029095 0.10772298 -0.19701874 -0.05068302 -0.15029435 0.776032
-0.82897127 0.89773196 -0.92730325 0.32506073 -0.22791941 -0.7709704 0.94738686 -0.49621877
-0.236799 -0.91748756 0.6939782 -0.22387472 0.039386988 0.8690932 0.4842025 0.5705943
-0.4799899 0.7306934 0.20765138 -0.20949328 -0.31894994 0.5509921 -0.9319518 0.96730584
-0.40756407 -0.30442914 0.863835 0.48993444 -0.68644714 0.49723554 0.89267594 0.26111758
-0.86107296 0.97478336 -0.62033087 0.33317494 0.6314684 -0.059643984 0.8951688 0.1359551
-0.6907851 -0.35350233 0.31096926 -0.6471634

bias f4 [100]
00000000: 122d c83a 10df 02be 200c c7be a120 a9be
00000010: fff5 2e3f 23ec 563f 097f 4abd 27ed e53e
00000020: c9cb 203e 8d4d f53e 9f6c 583b df47 103f
00000030: f503 cc3e e128 8e3b f63d 04bf 1b14 ba3d
00000040: 0526 683f 007a 743e 8883 11bf d387 0e3f
00000050: 11e8 a33e b45a 243f 00f6 67be 0053 3cbf
00000060: 80b2 5ebe e8c8 e4be c57b 2bbe eb7e d7be
00000070: 42bd e83a ba78 ff3e 0cbf 8cbe 24e9 283c
00000080: 6458 4f3f a285 b6be 20a3 76bf 40a3 333f
00000090: f718 c03e fd77 363f 8d6e a1bb 459a c83e
000000a0: 8c89 84bb e4fb 74bf 2012 e139 8974 fe3e
000000b0: e622 fb3e fd8a 00bf 01fa 74b8 da69 3f3f
000000c0: d204 5cbf 69fe 3f3f fa30 71bf b166 f03e
000000d0: c033 52be ecdd 28bf ebae 113f eec3 69bf
000000e0: b3a7 52bf efcc 093f 9d49 40bf 308e eebe
000000f0: cbff b63e dab5 d33b e212 2dbd b433 2b3f
00000100: a09b 2cbf 858c 023f 4a11 51bf 6dcb 8c3e
00000110: 20c6 38bf ce73 6ebf 5c88 20bf be4d 5abf
00000120: 300f 1cbf d645 953e e4d7 c7be 84d4 433f
00000130: 2a89 0dbf 5668 ee3e 2a87 4abf a7d0 16bd
00000140: 323c 7f3f 5b98 00bb a9cb ec3e 7639 33bf
00000150: 23f8 16bf c08b 4ebe 0fce 843e 6d6a 263f
00000160: 10d9 c3bb ccb8 0b3f 810f 82bb 50d2 bbbe
00000170: 5665 30bf e094 f2bd ab4b 55bf c06b 59be
00000180: 6373 4a3f e452 223f b4f7 02be 4225 57bf
0.0015272221 -0.12780404 -0.38876438 -0.33032706 0.6834411 0.83954066 -0.049437556 0.44907495
0.15702738 0.4791073 0.0033023728 0.56359667 0.3984677 0.0043383692 -0.51657045 0.09085866
0.90683013 0.23874664 -0.56841326 0.55676 0.3201299 0.642009 -0.22652435 -0.7356415
-0.2174778 -0.4468453 -0.16746433 -0.42089018 0.0017756599 0.49896795 -0.27489507 0.010309491
0.8099425 -0.3564883 -0.9634266 0.70170975 0.37519047 0.7127684 -0.0049265088 0.39180198
-0.004044717 -0.95696855 0.00042928848 0.49698284 0.49050063 -0.5021208 -5.8406968e-05 0.7477089
-0.85944855 0.74997574 -0.9421536 0.46953347 -0.20527554 -0.65963626 0.5690753 -0.9131459
-0.8228714 0.5382833 -0.75112325 -0.46592855 0.3574203 0.0064608874 -0.042254336 0.6687577
-0.67424965 0.50995666 -0.81667006 0.27498952 -0.72177315 -0.93145454 -0.6270807 -0.85274875
-0.60960674 0.29154843 -0.390319 0.7649615 -0.5528742 0.46563977 -0.79112494 -0.03682008
0.99701226 -0.001962206 0.4624913 -0.70009553 -0.58972377 -0.20170498 0.2593846 0.6500614
-0.0059768036 0.5457885 -0.0039691334 -0.36683893 -0.68904626 -0.11844802 -0.83318585 -0.2123251
0.79082316 0.6340773 -0.12789804 -0.84041226

weight f4 [1, 100]
00000000: eaf5 f03d 6e43 3c3d 5810 c63c b1e8 a2bc
00000010: 2db4 e13c cd93 d13d efc0 a93d 3df6 abbd
00000020: 42b8 c53c 794a 9f3d 395c 273e 9826 db3d
00000030: 33b0 5ebd 64f1 693e aee2 1b3d 2f37 be3d
00000040: 395b 79bd d129 453d 53df efbb b568 a3bc
00000050: eaed f93c 0356 5cbd 5b26 c1bd b8a9 c3bc
00000060: df2a 0c3d 9eec 4a3d 2512 ae3d 424e 933d
00000070: 94d3 f83c 9834 26bd 4619 113d d1ce 3f3e
00000080: 99ed b93d 8478 4d3d 1055 33bd 5e86 0a3d
00000090: 045a 4bbd 0148 9bbb f578 8f3e b2a5 16bd
000000a0: 9765 9d3e cc55 b0bc bb6d bf3d 83b6 d53c
000000b0: d8a7 bb3c 95b8 8dbb d285 033e 0161 29bc
000000c0: b410 f2bc 22e4 9fbc 2360 b33d 6b65 8f3d
000000d0: 1a10 5bbd 6ab6 79bd 4487 8ebc bb27 b43d
000000e0: 648c 993c 99b6 03bd 8d38 92bd 5ab8 1bbd
000000f0: 2f47 c13c 81ff 343e c05e 5a3e 6994 ce3c
00000100: 582b 9cbd 4c64 09bd 4381 26bd 39db ac3c
00000110: 6b61 a8bd 18df c3bc c0b4 ee3a 94ba aebc
00000120: 0d08 b6bd c9b8 32bd 9869 14bc d65a 833d
00000130: f20b 1f3d c637 ad3d eedc f23c 81f0 1f3e
00000140: 840a 54bd 0b5e ed3d 10e0 cdbc 8866 cb3c
00000150: b7dc acbd b7db 0ebd 0995 963c 4d13 85bd
00000160: c6ad 9f3e fa16 20bd d9cb 883e 5596 823d
00000170: 5f39 b63d 603b 22bb bfd0 23b9 b93c cb3d
00000180: 23bb e23c 9f19 34bd 4e61 1cbd 9815 6a3c
0.117656544 0.045962743 0.024177715 -0.019886347 0.027551735 0.10233269 0.08288752 -0.083965756
0.024135713 0.077778764 0.16343774 0.107007205 -0.054367255 0.2284599 0.038057975 0.09287869
-0.060878012 0.048135582 -0.0073203235 -0.01994739 0.030508954 -0.053792965 -0.09431144 -0.02388464
0.034220573 0.049542062 0.084995545 0.07192661 0.030374326 -0.0405775 0.035424493 0.18731238
0.09078521 0.05016376 -0.043782294 0.03381955 -0.049646392 -0.004738808 0.2802197 -0.036779113
0.3074157 -0.021525286 0.09347101 0.026088005 0.022907183 -0.0043249824 0.12844017 -0.010338069
-0.02954898 -0.019517962 0.08758571 0.07001766 -0.053482153 -0.06096498 -0.017398484 0.087966405
0.018743701 -0.03215656 -0.071396925 -0.03801761 0.023593513 0.17675592 0.21325207 0.025217252
-0.07625455 -0.033542916 -0.040650617 0.021100627 -0.08221706 -0.02391009 0.0018211827 -0.021329202
-0.08888254 -0.043633256 -0.009058379 0.0641381 0.03882975 0.084579036 0.029646363 0.15619089
-0.05176784 0.11590203 -0.025131255 0.024829164 -0.084405355 -0.034877505 0.018381612 -0.06497822
0.31187266 -0.039084412 0.26718023 0.0637633 0.088976614 -0.0024754629 -0.00015622655 0.09923691
0.027677124 -0.043969747 -0.038178734 0.014287375

train_data f4 [600, 1]
00000000: 2f8e 60bf c91f cfbe 1f7e 6bbf a935 0fbf
00000010: 6d8a 373f 0b7b 783f e89d babe 1d12 973e
00000020: e5aa bc3d 9ed5 eb3e b35f 083f 4977 4f3f
00000030: d9de 44bc 3408 88be 63b1 3d3f acf2 e23d
00000040: c02b 00bf 6edb 363f dcd1 c23e 02a2 7e3f
00000050: 06cb a63d 5b29 43bf f75c 303e 0136 aabe
00000060: b187 df3e 933f 1ebf c197 d4be c339 d3be
00000070: 77b4 303f 1010 75bf 3aee 833e b187 dfbe
00000080: af1b 0bbf eb90 383e c8ce cfbc ad79 0cbf
00000090: ee83 b6be 9490 1dbf 0737 7bbf 933f 1e3f
000000a0: 6be8 38bf 17f6 70bf ad43 e23e b90f da3e
000000b0: 9d84 6c3e 5543 473f 00e5 2abe 9940 6fbe
000000c0: 09be a4be 27eb 90bd d3f8 48be 822f 29bf
000000d0: 02a2 7ebf 5836 45bf b4b0 073f 1e63 963d
000000e0: 1146 9f3e 6f2c 363f 94ab f23e 9f26 6b3d
000000f0: 904c 203f 2c9b 623f 3867 5a3f f176 343d
00000100: 95e1 1c3f 74c1 32bf aa50 64be b61c 5c3e
00000110: aa86 0e3f 2271 69bf 39b8 59bf 863d fcbe
00000120: 9632 1cbf 1161 743f f469 b2be 9c18 183f
00000130: 29a8 643f 16db 9bbd 057a a7be 4ac8 4e3f
00000140: f5ba b1bd 4826 50bf 0e6e 763f 4240 543f
00000150: 06cb a6bd d2a7 c93e 7d9a 2cbf 399d 04be
00000160: 3de1 01be 9d84 6cbe b76d dbbe 7f3c 2bbf
00000170: ceb4 4bbe 7aa7 2e3f 23a7 133d 94ab f2be
00000180: ae94 61be 44e2 523f aa50 643e 3efc 563f
00000190: 0151 7f3f a50c 673e 10f5 1f3e 7c49 2dbf
000001a0: a50c 67be 4b19 4e3f 8d74 77be 2b4a 633f
000001b0: 5250 493f 9c33 edbe 3aee 83be 9eba 163f
000001c0: 3cab 57bf aa86 0ebf 2ade 8ebe 81de 29bf
000001d0: 3f83 803d 6653 3cbf 2413 68bf 2b4a 63bf
000001e0: 91b8 743e 98ef ef3e 81a8 7f3e be89 01bf
000001f0: 3559 073e 9a76 193f d449 c8be bfda 003f
00000200: 82f9 fe3e 2ade 8e3e 4977 4fbf 3716 5b3f
00000210: 2413 683f f60b b13e f2c7 b33e 00e5 2a3e
00000220: 0fbf 75bf a36a e83d 0b60 a3be f5ba b13d
00000230: 1ae9 6e3f 5f6d 40bf 4533 52bf a793 103f
00000240: 3281 5ebf 409e 553f 0595 7c3f bbb1 d8be
00000250: b8be dabb 1010 753f 91b8 74be efd4 35be
00000260: bd53 d73e d73c 46be ed32 b7bd 9d69 173f
00000270: ba60 593e a642 113f 1303 73bf 3408 883e
00000280: 3a09 593f 09d9 793f 3c90 823e 37fb 853d
00000290: c197 d43e 0888 7a3f 8522 27bf e166 3f3d
000002a0: d59a c7bd 2271 693f 41ef 543f 8ffb 20bf
000002b0: a1c8 693e 964d f13e afe5 e0be 8ec5 f63e
000002c0: 2e22 8cbe cbc1 cd3e 7bf8 2dbf bff5 d53e
000002d0: 9be2 edbd b036 603d abd7 0dbf c62c 513e
000002e0: e89d ba3e db80 43be a05c 153f 834a fe3d
000002f0: 834a febd aeca 0bbf 23a7 13bd d056 4abd
00000300: 9d69 17bf 19ce 99be a65d e6be 5e1c 413f
00000310: 3574 5cbf 0287 29bd bb96 03bf 4f5d 4b3f
00000320: 51ff 493f 071c a63e a9ff e43e 3e32 813e
00000330: 298d 0fbe 2c80 8dbe 09be a43e c339 d33e
00000340: a219 e9be 9925 1abf d6eb c63e 26b5 663f
00000350: cf05 cb3e b2d8 5ebe 8966 24bf aba1 e3be
00000360: 1c8b 6dbf bce7 02bf c91f cf3e b61c 5cbe
00000370: 086d 25be de73 c1be 3f4d 56bf 5250 49bf
00000380: 8a81 f9be 9bc7 18bf ceb4 4b3e 23c2 68bf
00000390: 2e3d 61bf 09d9 79bf 0fa4 a0be 16a5 713f
000003a0: c2e8 53be 9490 1d3f a7ae e53c 3b5a 58bf
000003b0: dd22 c2bd 1161 74bf 3f83 80bd aeca 0b3f
000003c0: ad79 0c3f b036 60bd aba1 e33e 7eeb 2bbf
000003d0: 9c18 18bf d88d c53e 0151 7fbf 2156 94be
000003e0: 7370 33bf bea4 563e bd38 023f c2e8 533e
000003f0: 964d f1be 6260 3e3f 9f26 6bbd 67a4 3b3f
-0.87716955 -0.40453938 -0.9198932 -0.55941254 0.71695596 0.9706275 -0.36448598 0.29506007
0.09212283 0.46061414 0.53271025 0.8104139 -0.012016022 -0.26568758 0.74098796 0.11081442
-0.5006676 0.71428573 0.38050735 0.99465954 0.081441924 -0.7623498 0.17222963 -0.33244327
0.43658212 -0.61815757 -0.4152203 -0.41255006 0.6902537 -0.95727634 0.2576769 -0.43658212
-0.54339117 0.18024032 -0.025367156 -0.5487316 -0.3564753 -0.61548734 -0.9813084 0.61815757
-0.7222964 -0.94125503 0.44192258 0.4259012 0.23097463 0.77837116 -0.16688919 -0.23364486
-0.32176235 -0.07076102 -0.19626169 -0.66088116 -0.99465954 -0.77036047 0.53004 0.07343124
0.31108144 0.7116155 0.4739653 0.05740988 0.62616825 0.88518023 0.8531375 0.044058744
0.6128171 -0.69826436 -0.22296396 0.21495327 0.5567423 -0.9118825 -0.85046726 -0.4926569
-0.6101469 0.9546061 -0.3484646 0.5941255 0.8931909 -0.07610147 -0.3271028 0.80774367
-0.08678237 -0.8130841 0.9626168 0.8291055 -0.081441924 0.3938585 -0.6742323 -0.129506
-0.12683578 -0.23097463 -0.42857143 -0.66889185 -0.1989319 0.682243 0.036048066 -0.4739653
-0.22029373 0.82376504 0.22296396 0.8397864 0.9973298 0.22563417 0.15620828 -0.67690253
-0.22563417 0.80507344 -0.24165554 0.88785046 0.78638184 -0.46328437 -0.2576769 0.58878505
-0.8424566 -0.5567423 -0.27903873 -0.6635514 0.06275033 -0.73564756 -0.90654206 -0.88785046
0.23898531 0.46862483 0.24966623 -0.506008 0.13217624 0.59946597 -0.39118826 0.5033378
0.49799734 0.27903873 -0.8104139 0.8558077 0.90654206 0.34579438 0.35113484 0.16688919
-0.9599466 0.11348464 -0.31909212 0.08678237 0.93324435 -0.7516689 -0.8210948 0.564753
-0.86915886 0.83444595 0.98664886 -0.42323098 -0.0066755675 0.95727634 -0.23898531 -0.17757009
0.42056075 -0.19359146 -0.0894526 0.5914553 0.21228305 0.5674232 -0.94926566 0.26568758
0.84779704 0.97596794 0.25500667 0.06542056 0.4152203 0.9786382 -0.6528705 0.046728972
-0.09746329 0.9118825 0.8317757 -0.6288385 0.2283044 0.47129506 -0.43925235 0.48197597
-0.27369827 0.40186915 -0.67957276 0.41789052 -0.11615487 0.054739654 -0.5540721 0.20427236
0.36448598 -0.19092123 0.5834446 0.12416556 -0.12416556 -0.5460614 -0.036048066 -0.049399197
-0.5914553 -0.30040053 -0.44993323 0.7543391 -0.8611482 -0.04138852 -0.5140187 0.7943925
0.78905207 0.32443258 0.44726303 0.25233644 -0.14018692 -0.2763685 0.32176235 0.41255006
-0.4552737 -0.6021362 0.38851804 0.9012016 0.3965287 -0.2176235 -0.64218956 -0.4445928
-0.9279039 -0.5113485 0.40453938 -0.21495327 -0.16154873 -0.37783712 -0.8371162 -0.78638184
-0.48731643 -0.59679574 0.1989319 -0.9092123 -0.8798398 -0.97596794 -0.31375167 0.94392526
-0.20694259 0.61548734 0.028037382 -0.8451268 -0.09479306 -0.9546061 -0.06275033 0.5460614
0.5487316 -0.054739654 0.4445928 -0.6715621 -0.5941255 0.3858478 -0.9973298 -0.2897196
-0.7009346 0.20961282 0.50867826 0.20694259 -0.47129506 0.7436582 -0.05740988 0.73297733

train_targets f4 [600, 1]
00000000: 2f8e 603f c91f cf3e 1f7e 6b3f a935 0f3f
00000010: 6d8a 373f 0b7b 783f e89d ba3e 1d12 973e
00000020: e5aa bc3d 9ed5 eb3e b35f 083f 4977 4f3f
00000030: d9de 443c 3408 883e 63b1 3d3f acf2 e23d
00000040: c02b 003f 6edb 363f dcd1 c23e 02a2 7e3f
00000050: 06cb a63d 5b29 433f f75c 303e 0136 aa3e
00000060: b187 df3e 933f 1e3f c197 d43e c339 d33e
00000070: 77b4 303f 1010 753f 3aee 833e b187 df3e
00000080: af1b 0b3f eb90 383e c8ce cf3c ad79 0c3f
00000090: ee83 b63e 9490 1d3f 0737 7b3f 933f 1e3f
000000a0: 6be8 383f 17f6 703f ad43 e23e b90f da3e
000000b0: 9d84 6c3e 5543 473f 00e5 2a3e 9940 6f3e
000000c0: 09be a43e 27eb 903d d3f8 483e 822f 293f
000000d0: 02a2 7e3f 5836 453f b4b0 073f 1e63 963d
000000e0: 1146 9f3e 6f2c 363f 94ab f23e 9f26 6b3d
000000f0: 904c 203f 2c9b 623f 3867 5a3f f176 343d
00000100: 95e1 1c3f 74c1 323f aa50 643e b61c 5c3e
00000110: aa86 0e3f 2271 693f 39b8 593f 863d fc3e
00000120: 9632 1c3f 1161 743f f469 b23e 9c18 183f
00000130: 29a8 643f 16db 9b3d 057a a73e 4ac8 4e3f
00000140: f5ba b13d 4826 503f 0e6e 763f 4240 543f
00000150: 06cb a63d d2a7 c93e 7d9a 2c3f 399d 043e
00000160: 3de1 013e 9d84 6c3e b76d db3e 7f3c 2b3f
00000170: ceb4 4b3e 7aa7 2e3f 23a7 133d 94ab f23e
00000180: ae94 613e 44e2 523f aa50 643e 3efc 563f
00000190: 0151 7f3f a50c 673e 10f5 1f3e 7c49 2d3f
000001a0: a50c 673e 4b19 4e3f 8d74 773e 2b4a 633f
000001b0: 5250 493f 9c33 ed3e 3aee 833e 9eba 163f
000001c0: 3cab 573f aa86 0e3f 2ade 8e3e 81de 293f
000001d0: 3f83 803d 6653 3c3f 2413 683f 2b4a 633f
000001e0: 91b8 743e 98ef ef3e 81a8 7f3e be89 013f
000001f0: 3559 073e 9a76 193f d449 c83e bfda 003f
00000200: 82f9 fe3e 2ade 8e3e 4977 4f3f 3716 5b3f
00000210: 2413 683f f60b b13e f2c7 b33e 00e5 2a3e
00000220: 0fbf 753f a36a e83d 0b60 a33e f5ba b13d
00000230: 1ae9 6e3f 5f6d 403f 4533 523f a793 103f
00000240: 3281 5e3f 409e 553f 0595 7c3f bbb1 d83e
00000250: b8be da3b 1010 753f 91b8 743e efd4 353e
00000260: bd53 d73e d73c 463e ed32 b73d 9d69 173f
00000270: ba60 593e a642 113f 1303 733f 3408 883e
00000280: 3a09 593f 09d9 793f 3c90 823e 37fb 853d
00000290: c197 d43e 0888 7a3f 8522 273f e166 3f3d
000002a0: d59a c73d 2271 693f 41ef 543f 8ffb 203f
000002b0: a1c8 693e 964d f13e afe5 e03e 8ec5 f63e
000002c0: 2e22 8c3e cbc1 cd3e 7bf8 2d3f bff5 d53e
000002d0: 9be2 ed3d b036 603d abd7 0d3f c62c 513e
000002e0: e89d ba3e db80 433e a05c 153f 834a fe3d
000002f0: 834a fe3d aeca 0b3f 23a7 133d d056 4a3d
00000300: 9d69 173f 19ce 993e a65d e63e 5e1c 413f
00000310: 3574 5c3f 0287 293d bb96 033f 4f5d 4b3f
00000320: 51ff 493f 071c a63e a9ff e43e 3e32 813e
00000330: 298d 0f3e 2c80 8d3e 09be a43e c339 d33e
00000340: a219 e93e 9925 1a3f d6eb c63e 26b5 663f
00000350: cf05 cb3e b2d8 5e3e 8966 243f aba1 e33e
00000360: 1c8b 6d3f bce7 023f c91f cf3e b61c 5c3e
00000370: 086d 253e de73 c13e 3f4d 563f 5250 493f
00000380: 8a81 f93e 9bc7 183f ceb4 4b3e 23c2 683f
00000390: 2e3d 613f 09d9 793f 0fa4 a03e 16a5 713f
000003a0: c2e8 533e 9490 1d3f a7ae e53c 3b5a 583f
000003b0: dd22 c23d 1161 743f 3f83 803d aeca 0b3f
000003c0: ad79 0c3f b036 603d aba1 e33e 7eeb 2b3f
000003d0: 9c18 183f d88d c53e 0151 7f3f 2156 943e
000003e0: 7370 333f bea4 563e bd38 023f c2e8 533e
000003f0: 964d f13e 6260 3e3f 9f26 6b3d 67a4 3b3f
0.87716955 0.40453938 0.9198932 0.55941254 0.71695596 0.9706275 0.36448598 0.29506007
0.09212283 0.46061414 0.53271025 0.8104139 0.012016022 0.26568758 0.74098796 0.11081442
0.5006676 0.71428573 0.38050735 0.99465954 0.081441924 0.7623498 0.17222963 0.33244327
0.43658212 0.61815757 0.4152203 0.41255006 0.6902537 0.95727634 0.2576769 0.43658212
0.54339117 0.18024032 0.025367156 0.5487316 0.3564753 0.61548734 0.9813084 0.61815757
0.7222964 0.94125503 0.44192258 0.4259012 0.23097463 0.77837116 0.16688919 0.23364486
0.32176235 0.07076102 0.19626169 0.66088116 0.99465954 0.77036047 0.53004 0.07343124
0.31108144 0.7116155 0.4739653 0.05740988 0.62616825 0.88518023 0.8531375 0.044058744
0.6128171 0.69826436 0.22296396 0.21495327 0.5567423 0.9118825 0.85046726 0.4926569
0.6101469 0.9546061 0.3484646 0.5941255 0.8931909 0.07610147 0.3271028 0.80774367
0.08678237 0.8130841 0.9626168 0.8291055 0.081441924 0.3938585 0.6742323 0.129506
0.12683578 0.23097463 0.42857143 0.66889185 0.1989319 0.682243 0.036048066 0.4739653
0.22029373 0.82376504 0.22296396 0.8397864 0.9973298 0.22563417 0.15620828 0.67690253
0.22563417 0.80507344 0.24165554 0.88785046 0.78638184 0.46328437 0.2576769 0.58878505
0.8424566 0.5567423 0.27903873 0.6635514 0.06275033 0.73564756 0.90654206 0.88785046
0.23898531 0.46862483 0.24966623 0.506008 0.13217624 0.59946597 0.39118826 0.5033378
0.49799734 0.27903873 0.8104139 0.8558077 0.90654206 0.34579438 0.35113484 0.16688919
0.9599466 0.11348464 0.31909212 0.08678237 0.93324435 0.7516689 0.8210948 0.564753
0.86915886 0.83444595 0.98664886 0.42323098 0.0066755675 0.95727634 0.23898531 0.17757009
0.42056075 0.19359146 0.0894526 0.5914553 0.21228305 0.5674232 0.94926566 0.26568758
0.84779704 0.97596794 0.25500667 0.06542056 0.4152203 0.9786382 0.6528705 0.046728972
0.09746329 0.9118825 0.8317757 0.6288385 0.2283044 0.47129506 0.43925235 0.48197597
0.27369827 0.40186915 0.67957276 0.41789052 0.11615487 0.054739654 0.5540721 0.20427236
0.36448598 0.19092123 0.5834446 0.12416556 0.12416556 0.5460614 0.036048066 0.049399197
0.5914553 0.30040053 0.44993323 0.7543391 0.8611482 0.04138852 0.5140187 0.7943925
0.78905207 0.32443258 0.44726303 0.25233644 0.14018692 0.2763685 0.32176235 0.41255006
0.4552737 0.6021362 0.38851804 0.9012016 0.3965287 0.2176235 0.64218956 0.4445928
0.9279039 0.5113485 0.40453938 0.21495327 0.16154873 0.37783712 0.8371162 0.78638184
0.48731643 0.59679574 0.1989319 0.9092123 0.8798398 0.97596794 0.31375167 0.94392526
0.20694259 0.61548734 0.028037382 0.8451268 0.09479306 0.9546061 0.06275033 0.5460614
0.5487316 0.054739654 0.4445928 0.6715621 0.5941255 0.3858478 0.9973298 0.2897196
0.7009346 0.20961282 0.50867826 0.20694259 0.47129506 0.7436582 0.05740988 0.73297733

test_data f4 [150, 1]
00000000: 1fb4 953e 2857 653f e015 c03e 8522 273f
00000010: 06e6 7b3f d9de 443c c77d d03e 4e0c 4c3f
00000020: ff93 ab3e 5ad8 433f 5c7a 423f 721f 343f
00000030: a642 113f bce7 023f a1c8 693e e166 3f3d
00000040: 2f8e 603f 3867 5a3f 2706 663f c8ce cf3c
00000050: 88df fa3e 8b08 233f b752 063f 7aa7 2e3f
00000060: b4b0 073f e6fb bb3e b06c 0a3f 87c4 253f
00000070: 8d74 773e f318 333e 0444 7d3f 384c 853e
00000080: 26b5 663f ae94 613e 8c23 f83e 1b70 983e
00000090: 2564 673f da2f c43e 298d 0f3e ac28 0d3f
000000a0: c02b 003f 68f5 3a3f af1b 0b3f e9ee b93c
000000b0: e308 3e3e ff93 ab3e 29a8 643f 5543 473f
000000c0: 36aa 863e 2549 123e 95fc 713e dcd1 c23e
000000d0: f75c 303e acf2 e23d 30df 5f3f 2005 153e
000000e0: 0e53 a13d 57e5 453f 8c59 223f 1a1f 193c
000000f0: dd22 c23d d2a7 c93e 5987 443f 904c 203f
00000100: d449 c83e 9bc7 183f 0737 7b3f 0cb1 223e
00000110: d6eb c63e 4ac8 4e3f 47d5 503f 3266 893e
00000120: 086d 253e d056 4a3d 88df fa3e 384c 853e
00000130: 2dec 613f 071c a63e e308 3e3e f025 b53e
00000140: 33d2 5d3f be89 013f 9f0b 163f 1ddc 6c3f
00000150: 4dbb 4c3f d3f8 483e 2706 663f ea3f b93e
00000160: e5aa bc3d 0a2a 793f 6402 3d3f 610f 3f3f
00000170: 0b7b 783f 92ee 1e3f b47a dd3d 1847 703f
00000180: dfc4 403e 85ec 7c3e a1ad 143f 63b1 3d3f
00000190: ba45 043f 68f5 3a3f abd7 0d3f 2af9 633f
000001a0: ba60 593e 0a0f a43c 6a97 393f db80 433e
000001b0: 5836 453f 0136 aa3e cf05 cb3e 0d02 a23e
000001c0: 1297 1e3d 12b2 733f 0000 803f 33d2 5d3f
000001d0: 2f73 8b3d a4bb e73e 67a4 3b3f cc12 cd3d
000001e0: 3b3f 833b 9925 1a3f c48a d23d afe5 e03e
000001f0: 81a8 7f3e 2dec 613f 9067 f53e a4a0 123f
00000200: ca70 4e3e bd38 023f d73c 463e 269a 913e
00000210: 8bd2 f83d bb96 033f 13e8 9d3e 7c49 2d3f
00000220: 60be 3f3f 36c5 5b3f 1554 723f 4240 543f
00000230: bff5 d53e ee83 b63e bc02 d83d f318 333e
00000240: 3115 0a3e 721f 343f 8bd2 f83d 187d 1a3e
00000250: 1e2d 6c3f 8673 263f
0.29238984 0.89586115 0.3751669 0.6528705 0.9839786 0.012016022 0.4072096 0.79706275
0.3351135 0.76502 0.75967956 0.7036048 0.5674232 0.5113485 0.2283044 0.046728972
0.87716955 0.8531375 0.8985314 0.025367156 0.48998666 0.6368491 0.5246996 0.682243
0.53004 0.3671562 0.54072094 0.64753 0.24165554 0.17489986 0.9893191 0.26034713
0.9012016 0.22029373 0.4846462 0.2977303 0.90387183 0.38317758 0.14018692 0.55140185
0.5006676 0.7303071 0.54339117 0.022696929 0.18558078 0.3351135 0.8931909 0.77837116
0.26301736 0.14285715 0.23631509 0.38050735 0.17222963 0.11081442 0.8744993 0.14552736
0.078771695 0.7730307 0.6341789 0.009345794 0.09479306 0.3938585 0.76769024 0.62616825
0.39118826 0.59679574 0.9813084 0.1588785 0.38851804 0.80774367 0.81575435 0.2683578
0.16154873 0.049399197 0.48998666 0.26034713 0.88251 0.32443258 0.18558078 0.35380507
0.86648864 0.506008 0.5861148 0.92523366 0.799733 0.19626169 0.8985314 0.36181575
0.09212283 0.9732977 0.7383177 0.7463284 0.9706275 0.6208278 0.108144194 0.9385848
0.188251 0.246996 0.58077437 0.74098796 0.51668894 0.7303071 0.5540721 0.8905207
0.21228305 0.020026702 0.72496665 0.19092123 0.77036047 0.33244327 0.3965287 0.3164219
0.03871829 0.9519359 1.0 0.86648864 0.06809079 0.45260346 0.73297733 0.10013351
0.0040053404 0.6021362 0.10280374 0.43925235 0.24966623 0.88251 0.47930574 0.5727637
0.20160213 0.50867826 0.19359146 0.28437918 0.12149533 0.5140187 0.3084112 0.67690253
0.74899864 0.85847795 0.9465955 0.8291055 0.41789052 0.3564753 0.105473965 0.17489986
0.13484646 0.7036048 0.12149533 0.15086782 0.92256343 0.65020025

0.weight f4 [100, 1]
00000000: 2b14 7c3e 20d7 ff3d 8050 cebc 7676 1b3f
00000010: fc05 3ebf 0f48 28bd 1b16 2b3f 74bc f8be
00000020: f40a bebe 4f3b 4e3f 8acc 043f df68 c6bd
00000030: bdf7 91be 746c 2e3f 1c9d 98be 4a11 dc3e
00000040: 9d14 5bbf c3ed 8cbe 6bb6 573f 629b 173f
00000050: 39c6 edbe 6877 0ebf f8c9 653e f061 293f
00000060: 8941 8bbe 803f 3e3e a4af 63bf 3c68 033f
00000070: 6d6b 1abe e8e2 3ebe a9bf cb3e b771 3b3f
00000080: 1f5e cabe 328a 7f3f e018 633e 4c53 743f
00000090: 7732 56be a939 4abf 8453 43bf bcdc 1abf
000000a0: 7caf 22bf 0c83 b03e 860a a03d a086 a03e
000000b0: d5cc a33e de14 203f 82d0 0abf 4c24 33bf
000000c0: d0bc 883e cc47 8bbe 2008 25bd de9d dc3d
000000d0: 48bf 49be 0099 4fbd c3e6 19be 08aa 463f
000000e0: 7637 54bf c3d1 653f bf63 6dbf 5c6e a63e
000000f0: b563 69be 515e 45bf f287 723f 6310 febe
00000100: 707b 72be 77e0 6abf 8ea8 313f 6a3f 65be
00000110: 4054 213d e47c 5e3f 64e9 f73e 7812 123f
00000120: 3cc1 f5be b90e 3b3f 90a2 543e 6885 56be
00000130: 684d a3be d10d 0d3f 6594 6ebf 5ba1 773f
00000140: 3dac d0be 23de 9bbe 4a24 5d3f b0d8 fa3e
00000150: 00bb 2fbf a895 fe3e 6986 643f 34b1 853e
00000160: 476f 5cbf 678b 793f 01ce 1ebf e895 aa3e
00000170: eaa7 213f 404d 74bd c829 653f d037 0b3e
00000180: 4bd7 30bf 42fe b4be 5d37 9f3e 80ac 25bf
0.24617068 0.12492204 -0.02518487 0.6072763 -0.7422788 -0.041084345 0.66830605 -0.48581278
-0.37117732 0.8055925 0.518746 -0.09687971 -0.28509322 0.68134236 -0.29807365 0.4298194
-0.8557833 -0.27525148 0.8426272 0.5922147 -0.46440294 -0.5565095 0.22440326 0.66165066
-0.27198437 0.18578911 -0.8893988 0.51330924 -0.15080042 -0.18641245 0.39794663 0.7322039
-0.39524934 0.99820244 0.22177458 0.954396 -0.20917688 -0.7899423 -0.7629931 -0.60493064
-0.6354902 0.3447498 0.07814507 0.3135271 0.31992212 0.6253184 -0.5422441 -0.6997726
0.26706553 -0.27203214 -0.04029095 0.10772298 -0.19701874 -0.05068302 -0.15029435 0.776032
-0.82897127 0.89773196 -0.92730325 0.32506073 -0.22791941 -0.7709704 0.94738686 -0.49621877
-0.236799 -0.91748756 0.6939782 -0.22387472 0.039386988 0.8690932 0.4842025 0.5705943
-0.4799899 0.7306934 0.20765138 -0.20949328 -0.31894994 0.5509921 -0.9319518 0.96730584
-0.40756407 -0.30442914 0.863835 0.48993444 -0.68644714 0.49723554 0.89267594 0.26111758
-0.86107296 0.97478336 -0.62033087 0.33317494 0.6314684 -0.059643984 0.8951688 0.1359551
-0.6907851 -0.35350233 0.31096926 -0.6471634

0.bias f4 [100]
00000000: 122d c83a 10df 02be 200c c7be a120 a9be
00000010: fff5 2e3f 23ec 563f 097f 4abd 27ed e53e
00000020: c9cb 203e 8d4d f53e 9f6c 583b df47 103f
00000030: f503 cc3e e128 8e3b f63d 04bf 1b14 ba3d
00000040: 0526 683f 007a 743e 8883 11bf d387 0e3f
00000050: 11e8 a33e b45a 243f 00f6 67be 0053 3cbf
00000060: 80b2 5ebe e8c8 e4be c57b 2bbe eb7e d7be
00000070: 42bd e83a ba78 ff3e 0cbf 8cbe 24e9 283c
00000080: 6458 4f3f a285 b6be 20a3 76bf 40a3 333f
00000090: f718 c03e fd77 363f 8d6e a1bb 459a c83e
000000a0: 8c89 84bb e4fb 74bf 2012 e139 8974 fe3e
000000b0: e622 fb3e fd8a 00bf 01fa 74b8 da69 3f3f
000000c0: d204 5cbf 69fe 3f3f fa30 71bf b166 f03e
000000d0: c033 52be ecdd 28bf ebae 113f eec3 69bf
000000e0: b3a7 52bf efcc 093f 9d49 40bf 308e eebe
000000f0: cbff b63e dab5 d33b e212 2dbd b433 2b3f
00000100: a09b 2cbf 858c 023f 4a11 51bf 6dcb 8c3e
00000110: 20c6 38bf ce73 6ebf 5c88 20bf be4d 5abf
00000120: 300f 1cbf d645 953e e4d7 c7be 84d4 433f
00000130: 2a89 0dbf 5668 ee3e 2a87 4abf a7d0 16bd
00000140: 323c 7f3f 5b98 00bb a9cb ec3e 7639 33bf
00000150: 23f8 16bf c08b 4ebe 0fce 843e 6d6a 263f
00000160: 10d9 c3bb ccb8 0b3f 810f 82bb 50d2 bbbe
00000170: 5665 30bf e094 f2bd ab4b 55bf c06b 59be
00000180: 6373 4a3f e452 223f b4f7 02be 4225 57bf
0.0015272221 -0.12780404 -0.38876438 -0.33032706 0.6834411 0.83954066 -0.049437556 0.44907495
0.15702738 0.4791073 0.0033023728 0.56359667 0.3984677 0.0043383692 -0.51657045 0.09085866
0.90683013 0.23874664 -0.56841326 0.55676 0.3201299 0.642009 -0.22652435 -0.7356415
-0.2174778 -0.4468453 -0.16746433 -0.42089018 0.0017756599 0.49896795 -0.27489507 0.010309491
0.8099425 -0.3564883 -0.9634266 0.70170975 0.37519047 0.7127684 -0.0049265088 0.39180198
-0.004044717 -0.95696855 0.00042928848 0.49698284 0.49050063 -0.5021208 -5.8406968e-05 0.7477089
-0.85944855 0.74997574 -0.9421536 0.46953347 -0.20527554 -0.65963626 0.5690753 -0.9131459
-0.8228714 0.5382833 -0.75112325 -0.46592855 0.3574203 0.0064608874 -0.042254336 0.6687577
-0.67424965 0.50995666 -0.81667006 0.27498952 -0.72177315 -0.93145454 -0.6270807 -0.85274875
-0.60960674 0.29154843 -0.390319 0.7649615 -0.5528742 0.46563977 -0.79112494 -0.03682008
0.99701226 -0.001962206 0.4624913 -0.70009553 -0.58972377 -0.20170498 0.2593846 0.6500614
-0.0059768036 0.5457885 -0.0039691334 -0.36683893 -0.68904626 -0.11844802 -0.83318585 -0.2123251
0.79082316 0.6340773 -0.12789804 -0.84041226

2.weight f4 [1, 100]
00000000: eaf5 f03d 6e43 3c3d 5810 c63c b1e8 a2bc
00000010: 2db4 e13c cd93 d13d efc0 a93d 3df6 abbd
00000020: 42b8 c53c 794a 9f3d 395c 273e 9826 db3d
00000030: 33b0 5ebd 64f1 693e aee2 1b3d 2f37 be3d
00000040: 395b 79bd d129 453d 53df efbb b568 a3bc
00000050: eaed f93c 0356 5cbd 5b26 c1bd b8a9 c3bc
00000060: df2a 0c3d 9eec 4a3d 2512 ae3d 424e 933d
00000070: 94d3 f83c 9834 26bd 4619 113d d1ce 3f3e
00000080: 99ed b93d 8478 4d3d 1055 33bd 5e86 0a3d
00000090: 045a 4bbd 0148 9bbb f578 8f3e b2a5 16bd
000000a0: 9765 9d3e cc55 b0bc bb6d bf3d 83b6 d53c
000000b0: d8a7 bb3c 95b8 8dbb d285 033e 0161 29bc
000000c0: b410 f2bc 22e4 9fbc 2360 b33d 6b65 8f3d
000000d0: 1a10 5bbd 6ab6 79bd 4487 8ebc bb27 b43d
000000e0: 648c 993c 99b6 03bd 8d38 92bd 5ab8 1bbd
000000f0: 2f47 c13c 81ff 343e c05e 5a3e 6994 ce3c
00000100: 582b 9cbd 4c64 09bd 4381 26bd 39db ac3c
00000110: 6b61 a8bd 18df c3bc c0b4 ee3a 94ba aebc
00000120: 0d08 b6bd c9b8 32bd 9869 14bc d65a 833d
00000130: f20b 1f3d c637 ad3d eedc f23c 81f0 1f3e
00000140: 840a 54bd 0b5e ed3d 10e0 cdbc 8866 cb3c
00000150: b7dc acbd b7db 0ebd 0995 963c 4d13 85bd
00000160: c6ad 9f3e fa16 20bd d9cb 883e 5596 823d
00000170: 5f39 b63d 603b 22bb bfd0 23b9 b93c cb3d
00000180: 23bb e23c 9f19 34bd 4e61 1cbd 9815 6a3c
0.117656544 0.045962743 0.024177715 -0.019886347 0.027551735 0.10233269 0.08288752 -0.083965756
0.024135713 0.077778764 0.16343774 0.107007205 -0.054367255 0.2284599 0.038057975 0.09287869
-0.060878012 0.048135582 -0.0073203235 -0.01994739 0.030508954 -0.053792965 -0.09431144 -0.02388464
0.034220573 0.049542062 0.084995545 0.07192661 0.030374326 -0.0405775 0.035424493 0.18731238
0.09078521 0.05016376 -0.043782294 0.03381955 -0.049646392 -0.004738808 0.2802197 -0.036779113
0.3074157 -0.021525286 0.09347101 0.026088005 0.022907183 -0.0043249824 0.12844017 -0.010338069
-0.02954898 -0.019517962 0.08758571 0.07001766 -0.053482153 -0.06096498 -0.017398484 0.087966405
0.018743701 -0.03215656 -0.071396925 -0.03801761 0.023593513 0.17675592 0.21325207 0.025217252
-0.07625455 -0.033542916 -0.040650617 0.021100627 -0.08221706 -0.02391009 0.0018211827 -0.021329202
-0.08888254 -0.043633256 -0.009058379 0.0641381 0.03882975 0.084579036 0.029646363 0.15619089
-0.05176784 0.11590203 -0.025131255 0.024829164 -0.084405355 -0.034877505 0.018381612 -0.06497822
0.31187266 -0.039084412 0.26718023 0.0637633 0.088976614 -0.0024754629 -0.00015622655 0.09923691
0.027677124 -0.043969747 -0.038178734 0.014287375
